models/dqn_step_19000.pt (torch, 413509 bytes, 24 tensors)

network.0.weight f4 [128, 64]
000000 cc b8 c3 3d 66 7b d4 3d 20 e5 ef bc 1c 2a eb 3d
       0.095567316 0.10375099 -0.02928406 0.11482641
000010 b0 5c e0 bc 38 a2 ce 3c 10 45 79 bd 28 58 96 3d
       -0.027387947 0.025223836 -0.06085688 0.07341033
000020 cc ac e1 3d 0e cf bb bd a4 83 de 3d b0 a6 bf 3c
       0.110192865 -0.09170352 0.10864952 0.023394912
000030 94 22 bd 3d 50 ae 8a 3c 5c e1 76 3d 60 94 90 bc
       0.09235111 0.016928822 0.060273513 -0.017648876
000040 c6 58 c5 3d 38 5b 97 3c a4 05 6f bd 08 82 02 3d
       0.09636073 0.018476114 -0.05835499 0.03186229
000050 ac e5 6b bd c0 2c 70 bc fc f3 4f bd ae d2 a9 3d
       -0.05759208 -0.014659107 -0.05076979 0.08292137
000060 2a 14 ca bd 8c 09 6c bd 6c 93 10 bd fe ec 99 bd
       -0.09867127 -0.057626292 -0.035296842 -0.07515906
000070 f0 4b 41 3c 8a d8 fc bd 28 32 e7 3d c0 76 d9 bd
       0.01179789 -0.12345989 0.112888634 -0.10618353
000080 96 a3 c5 3d c8 69 aa 3c ac 3f 26 bd f8 31 9e 3d
       0.09650342 0.020802394 -0.040588066 0.077243745
000090 58 97 9f 3c b0 d6 ce 3d 00 e3 5f 3c 98 78 21 bd
       0.019481346 0.10099542 0.013664961 -0.039421648
0000a0 e8 90 09 3d 08 d8 0a bd a4 7a 57 3d fe 8f e4 3d
       0.03358546 -0.03389743 0.052607194 0.11160277
0000b0 b6 fb 93 3d 14 d5 5f bd 9e c7 93 3d 70 38 b7 3c
       0.072257444 -0.054646567 0.07215808 0.022365779
0000c0 7a 01 82 3d 86 08 9c bd a4 6a fd bd 0c d1 45 bd
       0.06347938 -0.07618813 -0.12373856 -0.048295066
0000d0 9c 5b c4 bd d6 0e d2 3d d8 78 13 3d cc 13 54 3d
       -0.095877856 0.10256736 0.036003917 0.051776692
0000e0 fc ec 21 3d 00 82 0e bb 04 59 c8 3d 38 e4 b5 bd
       0.039532647 -0.0021744967 0.097826034 -0.0888142
0000f0 20 f3 00 3c f4 ba ae bd 50 e0 1d 3d e0 52 30 bd
       0.0078704655 -0.08531752 0.038544 -0.043047786
000100 98 e2 1c 3d 78 57 d5 bc 06 53 d4 3d 50 bb 97 bd
       0.038302034 -0.026042685 0.10367398 -0.07408774
000110 8a ad 98 bd e6 af 98 bd e2 41 e6 3d e4 9f 2a 3d
       -0.07454975 -0.07455425 0.11243035 0.04165639
000120 10 56 f6 3d 4e 45 d3 bd 98 eb fd bd fe 48 c8 bd
       0.12028134 -0.10315953 -0.123984516 -0.09779547
000130 5a 35 ac bd 6c 61 4f 3d b8 55 37 3d 76 b7 d4 3d
       -0.084086135 0.050630018 0.044759482 0.10386555
000140 74 34 84 bd aa 84 ae bd f8 d3 87 3d e4 f3 4e bd
       -0.06455317 -0.085213974 0.06632227 -0.05052556
000150 5c 5f 9b 3d f0 fe f2 bc 9a 71 92 3d 60 e7 c6 bd
       0.07586548 -0.02966258 0.07150574 -0.097121
000160 ba 30 81 bd c4 18 1c 3d 38 7b d8 3c f4 89 02 bd
       -0.06308122 0.038109556 0.026425943 -0.031869844
000170 02 98 98 3d fa 07 ae 3d f6 a4 b9 bd 96 ab 88 bd
       0.07450868 0.08497615 -0.09064667 -0.066733524
000180 d2 68 ea 3d f4 c3 2c bd 2c 83 35 bd 48 b4 f7 bd
       0.11445774 -0.042179063 -0.04431455 -0.12094933
000190 84 9a 92 bd 88 cc ff 3c 38 29 87 bc aa d3 b9 bd
       -0.07158378 0.031225458 -0.016499147 -0.09073575
0001a0 40 28 40 3b 6e de ae bd 86 30 d9 bd 3a f8 8c bd
       0.0029320866 -0.08538519 -0.10604958 -0.06883283
0001b0 e6 0d e0 bd 44 01 a3 bd 5e e6 ff 3d 70 68 c1 3c
       -0.10940151 -0.07959226 0.12495111 0.02360937
0001c0 1c c7 1d 3d 66 c4 ee bd 54 22 a8 bd 14 6c 2a bd
       0.038519964 -0.11658554 -0.082096726 -0.041606978
0001d0 c0 1f a0 3c 86 42 e1 bd 64 9b 5c bd 58 42 99 bd
       0.01954639 -0.109990165 -0.05385913 -0.07483357
0001e0 00 9e b5 39 50 84 3e bd f0 ea 0d bc 24 79 ad bd
       0.0003464073 -0.0465129 -0.0086619705 -0.08470371
0001f0 98 b7 af bd d2 59 95 bd 9c 41 2f bd 50 0e ca bd
       -0.085799396 -0.072925225 -0.04278718 -0.09866011
000200 74 09 be c0 6b c6 c4 c0 4c b9 a5 be e4 ea 2f 40
       -5.938654 -6.149221 -0.32367933 2.7487116
000210 97 4e 38 40 60 8b a7 bf d1 39 a7 c0 22 90 d5 3e
       2.8797967 -1.3089409 -5.2258077 0.41711527
000220 89 f6 0c c0 26 31 14 bf 3f 45 85 3f 1f d4 27 3f
       -2.2025473 -0.57887495 1.0411757 0.65558046
000230 81 d9 40 3e 26 e1 25 bf 1f fe 9a 40 ee 11 0b 3f
       0.18832971 -0.64796674 4.8435206 0.54324234
000240 8f d9 fe be 35 3b 26 be 68 d1 25 bf 76 20 08 40
       -0.4977536 -0.16233523 -0.64772654 2.1269813
000250 8b b2 0c c0 e8 e3 b1 bf 72 e9 35 3f 90 2e 71 40
       -2.1983974 -1.3897676 0.71059334 3.768467
000260 cc ca ee 3e 7c f8 8f be 25 c4 60 3f b9 33 c3 bf
       0.46639097 -0.28119266 0.8779929 -1.525016
000270 d9 02 00 3f 86 fe 6f be 43 03 26 c0 64 80 aa 3f
       0.50004345 -0.23436937 -2.593949 1.3320432
000280 6c f9 57 bf 62 2b 82 3f ca 3d ab bc e9 c3 e1 bf
       -0.8436496 1.0169489 -0.020903487 -1.7637912
000290 b7 39 1e bf 10 ba b0 bf bb 3f a8 3e e0 6c e2 3f
       -0.61806816 -1.3806782 0.32861122 1.7689476
0002a0 e5 87 10 40 77 f9 fe bf b4 4f d1 3e 53 fe 4e 3e
       2.2582943 -1.9919881 0.4088112 0.20214204
0002b0 c7 15 d7 be 6a 98 92 3f e4 8b c0 3e f1 3a 9a 3d
       -0.42008802 1.1452763 0.37606728 0.075307734
0002c0 b0 67 1d 3f 32 ab 9d be f1 3a 6a bd c4 c6 eb bf
       0.6148634 -0.30794674 -0.057185117 -1.8420033
0002d0 01 09 06 bf 7a dd b2 be 70 bd bb 3e 43 4b c4 bf
       -0.5235749 -0.34934598 0.36667967 -1.5335468
0002e0 a1 0b ac 3d 31 d1 b3 3e 34 99 7b bf e9 da fe bf
       0.084006555 0.35120538 -0.98280644 -1.9910556
0002f0 f6 36 80 bd 66 2b 84 bc d0 e4 b4 bc f6 d7 87 bd
       -0.06260483 -0.016133975 -0.022081763 -0.06632988
000300 10 a3 a3 3d 9c 01 dc 3d 20 bf 4a bc 38 45 e5 bc
       0.07990086 0.107424945 -0.012374669 -0.027987108
000310 80 14 ef 3a a0 90 f4 bb 60 2e f6 3c c8 7a 0f 3d
       0.0018240362 -0.0074635297 0.03005141 0.035029203
000320 84 83 e8 bd 84 f2 3c bd cc 95 d7 3d c0 73 47 3d
       -0.113532096 -0.04612972 0.10526618 0.048694372
000330 a0 b9 cb bb 08 58 9a bd 42 9f 9c bd fa 50 e5 bd
       -0.0062171966 -0.07536322 -0.076475635 -0.11197086
000340 8c e4 26 bd 90 e7 2c 3d 2c 3b a3 3d 98 63 6c 3d
       -0.040745303 0.042213023 0.079702705 0.057712168
000350 28 4a e2 bd e4 f2 99 bd b0 9a a1 bc 38 a4 f7 3d
       -0.110493004 -0.07517031 -0.019727081 0.12091869
000360 18 21 94 3c d0 97 04 bd 7c d2 53 3d e8 02 43 bd
       0.018082187 -0.032371342 0.051714405 -0.047610193
000370 8c b2 a5 bd e4 d9 ba 3d ac ce 68 bd 28 47 cd bc
       -0.08090696 0.091235906 -0.056837723 -0.025058344
000380 7e ab fe bd 52 55 ab 3d 58 f4 c1 3d f4 98 3a 3d
       -0.12435053 0.08365883 0.09470433 0.045556024
000390 90 80 b2 bd 18 a8 fc bd f6 ea cf bd 36 e6 be 3d
       -0.087159276 -0.12336749 -0.10152237 0.09321253
0003a0 6c d0 75 3d d6 6c d7 3d 56 1c 86 3d 4c 95 01 3d
       0.06001322 0.10518806 0.065483734 0.03163652
0003b0 80 71 a0 ba 86 b0 c2 bd 6c 55 db bd 02 73 ef bd
       -0.0012240857 -0.095063254 -0.10709652 -0.11691858
0003c0 e4 97 51 3d 28 60 7b bd 28 15 ce bc 50 54 93 bd
       0.051170245 -0.061371 -0.025156572 -0.07193816
0003d0 d0 98 ba bc 86 2e b4 bd 40 46 a7 bd 00 d6 29 3d
       -0.022777945 -0.08797936 -0.08167696 0.041463852
0003e0 20 2a 18 bd 34 0a 9e 3d 0c 41 24 bd 10 cb bb bd
       -0.03714955 0.0771679 -0.040101096 -0.091695905
0003f0 68 ac b4 bc d0 30 78 bd 60 a4 1c bd fc b5 f3 bd
       -0.022054866 -0.060593426 -0.038242698 -0.11899945

network.0.bias f4 [128]
000000 00 c8 30 3a b8 ef a4 bc af e0 8a 3d 00 3f f5 3b
       0.00067436695 -0.020133838 0.06781136 0.007484317
000010 a6 4b b5 bd 0a 94 89 bc da 59 bd bd 30 e1 98 3c
       -0.088523194 -0.016794223 -0.092456535 0.018662065
000020 bc 8a c0 3c 7e 5b f1 bd 80 1d af bd 9c 94 80 bd
       0.023503654 -0.11785029 -0.085505486 -0.06278345
000030 14 06 33 bd 7f 95 07 bd 03 74 28 3d 16 10 ca bd
       -0.04370697 -0.033101555 0.041126262 -0.098663494
000040 a3 99 82 bb da 84 d3 bd fd 0a 98 bb 50 f2 a5 bd
       -0.0039856 -0.10328074 -0.004639982 -0.08102858
000050 66 d7 c3 bd 0d 86 98 3d bc cb f5 3c c8 77 2d bd
       -0.09562568 0.07447443 0.030004375 -0.04235056
000060 3f 1d 45 3d 03 0e c3 bb 6c f2 39 3d a0 55 f0 bb
       0.048123594 -0.005952598 0.045397207 -0.007334426
000070 0b 09 cc bd 68 32 39 bd d2 7d db bd 56 62 68 3c
       -0.09962662 -0.045214087 -0.10717358 0.014183601
000080 e2 36 24 3d 4d bf ce 3d 66 a9 fb bd 94 9d e6 3d
       0.040091403 0.100950815 -0.122881696 0.112605244
000090 13 90 85 bc 5c 9b 0b 3d cc c1 5b bd a8 a4 13 3d
       -0.016304052 0.03408371 -0.053651616 0.0360457
0000a0 7e 82 66 3d e7 f9 53 3d 6a 5d d3 bd a8 a4 9b 3c
       0.05627679 0.051751997 -0.10320552 0.018999413
0000b0 fe e9 93 3c 49 85 10 be f5 48 28 3d ae 43 6f 3c
       0.018055912 -0.14113344 0.041085202 0.014603538
0000c0 ba 94 cd bd d6 c7 db bd a0 19 a7 3b fc 54 cd 3d
       -0.10038133 -0.10731475 0.0050994903 0.10025975
0000d0 3c ad 14 3d e0 fd 8f 3c d0 a9 04 bc 92 5c fe bd
       0.03629802 0.017577112 -0.008097127 -0.1242
0000e0 fe c5 4a 3c 78 de a6 3c f0 96 df bd a0 a2 bc bc
       0.012376307 0.020369753 -0.10917461 -0.023026764
0000f0 46 e1 f8 3d 06 eb 81 bd de c3 af bd 72 af f1 3c
       0.121523425 -0.06343655 -0.085822806 0.029502604
000100 02 ce d9 3c be 91 ab 3d 2e 4e a8 bd 44 03 c4 bb
       0.02658749 0.083774075 -0.082180366 -0.0059818346
000110 d0 83 f6 3c 4a 65 a1 3d e2 14 f3 3c 18 1a c4 3c
       0.03009215 0.078806475 0.029673044 0.023938224
000120 dc 79 ff bc 60 ab b6 bc 32 27 8a bd ab 63 5d 3b
       -0.031186037 -0.022298515 -0.06745757 0.003378133
000130 b4 e9 04 3d 34 22 82 bd 44 f0 ae bd bb f1 8c 3c
       0.03244944 -0.0635418 -0.08541921 0.01720511
000140 28 96 89 3c d4 59 71 bd f8 a9 5d 3d 60 95 d0 bd
       0.016795233 -0.058923557 0.054117173 -0.10184741
000150 50 90 7b bd 2e bc 6f bd dc a2 84 bd db a1 d2 bc
       -0.061416924 -0.05852907 -0.064763755 -0.025711944
000160 67 27 94 3c 4c c7 32 bd 48 f2 8a bc e4 83 85 bd
       0.018085195 -0.043647096 -0.016961232 -0.06519297
000170 aa 53 a8 bd 0c 3b 73 3c 50 c5 bc 3d c6 c6 ad 3d
       -0.08219083 0.014845621 0.09217322 0.08485179
000180 24 cc c7 bd 4d 33 bc 3c ab 5a 9f bd d0 cf 16 bd
       -0.097557336 0.02297368 -0.077809654 -0.03681928
000190 e0 1d 37 bc 8a 0e 62 3d a3 7a 84 3d 54 49 cf bd
       -0.011176556 0.055189647 0.064687036 -0.10121408
0001a0 38 13 de 3c cc 13 e5 3c 4b 30 43 bc af 84 3e bd
       0.027108774 0.027963541 -0.011913369 -0.046513256
0001b0 c8 b2 71 bd ac 9f b4 bd 40 f9 fb bd 83 60 64 bd
       -0.05900839 -0.088195175 -0.123034 -0.055756103
0001c0 88 8b 45 bd 16 d7 b6 3c c0 73 58 bd b6 a3 d4 3d
       -0.04822877 0.022319358 -0.052844763 0.10382788
0001d0 5c 9f b4 bd c4 d6 b3 3d 0d c5 8f bd de 3e a9 bc
       -0.08819458 0.08781198 -0.07020006 -0.02065986
0001e0 a8 c0 3b bd 7c cc 57 3d 4d a4 56 3d a1 41 47 3d
       -0.04583803 0.052685246 0.052402783 0.048646573
0001f0 0c 4e b1 bd b3 15 f7 3c 6a 11 8c 3d f8 12 d2 bd
       -0.086574644 0.030161714 0.06839259 -0.10257524

network.2.weight f4 [128, 128]
000000 e6 55 12 3d cc fc 8b 3c 84 98 a5 3c 0f 9a 9e 3d
       0.03572645 0.017088316 0.020214327 0.07744228
000010 6b ff 49 ba ee e9 76 bd cf 2c 23 bd d8 04 3b 3c
       -0.0007705602 -0.060281686 -0.039837655 0.011414729
000020 a8 f2 5e bc cd a5 81 bd 00 92 21 3b 5a 4d 4f 3d
       -0.013607658 -0.06330452 0.0024653673 0.050610878
000030 40 0a 40 3b 58 d8 60 3d cb 59 59 bd 2b f7 8d 3d
       0.0029302984 0.05489382 -0.05306415 0.06931909
000040 34 8d 06 3b fd e6 0d bd b6 73 ce 3c c1 ef 26 3d
       0.002053094 -0.034644116 0.02520166 0.04075599
000050 95 3a 1b bd 82 40 68 bd 4e 7b 08 3d 5e 87 9f bd
       -0.037897665 -0.056702144 0.033320718 -0.07789491
000060 d8 0d ba 3c df 4a 67 3c da c8 76 bd 08 89 32 bc
       0.02271168 0.014116972 -0.06025014 -0.010896929
000070 a9 2e 0f 3c 56 d7 7b 3d ed 5f 84 3d 4c f5 ba bd
       0.008739152 0.061484657 0.06463609 -0.09128818
000080 95 79 b8 bd 1e 2f 3a 3d c1 97 b2 3d 29 bc 92 3d
       -0.09007565 0.04545509 0.08720351 0.07164795
000090 59 b9 91 3c 31 a3 ab 3d a4 35 26 bd 3b 72 20 bc
       0.017788576 0.08380736 -0.0405785 -0.00979286
0000a0 c5 9c 99 bd 18 6e b3 bd 0c d7 74 bd 0a 35 a4 bd
       -0.075006045 -0.08761233 -0.059775397 -0.08017929
0000b0 1f 64 35 3c 3e 1f 90 3c 0c 78 67 3c 8c dc 26 3d
       0.011071234 0.017593022 0.0141277425 0.040737674
0000c0 68 2f 90 bd fc fa d0 bc cd 70 8e 3d 29 33 a0 bd
       -0.07040292 -0.025510304 0.06955109 -0.07822258
0000d0 76 74 7e 3d fc f9 de 3c 1e f5 92 bd ac 36 9c 3c
       0.062122785 0.027218811 -0.07175659 0.019069038
0000e0 3b c5 01 bd a1 64 40 bc f9 1a 10 bd 46 e2 23 3d
       -0.031682234 -0.011742742 -0.035181973 0.040010713
0000f0 37 c8 8c 3d ea e4 4a 3d 78 fd 0a bc 98 e6 b6 bd
       0.068741255 0.049534716 -0.008483283 -0.08930701
000100 55 5f 7b 3d 95 4f 0b bc f1 6a 93 3d 8a aa b7 3c
       0.061370213 -0.008502861 0.07198132 0.022420187
000110 00 73 be 3a f4 e5 f4 3c 3e 35 1b 3d 33 b7 ce 39
       0.0014530122 0.029894806 0.037892573 0.00039427876
000120 d6 39 8c 3b a0 29 6b bb ca 10 78 3d 8f db c9 3c
       0.0042793555 -0.0035882965 0.060562886 0.024640827
000130 f7 79 25 bd 09 b1 a8 3d e3 75 ad 3d db 62 72 3d
       -0.040399518 0.08236892 0.08469751 0.059176307
000140 44 bd 81 3c 10 25 b1 3b db 01 a8 bd 6b f6 83 3d
       0.01583732 0.0054060295 -0.08203479 0.06443485
000150 51 10 82 bd 00 5e aa bd 5f 85 5d 3c fb 40 f2 bd
       -0.06350768 -0.0831871 0.013520568 -0.118288
000160 e5 1a 16 3b fa 5c 2e bd fb ed 2e ba 3c 7b 0b bd
       0.0022904214 -0.042569138 -0.0006673035 -0.034053072
000170 a5 60 92 3d 04 37 ae bd 08 04 85 3c ff 05 04 bc
       0.0714734 -0.08506587 0.016237274 -0.00805807
000180 13 3f ac bd d8 25 5c 3d 8b 26 02 bc 8b f9 d1 bd
       -0.08410468 0.053747028 -0.00794376 -0.10252675
000190 cf 1a b5 bd 88 56 33 3c 9f f7 81 3d d4 00 a5 bc
       -0.08843004 0.010945924 0.06346058 -0.020141996
0001a0 1a e7 d5 bc 2a 1a b6 bd 6c 59 3d 3d aa df 23 bd
       -0.026111174 -0.08891709 0.046227857 -0.040008225
0001b0 14 68 26 bd 48 c1 09 3d f7 4f 9e 3d e8 d5 e4 3c
       -0.0406266 0.033631593 0.07730096 0.02793403
0001c0 c0 d7 d0 3c 25 07 9b 3d 00 5e 76 3b f8 05 60 3c
       0.025493503 0.07569722 0.003759265 0.013673298
0001d0 c0 9f d3 bb b5 ea 8c bd 33 f1 8f bc 55 af 7b bd
       -0.0064582527 -0.06880704 -0.017571067 -0.061446507
0001e0 2a 83 51 3d b3 b9 79 bd 96 c3 c6 bd a6 fa f2 bc
       0.05115048 -0.060968112 -0.09705274 -0.029660534
0001f0 23 79 86 3d 9c bb a5 bd 6a eb 2c bd 30 eb dd bb
       0.06566074 -0.08092424 -0.042216696 -0.0067724213
000200 22 54 1e bd 9e 08 2b 3d af 1f 9e 3d 12 f4 43 3d
       -0.038654454 0.041756265 0.07720887 0.047840185
000210 e4 b3 98 bc 70 1f 8e bd 7e 75 95 bd 14 63 ad bc
       -0.018640466 -0.0693959 -0.072978005 -0.021165408
000220 62 1a e4 bc 40 48 89 bd d8 10 b3 3c 0b 2f 09 bd
       -0.027844612 -0.06703234 0.021858618 -0.03349213
000230 d0 fa d1 3c 58 40 40 bd 90 7c 02 bc d2 e8 d9 bc
       0.025632292 -0.046936363 -0.007964268 -0.026600275
000240 a2 61 5e 3d 32 35 a5 bd a7 c3 0e bd a0 a0 9a 3c
       0.05429233 -0.08066787 -0.034854557 0.01887542
000250 14 ff cb bc 80 45 c6 ba 4e af 74 3d 70 4e 4f 3c
       -0.024901904 -0.0015126914 0.059737496 0.012652978
000260 60 85 32 3c 54 89 d3 3c 32 c8 42 bd 41 96 10 bd
       0.010896057 0.02582232 -0.047554202 -0.035299543
000270 4a 6c 2d 3d 78 ee 51 3c aa 2b 6c 3d 78 e3 38 bc
       0.0423396 0.012813203 0.05765883 -0.0112847015
000280 f7 0c aa 3d 86 35 58 3d 48 d8 ca bc 34 05 39 bd
       0.08303254 0.05278542 -0.024761334 -0.045170978
000290 78 38 92 3c e8 02 97 bd 00 cd 25 bd 2c d2 dd 3c
       0.017849192 -0.07373601 -0.040478706 0.027077757
0002a0 10 9e fc 3b c2 d7 23 3d 40 6f 17 bd 39 56 98 3d
       0.007709272 0.040000685 -0.03697133 0.07438321
0002b0 e4 15 47 bd 38 82 39 bd da 37 72 3d f8 b2 8b bc
       -0.04860486 -0.045290202 0.059135295 -0.017053112
0002c0 f4 23 cf 3c 08 a1 80 bc ca 05 80 bd 20 b7 67 bb
       0.025285698 -0.015701786 -0.06251104 -0.0035356954
0002d0 ae 3f 24 3d d6 fd 73 3d f9 15 8a 3d 20 fb 4b bb
       0.040099792 0.05956825 0.06742472 -0.0031125024
0002e0 b1 1c 83 3d 6c 40 cc 3c a0 5d 56 3b 00 de da 3a
       0.06401957 0.024933062 0.0032709613 0.0016698241
0002f0 90 2e 0a bc 98 c9 ce 3c a0 a1 95 bb 72 d4 68 3d
       -0.008433953 0.025242612 -0.0045663863 0.05684323
000300 00 92 5c bc be 0a 49 bd 24 6d d2 3c f6 dc 4a bd
       -0.0134625435 -0.04908251 0.025686808 -0.04952713
000310 66 d5 60 3d 1d d7 93 3d 28 7a 68 3c 5c 40 91 bc
       0.054891013 0.07218764 0.014189281 -0.017730884
000320 b0 c9 82 bb 3e 8e 29 3d a4 48 8a bd 28 d1 c1 bc
       -0.003991328 0.04139542 -0.06752136 -0.023659304
000330 94 93 5c bd 51 bb a3 bd 12 85 81 bd c5 9d 68 bd
       -0.05385168 -0.07994712 -0.06324209 -0.056791086
000340 e1 d4 89 3d ba 49 5d 3d 7e c8 75 bd 36 da 8e bd
       0.067300566 0.05402539 -0.060005657 -0.06975214
000350 07 1c a2 3d dc de ab 3c f6 b7 26 3d 08 27 62 3c
       0.07915502 0.020980291 0.040702783 0.013803251
000360 50 46 07 bd 16 98 43 bd ea c8 42 3d 0f d2 b2 bd
       -0.03302604 -0.047752462 0.047554888 -0.08731472
000370 3f a1 96 bd 58 a8 da 3c 64 e2 bd bc d0 80 8a 3c
       -0.07354974 0.0266916 -0.02317924 0.016907126
000380 72 17 41 3d 4e 0d 50 bd a7 cb 4b bd ea ac 5e bd
       0.0471415 -0.05079394 -0.049754765 -0.054364122
000390 2d 62 9e bd 20 0d c4 bb 2d b7 99 3d 60 06 b1 bb
       -0.07733569 -0.00598301 0.07505641 -0.0054023713
0003a0 5e 8d 46 3d 78 0c 34 bd 20 af 0f 3c 41 ed 87 bd
       0.048474662 -0.043957204 0.00876978 -0.066370495
0003b0 00 73 bf bb f8 e5 9e 3c 63 e7 1a bd 3b 32 a6 3d
       -0.0058425665 0.019396767 -0.037818324 0.081150495
0003c0 1c 6f cc 3c f2 15 35 3d b7 27 b4 3d 4e 78 19 3d
       0.024955325 0.04421038 0.087966375 0.037468247
0003d0 90 8a e3 bb c2 e8 2c 3d 27 62 b2 3d 2e 46 ae bd
       -0.006944008 0.042214163 0.08710127 -0.085094795
0003e0 0c 84 88 bc b6 ce 2f 3d 84 7f af bc f4 45 93 bd
       -0.016664527 0.042921744 -0.021423109 -0.07191077
0003f0 f5 2a 52 bd b1 2b 3c bd 8e 18 16 3d ba 7e 66 3d
       -0.0513105 -0.045940105 0.03664451 0.0562732

network.2.bias f4 [128]
000000 2c a4 d2 bb a3 c2 a3 bd 52 67 c9 3c 68 12 f3 bb
       -0.006428262 -0.079961084 0.0245854 -0.0074179657
000010 36 44 88 3d 4e 86 78 bd 8c 46 74 bd 86 61 3b 3d
       0.06653635 -0.060674958 -0.05963759 0.045747302
000020 99 00 f3 bb 68 0b b9 3d e4 8f a2 bd fa 43 14 bd
       -0.0074158427 0.09035379 -0.07937601 -0.03619764
000030 ad 13 5d bd 71 7a 65 bd af 46 95 3c e4 d0 4e bc
       -0.053973842 -0.056024972 0.018222181 -0.012623046
000040 74 aa d0 bc 7a 62 a6 3c 1a 5c ef bc 3e 32 8d bb
       -0.025471903 0.02031063 -0.029218722 -0.004308968
000050 97 bd 99 bd 2b b9 0c bd 2e 96 79 3c c3 db af 3c
       -0.075068645 -0.034356277 0.0152335595 0.021467095
000060 5d 03 31 3d 6c 2c 24 bd ef 5b 98 bd f0 02 d4 3c
       0.043216098 -0.040081427 -0.0743941 0.025880307
000070 cf 98 87 3d 91 56 8e bc 45 82 50 3d 48 03 b4 3d
       0.06620943 -0.017375262 0.050905485 0.08789688
000080 66 db 98 bd 4e 22 39 3d 4a eb 43 bd d2 fe e4 bc
       -0.07463722 0.04519873 -0.04783181 -0.027953539
000090 ca 7e 24 3d 62 fb 9d bc f1 ea 4e bc 45 2e 7c 3d
       0.040159978 -0.019284908 -0.012629257 0.061567564
0000a0 d9 74 3c 3d 14 c3 9c bc f3 07 7e 3c 48 b8 18 bd
       0.046009872 -0.01913599 0.015504825 -0.03728512
0000b0 18 08 b8 bc 65 18 67 bc 5d c0 5e bd 67 e9 0e bd
       -0.022464797 -0.014104937 -0.05438267 -0.03489056
0000c0 94 78 c4 bc 48 41 18 bd 5f 1a 16 3d a9 2d 25 bd
       -0.023983277 -0.037171632 0.036646243 -0.040326748
0000d0 59 83 42 3d 9a 69 93 3d a5 f7 52 3d 5a 1a fe 3c
       0.047488544 0.07197876 0.051505703 0.031018425
0000e0 14 b8 8b bd f2 6b 11 bc 5a 41 16 3d 4c 4b 05 bd
       -0.068222195 -0.008875834 0.036683418 -0.03254251
0000f0 fb 31 6e bd 34 bd 71 3d b0 ac f9 bc a0 9b 66 bd
       -0.058153134 0.05901833 -0.030477852 -0.05630076
000100 d4 45 24 3d 31 f8 d8 3c fe 69 fd bb 6d 2c a7 bd
       0.040105656 0.026485534 -0.0077335825 -0.081627704
000110 4b d6 78 bc e5 df 65 3d 19 06 81 bb 03 6f b2 3d
       -0.01518781 0.056121726 -0.0039374945 0.0871258
000120 b0 89 ad bc 5d 70 93 bb 2a b3 a6 bb 40 6d 56 bc
       -0.021183819 -0.0044994787 -0.005087276 -0.013087571
000130 d7 b2 a6 3c dd ab 66 bc 2d e3 93 bb 5f 60 ba 3d
       0.02034895 -0.014079061 -0.0045131654 0.091004126
000140 37 38 dc 3c 42 38 85 39 1e 6a a4 bd ca 0a ba 3c
       0.026882274 0.00025409652 -0.08028053 0.022710223
000150 8b ee e6 3c 43 6e af 3d 9f 5d 60 bd 94 e8 e3 3c
       0.028189918 0.08565953 -0.054776784 0.027820863
000160 6b f9 a2 3d f9 1f c5 bc cf f7 b3 bd f9 f5 62 3d
       0.07957729 -0.024063097 -0.087875 0.05541036
000170 b7 c2 92 bd dc 19 23 3d 5f 85 38 3d d3 f2 2e bb
       -0.07166045 0.039819583 0.045049068 -0.0026695027
000180 dc b3 95 bc 4a 31 88 bc af 90 65 bd 11 b0 67 bd
       -0.01827424 -0.016625065 -0.056046184 -0.056564394
000190 5b 7e 23 bd f6 48 bd 3c 08 a1 72 3d 40 f8 ea bc
       -0.039915424 0.02310608 0.059235603 -0.028682828
0001a0 d4 ae d8 3d 1f b4 10 bc 51 25 df bc bf 35 67 3d
       0.10580221 -0.008832007 -0.027239474 0.05644774
0001b0 f2 50 7c bd f1 75 1d bc 4b 57 84 3d fc 9c 4f 3d
       -0.061600633 -0.009610639 0.06461962 0.05068682
0001c0 20 32 1e bc a5 c9 41 3d 21 17 56 3d 61 69 87 bc
       -0.009655505 0.047311444 0.05226815 -0.01652974
0001d0 05 02 4f 3d 3d 0f a4 3d 48 86 0b bd 3a b3 80 bd
       0.050539035 0.08010719 -0.034063607 -0.06284185
0001e0 d4 b3 0d 3d d8 bc 04 bc f7 7d df 3c 08 ee 63 3d
       0.034595326 -0.0081016645 0.027281744 0.055646926
0001f0 a5 3c 7d 3d e5 16 ff 3c 6f e0 18 3d 98 b4 ec bc
       0.061825413 0.031138847 0.03732341 -0.028894708

network.4.weight f4 [3, 128]
000000 6a d8 29 3d b4 e0 86 bc dd a9 9b 3f 72 e0 ab bd
       0.041466154 -0.016464569 1.2161213 -0.08392419
000010 e2 ae ae 3f 42 33 49 3d 8d cb 84 3d fe 0e a5 3f
       1.364712 0.04912115 0.06484137 1.28952
000020 b2 15 46 bd 3d 65 0a 3f 64 db 50 bd d0 d5 d1 3b
       -0.048360534 0.5406073 -0.050990477 0.0064036623
000030 a0 cc 2b 3b 68 7e 7d bc a9 1d a2 3f e0 19 05 3d
       0.0026214495 -0.015472032 1.2665302 0.03249538
000040 92 7d 71 3d 88 3e a5 3c 89 c2 a2 bd f3 42 29 bd
       0.058957644 0.020171419 -0.07947261 -0.041323613
000050 40 38 20 bc 13 fe 1d bd f3 b3 d6 3f 9d 4f ab 3f
       -0.009779036 -0.038572382 1.6773666 1.3383671
000060 e8 73 8b bc fb 32 83 3d a0 84 d2 bc 19 f6 c9 3e
       -0.017023042 0.06406208 -0.025698006 0.3944557
000070 fd 0f 02 40 12 23 8b bc 0a 73 da bd ce fd b0 bd
       2.0322258 -0.016984496 -0.10666473 -0.086421594
000080 81 96 a3 3d 95 96 a5 3f 03 55 a6 3d e7 af b3 3d
       0.07987691 1.2936579 0.081216834 0.08773785
000090 b3 23 87 3d e1 ea 5b ba 7a 28 62 bb 93 4a ab 3f
       0.06598606 -0.00083891867 -0.003450899 1.3382133
0000a0 11 0d a2 3f fa e1 7c bd 2b bd b3 3f c2 27 02 3d
       1.2660238 -0.061738946 1.4042104 0.031776197
0000b0 39 43 64 bb fd a5 55 3d db 17 21 3c 5a ad 8b 3d
       -0.0034830107 0.052160252 0.009832348 0.068201736
0000c0 29 73 52 bd 72 06 89 bd 74 f3 8f 3f 48 99 66 3d
       -0.051379357 -0.066906825 1.1246171 0.056298524
0000d0 b3 db 96 3f bf 57 f5 3f fa 63 e1 3f d4 0f a2 3f
       1.1785797 1.9167403 1.7608635 1.266108
0000e0 61 dd b0 bd 94 bf 2a 3d 7b 0d a8 3f 51 45 0e 3c
       -0.08635975 0.04168661 1.3129114 0.0086835185
0000f0 95 a9 b0 bd 7f 88 b2 3f 30 d2 40 3c 7d db 8b 3d
       -0.08626095 1.3947905 0.011768863 0.068289734
000100 76 c8 ac 3f 4f 8f 05 3e c8 3a 9b 3d 44 b0 aa bd
       1.3498676 0.13042949 0.07579571 -0.08334401
000110 15 47 72 bb 87 38 9d 3f 39 30 a2 bd 36 75 62 3f
       -0.0036968638 1.2282876 -0.07919354 0.884601
000120 53 92 a1 3d 9d 2c fd bc ef 2e 83 bd 38 6e 90 3c
       0.07889237 -0.030905062 -0.06405436 0.017630681
000130 6f d7 e8 3e 88 a9 8f 3c 18 cf 39 bd cb fd 20 3f
       0.45476863 0.017536893 -0.045363516 0.6288726
000140 75 8c a4 3e 8c cd 3c 3d bd 3e a5 3d 21 1c a2 3e
       0.3213841 0.046094462 0.08068607 0.31662086
000150 11 5c 8a 3e 66 15 62 3f e1 c7 a4 3d e3 9f 97 3e
       0.27023366 0.883139 0.080459364 0.2961417
000160 b3 ee 81 be 38 a3 98 bc 20 90 85 bd a8 51 97 3f
       -0.25377426 -0.018632516 -0.0652163 1.1821795
000170 c0 c1 b8 bb 37 dc c8 3f fc 13 3a 3e e4 88 1a be
       -0.005638331 1.5692204 0.18171686 -0.15091282
000180 66 29 3c 3d 2d 7a c6 3c 00 c5 f7 3c 7c 56 17 bd
       0.045937918 0.02422818 0.030245304 -0.036947712
000190 ee 14 21 3d 7f 28 a0 3f 92 1b a7 3f ac 34 c7 3c
       0.0393266 1.2512358 1.3055289 0.024317108
0001a0 9e 22 8e 3e a7 91 29 3d 03 a2 aa 3d f3 d1 91 3f
       0.27760786 0.04139867 0.083316825 1.1392196
0001b0 78 63 9d 3c 27 2e 40 bd e3 25 9b 3f 33 d9 9d 3f
       0.01921247 -0.046919014 1.2120937 1.2331909
0001c0 5a 40 74 3d 93 5e 05 40 5e f3 01 40 40 02 9c bb
       0.059631683 2.0838974 2.030479 -0.0047610104
0001d0 df a4 8b 3f 48 bf 42 3f 40 d7 ef bb 04 33 cb 3c
       1.090969 0.7607312 -0.007319361 0.0248046
0001e0 29 83 97 3f e3 98 18 bd 9a 54 cf 3f 99 29 f8 3f
       1.1836902 -0.03725518 1.6197693 1.9387695
0001f0 bb f5 a4 3f a5 30 aa 3f 5d 31 ba 3d 24 9c c5 3c
       1.2887491 1.3296095 0.090914465 0.024122305
000200 98 3c da 3a be 18 fe bc 83 75 bd 3f 47 72 46 bd
       0.0016650138 -0.031017657 1.4801487 -0.048448827
000210 5b df 08 3f 01 88 ac bd d0 93 6c 3c e9 3f 16 3f
       0.53465813 -0.08424378 0.014439538 0.5869127
000220 0e cc ea bc 6c 74 c9 3f 12 77 7c bd af 98 b1 bd
       -0.028661754 1.5738654 -0.06163699 -0.086717
000230 b2 ec 1e 3d fe 46 2b 3d 58 64 e3 3f 2f b7 5e bd
       0.03879995 0.04181575 1.7764997 -0.054373916
000240 1b df 99 3d f0 ea 53 3f c5 db ae 3d 2a d2 10 3d
       0.07513257 0.8278036 0.085380115 0.035356678
000250 45 0b 9a 3d 48 9f 00 bd 4e 68 8a 3f e7 96 9a 3f
       0.07521681 -0.031401902 1.0813081 1.2077302
000260 d2 16 8b 3f 40 ab 83 bd 20 73 c3 bc d3 bc 49 3f
       1.0866339 -0.06429148 -0.023858607 0.7880375
000270 ba 51 a0 3f d2 a2 38 3d cb 49 82 3f 6d b6 8e bf
       1.2524941 0.045077153 1.017877 -1.1149422
000280 52 6e 70 3d 4b 4d 81 bd 43 ec e3 3c 8c 88 2d bd
       0.05869896 -0.063135706 0.02782262 -0.04236655
000290 26 c0 9a 3f 20 24 9f bd c6 aa 79 bd 3c b0 bb 3f
       1.2089889 -0.07770562 -0.060953878 1.4663157
0002a0 a8 57 42 3f 38 d2 ab 3c c8 07 a8 3f 3a c2 a6 bc
       0.75915 0.020974264 1.3127375 -0.020356286
0002b0 80 3c 53 3d 2a 31 86 3d 3f c6 d8 3c ec 34 85 3b
       0.05157137 0.06552346 0.026461719 0.0040651467
0002c0 91 48 5d bd b7 93 87 3d ad 25 a2 3f 0c e9 85 bb
       -0.054024283 0.06619971 1.2667748 -0.0040866192
0002d0 82 e2 f2 3e 83 df b1 3f 9a 29 9b 3f 6e 8c bf 3f
       0.47438437 1.3896335 1.2122071 1.4964731
0002e0 30 9c 4b 3c f7 67 39 bb 77 7c f8 3f b6 54 93 bd
       0.012427375 -0.0028290728 1.9412984 -0.07193892
0002f0 d3 8c 0e bd fc 94 be 3f a2 39 f8 bc e7 ad 42 bd
       -0.03480227 1.4889216 -0.030300919 -0.047529127
000300 8b 16 56 3f f5 21 ac bf fe a3 47 bd 23 da 29 bd
       0.8362815 -1.3447863 -0.04874038 -0.041467797
000310 d4 9a 84 3d 66 0d 9e 3f e0 dd 06 3d ef 0d cb 3f
       0.064748436 1.2347839 0.03292644 1.5863627
000320 2a 99 6e 3d 87 44 cb bc 9c a4 3e bb 1f e0 5b bc
       0.058251537 -0.02481295 -0.0029089814 -0.013420134
000330 6f 20 4e 3f 51 8f c2 bc b8 bb c1 3c 4e 3f dc 3f
       0.8051824 -0.02374998 0.023649082 1.7206819
000340 20 43 80 3f dd 6d 2a bb c0 2f 99 3c 50 42 5e 3f
       1.0020485 -0.0026005425 0.018699527 0.86819935
000350 16 5b 7e 3f b3 af d9 3f 08 37 4d bc b3 6a 59 3f
       0.99357736 1.7006744 -0.0125253275 0.84928435
000360 b0 9f 86 bf d5 1d 0e 3d 80 e5 bd bb 3b bb 9d 3f
       -1.0517483 0.03469642 -0.005795181 1.2322763
000370 b3 f7 3b bd 30 dd 2c 3f 43 90 8d bf 4f b8 3f bd
       -0.04589052 0.67525005 -1.105965 -0.04680663
000380 76 30 20 3d 01 f5 b3 bc 5c a8 a1 bc bc a9 80 3c
       0.039108716 -0.021967413 -0.0197336 0.015705936
000390 83 69 88 bd f9 54 92 3f 0b 00 99 3f 70 e1 28 bd
       -0.0666075 1.1432182 1.1953138 -0.04123062
0003a0 55 07 eb 3f 1b 2e fa 3b e0 a4 2a bd a6 88 6a 3f
       1.8361613 0.0076348907 -0.041661143 0.9161476
0003b0 69 b6 31 bd 08 48 bc 3c 4c 52 be 3f 7c f1 9e 3f
       -0.04338685 0.022983566 1.4868865 1.2417445
0003c0 30 39 7f bc ec 0b 6b 3f f0 5a 87 3f 22 88 59 bb
       -0.015577599 0.91815066 1.0574627 -0.0033192714
0003d0 de 92 4d 3f 75 b2 c6 3f b6 ee 7b 3d 7c a6 cd 3c
       0.80302227 1.5523211 0.06150695 0.0251038
0003e0 32 c1 cd 3f 8c 2d c9 bc d6 ba 90 3f 1f cb a3 3f
       1.6074584 -0.024557851 1.1307018 1.2796363
0003f0 c7 b4 50 3f af 7d 3f 3e 04 84 91 3f ee dc 79 3d
       0.81525844 0.18700288 1.1368413 0.06100171

network.4.bias f4 [3]
000000 a6 f4 47 be 86 fa 52 bd 79 72 35 be
       -0.1952692 -0.05150845 -0.17719449

network.0.weight f4 [128, 64]
000000 cc b8 c3 3d 66 7b d4 3d 20 e5 ef bc 1c 2a eb 3d
       0.095567316 0.10375099 -0.02928406 0.11482641
000010 b0 5c e0 bc 38 a2 ce 3c 10 45 79 bd 28 58 96 3d
       -0.027387947 0.025223836 -0.06085688 0.07341033
000020 cc ac e1 3d 0e cf bb bd a4 83 de 3d b0 a6 bf 3c
       0.110192865 -0.09170352 0.10864952 0.023394912
000030 94 22 bd 3d 50 ae 8a 3c 5c e1 76 3d 60 94 90 bc
       0.09235111 0.016928822 0.060273513 -0.017648876
000040 c6 58 c5 3d 38 5b 97 3c a4 05 6f bd 08 82 02 3d
       0.09636073 0.018476114 -0.05835499 0.03186229
000050 ac e5 6b bd c0 2c 70 bc fc f3 4f bd ae d2 a9 3d
       -0.05759208 -0.014659107 -0.05076979 0.08292137
000060 2a 14 ca bd 8c 09 6c bd 6c 93 10 bd fe ec 99 bd
       -0.09867127 -0.057626292 -0.035296842 -0.07515906
000070 f0 4b 41 3c 8a d8 fc bd 28 32 e7 3d c0 76 d9 bd
       0.01179789 -0.12345989 0.112888634 -0.10618353
000080 96 a3 c5 3d c8 69 aa 3c ac 3f 26 bd f8 31 9e 3d
       0.09650342 0.020802394 -0.040588066 0.077243745
000090 58 97 9f 3c b0 d6 ce 3d 00 e3 5f 3c 98 78 21 bd
       0.019481346 0.10099542 0.013664961 -0.039421648
0000a0 e8 90 09 3d 08 d8 0a bd a4 7a 57 3d fe 8f e4 3d
       0.03358546 -0.03389743 0.052607194 0.11160277
0000b0 b6 fb 93 3d 14 d5 5f bd 9e c7 93 3d 70 38 b7 3c
       0.072257444 -0.054646567 0.07215808 0.022365779
0000c0 7a 01 82 3d 86 08 9c bd a4 6a fd bd 0c d1 45 bd
       0.06347938 -0.07618813 -0.12373856 -0.048295066
0000d0 9c 5b c4 bd d6 0e d2 3d d8 78 13 3d cc 13 54 3d
       -0.095877856 0.10256736 0.036003917 0.051776692
0000e0 fc ec 21 3d 00 82 0e bb 04 59 c8 3d 38 e4 b5 bd
       0.039532647 -0.0021744967 0.097826034 -0.0888142
0000f0 20 f3 00 3c f4 ba ae bd 50 e0 1d 3d e0 52 30 bd
       0.0078704655 -0.08531752 0.038544 -0.043047786
000100 98 e2 1c 3d 78 57 d5 bc 06 53 d4 3d 50 bb 97 bd
       0.038302034 -0.026042685 0.10367398 -0.07408774
000110 8a ad 98 bd e6 af 98 bd e2 41 e6 3d e4 9f 2a 3d
       -0.07454975 -0.07455425 0.11243035 0.04165639
000120 10 56 f6 3d 4e 45 d3 bd 98 eb fd bd fe 48 c8 bd
       0.12028134 -0.10315953 -0.123984516 -0.09779547
000130 5a 35 ac bd 6c 61 4f 3d b8 55 37 3d 76 b7 d4 3d
       -0.084086135 0.050630018 0.044759482 0.10386555
000140 74 34 84 bd aa 84 ae bd f8 d3 87 3d e4 f3 4e bd
       -0.06455317 -0.085213974 0.06632227 -0.05052556
000150 5c 5f 9b 3d f0 fe f2 bc 9a 71 92 3d 60 e7 c6 bd
       0.07586548 -0.02966258 0.07150574 -0.097121
000160 ba 30 81 bd c4 18 1c 3d 38 7b d8 3c f4 89 02 bd
       -0.06308122 0.038109556 0.026425943 -0.031869844
000170 02 98 98 3d fa 07 ae 3d f6 a4 b9 bd 96 ab 88 bd
       0.07450868 0.08497615 -0.09064667 -0.066733524
000180 d2 68 ea 3d f4 c3 2c bd 2c 83 35 bd 48 b4 f7 bd
       0.11445774 -0.042179063 -0.04431455 -0.12094933
000190 84 9a 92 bd 88 cc ff 3c 38 29 87 bc aa d3 b9 bd
       -0.07158378 0.031225458 -0.016499147 -0.09073575
0001a0 40 28 40 3b 6e de ae bd 86 30 d9 bd 3a f8 8c bd
       0.0029320866 -0.08538519 -0.10604958 -0.06883283
0001b0 e6 0d e0 bd 44 01 a3 bd 5e e6 ff 3d 70 68 c1 3c
       -0.10940151 -0.07959226 0.12495111 0.02360937
0001c0 1c c7 1d 3d 66 c4 ee bd 54 22 a8 bd 14 6c 2a bd
       0.038519964 -0.11658554 -0.082096726 -0.041606978
0001d0 c0 1f a0 3c 86 42 e1 bd 64 9b 5c bd 58 42 99 bd
       0.01954639 -0.109990165 -0.05385913 -0.07483357
0001e0 00 9e b5 39 50 84 3e bd f0 ea 0d bc 24 79 ad bd
       0.0003464073 -0.0465129 -0.0086619705 -0.08470371
0001f0 98 b7 af bd d2 59 95 bd 9c 41 2f bd 50 0e ca bd
       -0.085799396 -0.072925225 -0.04278718 -0.09866011
000200 74 09 be c0 6b c6 c4 c0 4c b9 a5 be e4 ea 2f 40
       -5.938654 -6.149221 -0.32367933 2.7487116
000210 97 4e 38 40 60 8b a7 bf d1 39 a7 c0 22 90 d5 3e
       2.8797967 -1.3089409 -5.2258077 0.41711527
000220 89 f6 0c c0 26 31 14 bf 3f 45 85 3f 1f d4 27 3f
       -2.2025473 -0.57887495 1.0411757 0.65558046
000230 81 d9 40 3e 26 e1 25 bf 1f fe 9a 40 ee 11 0b 3f
       0.18832971 -0.64796674 4.8435206 0.54324234
000240 8f d9 fe be 35 3b 26 be 68 d1 25 bf 76 20 08 40
       -0.4977536 -0.16233523 -0.64772654 2.1269813
000250 8b b2 0c c0 e8 e3 b1 bf 72 e9 35 3f 90 2e 71 40
       -2.1983974 -1.3897676 0.71059334 3.768467
000260 cc ca ee 3e 7c f8 8f be 25 c4 60 3f b9 33 c3 bf
       0.46639097 -0.28119266 0.8779929 -1.525016
000270 d9 02 00 3f 86 fe 6f be 43 03 26 c0 64 80 aa 3f
       0.50004345 -0.23436937 -2.593949 1.3320432
000280 6c f9 57 bf 62 2b 82 3f ca 3d ab bc e9 c3 e1 bf
       -0.8436496 1.0169489 -0.020903487 -1.7637912
000290 b7 39 1e bf 10 ba b0 bf bb 3f a8 3e e0 6c e2 3f
       -0.61806816 -1.3806782 0.32861122 1.7689476
0002a0 e5 87 10 40 77 f9 fe bf b4 4f d1 3e 53 fe 4e 3e
       2.2582943 -1.9919881 0.4088112 0.20214204
0002b0 c7 15 d7 be 6a 98 92 3f e4 8b c0 3e f1 3a 9a 3d
       -0.42008802 1.1452763 0.37606728 0.075307734
0002c0 b0 67 1d 3f 32 ab 9d be f1 3a 6a bd c4 c6 eb bf
       0.6148634 -0.30794674 -0.057185117 -1.8420033
0002d0 01 09 06 bf 7a dd b2 be 70 bd bb 3e 43 4b c4 bf
       -0.5235749 -0.34934598 0.36667967 -1.5335468
0002e0 a1 0b ac 3d 31 d1 b3 3e 34 99 7b bf e9 da fe bf
       0.084006555 0.35120538 -0.98280644 -1.9910556
0002f0 f6 36 80 bd 66 2b 84 bc d0 e4 b4 bc f6 d7 87 bd
       -0.06260483 -0.016133975 -0.022081763 -0.06632988
000300 10 a3 a3 3d 9c 01 dc 3d 20 bf 4a bc 38 45 e5 bc
       0.07990086 0.107424945 -0.012374669 -0.027987108
000310 80 14 ef 3a a0 90 f4 bb 60 2e f6 3c c8 7a 0f 3d
       0.0018240362 -0.0074635297 0.03005141 0.035029203
000320 84 83 e8 bd 84 f2 3c bd cc 95 d7 3d c0 73 47 3d
       -0.113532096 -0.04612972 0.10526618 0.048694372
000330 a0 b9 cb bb 08 58 9a bd 42 9f 9c bd fa 50 e5 bd
       -0.0062171966 -0.07536322 -0.076475635 -0.11197086
000340 8c e4 26 bd 90 e7 2c 3d 2c 3b a3 3d 98 63 6c 3d
       -0.040745303 0.042213023 0.079702705 0.057712168
000350 28 4a e2 bd e4 f2 99 bd b0 9a a1 bc 38 a4 f7 3d
       -0.110493004 -0.07517031 -0.019727081 0.12091869
000360 18 21 94 3c d0 97 04 bd 7c d2 53 3d e8 02 43 bd
       0.018082187 -0.032371342 0.051714405 -0.047610193
000370 8c b2 a5 bd e4 d9 ba 3d ac ce 68 bd 28 47 cd bc
       -0.08090696 0.091235906 -0.056837723 -0.025058344
000380 7e ab fe bd 52 55 ab 3d 58 f4 c1 3d f4 98 3a 3d
       -0.12435053 0.08365883 0.09470433 0.045556024
000390 90 80 b2 bd 18 a8 fc bd f6 ea cf bd 36 e6 be 3d
       -0.087159276 -0.12336749 -0.10152237 0.09321253
0003a0 6c d0 75 3d d6 6c d7 3d 56 1c 86 3d 4c 95 01 3d
       0.06001322 0.10518806 0.065483734 0.03163652
0003b0 80 71 a0 ba 86 b0 c2 bd 6c 55 db bd 02 73 ef bd
       -0.0012240857 -0.095063254 -0.10709652 -0.11691858
0003c0 e4 97 51 3d 28 60 7b bd 28 15 ce bc 50 54 93 bd
       0.051170245 -0.061371 -0.025156572 -0.07193816
0003d0 d0 98 ba bc 86 2e b4 bd 40 46 a7 bd 00 d6 29 3d
       -0.022777945 -0.08797936 -0.08167696 0.041463852
0003e0 20 2a 18 bd 34 0a 9e 3d 0c 41 24 bd 10 cb bb bd
       -0.03714955 0.0771679 -0.040101096 -0.091695905
0003f0 68 ac b4 bc d0 30 78 bd 60 a4 1c bd fc b5 f3 bd
       -0.022054866 -0.060593426 -0.038242698 -0.11899945

network.0.bias f4 [128]
000000 00 c8 30 3a b8 ef a4 bc af e0 8a 3d 00 3f f5 3b
       0.00067436695 -0.020133838 0.06781136 0.007484317
000010 a6 4b b5 bd 0a 94 89 bc da 59 bd bd 30 e1 98 3c
       -0.088523194 -0.016794223 -0.092456535 0.018662065
000020 bc 8a c0 3c 7e 5b f1 bd 80 1d af bd 9c 94 80 bd
       0.023503654 -0.11785029 -0.085505486 -0.06278345
000030 14 06 33 bd 7f 95 07 bd 03 74 28 3d 16 10 ca bd
       -0.04370697 -0.033101555 0.041126262 -0.098663494
000040 a3 99 82 bb da 84 d3 bd fd 0a 98 bb 50 f2 a5 bd
       -0.0039856 -0.10328074 -0.004639982 -0.08102858
000050 66 d7 c3 bd 0d 86 98 3d bc cb f5 3c c8 77 2d bd
       -0.09562568 0.07447443 0.030004375 -0.04235056
000060 3f 1d 45 3d 03 0e c3 bb 6c f2 39 3d a0 55 f0 bb
       0.048123594 -0.005952598 0.045397207 -0.007334426
000070 0b 09 cc bd 68 32 39 bd d2 7d db bd 56 62 68 3c
       -0.09962662 -0.045214087 -0.10717358 0.014183601
000080 e2 36 24 3d 4d bf ce 3d 66 a9 fb bd 94 9d e6 3d
       0.040091403 0.100950815 -0.122881696 0.112605244
000090 13 90 85 bc 5c 9b 0b 3d cc c1 5b bd a8 a4 13 3d
       -0.016304052 0.03408371 -0.053651616 0.0360457
0000a0 7e 82 66 3d e7 f9 53 3d 6a 5d d3 bd a8 a4 9b 3c
       0.05627679 0.051751997 -0.10320552 0.018999413
0000b0 fe e9 93 3c 49 85 10 be f5 48 28 3d ae 43 6f 3c
       0.018055912 -0.14113344 0.041085202 0.014603538
0000c0 ba 94 cd bd d6 c7 db bd a0 19 a7 3b fc 54 cd 3d
       -0.10038133 -0.10731475 0.0050994903 0.10025975
0000d0 3c ad 14 3d e0 fd 8f 3c d0 a9 04 bc 92 5c fe bd
       0.03629802 0.017577112 -0.008097127 -0.1242
0000e0 fe c5 4a 3c 78 de a6 3c f0 96 df bd a0 a2 bc bc
       0.012376307 0.020369753 -0.10917461 -0.023026764
0000f0 46 e1 f8 3d 06 eb 81 bd de c3 af bd 72 af f1 3c
       0.121523425 -0.06343655 -0.085822806 0.029502604
000100 02 ce d9 3c be 91 ab 3d 2e 4e a8 bd 44 03 c4 bb
       0.02658749 0.083774075 -0.082180366 -0.0059818346
000110 d0 83 f6 3c 4a 65 a1 3d e2 14 f3 3c 18 1a c4 3c
       0.03009215 0.078806475 0.029673044 0.023938224
000120 dc 79 ff bc 60 ab b6 bc 32 27 8a bd ab 63 5d 3b
       -0.031186037 -0.022298515 -0.06745757 0.003378133
000130 b4 e9 04 3d 34 22 82 bd 44 f0 ae bd bb f1 8c 3c
       0.03244944 -0.0635418 -0.08541921 0.01720511
000140 28 96 89 3c d4 59 71 bd f8 a9 5d 3d 60 95 d0 bd
       0.016795233 -0.058923557 0.054117173 -0.10184741
000150 50 90 7b bd 2e bc 6f bd dc a2 84 bd db a1 d2 bc
       -0.061416924 -0.05852907 -0.064763755 -0.025711944
000160 67 27 94 3c 4c c7 32 bd 48 f2 8a bc e4 83 85 bd
       0.018085195 -0.043647096 -0.016961232 -0.06519297
000170 aa 53 a8 bd 0c 3b 73 3c 50 c5 bc 3d c6 c6 ad 3d
       -0.08219083 0.014845621 0.09217322 0.08485179
000180 24 cc c7 bd 4d 33 bc 3c ab 5a 9f bd d0 cf 16 bd
       -0.097557336 0.02297368 -0.077809654 -0.03681928
000190 e0 1d 37 bc 8a 0e 62 3d a3 7a 84 3d 54 49 cf bd
       -0.011176556 0.055189647 0.064687036 -0.10121408
0001a0 38 13 de 3c cc 13 e5 3c 4b 30 43 bc af 84 3e bd
       0.027108774 0.027963541 -0.011913369 -0.046513256
0001b0 c8 b2 71 bd ac 9f b4 bd 40 f9 fb bd 83 60 64 bd
       -0.05900839 -0.088195175 -0.123034 -0.055756103
0001c0 88 8b 45 bd 16 d7 b6 3c c0 73 58 bd b6 a3 d4 3d
       -0.04822877 0.022319358 -0.052844763 0.10382788
0001d0 5c 9f b4 bd c4 d6 b3 3d 0d c5 8f bd de 3e a9 bc
       -0.08819458 0.08781198 -0.07020006 -0.02065986
0001e0 a8 c0 3b bd 7c cc 57 3d 4d a4 56 3d a1 41 47 3d
       -0.04583803 0.052685246 0.052402783 0.048646573
0001f0 0c 4e b1 bd b3 15 f7 3c 6a 11 8c 3d f8 12 d2 bd
       -0.086574644 0.030161714 0.06839259 -0.10257524

network.2.weight f4 [128, 128]
000000 e6 55 12 3d cc fc 8b 3c 84 98 a5 3c 0f 9a 9e 3d
       0.03572645 0.017088316 0.020214327 0.07744228
000010 6b ff 49 ba ee e9 76 bd cf 2c 23 bd d8 04 3b 3c
       -0.0007705602 -0.060281686 -0.039837655 0.011414729
000020 a8 f2 5e bc cd a5 81 bd 00 92 21 3b 5a 4d 4f 3d
       -0.013607658 -0.06330452 0.0024653673 0.050610878
000030 40 0a 40 3b 58 d8 60 3d cb 59 59 bd 2b f7 8d 3d
       0.0029302984 0.05489382 -0.05306415 0.06931909
000040 34 8d 06 3b fd e6 0d bd b6 73 ce 3c c1 ef 26 3d
       0.002053094 -0.034644116 0.02520166 0.04075599
000050 95 3a 1b bd 82 40 68 bd 4e 7b 08 3d 5e 87 9f bd
       -0.037897665 -0.056702144 0.033320718 -0.07789491
000060 d8 0d ba 3c df 4a 67 3c da c8 76 bd 08 89 32 bc
       0.02271168 0.014116972 -0.06025014 -0.010896929
000070 a9 2e 0f 3c 56 d7 7b 3d ed 5f 84 3d 4c f5 ba bd
       0.008739152 0.061484657 0.06463609 -0.09128818
000080 95 79 b8 bd 1e 2f 3a 3d c1 97 b2 3d 29 bc 92 3d
       -0.09007565 0.04545509 0.08720351 0.07164795
000090 59 b9 91 3c 31 a3 ab 3d a4 35 26 bd 3b 72 20 bc
       0.017788576 0.08380736 -0.0405785 -0.00979286
0000a0 c5 9c 99 bd 18 6e b3 bd 0c d7 74 bd 0a 35 a4 bd
       -0.075006045 -0.08761233 -0.059775397 -0.08017929
0000b0 1f 64 35 3c 3e 1f 90 3c 0c 78 67 3c 8c dc 26 3d
       0.011071234 0.017593022 0.0141277425 0.040737674
0000c0 68 2f 90 bd fc fa d0 bc cd 70 8e 3d 29 33 a0 bd
       -0.07040292 -0.025510304 0.06955109 -0.07822258
0000d0 76 74 7e 3d fc f9 de 3c 1e f5 92 bd ac 36 9c 3c
       0.062122785 0.027218811 -0.07175659 0.019069038
0000e0 3b c5 01 bd a1 64 40 bc f9 1a 10 bd 46 e2 23 3d
       -0.031682234 -0.011742742 -0.035181973 0.040010713
0000f0 37 c8 8c 3d ea e4 4a 3d 78 fd 0a bc 98 e6 b6 bd
       0.068741255 0.049534716 -0.008483283 -0.08930701
000100 55 5f 7b 3d 95 4f 0b bc f1 6a 93 3d 8a aa b7 3c
       0.061370213 -0.008502861 0.07198132 0.022420187
000110 00 73 be 3a f4 e5 f4 3c 3e 35 1b 3d 33 b7 ce 39
       0.0014530122 0.029894806 0.037892573 0.00039427876
000120 d6 39 8c 3b a0 29 6b bb ca 10 78 3d 8f db c9 3c
       0.0042793555 -0.0035882965 0.060562886 0.024640827
000130 f7 79 25 bd 09 b1 a8 3d e3 75 ad 3d db 62 72 3d
       -0.040399518 0.08236892 0.08469751 0.059176307
000140 44 bd 81 3c 10 25 b1 3b db 01 a8 bd 6b f6 83 3d
       0.01583732 0.0054060295 -0.08203479 0.06443485
000150 51 10 82 bd 00 5e aa bd 5f 85 5d 3c fb 40 f2 bd
       -0.06350768 -0.0831871 0.013520568 -0.118288
000160 e5 1a 16 3b fa 5c 2e bd fb ed 2e ba 3c 7b 0b bd
       0.0022904214 -0.042569138 -0.0006673035 -0.034053072
000170 a5 60 92 3d 04 37 ae bd 08 04 85 3c ff 05 04 bc
       0.0714734 -0.08506587 0.016237274 -0.00805807
000180 13 3f ac bd d8 25 5c 3d 8b 26 02 bc 8b f9 d1 bd
       -0.08410468 0.053747028 -0.00794376 -0.10252675
000190 cf 1a b5 bd 88 56 33 3c 9f f7 81 3d d4 00 a5 bc
       -0.08843004 0.010945924 0.06346058 -0.020141996
0001a0 1a e7 d5 bc 2a 1a b6 bd 6c 59 3d 3d aa df 23 bd
       -0.026111174 -0.08891709 0.046227857 -0.040008225
0001b0 14 68 26 bd 48 c1 09 3d f7 4f 9e 3d e8 d5 e4 3c
       -0.0406266 0.033631593 0.07730096 0.02793403
0001c0 c0 d7 d0 3c 25 07 9b 3d 00 5e 76 3b f8 05 60 3c
       0.025493503 0.07569722 0.003759265 0.013673298
0001d0 c0 9f d3 bb b5 ea 8c bd 33 f1 8f bc 55 af 7b bd
       -0.0064582527 -0.06880704 -0.017571067 -0.061446507
0001e0 2a 83 51 3d b3 b9 79 bd 96 c3 c6 bd a6 fa f2 bc
       0.05115048 -0.060968112 -0.09705274 -0.029660534
0001f0 23 79 86 3d 9c bb a5 bd 6a eb 2c bd 30 eb dd bb
       0.06566074 -0.08092424 -0.042216696 -0.0067724213
000200 22 54 1e bd 9e 08 2b 3d af 1f 9e 3d 12 f4 43 3d
       -0.038654454 0.041756265 0.07720887 0.047840185
000210 e4 b3 98 bc 70 1f 8e bd 7e 75 95 bd 14 63 ad bc
       -0.018640466 -0.0693959 -0.072978005 -0.021165408
000220 62 1a e4 bc 40 48 89 bd d8 10 b3 3c 0b 2f 09 bd
       -0.027844612 -0.06703234 0.021858618 -0.03349213
000230 d0 fa d1 3c 58 40 40 bd 90 7c 02 bc d2 e8 d9 bc
       0.025632292 -0.046936363 -0.007964268 -0.026600275
000240 a2 61 5e 3d 32 35 a5 bd a7 c3 0e bd a0 a0 9a 3c
       0.05429233 -0.08066787 -0.034854557 0.01887542
000250 14 ff cb bc 80 45 c6 ba 4e af 74 3d 70 4e 4f 3c
       -0.024901904 -0.0015126914 0.059737496 0.012652978
000260 60 85 32 3c 54 89 d3 3c 32 c8 42 bd 41 96 10 bd
       0.010896057 0.02582232 -0.047554202 -0.035299543
000270 4a 6c 2d 3d 78 ee 51 3c aa 2b 6c 3d 78 e3 38 bc
       0.0423396 0.012813203 0.05765883 -0.0112847015
000280 f7 0c aa 3d 86 35 58 3d 48 d8 ca bc 34 05 39 bd
       0.08303254 0.05278542 -0.024761334 -0.045170978
000290 78 38 92 3c e8 02 97 bd 00 cd 25 bd 2c d2 dd 3c
       0.017849192 -0.07373601 -0.040478706 0.027077757
0002a0 10 9e fc 3b c2 d7 23 3d 40 6f 17 bd 39 56 98 3d
       0.007709272 0.040000685 -0.03697133 0.07438321
0002b0 e4 15 47 bd 38 82 39 bd da 37 72 3d f8 b2 8b bc
       -0.04860486 -0.045290202 0.059135295 -0.017053112
0002c0 f4 23 cf 3c 08 a1 80 bc ca 05 80 bd 20 b7 67 bb
       0.025285698 -0.015701786 -0.06251104 -0.0035356954
0002d0 ae 3f 24 3d d6 fd 73 3d f9 15 8a 3d 20 fb 4b bb
       0.040099792 0.05956825 0.06742472 -0.0031125024
0002e0 b1 1c 83 3d 6c 40 cc 3c a0 5d 56 3b 00 de da 3a
       0.06401957 0.024933062 0.0032709613 0.0016698241
0002f0 90 2e 0a bc 98 c9 ce 3c a0 a1 95 bb 72 d4 68 3d
       -0.008433953 0.025242612 -0.0045663863 0.05684323
000300 00 92 5c bc be 0a 49 bd 24 6d d2 3c f6 dc 4a bd
       -0.0134625435 -0.04908251 0.025686808 -0.04952713
000310 66 d5 60 3d 1d d7 93 3d 28 7a 68 3c 5c 40 91 bc
       0.054891013 0.07218764 0.014189281 -0.017730884
000320 b0 c9 82 bb 3e 8e 29 3d a4 48 8a bd 28 d1 c1 bc
       -0.003991328 0.04139542 -0.06752136 -0.023659304
000330 94 93 5c bd 51 bb a3 bd 12 85 81 bd c5 9d 68 bd
       -0.05385168 -0.07994712 -0.06324209 -0.056791086
000340 e1 d4 89 3d ba 49 5d 3d 7e c8 75 bd 36 da 8e bd
       0.067300566 0.05402539 -0.060005657 -0.06975214
000350 07 1c a2 3d dc de ab 3c f6 b7 26 3d 08 27 62 3c
       0.07915502 0.020980291 0.040702783 0.013803251
000360 50 46 07 bd 16 98 43 bd ea c8 42 3d 0f d2 b2 bd
       -0.03302604 -0.047752462 0.047554888 -0.08731472
000370 3f a1 96 bd 58 a8 da 3c 64 e2 bd bc d0 80 8a 3c
       -0.07354974 0.0266916 -0.02317924 0.016907126
000380 72 17 41 3d 4e 0d 50 bd a7 cb 4b bd ea ac 5e bd
       0.0471415 -0.05079394 -0.049754765 -0.054364122
000390 2d 62 9e bd 20 0d c4 bb 2d b7 99 3d 60 06 b1 bb
       -0.07733569 -0.00598301 0.07505641 -0.0054023713
0003a0 5e 8d 46 3d 78 0c 34 bd 20 af 0f 3c 41 ed 87 bd
       0.048474662 -0.043957204 0.00876978 -0.066370495
0003b0 00 73 bf bb f8 e5 9e 3c 63 e7 1a bd 3b 32 a6 3d
       -0.0058425665 0.019396767 -0.037818324 0.081150495
0003c0 1c 6f cc 3c f2 15 35 3d b7 27 b4 3d 4e 78 19 3d
       0.024955325 0.04421038 0.087966375 0.037468247
0003d0 90 8a e3 bb c2 e8 2c 3d 27 62 b2 3d 2e 46 ae bd
       -0.006944008 0.042214163 0.08710127 -0.085094795
0003e0 0c 84 88 bc b6 ce 2f 3d 84 7f af bc f4 45 93 bd
       -0.016664527 0.042921744 -0.021423109 -0.07191077
0003f0 f5 2a 52 bd b1 2b 3c bd 8e 18 16 3d ba 7e 66 3d
       -0.0513105 -0.045940105 0.03664451 0.0562732

network.2.bias f4 [128]
000000 2c a4 d2 bb a3 c2 a3 bd 52 67 c9 3c 68 12 f3 bb
       -0.006428262 -0.079961084 0.0245854 -0.0074179657
000010 36 44 88 3d 4e 86 78 bd 8c 46 74 bd 86 61 3b 3d
       0.06653635 -0.060674958 -0.05963759 0.045747302
000020 99 00 f3 bb 68 0b b9 3d e4 8f a2 bd fa 43 14 bd
       -0.0074158427 0.09035379 -0.07937601 -0.03619764
000030 ad 13 5d bd 71 7a 65 bd af 46 95 3c e4 d0 4e bc
       -0.053973842 -0.056024972 0.018222181 -0.012623046
000040 74 aa d0 bc 7a 62 a6 3c 1a 5c ef bc 3e 32 8d bb
       -0.025471903 0.02031063 -0.029218722 -0.004308968
000050 97 bd 99 bd 2b b9 0c bd 2e 96 79 3c c3 db af 3c
       -0.075068645 -0.034356277 0.0152335595 0.021467095
000060 5d 03 31 3d 6c 2c 24 bd ef 5b 98 bd f0 02 d4 3c
       0.043216098 -0.040081427 -0.0743941 0.025880307
000070 cf 98 87 3d 91 56 8e bc 45 82 50 3d 48 03 b4 3d
       0.06620943 -0.017375262 0.050905485 0.08789688
000080 66 db 98 bd 4e 22 39 3d 4a eb 43 bd d2 fe e4 bc
       -0.07463722 0.04519873 -0.04783181 -0.027953539
000090 ca 7e 24 3d 62 fb 9d bc f1 ea 4e bc 45 2e 7c 3d
       0.040159978 -0.019284908 -0.012629257 0.061567564
0000a0 d9 74 3c 3d 14 c3 9c bc f3 07 7e 3c 48 b8 18 bd
       0.046009872 -0.01913599 0.015504825 -0.03728512
0000b0 18 08 b8 bc 65 18 67 bc 5d c0 5e bd 67 e9 0e bd
       -0.022464797 -0.014104937 -0.05438267 -0.03489056
0000c0 94 78 c4 bc 48 41 18 bd 5f 1a 16 3d a9 2d 25 bd
       -0.023983277 -0.037171632 0.036646243 -0.040326748
0000d0 59 83 42 3d 9a 69 93 3d a5 f7 52 3d 5a 1a fe 3c
       0.047488544 0.07197876 0.051505703 0.031018425
0000e0 14 b8 8b bd f2 6b 11 bc 5a 41 16 3d 4c 4b 05 bd
       -0.068222195 -0.008875834 0.036683418 -0.03254251
0000f0 fb 31 6e bd 34 bd 71 3d b0 ac f9 bc a0 9b 66 bd
       -0.058153134 0.05901833 -0.030477852 -0.05630076
000100 d4 45 24 3d 31 f8 d8 3c fe 69 fd bb 6d 2c a7 bd
       0.040105656 0.026485534 -0.0077335825 -0.081627704
000110 4b d6 78 bc e5 df 65 3d 19 06 81 bb 03 6f b2 3d
       -0.01518781 0.056121726 -0.0039374945 0.0871258
000120 b0 89 ad bc 5d 70 93 bb 2a b3 a6 bb 40 6d 56 bc
       -0.021183819 -0.0044994787 -0.005087276 -0.013087571
000130 d7 b2 a6 3c dd ab 66 bc 2d e3 93 bb 5f 60 ba 3d
       0.02034895 -0.014079061 -0.0045131654 0.091004126
000140 37 38 dc 3c 42 38 85 39 1e 6a a4 bd ca 0a ba 3c
       0.026882274 0.00025409652 -0.08028053 0.022710223
000150 8b ee e6 3c 43 6e af 3d 9f 5d 60 bd 94 e8 e3 3c
       0.028189918 0.08565953 -0.054776784 0.027820863
000160 6b f9 a2 3d f9 1f c5 bc cf f7 b3 bd f9 f5 62 3d
       0.07957729 -0.024063097 -0.087875 0.05541036
000170 b7 c2 92 bd dc 19 23 3d 5f 85 38 3d d3 f2 2e bb
       -0.07166045 0.039819583 0.045049068 -0.0026695027
000180 dc b3 95 bc 4a 31 88 bc af 90 65 bd 11 b0 67 bd
       -0.01827424 -0.016625065 -0.056046184 -0.056564394
000190 5b 7e 23 bd f6 48 bd 3c 08 a1 72 3d 40 f8 ea bc
       -0.039915424 0.02310608 0.059235603 -0.028682828
0001a0 d4 ae d8 3d 1f b4 10 bc 51 25 df bc bf 35 67 3d
       0.10580221 -0.008832007 -0.027239474 0.05644774
0001b0 f2 50 7c bd f1 75 1d bc 4b 57 84 3d fc 9c 4f 3d
       -0.061600633 -0.009610639 0.06461962 0.05068682
0001c0 20 32 1e bc a5 c9 41 3d 21 17 56 3d 61 69 87 bc
       -0.009655505 0.047311444 0.05226815 -0.01652974
0001d0 05 02 4f 3d 3d 0f a4 3d 48 86 0b bd 3a b3 80 bd
       0.050539035 0.08010719 -0.034063607 -0.06284185
0001e0 d4 b3 0d 3d d8 bc 04 bc f7 7d df 3c 08 ee 63 3d
       0.034595326 -0.0081016645 0.027281744 0.055646926
0001f0 a5 3c 7d 3d e5 16 ff 3c 6f e0 18 3d 98 b4 ec bc
       0.061825413 0.031138847 0.03732341 -0.028894708
