models/dqn_step_11000.pt (torch, 413509 bytes, 24 tensors)

network.0.weight f4 [128, 64]
0	0x3dc3b8cc	0.095567316
1	0x3dd47b66	0.10375099
2	0xbcefe520	-0.02928406
3	0x3deb2a1c	0.11482641
4	0xbce05cb0	-0.027387947
5	0x3ccea238	0.025223836
6	0xbd794510	-0.06085688
7	0x3d965828	0.07341033
8	0x3de1accc	0.110192865
9	0xbdbbcf0e	-0.09170352
10	0x3dde83a4	0.10864952
11	0x3cbfa6b0	0.023394912
12	0x3dbd2294	0.09235111
13	0x3c8aae50	0.016928822
14	0x3d76e15c	0.060273513
15	0xbc909460	-0.017648876
16	0x3dc558c6	0.09636073
17	0x3c975b38	0.018476114
18	0xbd6f05a4	-0.05835499
19	0x3d028208	0.03186229
20	0xbd6be5ac	-0.05759208
21	0xbc702cc0	-0.014659107
22	0xbd4ff3fc	-0.05076979
23	0x3da9d2ae	0.08292137
24	0xbdca142a	-0.09867127
25	0xbd6c098c	-0.057626292
26	0xbd10936c	-0.035296842
27	0xbd99ecfe	-0.07515906
28	0x3c414bf0	0.01179789
29	0xbdfcd88a	-0.12345989
30	0x3de73228	0.112888634
31	0xbdd976c0	-0.10618353
32	0x3dc5a396	0.09650342
33	0x3caa69c8	0.020802394
34	0xbd263fac	-0.040588066
35	0x3d9e31f8	0.077243745
36	0x3c9f9758	0.019481346
37	0x3dced6b0	0.10099542
38	0x3c5fe300	0.013664961
39	0xbd217898	-0.039421648
40	0x3d0990e8	0.03358546
41	0xbd0ad808	-0.03389743
42	0x3d577aa4	0.052607194
43	0x3de48ffe	0.11160277
44	0x3d93fbb6	0.072257444
45	0xbd5fd514	-0.054646567
46	0x3d93c79e	0.07215808
47	0x3cb73870	0.022365779
48	0x3d82017a	0.06347938
49	0xbd9c0886	-0.07618813
50	0xbdfd6aa4	-0.12373856
51	0xbd45d10c	-0.048295066
52	0xbdc45b9c	-0.095877856
53	0x3dd20ed6	0.10256736
54	0x3d1378d8	0.036003917
55	0x3d5413cc	0.051776692
56	0x3d21ecfc	0.039532647
57	0xbb0e8200	-0.0021744967
58	0x3dc85904	0.097826034
59	0xbdb5e438	-0.0888142
60	0x3c00f320	0.0078704655
61	0xbdaebaf4	-0.08531752
62	0x3d1de050	0.038544
63	0xbd3052e0	-0.043047786
64	0x3d1ce298	0.038302034
65	0xbcd55778	-0.026042685
66	0x3dd45306	0.10367398
67	0xbd97bb50	-0.07408774
68	0xbd98ad8a	-0.07454975
69	0xbd98afe6	-0.07455425
70	0x3de641e2	0.11243035
71	0x3d2a9fe4	0.04165639
72	0x3df65610	0.12028134
73	0xbdd3454e	-0.10315953
74	0xbdfdeb98	-0.123984516
75	0xbdc848fe	-0.09779547
76	0xbdac355a	-0.084086135
77	0x3d4f616c	0.050630018
78	0x3d3755b8	0.044759482
79	0x3dd4b776	0.10386555
80	0xbd843474	-0.06455317
81	0xbdae84aa	-0.085213974
82	0x3d87d3f8	0.06632227
83	0xbd4ef3e4	-0.05052556
84	0x3d9b5f5c	0.07586548
85	0xbcf2fef0	-0.02966258
86	0x3d92719a	0.07150574
87	0xbdc6e760	-0.097121
88	0xbd8130ba	-0.06308122
89	0x3d1c18c4	0.038109556
90	0x3cd87b38	0.026425943
91	0xbd0289f4	-0.031869844
92	0x3d989802	0.07450868
93	0x3dae07fa	0.08497615
94	0xbdb9a4f6	-0.09064667
95	0xbd88ab96	-0.066733524
96	0x3dea68d2	0.11445774
97	0xbd2cc3f4	-0.042179063
98	0xbd35832c	-0.04431455
99	0xbdf7b448	-0.12094933
100	0xbd929a84	-0.07158378
101	0x3cffcc88	0.031225458
102	0xbc872938	-0.016499147
103	0xbdb9d3aa	-0.09073575
104	0x3b402840	0.0029320866
105	0xbdaede6e	-0.08538519
106	0xbdd93086	-0.10604958
107	0xbd8cf83a	-0.06883283
108	0xbde00de6	-0.10940151
109	0xbda30144	-0.07959226
110	0x3dffe65e	0.12495111
111	0x3cc16870	0.02360937
112	0x3d1dc71c	0.038519964
113	0xbdeec466	-0.11658554
114	0xbda82254	-0.082096726
115	0xbd2a6c14	-0.041606978
116	0x3ca01fc0	0.01954639
117	0xbde14286	-0.109990165
118	0xbd5c9b64	-0.05385913
119	0xbd994258	-0.07483357
120	0x39b59e00	0.0003464073
121	0xbd3e8450	-0.0465129
122	0xbc0deaf0	-0.0086619705
123	0xbdad7924	-0.08470371
124	0xbdafb798	-0.085799396
125	0xbd9559d2	-0.072925225
126	0xbd2f419c	-0.04278718
127	0xbdca0e50	-0.09866011
128	0xc0add215	-5.431895
129	0xc0b541b9	-5.664273
130	0x3e51d4c7	0.20491324
131	0x40313b66	2.7692504
132	0x4039e54b	2.90462
133	0xbf1c178b	-0.60973424
134	0xc0a2588e	-5.07331
135	0x3f9d9a7e	1.2312772
136	0xbf5ac025	-0.8544944
137	0xbe8b2c7b	-0.27182373
138	0x3f2cf29b	0.67557687
139	0x3f8c2139	1.0947639
140	0x3e66be73	0.22533588
141	0xbfc1325d	-1.5093495
142	0x40718d78	3.7742596
143	0x3e988bbe	0.29794115
144	0xbf11d107	-0.56959575
145	0xbeda95e5	-0.42692485
146	0x3ddefc5a	0.10887976
147	0x3f932240	1.1494827
148	0xc00722a5	-2.1114895
149	0xbfc2832f	-1.5196284
150	0x3f0292eb	0.5100543
151	0x404f7887	3.2417314
152	0x3edeafcf	0.43493506
153	0xbdc1ae38	-0.09457058
154	0x3f0dbe8b	0.5536887
155	0xbff1115b	-1.8833421
156	0x3f7e0351	0.9922381
157	0xbda87596	-0.08225553
158	0xc0090302	-2.1408086
159	0x3fc19624	1.5123944
160	0x3d9b2d19	0.07576961
161	0x3e90636f	0.28200862
162	0x3f5043b5	0.8135331
163	0xbf96e230	-1.1787777
164	0xbe30f147	-0.1727954
165	0xbf47c149	-0.78029305
166	0xbcabdc17	-0.02097897
167	0x3faba591	1.3409902
168	0x3fb4d585	1.4127661
169	0xbfdfeb38	-1.7493658
170	0x3f8d5091	1.1040212
171	0x3f5ac05e	0.8544978
172	0xbf30ebe1	-0.6910992
173	0x3fb4ae85	1.4115759
174	0x3e0c61b4	0.13709146
175	0xbe5dad52	-0.21648148
176	0x3f3b1628	0.7308068
177	0x3e008f90	0.12554765
178	0xbf81ac97	-1.0130795
179	0xbfd44055	-1.6582133
180	0xbf25292f	-0.64515966
181	0x3dfedb53	0.124441765
182	0x3f46fdc5	0.7773097
183	0xbf846006	-1.0341804
184	0xbeacf18c	-0.33778036
185	0xbe123e35	-0.14281543
186	0xbf36fb5e	-0.71477306
187	0xbfa2f5a3	-1.2731212
188	0xbd730661	-0.059332255
189	0xbc52b861	-0.012861342
190	0xbcb4e4d0	-0.022081763
191	0xbd815dc3	-0.06316712
192	0x3da3a310	0.07990086
193	0x3ddc019c	0.107424945
194	0xbc4abf20	-0.012374669
195	0xbce54538	-0.027987108
196	0x3aef1480	0.0018240362
197	0xbbf490a0	-0.0074635297
198	0x3cf62e60	0.03005141
199	0x3d0f7ac8	0.035029203
200	0xbde88384	-0.113532096
201	0xbd3cf284	-0.04612972
202	0x3dd795cc	0.10526618
203	0x3d4773c0	0.048694372
204	0xbbcbb9a0	-0.0062171966
205	0xbd9a5808	-0.07536322
206	0xbd9c9f42	-0.076475635
207	0xbde550fa	-0.11197086
208	0xbd26e48c	-0.040745303
209	0x3d2ce790	0.042213023
210	0x3da33b2c	0.079702705
211	0x3d6c6398	0.057712168
212	0xbde24a28	-0.110493004
213	0xbd99f2e4	-0.07517031
214	0xbca19ab0	-0.019727081
215	0x3df7a438	0.12091869
216	0x3c942118	0.018082187
217	0xbd0497d0	-0.032371342
218	0x3d53d27c	0.051714405
219	0xbd4302e8	-0.047610193
220	0xbda5b28c	-0.08090696
221	0x3dbad9e4	0.091235906
222	0xbd68ceac	-0.056837723
223	0xbccd4728	-0.025058344
224	0xbdfeab7e	-0.12435053
225	0x3dab5552	0.08365883
226	0x3dc1f458	0.09470433
227	0x3d3a98f4	0.045556024
228	0xbdb28090	-0.087159276
229	0xbdfca818	-0.12336749
230	0xbdcfeaf6	-0.10152237
231	0x3dbee636	0.09321253
232	0x3d75d06c	0.06001322
233	0x3dd76cd6	0.10518806
234	0x3d861c56	0.065483734
235	0x3d01954c	0.03163652
236	0xbaa07180	-0.0012240857
237	0xbdc2b086	-0.095063254
238	0xbddb556c	-0.10709652
239	0xbdef7302	-0.11691858
240	0x3d5197e4	0.051170245
241	0xbd7b6028	-0.061371
242	0xbcce1528	-0.025156572
243	0xbd935450	-0.07193816
244	0xbcba98d0	-0.022777945
245	0xbdb42e86	-0.08797936
246	0xbda74640	-0.08167696
247	0x3d29d600	0.041463852
248	0xbd182a20	-0.03714955
249	0x3d9e0a34	0.0771679
250	0xbd24410c	-0.040101096
251	0xbdbbcb10	-0.091695905
252	0xbcb4ac68	-0.022054866
253	0xbd7830d0	-0.060593426
254	0xbd1ca460	-0.038242698
255	0xbdf3b5fc	-0.11899945

network.0.bias f4 [128]
0	0x3a30c800	0.00067436695
1	0xbca4efb8	-0.020133838
2	0x3d919477	0.071083955
3	0x3bf53f00	0.007484317
4	0xbdb54ba6	-0.088523194
5	0xbc7b68b8	-0.015344791
6	0xbdbd59da	-0.092456535
7	0x3c98e130	0.018662065
8	0x3cc08abc	0.023503654
9	0xbdf15b7e	-0.11785029
10	0xbdaf1d80	-0.085505486
11	0xbd80949c	-0.06278345
12	0xbd330614	-0.04370697
13	0xbd07957f	-0.033101555
14	0x3d28444e	0.041080765
15	0xbdca1016	-0.098663494
16	0xbb737fe4	-0.0037155086
17	0xbdd384da	-0.10328074
18	0xbb980afd	-0.004639982
19	0xbda5f250	-0.08102858
20	0xbdc3d766	-0.09562568
21	0x3d9863b9	0.074408956
22	0x3cfc2e3c	0.030783765
23	0xbd2d77c8	-0.04235056
24	0x3d44e625	0.048071045
25	0xbbc30e03	-0.005952598
26	0x3d39f26c	0.045397207
27	0xbbf055a0	-0.007334426
28	0xbdcc090b	-0.09962662
29	0xbd393268	-0.045214087
30	0xbddb7dd2	-0.10717358
31	0x3cb6d5a7	0.022318674
32	0x3d44fcf9	0.048092816
33	0x3dcebf4d	0.100950815
34	0xbdfba966	-0.122881696
35	0x3de69d94	0.112605244
36	0xbc88955c	-0.016672783
37	0x3d0b9b5c	0.03408371
38	0xbd5bc1cc	-0.053651616
39	0x3d13a4a8	0.0360457
40	0x3d66827e	0.05627679
41	0x3d6f30bb	0.058396082
42	0xbdd35d6a	-0.10320552
43	0x3c9ba4a8	0.018999413
44	0x3c79b7ee	0.015241606
45	0xbe108549	-0.14113344
46	0x3d29529c	0.041338548
47	0x3c621fd9	0.013801538
48	0xbdcd94ba	-0.10038133
49	0xbddbc7d6	-0.10731475
50	0x3ba719a0	0.0050994903
51	0x3dcd54fc	0.10025975
52	0x3d14ad3c	0.03629802
53	0x3c8ffde0	0.017577112
54	0xbc04a9d0	-0.008097127
55	0xbdfe5c92	-0.1242
56	0x3c51af52	0.012798147
57	0x3d325941	0.04354215
58	0xbdd8501c	-0.10562155
59	0xbcbca2a0	-0.023026764
60	0x3df8e146	0.121523425
61	0xbd947962	-0.072497144
62	0xbdafc3de	-0.085822806
63	0x3cf1af72	0.029502604
64	0x3cb1cdcf	0.021704582
65	0x3dad159b	0.084513865
66	0xbda84e2e	-0.082180366
67	0xbbb8da4e	-0.0056412583
68	0x3cf683d0	0.03009215
69	0x3da1654a	0.078806475
70	0x3cfd3e25	0.030913422
71	0x3cc41a18	0.023938224
72	0xbd118619	-0.035528276
73	0xbcb6ab60	-0.022298515
74	0xbd8a2732	-0.06745757
75	0x3b5d63ab	0.003378133
76	0x3d07cea8	0.033156067
77	0xbd822234	-0.0635418
78	0xbdaef044	-0.08541921
79	0x3c8cf1bb	0.01720511
80	0x3c899628	0.016795233
81	0xbd7159d4	-0.058923557
82	0x3d5da9f8	0.054117173
83	0xbdd09560	-0.10184741
84	0xbd7b9050	-0.061416924
85	0xbd6fbc2e	-0.05852907
86	0xbd84a2dc	-0.064763755
87	0xbcd703f0	-0.026246995
88	0x3c99da61	0.018780889
89	0xbd32c74c	-0.043647096
90	0xbc8af248	-0.016961232
91	0xbd8583e4	-0.06519297
92	0xbda853aa	-0.08219083
93	0x3c81decb	0.015853306
94	0x3dbcc550	0.09217322
95	0x3dadc6c6	0.08485179
96	0xbdc7cc24	-0.097557336
97	0x3cef1dff	0.029189108
98	0xbd9fb660	-0.07798457
99	0xbd0c0a77	-0.034189668
100	0xbc371de0	-0.011176556
101	0x3d5f7c06	0.054561637
102	0x3d8c6c58	0.068566024
103	0xbdcf4954	-0.10121408
104	0x3cde1338	0.027108774
105	0x3cfc5d78	0.030806288
106	0xbc43304b	-0.011913369
107	0xbd3e84af	-0.046513256
108	0xbd71b2c8	-0.05900839
109	0xbdb49fac	-0.088195175
110	0xbdfbf940	-0.123034
111	0xbd646083	-0.055756103
112	0xbd458b88	-0.04822877
113	0x3cb6d716	0.022319358
114	0xbd5873c0	-0.052844763
115	0x3dd4a3b6	0.10382788
116	0xbdb49f5c	-0.08819458
117	0x3db3d6c4	0.08781198
118	0xbd8d22b0	-0.06891382
119	0xbca93ede	-0.02065986
120	0xbd3bc0a8	-0.04583803
121	0x3d57cc7c	0.052685246
122	0x3d5841b4	0.052797034
123	0x3d4741a1	0.048646573
124	0xbdb14e0c	-0.086574644
125	0x3d14b158	0.03630194
126	0x3d8ddd4b	0.06926974
127	0xbdd212f8	-0.10257524

network.2.weight f4 [128, 128]
0	0x3d1255e6	0.03572645
1	0x3c8bfccc	0.017088316
2	0x3ca59884	0.020214327
3	0x3d9e9a0f	0.07744228
4	0xba49ff6b	-0.0007705602
5	0xbd76e9ee	-0.060281686
6	0xbd232ccf	-0.039837655
7	0x3c3b04d8	0.011414729
8	0xbc5ef2a8	-0.013607658
9	0xbd81a5cd	-0.06330452
10	0x3b219200	0.0024653673
11	0x3d4f4d5a	0.050610878
12	0x3b400a40	0.0029302984
13	0x3d60d858	0.05489382
14	0xbd5959cb	-0.05306415
15	0x3d8df72b	0.06931909
16	0x3b068d34	0.002053094
17	0xbd0de6fd	-0.034644116
18	0x3cce73b6	0.02520166
19	0x3d26efc1	0.04075599
20	0xbd1b3a95	-0.037897665
21	0xbd684082	-0.056702144
22	0x3d087b4e	0.033320718
23	0xbd9f875e	-0.07789491
24	0x3cba0dd8	0.02271168
25	0x3c674adf	0.014116972
26	0xbd76c8da	-0.06025014
27	0xbc328908	-0.010896929
28	0x3c0f2ea9	0.008739152
29	0x3d7bd756	0.061484657
30	0x3d845fed	0.06463609
31	0xbdbaf54c	-0.09128818
32	0xbdb87995	-0.09007565
33	0x3d3a2f1e	0.04545509
34	0x3db297c1	0.08720351
35	0x3d92bc29	0.07164795
36	0x3c91b959	0.017788576
37	0x3daba331	0.08380736
38	0xbd2635a4	-0.0405785
39	0xbc20723b	-0.00979286
40	0xbd999cc5	-0.075006045
41	0xbdb36e18	-0.08761233
42	0xbd74d70c	-0.059775397
43	0xbda4350a	-0.08017929
44	0x3c35641f	0.011071234
45	0x3c901f3e	0.017593022
46	0x3c67780c	0.0141277425
47	0x3d26dc8c	0.040737674
48	0xbd902f68	-0.07040292
49	0xbcd0fafc	-0.025510304
50	0x3d8e70cd	0.06955109
51	0xbda03329	-0.07822258
52	0x3d7e7476	0.062122785
53	0x3cdef9fc	0.027218811
54	0xbd92f51e	-0.07175659
55	0x3c9c36ac	0.019069038
56	0xbd01c53b	-0.031682234
57	0xbc4064a1	-0.011742742
58	0xbd101af9	-0.035181973
59	0x3d23e246	0.040010713
60	0x3d8cc837	0.068741255
61	0x3d4ae4ea	0.049534716
62	0xbc0afd78	-0.008483283
63	0xbdb6e698	-0.08930701
64	0x3d7b5f55	0.061370213
65	0xbc0b4f95	-0.008502861
66	0x3d936af1	0.07198132
67	0x3cb7aa8a	0.022420187
68	0x3abe7300	0.0014530122
69	0x3cf4e5f4	0.029894806
70	0x3d1b353e	0.037892573
71	0x39ceb733	0.00039427876
72	0x3b8c39d6	0.0042793555
73	0xbb6b29a0	-0.0035882965
74	0x3d7810ca	0.060562886
75	0x3cc9db8f	0.024640827
76	0xbd2579f7	-0.040399518
77	0x3da8b109	0.08236892
78	0x3dad75e3	0.08469751
79	0x3d7262db	0.059176307
80	0x3c81bd44	0.01583732
81	0x3bb12510	0.0054060295
82	0xbda801db	-0.08203479
83	0x3d83f66b	0.06443485
84	0xbd821051	-0.06350768
85	0xbdaa5e00	-0.0831871
86	0x3c5d855f	0.013520568
87	0xbdf240fb	-0.118288
88	0x3b161ae5	0.0022904214
89	0xbd2e5cfa	-0.042569138
90	0xba2eedfb	-0.0006673035
91	0xbd0b7b3c	-0.034053072
92	0x3d9260a5	0.0714734
93	0xbdae3704	-0.08506587
94	0x3c850408	0.016237274
95	0xbc0405ff	-0.00805807
96	0xbdac3f13	-0.08410468
97	0x3d5c25d8	0.053747028
98	0xbc02268b	-0.00794376
99	0xbdd1f98b	-0.10252675
100	0xbdb51acf	-0.08843004
101	0x3c335688	0.010945924
102	0x3d81f79f	0.06346058
103	0xbca500d4	-0.020141996
104	0xbcd5e71a	-0.026111174
105	0xbdb61a2a	-0.08891709
106	0x3d3d596c	0.046227857
107	0xbd23dfaa	-0.040008225
108	0xbd266814	-0.0406266
109	0x3d09c148	0.033631593
110	0x3d9e4ff7	0.07730096
111	0x3ce4d5e8	0.02793403
112	0x3cd0d7c0	0.025493503
113	0x3d9b0725	0.07569722
114	0x3b765e00	0.003759265
115	0x3c6005f8	0.013673298
116	0xbbd39fc0	-0.0064582527
117	0xbd8ceab5	-0.06880704
118	0xbc8ff133	-0.017571067
119	0xbd7baf55	-0.061446507
120	0x3d51832a	0.05115048
121	0xbd79b9b3	-0.060968112
122	0xbdc6c396	-0.09705274
123	0xbcf2faa6	-0.029660534
124	0x3d867923	0.06566074
125	0xbda5bb9c	-0.08092424
126	0xbd2ceb6a	-0.042216696
127	0xbbddeb30	-0.0067724213
128	0xbd1e5422	-0.038654454
129	0x3d2b089e	0.041756265
130	0x3d9e1faf	0.07720887
131	0x3d43f412	0.047840185
132	0xbc98b3e4	-0.018640466
133	0xbd8e1f70	-0.0693959
134	0xbd95757e	-0.072978005
135	0xbcad6314	-0.021165408
136	0xbce41a62	-0.027844612
137	0xbd894840	-0.06703234
138	0x3cb310d8	0.021858618
139	0xbd092f0b	-0.03349213
140	0x3cd1fad0	0.025632292
141	0xbd404058	-0.046936363
142	0xbc027c90	-0.007964268
143	0xbcd9e8d2	-0.026600275
144	0x3d5e61a2	0.05429233
145	0xbda53532	-0.08066787
146	0xbd0ec3a7	-0.034854557
147	0x3c9aa0a0	0.01887542
148	0xbccbff14	-0.024901904
149	0xbac64580	-0.0015126914
150	0x3d74af4e	0.059737496
151	0x3c4f4e70	0.012652978
152	0x3c328560	0.010896057
153	0x3cd38954	0.02582232
154	0xbd42c832	-0.047554202
155	0xbd109641	-0.035299543
156	0x3d2d6c4a	0.0423396
157	0x3c51ee78	0.012813203
158	0x3d6c2baa	0.05765883
159	0xbc38e378	-0.0112847015
160	0x3daa0cf7	0.08303254
161	0x3d583586	0.05278542
162	0xbccad848	-0.024761334
163	0xbd390534	-0.045170978
164	0x3c923878	0.017849192
165	0xbd9702e8	-0.07373601
166	0xbd25cd00	-0.040478706
167	0x3cddd22c	0.027077757
168	0x3bfc9e10	0.007709272
169	0x3d23d7c2	0.040000685
170	0xbd176f40	-0.03697133
171	0x3d985639	0.07438321
172	0xbd4715e4	-0.04860486
173	0xbd398238	-0.045290202
174	0x3d7237da	0.059135295
175	0xbc8bb2f8	-0.017053112
176	0x3ccf23f4	0.025285698
177	0xbc80a108	-0.015701786
178	0xbd8005ca	-0.06251104
179	0xbb67b720	-0.0035356954
180	0x3d243fae	0.040099792
181	0x3d73fdd6	0.05956825
182	0x3d8a15f9	0.06742472
183	0xbb4bfb20	-0.0031125024
184	0x3d831cb1	0.06401957
185	0x3ccc406c	0.024933062
186	0x3b565da0	0.0032709613
187	0x3adade00	0.0016698241
188	0xbc0a2e90	-0.008433953
189	0x3ccec998	0.025242612
190	0xbb95a1a0	-0.0045663863
191	0x3d68d472	0.05684323
192	0xbc5c9200	-0.0134625435
193	0xbd490abe	-0.04908251
194	0x3cd26d24	0.025686808
195	0xbd4adcf6	-0.04952713
196	0x3d60d566	0.054891013
197	0x3d93d71d	0.07218764
198	0x3c687a28	0.014189281
199	0xbc91405c	-0.017730884
200	0xbb82c9b0	-0.003991328
201	0x3d298e3e	0.04139542
202	0xbd8a48a4	-0.06752136
203	0xbcc1d128	-0.023659304
204	0xbd5c9394	-0.05385168
205	0xbda3bb51	-0.07994712
206	0xbd818512	-0.06324209
207	0xbd689dc5	-0.056791086
208	0x3d89d4e1	0.067300566
209	0x3d5d49ba	0.05402539
210	0xbd75c87e	-0.060005657
211	0xbd8eda36	-0.06975214
212	0x3da21c07	0.07915502
213	0x3cabdedc	0.020980291
214	0x3d26b7f6	0.040702783
215	0x3c622708	0.013803251
216	0xbd074650	-0.03302604
217	0xbd439816	-0.047752462
218	0x3d42c8ea	0.047554888
219	0xbdb2d20f	-0.08731472
220	0xbd96a13f	-0.07354974
221	0x3cdaa858	0.0266916
222	0xbcbde264	-0.02317924
223	0x3c8a80d0	0.016907126
224	0x3d411772	0.0471415
225	0xbd500d4e	-0.05079394
226	0xbd4bcba7	-0.049754765
227	0xbd5eacea	-0.054364122
228	0xbd9e622d	-0.07733569
229	0xbbc40d20	-0.00598301
230	0x3d99b72d	0.07505641
231	0xbbb10660	-0.0054023713
232	0x3d468d5e	0.048474662
233	0xbd340c78	-0.043957204
234	0x3c0faf20	0.00876978
235	0xbd87ed41	-0.066370495
236	0xbbbf7300	-0.0058425665
237	0x3c9ee5f8	0.019396767
238	0xbd1ae763	-0.037818324
239	0x3da6323b	0.081150495
240	0x3ccc6f1c	0.024955325
241	0x3d3515f2	0.04421038
242	0x3db427b7	0.087966375
243	0x3d19784e	0.037468247
244	0xbbe38a90	-0.006944008
245	0x3d2ce8c2	0.042214163
246	0x3db26227	0.08710127
247	0xbdae462e	-0.085094795
248	0xbc88840c	-0.016664527
249	0x3d2fceb6	0.042921744
250	0xbcaf7f84	-0.021423109
251	0xbd9345f4	-0.07191077
252	0xbd522af5	-0.0513105
253	0xbd3c2bb1	-0.045940105
254	0x3d16188e	0.03664451
255	0x3d667eba	0.0562732

network.2.bias f4 [128]
0	0xbbd2a42c	-0.006428262
1	0xbda3c2a3	-0.079961084
2	0x3cd0503a	0.02542888
3	0xbbf31268	-0.0074179657
4	0x3d05bedb	0.032652717
5	0xbd78864e	-0.060674958
6	0xbd74468c	-0.05963759
7	0x3cf16131	0.02946529
8	0xbbf30099	-0.0074158427
9	0x3da19cd5	0.078912415
10	0xbda28fe4	-0.07937601
11	0xbd1443fa	-0.03619764
12	0xbd5d13ad	-0.053973842
13	0xbd657a71	-0.056024972
14	0x3cbafec5	0.022826562
15	0xbc4ed0e4	-0.012623046
16	0xbcd0aa74	-0.025471903
17	0x3c2b199d	0.010443118
18	0xbcef5c1a	-0.029218722
19	0xbb8d323e	-0.004308968
20	0xbd99bd97	-0.075068645
21	0xbd0cb92b	-0.034356277
22	0x3cf4f2b3	0.029900884
23	0x3d0fc238	0.03509733
24	0x3cdd7b4c	0.027036332
25	0xbd242c6c	-0.040081427
26	0xbd985bef	-0.0743941
27	0x3cfab1a9	0.030602293
28	0x3d60d940	0.054894686
29	0xbc8e5691	-0.017375262
30	0x3d417dae	0.047238998
31	0x3da37a06	0.079822585
32	0xbd98db66	-0.07463722
33	0x3d819681	0.063275345
34	0xbd43eb4a	-0.04783181
35	0xbce4fed2	-0.027953539
36	0x3cbeb754	0.023280777
37	0xbc9dfb62	-0.019284908
38	0xbb1351dd	-0.0022479214
39	0x3d936684	0.07197288
40	0x3d0a3633	0.033743095
41	0xbc9cc314	-0.01913599
42	0x3cade12e	0.021225538
43	0xbd18b848	-0.03728512
44	0xbcb80818	-0.022464797
45	0xbc671865	-0.014104937
46	0xbd5ec05d	-0.05438267
47	0xbd0ee967	-0.03489056
48	0xbcc47894	-0.023983277
49	0xbd184148	-0.037171632
50	0x3d1cbc15	0.038265307
51	0xbc240bef	-0.010012611
52	0x3d100e99	0.03517017
53	0x3da1dbd7	0.07903259
54	0x3d5a54e7	0.053303625
55	0x3d4b9bfc	0.049709305
56	0xbd8bb814	-0.068222195
57	0xbc116bf2	-0.008875834
58	0x3ccb93d7	0.024850769
59	0xbd054b4c	-0.03254251
60	0xbd6e31fb	-0.058153134
61	0x3d97bfd7	0.074096374
62	0xbcf9acb0	-0.030477852
63	0xbd669ba0	-0.05630076
64	0x3c8328f4	0.016010739
65	0x3d818d5c	0.0632579
66	0xbbfd69fe	-0.0077335825
67	0xbda72c6d	-0.081627704
68	0xbc78d64b	-0.01518781
69	0x3d293d4b	0.04131822
70	0xbb810619	-0.0039374945
71	0x3db732ad	0.089452125
72	0xbcad89b0	-0.021183819
73	0xbb93705d	-0.0044994787
74	0xbba6b32a	-0.005087276
75	0xbc566d40	-0.013087571
76	0x3ce042a5	0.027375529
77	0xbc66abdd	-0.014079061
78	0xbb93e32d	-0.0045131654
79	0x3da159aa	0.0787843
80	0x3cc96666	0.02458496
81	0x39853842	0.00025409652
82	0xbda46a1e	-0.08028053
83	0x3cd077ea	0.025447804
84	0x3cb21993	0.02174071
85	0x3db97718	0.090559185
86	0xbd605d9f	-0.054776784
87	0x3d01f6a6	0.031729363
88	0x3d9a6e04	0.07540515
89	0xbcc51ff9	-0.024063097
90	0xbdb3f7cf	-0.087875
91	0x3cd675a0	0.026179135
92	0xbd92c2b7	-0.07166045
93	0x3d07e4e8	0.033177286
94	0x3da7f002	0.08200075
95	0xbb2ef2d3	-0.0026695027
96	0xbc95b3dc	-0.01827424
97	0xbc88314a	-0.016625065
98	0xbd6590af	-0.056046184
99	0xbd67b011	-0.056564394
100	0xbd237e5b	-0.039915424
101	0x3d146fe7	0.03623953
102	0x3d3c8b84	0.04603149
103	0xbceaf840	-0.028682828
104	0x3dae7453	0.08518281
105	0xbc10b41f	-0.008832007
106	0xbcdf2551	-0.027239474
107	0x3d3c83df	0.0460242
108	0xbd7c50f2	-0.061600633
109	0xbc1d75f1	-0.009610639
110	0x3da04b97	0.078269176
111	0x3d52896a	0.05140058
112	0xbc1e3220	-0.009655505
113	0x3d570bc0	0.05250144
114	0x3d5f20e1	0.054474715
115	0xbc876961	-0.01652974
116	0x3ceba7d6	0.028766554
117	0x3d983548	0.074320376
118	0xbd0b8648	-0.034063607
119	0xbd80b33a	-0.06284185
120	0x3cd69ba7	0.026197268
121	0xbc04bcd8	-0.0081016645
122	0x3cf6c9e6	0.03012557
123	0x3d61da58	0.05513987
124	0x3d0b9ca1	0.03408492
125	0x3d4511b8	0.0481126
126	0x3cd0bbe2	0.025480215
127	0xbcecb498	-0.028894708

network.4.weight f4 [3, 128]
0	0x3d29d86a	0.041466154
1	0xbc86e0b4	-0.016464569
2	0x3f62199f	0.88320345
3	0xbdabe072	-0.08392419
4	0x3f7c1ddf	0.9848308
5	0x3d493342	0.04912115
6	0x3d84cb8d	0.06484137
7	0x3f7782cd	0.9668396
8	0xbd4615b2	-0.048360534
9	0x3f316ec2	0.6930963
10	0xbd50db64	-0.050990477
11	0x3bd1d5d0	0.0064036623
12	0x3b2bcca0	0.0026214495
13	0xbc7d7e68	-0.015472032
14	0x3f768247	0.9629254
15	0x3d0519e0	0.03249538
16	0x3d717d92	0.058957644
17	0x3dc4e7ad	0.09614501
18	0xbda2c289	-0.07947261
19	0xbd2942f3	-0.041323613
20	0xbc203840	-0.009779036
21	0xbd1dfe13	-0.038572382
22	0x3f875879	1.0573875
23	0x3f800507	1.0001534
24	0x3da84de0	0.082179785
25	0x3d8332fb	0.06406208
26	0xbcd284a0	-0.025698006
27	0x3ea91fa5	0.33031955
28	0x3fb13bba	1.3846352
29	0xbc8b2312	-0.016984496
30	0x3d97af87	0.07406526
31	0x3cf382bb	0.029725423
32	0x3da39681	0.07987691
33	0x3f46ce2e	0.77658355
34	0x3da65503	0.081216834
35	0x3db3afe7	0.08773785
36	0x3e010e02	0.12603
37	0xba5beae1	-0.00083891867
38	0xbb62287a	-0.003450899
39	0x3f82c34f	1.0215853
40	0x3f6ca947	0.92445797
41	0xbd7ce1fa	-0.061738946
42	0x3f8a9696	1.0827205
43	0x3d0227c2	0.031776197
44	0xbb644339	-0.0034830107
45	0x3d55a5fd	0.052160252
46	0x3c2117db	0.009832348
47	0x3d8bad5a	0.068201736
48	0xbd527329	-0.051379357
49	0xbd890672	-0.066906825
50	0x3f3c01e9	0.73440415
51	0x3d674c8c	0.056469485
52	0x3f5edc91	0.8705531
53	0x3faad494	1.3346124
54	0x3f954df1	1.1664411
55	0x3f6abc04	0.9169314
56	0xbdb0dd61	-0.08635975
57	0x3d2abf94	0.04168661
58	0x3f7cb11e	0.9870776
59	0x3c0e4551	0.0086835185
60	0xbdb0a995	-0.08626095
61	0x3f8a9345	1.0826193
62	0x3c40d230	0.011768863
63	0x3d8bdb7d	0.068289734
64	0x3f8281b4	1.0195832
65	0x3d8cc3af	0.06873261
66	0x3d9b3ac8	0.07579571
67	0xbdaab044	-0.08334401
68	0xbb724715	-0.0036968638
69	0x3f67ba9a	0.90519106
70	0xbda23039	-0.07919354
71	0x3f697696	0.9119657
72	0x3da19253	0.07889237
73	0xbcfd2c9d	-0.030905062
74	0xbd832eef	-0.06405436
75	0x3c906e38	0.017630681
76	0x3ecab4ca	0.39591056
77	0x3c8fa988	0.017536893
78	0xbd39cf18	-0.045363516
79	0x3f4cc8d5	0.79993945
80	0x3e93bcbb	0.28854927
81	0x3d3ccd8c	0.046094462
82	0x3da53ebd	0.08068607
83	0x3e9901e3	0.29884252
84	0x3e7c6818	0.24649084
85	0x3f6c8f64	0.92406297
86	0x3da4c7e1	0.080459364
87	0x3e8c3bd8	0.27389407
88	0xbe096288	-0.13416493
89	0xbc98a338	-0.018632516
90	0xbd859020	-0.0652163
91	0x3f59cb41	0.85075766
92	0xbbb8c1c0	-0.005638331
93	0x3f75deff	0.9604339
94	0x3d946097	0.072449856
95	0xbe1a88e4	-0.15091282
96	0x3d3c2966	0.045937918
97	0x3cc67a2d	0.02422818
98	0x3cf7c500	0.030245304
99	0xbd17567c	-0.036947712
100	0x3d2114ee	0.0393266
101	0x3f677f8a	0.90428984
102	0x3f748ed1	0.9553042
103	0x3cc734ac	0.024317108
104	0x3f13a543	0.57674044
105	0x3d2991a7	0.04139867
106	0x3daaa203	0.083316825
107	0x3f4822c2	0.78178036
108	0x3c9d6378	0.01921247
109	0xbd402e27	-0.046919014
110	0x3f7606a2	0.9610387
111	0x3f6f9441	0.9358559
112	0x3d74405a	0.059631683
113	0x3fb66a79	1.4251243
114	0x3fb19ecf	1.387659
115	0xbb9c0240	-0.0047610104
116	0x3f53dc00	0.8275757
117	0x3f520c12	0.8204967
118	0xbbefd740	-0.007319361
119	0x3ccb3304	0.0248046
120	0x3f49efdd	0.7888163
121	0xbd1898e3	-0.03725518
122	0x3f81e908	1.014924
123	0x3fa8f84e	1.3200777
124	0x3f71fbdf	0.9452495
125	0x3f4b3c69	0.79389054
126	0x3e1847dc	0.14871162
127	0x3cc59c24	0.024122305
128	0x3ada3c98	0.0016650138
129	0xbcfe18be	-0.031017657
130	0x3f2b34b0	0.6687727
131	0xbd467247	-0.048448827
132	0x3ede9cef	0.43479106
133	0xbdac8801	-0.08424378
134	0x3c6c93d0	0.014439538
135	0x3f065f75	0.52489406
136	0xbceacc0e	-0.028661754
137	0x3f931680	1.1491241
138	0xbd7c7712	-0.06163699
139	0xbdb198af	-0.086717
140	0x3d1eecb2	0.03879995
141	0x3d2b46fe	0.04181575
142	0x3f691f4e	0.9106339
143	0xbd5eb72f	-0.054373916
144	0x3d99df1b	0.07513257
145	0x3ec4c719	0.3843315
146	0x3daedbc5	0.085380115
147	0x3d10d22a	0.035356678
148	0x3d9a0b45	0.07521681
149	0xbd009f48	-0.031401902
150	0x3f11e828	0.5699487
151	0x3f41b432	0.7566558
152	0x3edde6ac	0.4334005
153	0xbd83ab40	-0.06429148
154	0xbcc37320	-0.023858607
155	0x3ef55dfe	0.47923273
156	0x3fa26bec	1.2689185
157	0x3d38a2d2	0.045077153
158	0x3ebc0188	0.36719918
159	0xbf45b773	-0.77233046
160	0x3d706e52	0.05869896
161	0x3da42a2a	0.08015855
162	0x3ce3ec43	0.02782262
163	0xbd2d888c	-0.04236655
164	0x3ef65d1a	0.48117906
165	0xbd9f2420	-0.07770562
166	0xbd79aac6	-0.060953878
167	0x3fa3b32a	1.2789052
168	0x3f0b922a	0.54519904
169	0x3cabd238	0.020974264
170	0x3f3b70f7	0.73219246
171	0xbca6c23a	-0.020356286
172	0x3d533c80	0.05157137
173	0x3d86312a	0.06552346
174	0x3cd8c63f	0.026461719
175	0x3b8534ec	0.0040651467
176	0xbd5d4891	-0.054024283
177	0x3d8793b7	0.06619971
178	0x3f10d78a	0.56578887
179	0xbb85e90c	-0.0040866192
180	0x3ee5ee78	0.449085
181	0x3faf7793	1.3708366
182	0x3f978193	1.1836418
183	0x3f3e8615	0.7442334
184	0x3c4b9c30	0.012427375
185	0xbb3967f7	-0.0028290728
186	0x3f7e3eb4	0.9931443
187	0xbd9354b6	-0.07193892
188	0xbd0e8cd3	-0.03480227
189	0x3fa714b1	1.305319
190	0xbcf839a2	-0.030300919
191	0xbd42ade7	-0.047529127
192	0x3f12a947	0.57289547
193	0xbf51092e	-0.8165463
194	0xbd47a3fe	-0.04874038
195	0xbd29da23	-0.041467797
196	0x3d849ad4	0.064748436
197	0x3f36a74f	0.7134904
198	0x3d06dde0	0.03292644
199	0x3f99a734	1.2004151
200	0x3d6e992a	0.058251537
201	0xbccb4487	-0.02481295
202	0xbb3ea49c	-0.0029089814
203	0xbc5be01f	-0.013420134
204	0x3f06f7c3	0.52721804
205	0xbcc28f51	-0.02374998
206	0x3cc1bbb8	0.023649082
207	0x3fa316f2	1.2741377
208	0x3efd2157	0.494395
209	0xbb2a6ddd	-0.0026005425
210	0x3c992fc0	0.018699527
211	0x3ef130e1	0.47107604
212	0x3efbeeb4	0.49205554
213	0x3fa90f2e	1.3207757
214	0xbc4d3708	-0.0125253275
215	0x3f001882	0.50037396
216	0xbf494dca	-0.7863432
217	0x3d0e1dd5	0.03469642
218	0xbbbde580	-0.005795181
219	0x3f356243	0.7085306
220	0xbd3bf7b3	-0.04589052
221	0x3efbebae	0.49203247
222	0xbf1dec08	-0.6168828
223	0xbd3fb84f	-0.04680663
224	0x3d203076	0.039108716
225	0xbcb3f501	-0.021967413
226	0xbca1a85c	-0.0197336
227	0x3c80a9bc	0.015705936
228	0xbd886983	-0.0666075
229	0x3f326cb4	0.6969712
230	0x3f37b483	0.71759814
231	0xbd28e170	-0.04123062
232	0x3fa7be1a	1.3104889
233	0x3bfa2e1b	0.0076348907
234	0xbd2aa4e0	-0.041661143
235	0x3f19784c	0.59949183
236	0xbd31b669	-0.04338685
237	0x3cbc4808	0.022983566
238	0x3fa2da27	1.2722825
239	0x3f8728bb	1.0559305
240	0xbc7f3930	-0.015577599
241	0x3f83bf22	1.0292704
242	0x3f911e61	1.1337396
243	0xbb598822	-0.0033192714
244	0x3f233316	0.63749826
245	0x3f967f25	1.1757551
246	0x3d7beeb6	0.06150695
247	0x3ccda67c	0.0251038
248	0x3f380b34	0.71892095
249	0xbcc92d8c	-0.024557851
250	0x3f1a633b	0.60307664
251	0x3fa22ea6	1.2670486
252	0x3f159e0d	0.5844429
253	0x3e383800	0.17990112
254	0x3ed41f0c	0.41429937
255	0x3d79dcee	0.06100171

network.4.bias f4 [3]
0	0xbd344763	-0.044013392
1	0x3c616718	0.01375749
2	0xbd4b36fa	-0.049612977

network.0.weight f4 [128, 64]
0	0x3dc3b8cc	0.095567316
1	0x3dd47b66	0.10375099
2	0xbcefe520	-0.02928406
3	0x3deb2a1c	0.11482641
4	0xbce05cb0	-0.027387947
5	0x3ccea238	0.025223836
6	0xbd794510	-0.06085688
7	0x3d965828	0.07341033
8	0x3de1accc	0.110192865
9	0xbdbbcf0e	-0.09170352
10	0x3dde83a4	0.10864952
11	0x3cbfa6b0	0.023394912
12	0x3dbd2294	0.09235111
13	0x3c8aae50	0.016928822
14	0x3d76e15c	0.060273513
15	0xbc909460	-0.017648876
16	0x3dc558c6	0.09636073
17	0x3c975b38	0.018476114
18	0xbd6f05a4	-0.05835499
19	0x3d028208	0.03186229
20	0xbd6be5ac	-0.05759208
21	0xbc702cc0	-0.014659107
22	0xbd4ff3fc	-0.05076979
23	0x3da9d2ae	0.08292137
24	0xbdca142a	-0.09867127
25	0xbd6c098c	-0.057626292
26	0xbd10936c	-0.035296842
27	0xbd99ecfe	-0.07515906
28	0x3c414bf0	0.01179789
29	0xbdfcd88a	-0.12345989
30	0x3de73228	0.112888634
31	0xbdd976c0	-0.10618353
32	0x3dc5a396	0.09650342
33	0x3caa69c8	0.020802394
34	0xbd263fac	-0.040588066
35	0x3d9e31f8	0.077243745
36	0x3c9f9758	0.019481346
37	0x3dced6b0	0.10099542
38	0x3c5fe300	0.013664961
39	0xbd217898	-0.039421648
40	0x3d0990e8	0.03358546
41	0xbd0ad808	-0.03389743
42	0x3d577aa4	0.052607194
43	0x3de48ffe	0.11160277
44	0x3d93fbb6	0.072257444
45	0xbd5fd514	-0.054646567
46	0x3d93c79e	0.07215808
47	0x3cb73870	0.022365779
48	0x3d82017a	0.06347938
49	0xbd9c0886	-0.07618813
50	0xbdfd6aa4	-0.12373856
51	0xbd45d10c	-0.048295066
52	0xbdc45b9c	-0.095877856
53	0x3dd20ed6	0.10256736
54	0x3d1378d8	0.036003917
55	0x3d5413cc	0.051776692
56	0x3d21ecfc	0.039532647
57	0xbb0e8200	-0.0021744967
58	0x3dc85904	0.097826034
59	0xbdb5e438	-0.0888142
60	0x3c00f320	0.0078704655
61	0xbdaebaf4	-0.08531752
62	0x3d1de050	0.038544
63	0xbd3052e0	-0.043047786
64	0x3d1ce298	0.038302034
65	0xbcd55778	-0.026042685
66	0x3dd45306	0.10367398
67	0xbd97bb50	-0.07408774
68	0xbd98ad8a	-0.07454975
69	0xbd98afe6	-0.07455425
70	0x3de641e2	0.11243035
71	0x3d2a9fe4	0.04165639
72	0x3df65610	0.12028134
73	0xbdd3454e	-0.10315953
74	0xbdfdeb98	-0.123984516
75	0xbdc848fe	-0.09779547
76	0xbdac355a	-0.084086135
77	0x3d4f616c	0.050630018
78	0x3d3755b8	0.044759482
79	0x3dd4b776	0.10386555
80	0xbd843474	-0.06455317
81	0xbdae84aa	-0.085213974
82	0x3d87d3f8	0.06632227
83	0xbd4ef3e4	-0.05052556
84	0x3d9b5f5c	0.07586548
85	0xbcf2fef0	-0.02966258
86	0x3d92719a	0.07150574
87	0xbdc6e760	-0.097121
88	0xbd8130ba	-0.06308122
89	0x3d1c18c4	0.038109556
90	0x3cd87b38	0.026425943
91	0xbd0289f4	-0.031869844
92	0x3d989802	0.07450868
93	0x3dae07fa	0.08497615
94	0xbdb9a4f6	-0.09064667
95	0xbd88ab96	-0.066733524
96	0x3dea68d2	0.11445774
97	0xbd2cc3f4	-0.042179063
98	0xbd35832c	-0.04431455
99	0xbdf7b448	-0.12094933
100	0xbd929a84	-0.07158378
101	0x3cffcc88	0.031225458
102	0xbc872938	-0.016499147
103	0xbdb9d3aa	-0.09073575
104	0x3b402840	0.0029320866
105	0xbdaede6e	-0.08538519
106	0xbdd93086	-0.10604958
107	0xbd8cf83a	-0.06883283
108	0xbde00de6	-0.10940151
109	0xbda30144	-0.07959226
110	0x3dffe65e	0.12495111
111	0x3cc16870	0.02360937
112	0x3d1dc71c	0.038519964
113	0xbdeec466	-0.11658554
114	0xbda82254	-0.082096726
115	0xbd2a6c14	-0.041606978
116	0x3ca01fc0	0.01954639
117	0xbde14286	-0.109990165
118	0xbd5c9b64	-0.05385913
119	0xbd994258	-0.07483357
120	0x39b59e00	0.0003464073
121	0xbd3e8450	-0.0465129
122	0xbc0deaf0	-0.0086619705
123	0xbdad7924	-0.08470371
124	0xbdafb798	-0.085799396
125	0xbd9559d2	-0.072925225
126	0xbd2f419c	-0.04278718
127	0xbdca0e50	-0.09866011
128	0xc0add215	-5.431895
129	0xc0b541b9	-5.664273
130	0x3e51d4c7	0.20491324
131	0x40313b66	2.7692504
132	0x4039e54b	2.90462
133	0xbf1c178b	-0.60973424
134	0xc0a2588e	-5.07331
135	0x3f9d9a7e	1.2312772
136	0xbf5ac025	-0.8544944
137	0xbe8b2c7b	-0.27182373
138	0x3f2cf29b	0.67557687
139	0x3f8c2139	1.0947639
140	0x3e66be73	0.22533588
141	0xbfc1325d	-1.5093495
142	0x40718d78	3.7742596
143	0x3e988bbe	0.29794115
144	0xbf11d107	-0.56959575
145	0xbeda95e5	-0.42692485
146	0x3ddefc5a	0.10887976
147	0x3f932240	1.1494827
148	0xc00722a5	-2.1114895
149	0xbfc2832f	-1.5196284
150	0x3f0292eb	0.5100543
151	0x404f7887	3.2417314
152	0x3edeafcf	0.43493506
153	0xbdc1ae38	-0.09457058
154	0x3f0dbe8b	0.5536887
155	0xbff1115b	-1.8833421
156	0x3f7e0351	0.9922381
157	0xbda87596	-0.08225553
158	0xc0090302	-2.1408086
159	0x3fc19624	1.5123944
160	0x3d9b2d19	0.07576961
161	0x3e90636f	0.28200862
162	0x3f5043b5	0.8135331
163	0xbf96e230	-1.1787777
164	0xbe30f147	-0.1727954
165	0xbf47c149	-0.78029305
166	0xbcabdc17	-0.02097897
167	0x3faba591	1.3409902
168	0x3fb4d585	1.4127661
169	0xbfdfeb38	-1.7493658
170	0x3f8d5091	1.1040212
171	0x3f5ac05e	0.8544978
172	0xbf30ebe1	-0.6910992
173	0x3fb4ae85	1.4115759
174	0x3e0c61b4	0.13709146
175	0xbe5dad52	-0.21648148
176	0x3f3b1628	0.7308068
177	0x3e008f90	0.12554765
178	0xbf81ac97	-1.0130795
179	0xbfd44055	-1.6582133
180	0xbf25292f	-0.64515966
181	0x3dfedb53	0.124441765
182	0x3f46fdc5	0.7773097
183	0xbf846006	-1.0341804
184	0xbeacf18c	-0.33778036
185	0xbe123e35	-0.14281543
186	0xbf36fb5e	-0.71477306
187	0xbfa2f5a3	-1.2731212
188	0xbd730661	-0.059332255
189	0xbc52b861	-0.012861342
190	0xbcb4e4d0	-0.022081763
191	0xbd815dc3	-0.06316712
192	0x3da3a310	0.07990086
193	0x3ddc019c	0.107424945
194	0xbc4abf20	-0.012374669
195	0xbce54538	-0.027987108
196	0x3aef1480	0.0018240362
197	0xbbf490a0	-0.0074635297
198	0x3cf62e60	0.03005141
199	0x3d0f7ac8	0.035029203
200	0xbde88384	-0.113532096
201	0xbd3cf284	-0.04612972
202	0x3dd795cc	0.10526618
203	0x3d4773c0	0.048694372
204	0xbbcbb9a0	-0.0062171966
205	0xbd9a5808	-0.07536322
206	0xbd9c9f42	-0.076475635
207	0xbde550fa	-0.11197086
208	0xbd26e48c	-0.040745303
209	0x3d2ce790	0.042213023
210	0x3da33b2c	0.079702705
211	0x3d6c6398	0.057712168
212	0xbde24a28	-0.110493004
213	0xbd99f2e4	-0.07517031
214	0xbca19ab0	-0.019727081
215	0x3df7a438	0.12091869
216	0x3c942118	0.018082187
217	0xbd0497d0	-0.032371342
218	0x3d53d27c	0.051714405
219	0xbd4302e8	-0.047610193
220	0xbda5b28c	-0.08090696
221	0x3dbad9e4	0.091235906
222	0xbd68ceac	-0.056837723
223	0xbccd4728	-0.025058344
224	0xbdfeab7e	-0.12435053
225	0x3dab5552	0.08365883
226	0x3dc1f458	0.09470433
227	0x3d3a98f4	0.045556024
228	0xbdb28090	-0.087159276
229	0xbdfca818	-0.12336749
230	0xbdcfeaf6	-0.10152237
231	0x3dbee636	0.09321253
232	0x3d75d06c	0.06001322
233	0x3dd76cd6	0.10518806
234	0x3d861c56	0.065483734
235	0x3d01954c	0.03163652
236	0xbaa07180	-0.0012240857
237	0xbdc2b086	-0.095063254
238	0xbddb556c	-0.10709652
239	0xbdef7302	-0.11691858
240	0x3d5197e4	0.051170245
241	0xbd7b6028	-0.061371
242	0xbcce1528	-0.025156572
243	0xbd935450	-0.07193816
244	0xbcba98d0	-0.022777945
245	0xbdb42e86	-0.08797936
246	0xbda74640	-0.08167696
247	0x3d29d600	0.041463852
248	0xbd182a20	-0.03714955
249	0x3d9e0a34	0.0771679
250	0xbd24410c	-0.040101096
251	0xbdbbcb10	-0.091695905
252	0xbcb4ac68	-0.022054866
253	0xbd7830d0	-0.060593426
254	0xbd1ca460	-0.038242698
255	0xbdf3b5fc	-0.11899945

network.0.bias f4 [128]
0	0x3a30c800	0.00067436695
1	0xbca4efb8	-0.020133838
2	0x3d919477	0.071083955
3	0x3bf53f00	0.007484317
4	0xbdb54ba6	-0.088523194
5	0xbc7b68b8	-0.015344791
6	0xbdbd59da	-0.092456535
7	0x3c98e130	0.018662065
8	0x3cc08abc	0.023503654
9	0xbdf15b7e	-0.11785029
10	0xbdaf1d80	-0.085505486
11	0xbd80949c	-0.06278345
12	0xbd330614	-0.04370697
13	0xbd07957f	-0.033101555
14	0x3d28444e	0.041080765
15	0xbdca1016	-0.098663494
16	0xbb737fe4	-0.0037155086
17	0xbdd384da	-0.10328074
18	0xbb980afd	-0.004639982
19	0xbda5f250	-0.08102858
20	0xbdc3d766	-0.09562568
21	0x3d9863b9	0.074408956
22	0x3cfc2e3c	0.030783765
23	0xbd2d77c8	-0.04235056
24	0x3d44e625	0.048071045
25	0xbbc30e03	-0.005952598
26	0x3d39f26c	0.045397207
27	0xbbf055a0	-0.007334426
28	0xbdcc090b	-0.09962662
29	0xbd393268	-0.045214087
30	0xbddb7dd2	-0.10717358
31	0x3cb6d5a7	0.022318674
32	0x3d44fcf9	0.048092816
33	0x3dcebf4d	0.100950815
34	0xbdfba966	-0.122881696
35	0x3de69d94	0.112605244
36	0xbc88955c	-0.016672783
37	0x3d0b9b5c	0.03408371
38	0xbd5bc1cc	-0.053651616
39	0x3d13a4a8	0.0360457
40	0x3d66827e	0.05627679
41	0x3d6f30bb	0.058396082
42	0xbdd35d6a	-0.10320552
43	0x3c9ba4a8	0.018999413
44	0x3c79b7ee	0.015241606
45	0xbe108549	-0.14113344
46	0x3d29529c	0.041338548
47	0x3c621fd9	0.013801538
48	0xbdcd94ba	-0.10038133
49	0xbddbc7d6	-0.10731475
50	0x3ba719a0	0.0050994903
51	0x3dcd54fc	0.10025975
52	0x3d14ad3c	0.03629802
53	0x3c8ffde0	0.017577112
54	0xbc04a9d0	-0.008097127
55	0xbdfe5c92	-0.1242
56	0x3c51af52	0.012798147
57	0x3d325941	0.04354215
58	0xbdd8501c	-0.10562155
59	0xbcbca2a0	-0.023026764
60	0x3df8e146	0.121523425
61	0xbd947962	-0.072497144
62	0xbdafc3de	-0.085822806
63	0x3cf1af72	0.029502604
64	0x3cb1cdcf	0.021704582
65	0x3dad159b	0.084513865
66	0xbda84e2e	-0.082180366
67	0xbbb8da4e	-0.0056412583
68	0x3cf683d0	0.03009215
69	0x3da1654a	0.078806475
70	0x3cfd3e25	0.030913422
71	0x3cc41a18	0.023938224
72	0xbd118619	-0.035528276
73	0xbcb6ab60	-0.022298515
74	0xbd8a2732	-0.06745757
75	0x3b5d63ab	0.003378133
76	0x3d07cea8	0.033156067
77	0xbd822234	-0.0635418
78	0xbdaef044	-0.08541921
79	0x3c8cf1bb	0.01720511
80	0x3c899628	0.016795233
81	0xbd7159d4	-0.058923557
82	0x3d5da9f8	0.054117173
83	0xbdd09560	-0.10184741
84	0xbd7b9050	-0.061416924
85	0xbd6fbc2e	-0.05852907
86	0xbd84a2dc	-0.064763755
87	0xbcd703f0	-0.026246995
88	0x3c99da61	0.018780889
89	0xbd32c74c	-0.043647096
90	0xbc8af248	-0.016961232
91	0xbd8583e4	-0.06519297
92	0xbda853aa	-0.08219083
93	0x3c81decb	0.015853306
94	0x3dbcc550	0.09217322
95	0x3dadc6c6	0.08485179
96	0xbdc7cc24	-0.097557336
97	0x3cef1dff	0.029189108
98	0xbd9fb660	-0.07798457
99	0xbd0c0a77	-0.034189668
100	0xbc371de0	-0.011176556
101	0x3d5f7c06	0.054561637
102	0x3d8c6c58	0.068566024
103	0xbdcf4954	-0.10121408
104	0x3cde1338	0.027108774
105	0x3cfc5d78	0.030806288
106	0xbc43304b	-0.011913369
107	0xbd3e84af	-0.046513256
108	0xbd71b2c8	-0.05900839
109	0xbdb49fac	-0.088195175
110	0xbdfbf940	-0.123034
111	0xbd646083	-0.055756103
112	0xbd458b88	-0.04822877
113	0x3cb6d716	0.022319358
114	0xbd5873c0	-0.052844763
115	0x3dd4a3b6	0.10382788
116	0xbdb49f5c	-0.08819458
117	0x3db3d6c4	0.08781198
118	0xbd8d22b0	-0.06891382
119	0xbca93ede	-0.02065986
120	0xbd3bc0a8	-0.04583803
121	0x3d57cc7c	0.052685246
122	0x3d5841b4	0.052797034
123	0x3d4741a1	0.048646573
124	0xbdb14e0c	-0.086574644
125	0x3d14b158	0.03630194
126	0x3d8ddd4b	0.06926974
127	0xbdd212f8	-0.10257524

network.2.weight f4 [128, 128]
0	0x3d1255e6	0.03572645
1	0x3c8bfccc	0.017088316
2	0x3ca59884	0.020214327
3	0x3d9e9a0f	0.07744228
4	0xba49ff6b	-0.0007705602
5	0xbd76e9ee	-0.060281686
6	0xbd232ccf	-0.039837655
7	0x3c3b04d8	0.011414729
8	0xbc5ef2a8	-0.013607658
9	0xbd81a5cd	-0.06330452
10	0x3b219200	0.0024653673
11	0x3d4f4d5a	0.050610878
12	0x3b400a40	0.0029302984
13	0x3d60d858	0.05489382
14	0xbd5959cb	-0.05306415
15	0x3d8df72b	0.06931909
16	0x3b068d34	0.002053094
17	0xbd0de6fd	-0.034644116
18	0x3cce73b6	0.02520166
19	0x3d26efc1	0.04075599
20	0xbd1b3a95	-0.037897665
21	0xbd684082	-0.056702144
22	0x3d087b4e	0.033320718
23	0xbd9f875e	-0.07789491
24	0x3cba0dd8	0.02271168
25	0x3c674adf	0.014116972
26	0xbd76c8da	-0.06025014
27	0xbc328908	-0.010896929
28	0x3c0f2ea9	0.008739152
29	0x3d7bd756	0.061484657
30	0x3d845fed	0.06463609
31	0xbdbaf54c	-0.09128818
32	0xbdb87995	-0.09007565
33	0x3d3a2f1e	0.04545509
34	0x3db297c1	0.08720351
35	0x3d92bc29	0.07164795
36	0x3c91b959	0.017788576
37	0x3daba331	0.08380736
38	0xbd2635a4	-0.0405785
39	0xbc20723b	-0.00979286
40	0xbd999cc5	-0.075006045
41	0xbdb36e18	-0.08761233
42	0xbd74d70c	-0.059775397
43	0xbda4350a	-0.08017929
44	0x3c35641f	0.011071234
45	0x3c901f3e	0.017593022
46	0x3c67780c	0.0141277425
47	0x3d26dc8c	0.040737674
48	0xbd902f68	-0.07040292
49	0xbcd0fafc	-0.025510304
50	0x3d8e70cd	0.06955109
51	0xbda03329	-0.07822258
52	0x3d7e7476	0.062122785
53	0x3cdef9fc	0.027218811
54	0xbd92f51e	-0.07175659
55	0x3c9c36ac	0.019069038
56	0xbd01c53b	-0.031682234
57	0xbc4064a1	-0.011742742
58	0xbd101af9	-0.035181973
59	0x3d23e246	0.040010713
60	0x3d8cc837	0.068741255
61	0x3d4ae4ea	0.049534716
62	0xbc0afd78	-0.008483283
63	0xbdb6e698	-0.08930701
64	0x3d7b5f55	0.061370213
65	0xbc0b4f95	-0.008502861
66	0x3d936af1	0.07198132
67	0x3cb7aa8a	0.022420187
68	0x3abe7300	0.0014530122
69	0x3cf4e5f4	0.029894806
70	0x3d1b353e	0.037892573
71	0x39ceb733	0.00039427876
72	0x3b8c39d6	0.0042793555
73	0xbb6b29a0	-0.0035882965
74	0x3d7810ca	0.060562886
75	0x3cc9db8f	0.024640827
76	0xbd2579f7	-0.040399518
77	0x3da8b109	0.08236892
78	0x3dad75e3	0.08469751
79	0x3d7262db	0.059176307
80	0x3c81bd44	0.01583732
81	0x3bb12510	0.0054060295
82	0xbda801db	-0.08203479
83	0x3d83f66b	0.06443485
84	0xbd821051	-0.06350768
85	0xbdaa5e00	-0.0831871
86	0x3c5d855f	0.013520568
87	0xbdf240fb	-0.118288
88	0x3b161ae5	0.0022904214
89	0xbd2e5cfa	-0.042569138
90	0xba2eedfb	-0.0006673035
91	0xbd0b7b3c	-0.034053072
92	0x3d9260a5	0.0714734
93	0xbdae3704	-0.08506587
94	0x3c850408	0.016237274
95	0xbc0405ff	-0.00805807
96	0xbdac3f13	-0.08410468
97	0x3d5c25d8	0.053747028
98	0xbc02268b	-0.00794376
99	0xbdd1f98b	-0.10252675
100	0xbdb51acf	-0.08843004
101	0x3c335688	0.010945924
102	0x3d81f79f	0.06346058
103	0xbca500d4	-0.020141996
104	0xbcd5e71a	-0.026111174
105	0xbdb61a2a	-0.08891709
106	0x3d3d596c	0.046227857
107	0xbd23dfaa	-0.040008225
108	0xbd266814	-0.0406266
109	0x3d09c148	0.033631593
110	0x3d9e4ff7	0.07730096
111	0x3ce4d5e8	0.02793403
112	0x3cd0d7c0	0.025493503
113	0x3d9b0725	0.07569722
114	0x3b765e00	0.003759265
115	0x3c6005f8	0.013673298
116	0xbbd39fc0	-0.0064582527
117	0xbd8ceab5	-0.06880704
118	0xbc8ff133	-0.017571067
119	0xbd7baf55	-0.061446507
120	0x3d51832a	0.05115048
121	0xbd79b9b3	-0.060968112
122	0xbdc6c396	-0.09705274
123	0xbcf2faa6	-0.029660534
124	0x3d867923	0.06566074
125	0xbda5bb9c	-0.08092424
126	0xbd2ceb6a	-0.042216696
127	0xbbddeb30	-0.0067724213
128	0xbd1e5422	-0.038654454
129	0x3d2b089e	0.041756265
130	0x3d9e1faf	0.07720887
131	0x3d43f412	0.047840185
132	0xbc98b3e4	-0.018640466
133	0xbd8e1f70	-0.0693959
134	0xbd95757e	-0.072978005
135	0xbcad6314	-0.021165408
136	0xbce41a62	-0.027844612
137	0xbd894840	-0.06703234
138	0x3cb310d8	0.021858618
139	0xbd092f0b	-0.03349213
140	0x3cd1fad0	0.025632292
141	0xbd404058	-0.046936363
142	0xbc027c90	-0.007964268
143	0xbcd9e8d2	-0.026600275
144	0x3d5e61a2	0.05429233
145	0xbda53532	-0.08066787
146	0xbd0ec3a7	-0.034854557
147	0x3c9aa0a0	0.01887542
148	0xbccbff14	-0.024901904
149	0xbac64580	-0.0015126914
150	0x3d74af4e	0.059737496
151	0x3c4f4e70	0.012652978
152	0x3c328560	0.010896057
153	0x3cd38954	0.02582232
154	0xbd42c832	-0.047554202
155	0xbd109641	-0.035299543
156	0x3d2d6c4a	0.0423396
157	0x3c51ee78	0.012813203
158	0x3d6c2baa	0.05765883
159	0xbc38e378	-0.0112847015
160	0x3daa0cf7	0.08303254
161	0x3d583586	0.05278542
162	0xbccad848	-0.024761334
163	0xbd390534	-0.045170978
164	0x3c923878	0.017849192
165	0xbd9702e8	-0.07373601
166	0xbd25cd00	-0.040478706
167	0x3cddd22c	0.027077757
168	0x3bfc9e10	0.007709272
169	0x3d23d7c2	0.040000685
170	0xbd176f40	-0.03697133
171	0x3d985639	0.07438321
172	0xbd4715e4	-0.04860486
173	0xbd398238	-0.045290202
174	0x3d7237da	0.059135295
175	0xbc8bb2f8	-0.017053112
176	0x3ccf23f4	0.025285698
177	0xbc80a108	-0.015701786
178	0xbd8005ca	-0.06251104
179	0xbb67b720	-0.0035356954
180	0x3d243fae	0.040099792
181	0x3d73fdd6	0.05956825
182	0x3d8a15f9	0.06742472
183	0xbb4bfb20	-0.0031125024
184	0x3d831cb1	0.06401957
185	0x3ccc406c	0.024933062
186	0x3b565da0	0.0032709613
187	0x3adade00	0.0016698241
188	0xbc0a2e90	-0.008433953
189	0x3ccec998	0.025242612
190	0xbb95a1a0	-0.0045663863
191	0x3d68d472	0.05684323
192	0xbc5c9200	-0.0134625435
193	0xbd490abe	-0.04908251
194	0x3cd26d24	0.025686808
195	0xbd4adcf6	-0.04952713
196	0x3d60d566	0.054891013
197	0x3d93d71d	0.07218764
198	0x3c687a28	0.014189281
199	0xbc91405c	-0.017730884
200	0xbb82c9b0	-0.003991328
201	0x3d298e3e	0.04139542
202	0xbd8a48a4	-0.06752136
203	0xbcc1d128	-0.023659304
204	0xbd5c9394	-0.05385168
205	0xbda3bb51	-0.07994712
206	0xbd818512	-0.06324209
207	0xbd689dc5	-0.056791086
208	0x3d89d4e1	0.067300566
209	0x3d5d49ba	0.05402539
210	0xbd75c87e	-0.060005657
211	0xbd8eda36	-0.06975214
212	0x3da21c07	0.07915502
213	0x3cabdedc	0.020980291
214	0x3d26b7f6	0.040702783
215	0x3c622708	0.013803251
216	0xbd074650	-0.03302604
217	0xbd439816	-0.047752462
218	0x3d42c8ea	0.047554888
219	0xbdb2d20f	-0.08731472
220	0xbd96a13f	-0.07354974
221	0x3cdaa858	0.0266916
222	0xbcbde264	-0.02317924
223	0x3c8a80d0	0.016907126
224	0x3d411772	0.0471415
225	0xbd500d4e	-0.05079394
226	0xbd4bcba7	-0.049754765
227	0xbd5eacea	-0.054364122
228	0xbd9e622d	-0.07733569
229	0xbbc40d20	-0.00598301
230	0x3d99b72d	0.07505641
231	0xbbb10660	-0.0054023713
232	0x3d468d5e	0.048474662
233	0xbd340c78	-0.043957204
234	0x3c0faf20	0.00876978
235	0xbd87ed41	-0.066370495
236	0xbbbf7300	-0.0058425665
237	0x3c9ee5f8	0.019396767
238	0xbd1ae763	-0.037818324
239	0x3da6323b	0.081150495
240	0x3ccc6f1c	0.024955325
241	0x3d3515f2	0.04421038
242	0x3db427b7	0.087966375
243	0x3d19784e	0.037468247
244	0xbbe38a90	-0.006944008
245	0x3d2ce8c2	0.042214163
246	0x3db26227	0.08710127
247	0xbdae462e	-0.085094795
248	0xbc88840c	-0.016664527
249	0x3d2fceb6	0.042921744
250	0xbcaf7f84	-0.021423109
251	0xbd9345f4	-0.07191077
252	0xbd522af5	-0.0513105
253	0xbd3c2bb1	-0.045940105
254	0x3d16188e	0.03664451
255	0x3d667eba	0.0562732

network.2.bias f4 [128]
0	0xbbd2a42c	-0.006428262
1	0xbda3c2a3	-0.079961084
2	0x3cd0503a	0.02542888
3	0xbbf31268	-0.0074179657
4	0x3d05bedb	0.032652717
5	0xbd78864e	-0.060674958
6	0xbd74468c	-0.05963759
7	0x3cf16131	0.02946529
8	0xbbf30099	-0.0074158427
9	0x3da19cd5	0.078912415
10	0xbda28fe4	-0.07937601
11	0xbd1443fa	-0.03619764
12	0xbd5d13ad	-0.053973842
13	0xbd657a71	-0.056024972
14	0x3cbafec5	0.022826562
15	0xbc4ed0e4	-0.012623046
16	0xbcd0aa74	-0.025471903
17	0x3c2b199d	0.010443118
18	0xbcef5c1a	-0.029218722
19	0xbb8d323e	-0.004308968
20	0xbd99bd97	-0.075068645
21	0xbd0cb92b	-0.034356277
22	0x3cf4f2b3	0.029900884
23	0x3d0fc238	0.03509733
24	0x3cdd7b4c	0.027036332
25	0xbd242c6c	-0.040081427
26	0xbd985bef	-0.0743941
27	0x3cfab1a9	0.030602293
28	0x3d60d940	0.054894686
29	0xbc8e5691	-0.017375262
30	0x3d417dae	0.047238998
31	0x3da37a06	0.079822585
32	0xbd98db66	-0.07463722
33	0x3d819681	0.063275345
34	0xbd43eb4a	-0.04783181
35	0xbce4fed2	-0.027953539
36	0x3cbeb754	0.023280777
37	0xbc9dfb62	-0.019284908
38	0xbb1351dd	-0.0022479214
39	0x3d936684	0.07197288
40	0x3d0a3633	0.033743095
41	0xbc9cc314	-0.01913599
42	0x3cade12e	0.021225538
43	0xbd18b848	-0.03728512
44	0xbcb80818	-0.022464797
45	0xbc671865	-0.014104937
46	0xbd5ec05d	-0.05438267
47	0xbd0ee967	-0.03489056
48	0xbcc47894	-0.023983277
49	0xbd184148	-0.037171632
50	0x3d1cbc15	0.038265307
51	0xbc240bef	-0.010012611
52	0x3d100e99	0.03517017
53	0x3da1dbd7	0.07903259
54	0x3d5a54e7	0.053303625
55	0x3d4b9bfc	0.049709305
56	0xbd8bb814	-0.068222195
57	0xbc116bf2	-0.008875834
58	0x3ccb93d7	0.024850769
59	0xbd054b4c	-0.03254251
60	0xbd6e31fb	-0.058153134
61	0x3d97bfd7	0.074096374
62	0xbcf9acb0	-0.030477852
63	0xbd669ba0	-0.05630076
64	0x3c8328f4	0.016010739
65	0x3d818d5c	0.0632579
66	0xbbfd69fe	-0.0077335825
67	0xbda72c6d	-0.081627704
68	0xbc78d64b	-0.01518781
69	0x3d293d4b	0.04131822
70	0xbb810619	-0.0039374945
71	0x3db732ad	0.089452125
72	0xbcad89b0	-0.021183819
73	0xbb93705d	-0.0044994787
74	0xbba6b32a	-0.005087276
75	0xbc566d40	-0.013087571
76	0x3ce042a5	0.027375529
77	0xbc66abdd	-0.014079061
78	0xbb93e32d	-0.0045131654
79	0x3da159aa	0.0787843
80	0x3cc96666	0.02458496
81	0x39853842	0.00025409652
82	0xbda46a1e	-0.08028053
83	0x3cd077ea	0.025447804
84	0x3cb21993	0.02174071
85	0x3db97718	0.090559185
86	0xbd605d9f	-0.054776784
87	0x3d01f6a6	0.031729363
88	0x3d9a6e04	0.07540515
89	0xbcc51ff9	-0.024063097
90	0xbdb3f7cf	-0.087875
91	0x3cd675a0	0.026179135
92	0xbd92c2b7	-0.07166045
93	0x3d07e4e8	0.033177286
94	0x3da7f002	0.08200075
95	0xbb2ef2d3	-0.0026695027
96	0xbc95b3dc	-0.01827424
97	0xbc88314a	-0.016625065
98	0xbd6590af	-0.056046184
99	0xbd67b011	-0.056564394
100	0xbd237e5b	-0.039915424
101	0x3d146fe7	0.03623953
102	0x3d3c8b84	0.04603149
103	0xbceaf840	-0.028682828
104	0x3dae7453	0.08518281
105	0xbc10b41f	-0.008832007
106	0xbcdf2551	-0.027239474
107	0x3d3c83df	0.0460242
108	0xbd7c50f2	-0.061600633
109	0xbc1d75f1	-0.009610639
110	0x3da04b97	0.078269176
111	0x3d52896a	0.05140058
112	0xbc1e3220	-0.009655505
113	0x3d570bc0	0.05250144
114	0x3d5f20e1	0.054474715
115	0xbc876961	-0.01652974
116	0x3ceba7d6	0.028766554
117	0x3d983548	0.074320376
118	0xbd0b8648	-0.034063607
119	0xbd80b33a	-0.06284185
120	0x3cd69ba7	0.026197268
121	0xbc04bcd8	-0.0081016645
122	0x3cf6c9e6	0.03012557
123	0x3d61da58	0.05513987
124	0x3d0b9ca1	0.03408492
125	0x3d4511b8	0.0481126
126	0x3cd0bbe2	0.025480215
127	0xbcecb498	-0.028894708
