models/dqn_step_5000.pt (torch, 413473 bytes, 24 tensors)

network.0.weight f4 [128, 64]
0.095567316 0.10375099 -0.02928406 0.11482641 -0.027387947 0.025223836 -0.06085688 0.07341033
0.110192865 -0.09170352 0.10864952 0.023394912 0.09235111 0.016928822 0.060273513 -0.017648876
0.09636073 0.018476114 -0.05835499 0.03186229 -0.05759208 -0.014659107 -0.05076979 0.08292137
-0.09867127 -0.057626292 -0.035296842 -0.07515906 0.01179789 -0.12345989 0.112888634 -0.10618353
0.09650342 0.020802394 -0.040588066 0.077243745 0.019481346 0.10099542 0.013664961 -0.039421648
0.03358546 -0.03389743 0.052607194 0.11160277 0.072257444 -0.054646567 0.07215808 0.022365779
0.06347938 -0.07618813 -0.12373856 -0.048295066 -0.095877856 0.10256736 0.036003917 0.051776692
0.039532647 -0.0021744967 0.097826034 -0.0888142 0.0078704655 -0.08531752 0.038544 -0.043047786
0.038302034 -0.026042685 0.10367398 -0.07408774 -0.07454975 -0.07455425 0.11243035 0.04165639
0.12028134 -0.10315953 -0.123984516 -0.09779547 -0.084086135 0.050630018 0.044759482 0.10386555
-0.06455317 -0.085213974 0.06632227 -0.05052556 0.07586548 -0.02966258 0.07150574 -0.097121
-0.06308122 0.038109556 0.026425943 -0.031869844 0.07450868 0.08497615 -0.09064667 -0.066733524
0.11445774 -0.042179063 -0.04431455 -0.12094933 -0.07158378 0.031225458 -0.016499147 -0.09073575
0.0029320866 -0.08538519 -0.10604958 -0.06883283 -0.10940151 -0.07959226 0.12495111 0.02360937
0.038519964 -0.11658554 -0.082096726 -0.041606978 0.01954639 -0.109990165 -0.05385913 -0.07483357
0.0003464073 -0.0465129 -0.0086619705 -0.08470371 -0.085799396 -0.072925225 -0.04278718 -0.09866011
-4.1837034 -4.315947 1.0615706 2.9082983 1.9526811 -0.26593676 -3.5863044 1.0104473
0.110632226 0.07688227 -0.14637825 0.9685179 0.3924793 -1.9340405 2.7976172 -0.29954547
-0.9559815 -0.16468193 -0.011112148 0.13382146 -1.5195602 -0.85505986 0.16818893 2.290464
0.17955087 -0.23402618 0.9587874 -1.5427647 1.415763 0.04075982 -1.6352202 1.4559895
0.06752767 0.3367719 0.5103469 -0.75428706 0.388668 -0.22294462 -0.7270287 0.9338518
1.0807309 -2.0088322 0.98161876 0.13590582 -0.5767442 1.2427375 -0.0709002 -0.041452352
0.8674508 0.16891417 -0.57861954 -1.4964287 -0.11259856 0.726803 0.38120243 -1.0043366
0.3479459 0.3326603 -1.1825128 -1.0800436 -0.055872347 -0.009401382 -0.022081763 -0.059870217
0.07990086 0.107424945 -0.012374669 -0.027987108 0.0018240362 -0.0074635297 0.03005141 0.035029203
-0.113532096 -0.04612972 0.10526618 0.048694372 -0.0062171966 -0.07536322 -0.076475635 -0.11197086
-0.040745303 0.042213023 0.079702705 0.057712168 -0.110493004 -0.07517031 -0.019727081 0.12091869
0.018082187 -0.032371342 0.051714405 -0.047610193 -0.08090696 0.091235906 -0.056837723 -0.025058344
-0.12435053 0.08365883 0.09470433 0.045556024 -0.087159276 -0.12336749 -0.10152237 0.09321253
0.06001322 0.10518806 0.065483734 0.03163652 -0.0012240857 -0.095063254 -0.10709652 -0.11691858
0.051170245 -0.061371 -0.025156572 -0.07193816 -0.022777945 -0.08797936 -0.08167696 0.041463852
-0.03714955 0.0771679 -0.040101096 -0.091695905 -0.022054866 -0.060593426 -0.038242698 -0.11899945
00000000: ccb8 c33d 667b d43d 20e5 efbc 1c2a eb3d
00000010: b05c e0bc 38a2 ce3c 1045 79bd 2858 963d
00000020: ccac e13d 0ecf bbbd a483 de3d b0a6 bf3c
00000030: 9422 bd3d 50ae 8a3c 5ce1 763d 6094 90bc
00000040: c658 c53d 385b 973c a405 6fbd 0882 023d
00000050: ace5 6bbd c02c 70bc fcf3 4fbd aed2 a93d
00000060: 2a14 cabd 8c09 6cbd 6c93 10bd feec 99bd
00000070: f04b 413c 8ad8 fcbd 2832 e73d c076 d9bd
00000080: 96a3 c53d c869 aa3c ac3f 26bd f831 9e3d
00000090: 5897 9f3c b0d6 ce3d 00e3 5f3c 9878 21bd
000000a0: e890 093d 08d8 0abd a47a 573d fe8f e43d
000000b0: b6fb 933d 14d5 5fbd 9ec7 933d 7038 b73c
000000c0: 7a01 823d 8608 9cbd a46a fdbd 0cd1 45bd
000000d0: 9c5b c4bd d60e d23d d878 133d cc13 543d
000000e0: fcec 213d 0082 0ebb 0459 c83d 38e4 b5bd
000000f0: 20f3 003c f4ba aebd 50e0 1d3d e052 30bd
00000100: 98e2 1c3d 7857 d5bc 0653 d43d 50bb 97bd
00000110: 8aad 98bd e6af 98bd e241 e63d e49f 2a3d
00000120: 1056 f63d 4e45 d3bd 98eb fdbd fe48 c8bd
00000130: 5a35 acbd 6c61 4f3d b855 373d 76b7 d43d
00000140: 7434 84bd aa84 aebd f8d3 873d e4f3 4ebd
00000150: 5c5f 9b3d f0fe f2bc 9a71 923d 60e7 c6bd
00000160: ba30 81bd c418 1c3d 387b d83c f489 02bd
00000170: 0298 983d fa07 ae3d f6a4 b9bd 96ab 88bd
00000180: d268 ea3d f4c3 2cbd 2c83 35bd 48b4 f7bd
00000190: 849a 92bd 88cc ff3c 3829 87bc aad3 b9bd
000001a0: 4028 403b 6ede aebd 8630 d9bd 3af8 8cbd
000001b0: e60d e0bd 4401 a3bd 5ee6 ff3d 7068 c13c
000001c0: 1cc7 1d3d 66c4 eebd 5422 a8bd 146c 2abd
000001d0: c01f a03c 8642 e1bd 649b 5cbd 5842 99bd
000001e0: 009e b539 5084 3ebd f0ea 0dbc 2479 adbd
000001f0: 98b7 afbd d259 95bd 9c41 2fbd 500e cabd
00000200: e6e0 85c0 3d1c 8ac0 8ce1 873f 8f21 3a40
00000210: 74f1 f93f dd28 88be 0386 65c0 5656 813f
00000220: 2693 e23d 7474 9d3d 2ee4 15be caf0 773f
00000230: 0cf3 c83e a48e f7bf 290c 3340 065e 99be
00000240: 34bb 74bf 61a2 28be ba0f 36bc 7e08 093e
00000250: f380 c2bf 34e5 5abf b839 2c3e f696 1240
00000260: 2fdc 373e 8fa4 6fbe 1773 753f 5079 c5bf
00000270: b937 b53f c5f3 263d e54e d1bf dd5d ba3f
00000280: f24b 8a3d 5e6d ac3e 18a6 023f f518 41bf
00000290: 7eff c63e 984b 64be 8e1e 3abf e910 6f3f
000002a0: 6455 8a3f b590 00c0 5e4b 7b3f e52a 0b3e
000002b0: 82a5 13bf 0612 9f3f 2034 91bd f1c9 29bd
000002c0: 4111 5e3f d6f7 2c3e 6920 14bf fa8a bfbf
000002d0: 139a e6bd c30f 3a3f f72c c33e 1a8e 80bf
000002e0: f725 b23e 7352 aa3e 945c 97bf de3e 8abf
000002f0: 67da 64bd 4108 1abc d0e4 b4bc 793a 75bd
00000300: 10a3 a33d 9c01 dc3d 20bf 4abc 3845 e5bc
00000310: 8014 ef3a a090 f4bb 602e f63c c87a 0f3d
00000320: 8483 e8bd 84f2 3cbd cc95 d73d c073 473d
00000330: a0b9 cbbb 0858 9abd 429f 9cbd fa50 e5bd
00000340: 8ce4 26bd 90e7 2c3d 2c3b a33d 9863 6c3d
00000350: 284a e2bd e4f2 99bd b09a a1bc 38a4 f73d
00000360: 1821 943c d097 04bd 7cd2 533d e802 43bd
00000370: 8cb2 a5bd e4d9 ba3d acce 68bd 2847 cdbc
00000380: 7eab febd 5255 ab3d 58f4 c13d f498 3a3d
00000390: 9080 b2bd 18a8 fcbd f6ea cfbd 36e6 be3d
000003a0: 6cd0 753d d66c d73d 561c 863d 4c95 013d
000003b0: 8071 a0ba 86b0 c2bd 6c55 dbbd 0273 efbd
000003c0: e497 513d 2860 7bbd 2815 cebc 5054 93bd
000003d0: d098 babc 862e b4bd 4046 a7bd 00d6 293d
000003e0: 202a 18bd 340a 9e3d 0c41 24bd 10cb bbbd
000003f0: 68ac b4bc d030 78bd 60a4 1cbd fcb5 f3bd

network.0.bias f4 [128]
0.00067436695 -0.020133838 0.074543916 0.007484317 -0.088523194 -0.015671719 -0.092456535 0.018662065
0.023503654 -0.11785029 -0.085505486 -0.06278345 -0.04370697 -0.033101555 0.04790393 -0.098663494
-0.0022131805 -0.10328074 -0.004639982 -0.08102858 -0.09562568 0.07504638 0.023641659 -0.04235056
0.04871492 -0.005952598 0.045397207 -0.007334426 -0.09962662 -0.045214087 -0.10717358 0.019571364
0.047102094 0.100950815 -0.122881696 0.112605244 -0.016826142 0.03408371 -0.053651616 0.0360457
0.05627679 0.056487884 -0.10320552 0.018999413 0.010656558 -0.14113344 0.04424696 0.013391217
-0.10038133 -0.10731475 0.0050994903 0.10025975 0.03629802 0.017577112 -0.008097127 -0.1242
0.016428236 0.04572205 -0.10491548 -0.023026764 0.121523425 -0.075829625 -0.085822806 0.029502604
0.021885708 0.08578836 -0.082180366 -0.0063125333 0.03009215 0.078806475 0.03205904 0.023938224
-0.039810866 -0.022298515 -0.06745757 0.003378133 0.03289394 -0.0635418 -0.08541921 0.01720511
0.016795233 -0.058923557 0.061856914 -0.10184741 -0.061416924 -0.05852907 -0.064763755 -0.021541592
0.019650146 -0.043647096 -0.016961232 -0.06519297 -0.08219083 0.022968402 0.09217322 0.08485179
-0.097557336 0.03539702 -0.07691299 -0.02730888 -0.011176556 0.055729605 0.07397047 -0.10121408
0.027108774 0.030210288 -0.007329734 -0.046513256 -0.05900839 -0.088195175 -0.123034 -0.055756103
-0.04822877 0.022319358 -0.052844763 0.10382788 -0.08819458 0.08781198 -0.06845948 -0.02065986
-0.04583803 0.052685246 0.052208945 0.048646573 -0.086574644 0.04135741 0.06739483 -0.10257524
00000000: 00c8 303a b8ef a4bc 7baa 983d 003f f53b
00000010: a64b b5bd fa61 80bc da59 bdbd 30e1 983c
00000020: bc8a c03c 7e5b f1bd 801d afbd 9c94 80bd
00000030: 1406 33bd 7f95 07bd e936 443d 1610 cabd
00000040: 020b 11bb da84 d3bd fd0a 98bb 50f2 a5bd
00000050: 66d7 c3bd ebb1 993d 27ac c13c c877 2dbd
00000060: 4c89 473d 030e c3bb 6cf2 393d a055 f0bb
00000070: 0b09 ccbd 6832 39bd d27d dbbd 2054 a03c
00000080: 20ee 403d 4dbf ce3d 66a9 fbbd 949d e63d
00000090: fad6 89bc 5c9b 0b3d ccc1 5bbd a8a4 133d
000000a0: 7e82 663d d75f 673d 6a5d d3bd a8a4 9b3c
000000b0: d898 2e3c 4985 10be 4d3c 353d d666 5b3c
000000c0: ba94 cdbd d6c7 dbbd a019 a73b fc54 cd3d
000000d0: 3cad 143d e0fd 8f3c d0a9 04bc 925c febd
000000e0: 8294 863c 0b47 3b3d eddd d6bd a0a2 bcbc
000000f0: 46e1 f83d 904c 9bbd dec3 afbd 72af f13c
00000100: a849 b33c cfb1 af3d 2e4e a8bd 5ed9 cebb
00000110: d083 f63c 4a65 a13d 5750 033d 181a c43c
00000120: b810 23bd 60ab b6bc 3227 8abd ab63 5d3b
00000130: ccbb 063d 3422 82bd 44f0 aebd bbf1 8c3c
00000140: 2896 893c d459 71bd ad5d 7d3d 6095 d0bd
00000150: 5090 7bbd 2ebc 6fbd dca2 84bd fe77 b0bc
00000160: 58f9 a03c 4cc7 32bd 48f2 8abc e483 85bd
00000170: aa53 a8bd 3b28 bc3c 50c5 bc3d c6c6 ad3d
00000180: 24cc c7bd 77fc 103d 8f84 9dbd dfb6 dfbc
00000190: e01d 37bc ba44 643d d47d 973d 5449 cfbd
000001a0: 3813 de3c 917b f73c 442e f0bb af84 3ebd
000001b0: c8b2 71bd ac9f b4bd 40f9 fbbd 8360 64bd
000001c0: 888b 45bd 16d7 b63c c073 58bd b6a3 d43d
000001d0: 5c9f b4bd c4d6 b33d 7c34 8cbd de3e a9bc
000001e0: a8c0 3bbd 7ccc 573d 0cd9 553d a141 473d
000001f0: 0c4e b1bd 6366 293d 4d06 8a3d f812 d2bd

network.2.weight f4 [128, 128]
0.03572645 0.017088316 0.020214327 0.07744228 -0.0007705602 -0.060281686 -0.039837655 0.011414729
-0.013607658 -0.06330452 0.0024653673 0.050610878 0.0029302984 0.05489382 -0.05306415 0.06931909
0.002053094 -0.034644116 0.02520166 0.04075599 -0.037897665 -0.056702144 0.033320718 -0.07789491
0.02271168 0.014116972 -0.06025014 -0.010896929 0.008739152 0.061484657 0.06463609 -0.09128818
-0.09007565 0.04545509 0.08720351 0.07164795 0.017788576 0.08380736 -0.0405785 -0.00979286
-0.075006045 -0.08761233 -0.059775397 -0.08017929 0.011071234 0.017593022 0.0141277425 0.040737674
-0.07040292 -0.025510304 0.06955109 -0.07822258 0.062122785 0.027218811 -0.07175659 0.019069038
-0.031682234 -0.011742742 -0.035181973 0.040010713 0.068741255 0.049534716 -0.008483283 -0.08930701
0.061370213 -0.008502861 0.07198132 0.022420187 0.0014530122 0.029894806 0.037892573 0.00039427876
0.0042793555 -0.0035882965 0.060562886 0.024640827 -0.040399518 0.08236892 0.08469751 0.059176307
0.01583732 0.0054060295 -0.08203479 0.06443485 -0.06350768 -0.0831871 0.013520568 -0.118288
0.0022904214 -0.042569138 -0.0006673035 -0.034053072 0.0714734 -0.08506587 0.016237274 -0.00805807
-0.08410468 0.053747028 -0.00794376 -0.10252675 -0.08843004 0.010945924 0.06346058 -0.020141996
-0.026111174 -0.08891709 0.046227857 -0.040008225 -0.0406266 0.033631593 0.07730096 0.02793403
0.025493503 0.07569722 0.003759265 0.013673298 -0.0064582527 -0.06880704 -0.017571067 -0.061446507
0.05115048 -0.060968112 -0.09705274 -0.029660534 0.06566074 -0.08092424 -0.042216696 -0.0067724213
-0.038654454 0.041756265 0.07720887 0.047840185 -0.018640466 -0.0693959 -0.072978005 -0.021165408
-0.027844612 -0.06703234 0.021858618 -0.03349213 0.025632292 -0.046936363 -0.007964268 -0.026600275
0.05429233 -0.08066787 -0.034854557 0.01887542 -0.024901904 -0.0015126914 0.059737496 0.012652978
0.010896057 0.02582232 -0.047554202 -0.035299543 0.0423396 0.012813203 0.05765883 -0.0112847015
0.08303254 0.05278542 -0.024761334 -0.045170978 0.017849192 -0.07373601 -0.040478706 0.027077757
0.007709272 0.040000685 -0.03697133 0.07438321 -0.04860486 -0.045290202 0.059135295 -0.017053112
0.025285698 -0.015701786 -0.06251104 -0.0035356954 0.040099792 0.05956825 0.06742472 -0.0031125024
0.06401957 0.024933062 0.0032709613 0.0016698241 -0.008433953 0.025242612 -0.0045663863 0.05684323
-0.0134625435 -0.04908251 0.025686808 -0.04952713 0.054891013 0.07218764 0.014189281 -0.017730884
-0.003991328 0.04139542 -0.06752136 -0.023659304 -0.05385168 -0.07994712 -0.06324209 -0.056791086
0.067300566 0.05402539 -0.060005657 -0.06975214 0.07915502 0.020980291 0.040702783 0.013803251
-0.03302604 -0.047752462 0.047554888 -0.08731472 -0.07354974 0.0266916 -0.02317924 0.016907126
0.0471415 -0.05079394 -0.049754765 -0.054364122 -0.07733569 -0.00598301 0.07505641 -0.0054023713
0.048474662 -0.043957204 0.00876978 -0.066370495 -0.0058425665 0.019396767 -0.037818324 0.081150495
0.024955325 0.04421038 0.087966375 0.037468247 -0.006944008 0.042214163 0.08710127 -0.085094795
-0.016664527 0.042921744 -0.021423109 -0.07191077 -0.0513105 -0.045940105 0.03664451 0.0562732
00000000: e655 123d ccfc 8b3c 8498 a53c 0f9a 9e3d
00000010: 6bff 49ba eee9 76bd cf2c 23bd d804 3b3c
00000020: a8f2 5ebc cda5 81bd 0092 213b 5a4d 4f3d
00000030: 400a 403b 58d8 603d cb59 59bd 2bf7 8d3d
00000040: 348d 063b fde6 0dbd b673 ce3c c1ef 263d
00000050: 953a 1bbd 8240 68bd 4e7b 083d 5e87 9fbd
00000060: d80d ba3c df4a 673c dac8 76bd 0889 32bc
00000070: a92e 0f3c 56d7 7b3d ed5f 843d 4cf5 babd
00000080: 9579 b8bd 1e2f 3a3d c197 b23d 29bc 923d
00000090: 59b9 913c 31a3 ab3d a435 26bd 3b72 20bc
000000a0: c59c 99bd 186e b3bd 0cd7 74bd 0a35 a4bd
000000b0: 1f64 353c 3e1f 903c 0c78 673c 8cdc 263d
000000c0: 682f 90bd fcfa d0bc cd70 8e3d 2933 a0bd
000000d0: 7674 7e3d fcf9 de3c 1ef5 92bd ac36 9c3c
000000e0: 3bc5 01bd a164 40bc f91a 10bd 46e2 233d
000000f0: 37c8 8c3d eae4 4a3d 78fd 0abc 98e6 b6bd
00000100: 555f 7b3d 954f 0bbc f16a 933d 8aaa b73c
00000110: 0073 be3a f4e5 f43c 3e35 1b3d 33b7 ce39
00000120: d639 8c3b a029 6bbb ca10 783d 8fdb c93c
00000130: f779 25bd 09b1 a83d e375 ad3d db62 723d
00000140: 44bd 813c 1025 b13b db01 a8bd 6bf6 833d
00000150: 5110 82bd 005e aabd 5f85 5d3c fb40 f2bd
00000160: e51a 163b fa5c 2ebd fbed 2eba 3c7b 0bbd
00000170: a560 923d 0437 aebd 0804 853c ff05 04bc
00000180: 133f acbd d825 5c3d 8b26 02bc 8bf9 d1bd
00000190: cf1a b5bd 8856 333c 9ff7 813d d400 a5bc
000001a0: 1ae7 d5bc 2a1a b6bd 6c59 3d3d aadf 23bd
000001b0: 1468 26bd 48c1 093d f74f 9e3d e8d5 e43c
000001c0: c0d7 d03c 2507 9b3d 005e 763b f805 603c
000001d0: c09f d3bb b5ea 8cbd 33f1 8fbc 55af 7bbd
000001e0: 2a83 513d b3b9 79bd 96c3 c6bd a6fa f2bc
000001f0: 2379 863d 9cbb a5bd 6aeb 2cbd 30eb ddbb
00000200: 2254 1ebd 9e08 2b3d af1f 9e3d 12f4 433d
00000210: e4b3 98bc 701f 8ebd 7e75 95bd 1463 adbc
00000220: 621a e4bc 4048 89bd d810 b33c 0b2f 09bd
00000230: d0fa d13c 5840 40bd 907c 02bc d2e8 d9bc
00000240: a261 5e3d 3235 a5bd a7c3 0ebd a0a0 9a3c
00000250: 14ff cbbc 8045 c6ba 4eaf 743d 704e 4f3c
00000260: 6085 323c 5489 d33c 32c8 42bd 4196 10bd
00000270: 4a6c 2d3d 78ee 513c aa2b 6c3d 78e3 38bc
00000280: f70c aa3d 8635 583d 48d8 cabc 3405 39bd
00000290: 7838 923c e802 97bd 00cd 25bd 2cd2 dd3c
000002a0: 109e fc3b c2d7 233d 406f 17bd 3956 983d
000002b0: e415 47bd 3882 39bd da37 723d f8b2 8bbc
000002c0: f423 cf3c 08a1 80bc ca05 80bd 20b7 67bb
000002d0: ae3f 243d d6fd 733d f915 8a3d 20fb 4bbb
000002e0: b11c 833d 6c40 cc3c a05d 563b 00de da3a
000002f0: 902e 0abc 98c9 ce3c a0a1 95bb 72d4 683d
00000300: 0092 5cbc be0a 49bd 246d d23c f6dc 4abd
00000310: 66d5 603d 1dd7 933d 287a 683c 5c40 91bc
00000320: b0c9 82bb 3e8e 293d a448 8abd 28d1 c1bc
00000330: 9493 5cbd 51bb a3bd 1285 81bd c59d 68bd
00000340: e1d4 893d ba49 5d3d 7ec8 75bd 36da 8ebd
00000350: 071c a23d dcde ab3c f6b7 263d 0827 623c
00000360: 5046 07bd 1698 43bd eac8 423d 0fd2 b2bd
00000370: 3fa1 96bd 58a8 da3c 64e2 bdbc d080 8a3c
00000380: 7217 413d 4e0d 50bd a7cb 4bbd eaac 5ebd
00000390: 2d62 9ebd 200d c4bb 2db7 993d 6006 b1bb
000003a0: 5e8d 463d 780c 34bd 20af 0f3c 41ed 87bd
000003b0: 0073 bfbb f8e5 9e3c 63e7 1abd 3b32 a63d
000003c0: 1c6f cc3c f215 353d b727 b43d 4e78 193d
000003d0: 908a e3bb c2e8 2c3d 2762 b23d 2e46 aebd
000003e0: 0c84 88bc b6ce 2f3d 847f afbc f445 93bd
000003f0: f52a 52bd b12b 3cbd 8e18 163d ba7e 663d

network.2.bias f4 [128]
-0.006428262 -0.079961084 0.051228005 -0.0074179657 0.030916318 -0.060674958 -0.05963759 0.04700776
-0.0074158427 0.018690571 -0.07937601 -0.03619764 -0.053973842 -0.056024972 0.0444866 -0.012623046
-0.025471903 0.08015404 -0.029218722 -0.004308968 -0.075068645 -0.0061414097 0.053117555 0.051346872
0.1091766 -0.040081427 -0.0743941 0.11137764 0.02705874 -0.017375262 0.10917239 0.025057662
-0.07463722 0.06750253 -0.04783181 -0.027953539 0.107212774 -0.019284908 -0.0022479214 0.019626055
0.04918759 -0.01913599 0.051750794 -0.03728512 -0.022464797 -0.014104937 -0.05438267 -0.03489056
-0.023983277 -0.037171632 0.05776999 -0.010012611 0.06424682 0.06162231 0.014447618 0.04677857
-0.068222195 -0.008875834 0.0453315 -0.03254251 -0.058153134 0.020881148 -0.030477852 -0.05630076
0.05350476 0.032527808 -0.0077335825 -0.081627704 -0.01518781 0.046446033 -0.0039374945 0.039696243
-0.021183819 -0.0017841712 -0.005087276 -0.013087571 0.08860174 -0.014079061 0.0060475194 0.028049668
0.10599253 0.012358944 -0.08028053 0.093066186 0.10523807 0.040429737 -0.054776784 0.07834395
0.03627755 -0.024063097 -0.087875 0.04847618 -0.07166045 0.036938023 0.05761127 -0.0023338525
-0.01827424 -0.016625065 -0.056046184 -0.056564394 -0.039915424 0.050261855 0.045897733 -0.028682828
0.02364279 -0.008832007 -0.027239474 0.049032837 -0.061600633 -0.006562552 0.030248983 0.004775288
-0.009655505 0.035351403 0.034410313 -0.01652974 0.040826097 0.024874456 -0.034063607 -0.06284185
0.03269552 -0.0081016645 0.049146518 0.025129387 0.03472416 0.04338225 0.095267065 -0.028894708
00000000: 2ca4 d2bb a3c2 a3bd 75d4 513d 6812 f3bb
00000010: 3844 fd3c 4e86 78bd 8c46 74bd 358b 403d
00000020: 9900 f3bb f81c 993c e48f a2bd fa43 14bd
00000030: ad13 5dbd 717a 65bd 9537 363d e4d0 4ebc
00000040: 74aa d0bc cd27 a43d 1a5c efbc 3e32 8dbb
00000050: 97bd 99bd e13d c9bb cb91 593d 1951 523d
00000060: fb97 df3d 6c2c 24bd ef5b 98bd f619 e43d
00000070: 4aaa dd3c 9156 8ebc c695 df3d ba45 cd3c
00000080: 66db 98bd c43e 8a3d 4aeb 43bd d2fe e4bc
00000090: 5f92 db3d 62fb 9dbc dd51 13bb d2c6 a03c
000000a0: ed78 493d 14c3 9cbc a4f8 533d 48b8 18bd
000000b0: 1808 b8bc 6518 67bc 5dc0 5ebd 67e9 0ebd
000000c0: 9478 c4bc 4841 18bd 3aa0 6c3d ef0b 24bc
000000d0: d693 833d ad67 7c3d b4b5 6c3c e39a 3f3d
000000e0: 14b8 8bbd f26b 11bc 86ad 393d 4c4b 05bd
000000f0: fb31 6ebd f10e ab3c b0ac f9bc a09b 66bd
00000100: cf27 5b3d e13b 053d fe69 fdbb 6d2c a7bd
00000110: 4bd6 78bc 323e 3e3d 1906 81bb 8798 223d
00000120: b089 adbc dada e9ba 2ab3 a6bb 406d 56bc
00000130: d474 b53d ddab 66bc 452a c63b 6bc8 e53c
00000140: 9d12 d93d 2b7d 4a3c 1e6a a4bd 7c99 be3d
00000150: 0f87 d73d a799 253d 9f5d 60bd cb72 a03d
00000160: c597 143d f91f c5bc cff7 b3bd f58e 463d
00000170: b7c2 92bd 534c 173d ccf9 6b3d 8cf3 18bb
00000180: dcb3 95bc 4a31 88bc af90 65bd 11b0 67bd
00000190: 5b7e 23bd 60df 4d3d 43ff 3b3d 40f8 eabc
000001a0: 86ae c13c 1fb4 10bc 5125 dfbc a8d6 483d
000001b0: f250 7cbd ad0a d7bb b7cc f73c 057a 9c3b
000001c0: 2032 1ebc a2cc 103d d4f1 0c3d 6169 87bc
000001d0: 4439 273d 84c5 cb3c 4886 0bbd 3ab3 80bd
000001e0: bdeb 053d d8bc 04bc dc4d 493d 25dc cd3c
000001f0: ec3a 0e3d 96b1 313d 611b c33d 98b4 ecbc

network.4.weight f4 [3, 128]
0.041466154 -0.016464569 0.28284252 -0.08392419 0.34006974 0.04912115 0.06484137 0.46031356
-0.048360534 0.17586464 -0.050990477 0.0064036623 0.0026214495 -0.015472032 0.28781116 0.03249538
0.058957644 0.022566952 -0.07947261 -0.041323613 -0.009779036 -0.008208849 0.39792386 0.31411868
0.036259085 0.06406208 -0.025698006 0.16905773 0.4767068 -0.016984496 0.059725173 0.00079200265
0.07987691 0.20875472 0.081216834 0.08773785 0.055310607 -0.00083891867 -0.003450899 0.30643332
0.31165928 -0.061738946 0.42126393 0.031776197 -0.0034830107 0.052160252 0.009832348 0.068201736
-0.051379357 -0.066906825 0.15468541 0.056469485 0.3873695 0.54914033 0.35875177 0.23961036
-0.08635975 0.04168661 0.28353578 0.0086835185 -0.08626095 0.32157543 0.011768863 0.068289734
0.42506957 0.08376495 0.07579571 -0.08334401 -0.0036968638 0.24604002 -0.07919354 0.29427308
0.07889237 -0.030899746 -0.06405436 0.017630681 0.19181058 0.017536893 -0.04778712 0.27054772
0.16069408 0.048888765 0.08068607 0.14063539 0.12510633 0.27003103 0.080459364 0.071197785
0.006713118 -0.018632516 -0.0652163 0.19898252 -0.005638331 0.31827447 0.026850156 -0.15091453
0.045937918 0.02422818 0.030245304 -0.036947712 0.0393266 0.24069716 0.27655 0.024317108
0.10221991 0.04139867 0.083316825 0.14823082 0.01921247 -0.046938736 0.27848378 0.30107725
0.059631683 0.5550367 0.51909935 -0.0047610104 0.34674704 0.27334952 -0.007319361 0.0248046
0.14174198 -0.03725518 0.35664466 0.4787584 0.28461677 0.16796279 0.069311254 0.024122305
0.0016650138 -0.031017657 -0.14377849 -0.048448827 -0.17857322 -0.08424378 0.014439538 -0.07887429
-0.028661754 0.425972 -0.06163699 -0.086717 0.03879995 0.04181575 -0.051312506 -0.054373916
0.07513257 0.24973139 0.085380115 0.035356678 0.07521681 -0.060963318 -0.13750023 -0.11761442
0.3167027 -0.06429148 -0.023858607 0.26549482 0.4492443 0.045077153 0.21951854 -0.10512963
0.05869896 -0.22587523 0.02782262 -0.04236655 0.34490284 -0.07770562 -0.060953878 0.48252606
-0.1509121 0.020974264 -0.08578231 -0.020356286 0.05157137 0.06552346 0.026461719 0.0040651467
-0.054024283 0.06619971 -0.16834249 -0.0040866192 -0.07635742 0.5381262 0.41696715 -0.1575983
0.012427375 -0.0028290728 -0.0652774 -0.07193892 -0.03480227 0.478254 -0.030300919 -0.047529127
-0.112782046 -0.2692645 -0.04874038 -0.041467797 0.064748436 -0.13523662 0.03292644 0.41011447
0.058251537 -0.02481665 -0.0029089814 -0.013420134 0.25748596 -0.02374998 0.023589542 0.5122983
0.30093345 -0.002843179 0.018699527 0.23816174 0.32097343 0.4909799 -0.0125253275 0.20815407
-0.2520698 0.03469642 -0.005795181 -0.10888138 -0.04589052 -0.17100638 -0.17799568 -0.046815567
0.039108716 -0.021967413 -0.0197336 0.015705936 -0.0666075 -0.14668255 -0.15259603 -0.04123062
0.47124743 0.0076348907 -0.041661143 -0.15012594 -0.04338685 0.023134857 0.4923112 0.42125687
-0.015577599 0.35655445 0.42025074 -0.0033192714 -0.039307766 0.48370653 0.06150695 0.0251038
-0.14011657 -0.024557851 -0.13913962 0.46693546 -0.16595747 -0.19217966 0.2385731 0.06100171
00000000: 6ad8 293d b4e0 86bc bcd0 903e 72e0 abbd
00000010: 9f1d ae3e 4233 493d 8dcb 843d 38ae eb3e
00000020: b215 46bd dc15 343e 64db 50bd d0d5 d13b
00000030: a0cc 2b3b 687e 7dbc fc5b 933e e019 053d
00000040: 927d 713d 54de b83c 89c2 a2bd f342 29bd
00000050: 4038 20bc 687e 06bc adbc cb3e 2ad4 a03e
00000060: 6884 143d fb32 833d a084 d2bc 781d 2d3e
00000070: ea12 f43e 1223 8bbc 62a2 743d 669e 4f3a
00000080: 8196 a33d ccc3 553e 0355 a63d e7af b33d
00000090: 608d 623d e1ea 5bba 7a28 62bb d4e4 9c3e
000000a0: ce91 9f3e fae1 7cbd e8af d73e c227 023d
000000b0: 3943 64bb fda5 553d db17 213c 5aad 8b3d
000000c0: 2973 52bd 7206 89bd da65 1e3e 8c4c 673d
000000d0: 4c55 c63e 7694 0c3f 50ae b73e 6b5c 753e
000000e0: 61dd b0bd 94bf 2a3d 9a2b 913e 5145 0e3c
000000f0: 95a9 b0bd 89a5 a43e 30d2 403c 7ddb 8b3d
00000100: b8a2 d93e f58c ab3d c83a 9b3d 44b0 aabd
00000110: 1547 72bb eaf1 7b3e 3930 a2bd f6aa 963e
00000120: 5392 a13d 7721 fdbc ef2e 83bd 386e 903c
00000130: fe69 443e 88a9 8f3c 6dbc 43bd 3b85 8a3e
00000140: fd8c 243e 963f 483d bd3e a53d b902 103e
00000150: e01b 003e 8241 8a3e e1c7 a43d 25d0 913d
00000160: b7f9 db3b 38a3 98bc 2090 85bd 13c2 4b3e
00000170: c0c1 b8bb dff4 a23e dcf4 db3c 5789 1abe
00000180: 6629 3c3d 2d7a c63c 00c5 f73c 7c56 17bd
00000190: ee14 213d 5179 763e f697 8d3e ac34 c73c
000001a0: ac58 d13d a791 293d 03a2 aa3d d2c9 173e
000001b0: 7863 9d3c d542 40bd 6d95 8e3e cc26 9a3e
000001c0: 5a40 743d e316 0e3f b2e3 043f 4002 9cbb
000001d0: d488 b13e 78f4 8b3e 40d7 efbb 0433 cb3c
000001e0: cf24 113e e398 18bd 219a b63e d21f f53e
000001f0: 4ab9 913e 70fe 2b3e 0ff3 8d3d 249c c53c
00000200: 983c da3a be18 febc ab3a 13be 4772 46bd
00000210: e6db 36be 0188 acbd d093 6c3c d888 a1bd
00000220: 0ecc eabc 0119 da3e 1277 7cbd af98 b1bd
00000230: b2ec 1e3d fe46 2b3d 102d 52bd 2fb7 5ebd
00000240: 1bdf 993d 96b9 7f3e c5db ae3d 2ad2 103d
00000250: 450b 9a3d acb4 79bd dccc 0cbe d4df f0bd
00000260: db26 a23e 40ab 83bd 2073 c3bc f0ee 873e
00000270: 5903 e63e d2a2 383d 78c9 603e 344e d7bd
00000280: 526e 703d d64b 67be 43ec e33c 8c88 2dbd
00000290: 1b97 b03e 2024 9fbd c6aa 79bd a80d f73e
000002a0: b488 1abe 38d2 ab3c a3ae afbd 3ac2 a6bc
000002b0: 803c 533d 2a31 863d 3fc6 d83c ec34 853b
000002c0: 9148 5dbd b793 873d f961 2cbe 0ce9 85bb
000002d0: 4761 9cbd a3c2 093f b87c d53e 7361 21be
000002e0: 309c 4b3c f767 39bb 28b0 85bd b654 93bd
000002f0: d38c 0ebd b5dd f43e a239 f8bc e7ad 42bd
00000300: 46fa e6bd 09dd 89be fea3 47bd 23da 29bd
00000310: d49a 843d 787b 0abe e0dd 063d 86fa d13e
00000320: 2a99 6e3d 4a4c cbbc 9ca4 3ebb 1fe0 5bbc
00000330: 33d5 833e 518f c2bc db3e c13c fb25 033f
00000340: f313 9a3e a154 3abb c02f 993c ace0 733e
00000350: a156 a43e b861 fb3e 0837 4dbc 5726 553e
00000360: 4b0f 81be d51d 0e3d 80e5 bdbb 33fd debd
00000370: b3f7 3bbd 4c1c 2fbe 8044 36be aec1 3fbd
00000380: 7630 203d 01f5 b3bc 5ca8 a1bc bca9 803c
00000390: 8369 88bd f333 16be 2242 1cbe 70e1 28bd
000003a0: 5847 f13e 1b2e fa3b e0a4 2abd 9dba 19be
000003b0: 69b6 31bd 5085 bd3c 3710 fc3e fbae d73e
000003c0: 3039 7fbc 4e8e b63e 1b2b d73e 2288 59bb
000003d0: 2e01 21bd 62a8 f73e b6ee 7b3d 7ca6 cd3c
000003e0: b87a 0fbe 8c2d c9bc 9e7a 0ebe 2a12 ef3e
000003f0: c1f0 29be bfca 44be 824c 743e eedc 793d

network.4.bias f4 [3]
0.098032914 0.1300049 0.12467095
00000000: 7bc5 c83d 0120 053e 7c53 ff3d

network.0.weight f4 [128, 64]
0.095567316 0.10375099 -0.02928406 0.11482641 -0.027387947 0.025223836 -0.06085688 0.07341033
0.110192865 -0.09170352 0.10864952 0.023394912 0.09235111 0.016928822 0.060273513 -0.017648876
0.09636073 0.018476114 -0.05835499 0.03186229 -0.05759208 -0.014659107 -0.05076979 0.08292137
-0.09867127 -0.057626292 -0.035296842 -0.07515906 0.01179789 -0.12345989 0.112888634 -0.10618353
0.09650342 0.020802394 -0.040588066 0.077243745 0.019481346 0.10099542 0.013664961 -0.039421648
0.03358546 -0.03389743 0.052607194 0.11160277 0.072257444 -0.054646567 0.07215808 0.022365779
0.06347938 -0.07618813 -0.12373856 -0.048295066 -0.095877856 0.10256736 0.036003917 0.051776692
0.039532647 -0.0021744967 0.097826034 -0.0888142 0.0078704655 -0.08531752 0.038544 -0.043047786
0.038302034 -0.026042685 0.10367398 -0.07408774 -0.07454975 -0.07455425 0.11243035 0.04165639
0.12028134 -0.10315953 -0.123984516 -0.09779547 -0.084086135 0.050630018 0.044759482 0.10386555
-0.06455317 -0.085213974 0.06632227 -0.05052556 0.07586548 -0.02966258 0.07150574 -0.097121
-0.06308122 0.038109556 0.026425943 -0.031869844 0.07450868 0.08497615 -0.09064667 -0.066733524
0.11445774 -0.042179063 -0.04431455 -0.12094933 -0.07158378 0.031225458 -0.016499147 -0.09073575
0.0029320866 -0.08538519 -0.10604958 -0.06883283 -0.10940151 -0.07959226 0.12495111 0.02360937
0.038519964 -0.11658554 -0.082096726 -0.041606978 0.01954639 -0.109990165 -0.05385913 -0.07483357
0.0003464073 -0.0465129 -0.0086619705 -0.08470371 -0.085799396 -0.072925225 -0.04278718 -0.09866011
-4.1837034 -4.315947 1.0615706 2.9082983 1.9526811 -0.26593676 -3.5863044 1.0104473
0.110632226 0.07688227 -0.14637825 0.9685179 0.3924793 -1.9340405 2.7976172 -0.29954547
-0.9559815 -0.16468193 -0.011112148 0.13382146 -1.5195602 -0.85505986 0.16818893 2.290464
0.17955087 -0.23402618 0.9587874 -1.5427647 1.415763 0.04075982 -1.6352202 1.4559895
0.06752767 0.3367719 0.5103469 -0.75428706 0.388668 -0.22294462 -0.7270287 0.9338518
1.0807309 -2.0088322 0.98161876 0.13590582 -0.5767442 1.2427375 -0.0709002 -0.041452352
0.8674508 0.16891417 -0.57861954 -1.4964287 -0.11259856 0.726803 0.38120243 -1.0043366
0.3479459 0.3326603 -1.1825128 -1.0800436 -0.055872347 -0.009401382 -0.022081763 -0.059870217
0.07990086 0.107424945 -0.012374669 -0.027987108 0.0018240362 -0.0074635297 0.03005141 0.035029203
-0.113532096 -0.04612972 0.10526618 0.048694372 -0.0062171966 -0.07536322 -0.076475635 -0.11197086
-0.040745303 0.042213023 0.079702705 0.057712168 -0.110493004 -0.07517031 -0.019727081 0.12091869
0.018082187 -0.032371342 0.051714405 -0.047610193 -0.08090696 0.091235906 -0.056837723 -0.025058344
-0.12435053 0.08365883 0.09470433 0.045556024 -0.087159276 -0.12336749 -0.10152237 0.09321253
0.06001322 0.10518806 0.065483734 0.03163652 -0.0012240857 -0.095063254 -0.10709652 -0.11691858
0.051170245 -0.061371 -0.025156572 -0.07193816 -0.022777945 -0.08797936 -0.08167696 0.041463852
-0.03714955 0.0771679 -0.040101096 -0.091695905 -0.022054866 -0.060593426 -0.038242698 -0.11899945
00000000: ccb8 c33d 667b d43d 20e5 efbc 1c2a eb3d
00000010: b05c e0bc 38a2 ce3c 1045 79bd 2858 963d
00000020: ccac e13d 0ecf bbbd a483 de3d b0a6 bf3c
00000030: 9422 bd3d 50ae 8a3c 5ce1 763d 6094 90bc
00000040: c658 c53d 385b 973c a405 6fbd 0882 023d
00000050: ace5 6bbd c02c 70bc fcf3 4fbd aed2 a93d
00000060: 2a14 cabd 8c09 6cbd 6c93 10bd feec 99bd
00000070: f04b 413c 8ad8 fcbd 2832 e73d c076 d9bd
00000080: 96a3 c53d c869 aa3c ac3f 26bd f831 9e3d
00000090: 5897 9f3c b0d6 ce3d 00e3 5f3c 9878 21bd
000000a0: e890 093d 08d8 0abd a47a 573d fe8f e43d
000000b0: b6fb 933d 14d5 5fbd 9ec7 933d 7038 b73c
000000c0: 7a01 823d 8608 9cbd a46a fdbd 0cd1 45bd
000000d0: 9c5b c4bd d60e d23d d878 133d cc13 543d
000000e0: fcec 213d 0082 0ebb 0459 c83d 38e4 b5bd
000000f0: 20f3 003c f4ba aebd 50e0 1d3d e052 30bd
00000100: 98e2 1c3d 7857 d5bc 0653 d43d 50bb 97bd
00000110: 8aad 98bd e6af 98bd e241 e63d e49f 2a3d
00000120: 1056 f63d 4e45 d3bd 98eb fdbd fe48 c8bd
00000130: 5a35 acbd 6c61 4f3d b855 373d 76b7 d43d
00000140: 7434 84bd aa84 aebd f8d3 873d e4f3 4ebd
00000150: 5c5f 9b3d f0fe f2bc 9a71 923d 60e7 c6bd
00000160: ba30 81bd c418 1c3d 387b d83c f489 02bd
00000170: 0298 983d fa07 ae3d f6a4 b9bd 96ab 88bd
00000180: d268 ea3d f4c3 2cbd 2c83 35bd 48b4 f7bd
00000190: 849a 92bd 88cc ff3c 3829 87bc aad3 b9bd
000001a0: 4028 403b 6ede aebd 8630 d9bd 3af8 8cbd
000001b0: e60d e0bd 4401 a3bd 5ee6 ff3d 7068 c13c
000001c0: 1cc7 1d3d 66c4 eebd 5422 a8bd 146c 2abd
000001d0: c01f a03c 8642 e1bd 649b 5cbd 5842 99bd
000001e0: 009e b539 5084 3ebd f0ea 0dbc 2479 adbd
000001f0: 98b7 afbd d259 95bd 9c41 2fbd 500e cabd
00000200: e6e0 85c0 3d1c 8ac0 8ce1 873f 8f21 3a40
00000210: 74f1 f93f dd28 88be 0386 65c0 5656 813f
00000220: 2693 e23d 7474 9d3d 2ee4 15be caf0 773f
00000230: 0cf3 c83e a48e f7bf 290c 3340 065e 99be
00000240: 34bb 74bf 61a2 28be ba0f 36bc 7e08 093e
00000250: f380 c2bf 34e5 5abf b839 2c3e f696 1240
00000260: 2fdc 373e 8fa4 6fbe 1773 753f 5079 c5bf
00000270: b937 b53f c5f3 263d e54e d1bf dd5d ba3f
00000280: f24b 8a3d 5e6d ac3e 18a6 023f f518 41bf
00000290: 7eff c63e 984b 64be 8e1e 3abf e910 6f3f
000002a0: 6455 8a3f b590 00c0 5e4b 7b3f e52a 0b3e
000002b0: 82a5 13bf 0612 9f3f 2034 91bd f1c9 29bd
000002c0: 4111 5e3f d6f7 2c3e 6920 14bf fa8a bfbf
000002d0: 139a e6bd c30f 3a3f f72c c33e 1a8e 80bf
000002e0: f725 b23e 7352 aa3e 945c 97bf de3e 8abf
000002f0: 67da 64bd 4108 1abc d0e4 b4bc 793a 75bd
00000300: 10a3 a33d 9c01 dc3d 20bf 4abc 3845 e5bc
00000310: 8014 ef3a a090 f4bb 602e f63c c87a 0f3d
00000320: 8483 e8bd 84f2 3cbd cc95 d73d c073 473d
00000330: a0b9 cbbb 0858 9abd 429f 9cbd fa50 e5bd
00000340: 8ce4 26bd 90e7 2c3d 2c3b a33d 9863 6c3d
00000350: 284a e2bd e4f2 99bd b09a a1bc 38a4 f73d
00000360: 1821 943c d097 04bd 7cd2 533d e802 43bd
00000370: 8cb2 a5bd e4d9 ba3d acce 68bd 2847 cdbc
00000380: 7eab febd 5255 ab3d 58f4 c13d f498 3a3d
00000390: 9080 b2bd 18a8 fcbd f6ea cfbd 36e6 be3d
000003a0: 6cd0 753d d66c d73d 561c 863d 4c95 013d
000003b0: 8071 a0ba 86b0 c2bd 6c55 dbbd 0273 efbd
000003c0: e497 513d 2860 7bbd 2815 cebc 5054 93bd
000003d0: d098 babc 862e b4bd 4046 a7bd 00d6 293d
000003e0: 202a 18bd 340a 9e3d 0c41 24bd 10cb bbbd
000003f0: 68ac b4bc d030 78bd 60a4 1cbd fcb5 f3bd

network.0.bias f4 [128]
0.00067436695 -0.020133838 0.074543916 0.007484317 -0.088523194 -0.015671719 -0.092456535 0.018662065
0.023503654 -0.11785029 -0.085505486 -0.06278345 -0.04370697 -0.033101555 0.04790393 -0.098663494
-0.0022131805 -0.10328074 -0.004639982 -0.08102858 -0.09562568 0.07504638 0.023641659 -0.04235056
0.04871492 -0.005952598 0.045397207 -0.007334426 -0.09962662 -0.045214087 -0.10717358 0.019571364
0.047102094 0.100950815 -0.122881696 0.112605244 -0.016826142 0.03408371 -0.053651616 0.0360457
0.05627679 0.056487884 -0.10320552 0.018999413 0.010656558 -0.14113344 0.04424696 0.013391217
-0.10038133 -0.10731475 0.0050994903 0.10025975 0.03629802 0.017577112 -0.008097127 -0.1242
0.016428236 0.04572205 -0.10491548 -0.023026764 0.121523425 -0.075829625 -0.085822806 0.029502604
0.021885708 0.08578836 -0.082180366 -0.0063125333 0.03009215 0.078806475 0.03205904 0.023938224
-0.039810866 -0.022298515 -0.06745757 0.003378133 0.03289394 -0.0635418 -0.08541921 0.01720511
0.016795233 -0.058923557 0.061856914 -0.10184741 -0.061416924 -0.05852907 -0.064763755 -0.021541592
0.019650146 -0.043647096 -0.016961232 -0.06519297 -0.08219083 0.022968402 0.09217322 0.08485179
-0.097557336 0.03539702 -0.07691299 -0.02730888 -0.011176556 0.055729605 0.07397047 -0.10121408
0.027108774 0.030210288 -0.007329734 -0.046513256 -0.05900839 -0.088195175 -0.123034 -0.055756103
-0.04822877 0.022319358 -0.052844763 0.10382788 -0.08819458 0.08781198 -0.06845948 -0.02065986
-0.04583803 0.052685246 0.052208945 0.048646573 -0.086574644 0.04135741 0.06739483 -0.10257524
00000000: 00c8 303a b8ef a4bc 7baa 983d 003f f53b
00000010: a64b b5bd fa61 80bc da59 bdbd 30e1 983c
00000020: bc8a c03c 7e5b f1bd 801d afbd 9c94 80bd
00000030: 1406 33bd 7f95 07bd e936 443d 1610 cabd
00000040: 020b 11bb da84 d3bd fd0a 98bb 50f2 a5bd
00000050: 66d7 c3bd ebb1 993d 27ac c13c c877 2dbd
00000060: 4c89 473d 030e c3bb 6cf2 393d a055 f0bb
00000070: 0b09 ccbd 6832 39bd d27d dbbd 2054 a03c
00000080: 20ee 403d 4dbf ce3d 66a9 fbbd 949d e63d
00000090: fad6 89bc 5c9b 0b3d ccc1 5bbd a8a4 133d
000000a0: 7e82 663d d75f 673d 6a5d d3bd a8a4 9b3c
000000b0: d898 2e3c 4985 10be 4d3c 353d d666 5b3c
000000c0: ba94 cdbd d6c7 dbbd a019 a73b fc54 cd3d
000000d0: 3cad 143d e0fd 8f3c d0a9 04bc 925c febd
000000e0: 8294 863c 0b47 3b3d eddd d6bd a0a2 bcbc
000000f0: 46e1 f83d 904c 9bbd dec3 afbd 72af f13c
00000100: a849 b33c cfb1 af3d 2e4e a8bd 5ed9 cebb
00000110: d083 f63c 4a65 a13d 5750 033d 181a c43c
00000120: b810 23bd 60ab b6bc 3227 8abd ab63 5d3b
00000130: ccbb 063d 3422 82bd 44f0 aebd bbf1 8c3c
00000140: 2896 893c d459 71bd ad5d 7d3d 6095 d0bd
00000150: 5090 7bbd 2ebc 6fbd dca2 84bd fe77 b0bc
00000160: 58f9 a03c 4cc7 32bd 48f2 8abc e483 85bd
00000170: aa53 a8bd 3b28 bc3c 50c5 bc3d c6c6 ad3d
00000180: 24cc c7bd 77fc 103d 8f84 9dbd dfb6 dfbc
00000190: e01d 37bc ba44 643d d47d 973d 5449 cfbd
000001a0: 3813 de3c 917b f73c 442e f0bb af84 3ebd
000001b0: c8b2 71bd ac9f b4bd 40f9 fbbd 8360 64bd
000001c0: 888b 45bd 16d7 b63c c073 58bd b6a3 d43d
000001d0: 5c9f b4bd c4d6 b33d 7c34 8cbd de3e a9bc
000001e0: a8c0 3bbd 7ccc 573d 0cd9 553d a141 473d
000001f0: 0c4e b1bd 6366 293d 4d06 8a3d f812 d2bd

network.2.weight f4 [128, 128]
0.03572645 0.017088316 0.020214327 0.07744228 -0.0007705602 -0.060281686 -0.039837655 0.011414729
-0.013607658 -0.06330452 0.0024653673 0.050610878 0.0029302984 0.05489382 -0.05306415 0.06931909
0.002053094 -0.034644116 0.02520166 0.04075599 -0.037897665 -0.056702144 0.033320718 -0.07789491
0.02271168 0.014116972 -0.06025014 -0.010896929 0.008739152 0.061484657 0.06463609 -0.09128818
-0.09007565 0.04545509 0.08720351 0.07164795 0.017788576 0.08380736 -0.0405785 -0.00979286
-0.075006045 -0.08761233 -0.059775397 -0.08017929 0.011071234 0.017593022 0.0141277425 0.040737674
-0.07040292 -0.025510304 0.06955109 -0.07822258 0.062122785 0.027218811 -0.07175659 0.019069038
-0.031682234 -0.011742742 -0.035181973 0.040010713 0.068741255 0.049534716 -0.008483283 -0.08930701
0.061370213 -0.008502861 0.07198132 0.022420187 0.0014530122 0.029894806 0.037892573 0.00039427876
0.0042793555 -0.0035882965 0.060562886 0.024640827 -0.040399518 0.08236892 0.08469751 0.059176307
0.01583732 0.0054060295 -0.08203479 0.06443485 -0.06350768 -0.0831871 0.013520568 -0.118288
0.0022904214 -0.042569138 -0.0006673035 -0.034053072 0.0714734 -0.08506587 0.016237274 -0.00805807
-0.08410468 0.053747028 -0.00794376 -0.10252675 -0.08843004 0.010945924 0.06346058 -0.020141996
-0.026111174 -0.08891709 0.046227857 -0.040008225 -0.0406266 0.033631593 0.07730096 0.02793403
0.025493503 0.07569722 0.003759265 0.013673298 -0.0064582527 -0.06880704 -0.017571067 -0.061446507
0.05115048 -0.060968112 -0.09705274 -0.029660534 0.06566074 -0.08092424 -0.042216696 -0.0067724213
-0.038654454 0.041756265 0.07720887 0.047840185 -0.018640466 -0.0693959 -0.072978005 -0.021165408
-0.027844612 -0.06703234 0.021858618 -0.03349213 0.025632292 -0.046936363 -0.007964268 -0.026600275
0.05429233 -0.08066787 -0.034854557 0.01887542 -0.024901904 -0.0015126914 0.059737496 0.012652978
0.010896057 0.02582232 -0.047554202 -0.035299543 0.0423396 0.012813203 0.05765883 -0.0112847015
0.08303254 0.05278542 -0.024761334 -0.045170978 0.017849192 -0.07373601 -0.040478706 0.027077757
0.007709272 0.040000685 -0.03697133 0.07438321 -0.04860486 -0.045290202 0.059135295 -0.017053112
0.025285698 -0.015701786 -0.06251104 -0.0035356954 0.040099792 0.05956825 0.06742472 -0.0031125024
0.06401957 0.024933062 0.0032709613 0.0016698241 -0.008433953 0.025242612 -0.0045663863 0.05684323
-0.0134625435 -0.04908251 0.025686808 -0.04952713 0.054891013 0.07218764 0.014189281 -0.017730884
-0.003991328 0.04139542 -0.06752136 -0.023659304 -0.05385168 -0.07994712 -0.06324209 -0.056791086
0.067300566 0.05402539 -0.060005657 -0.06975214 0.07915502 0.020980291 0.040702783 0.013803251
-0.03302604 -0.047752462 0.047554888 -0.08731472 -0.07354974 0.0266916 -0.02317924 0.016907126
0.0471415 -0.05079394 -0.049754765 -0.054364122 -0.07733569 -0.00598301 0.07505641 -0.0054023713
0.048474662 -0.043957204 0.00876978 -0.066370495 -0.0058425665 0.019396767 -0.037818324 0.081150495
0.024955325 0.04421038 0.087966375 0.037468247 -0.006944008 0.042214163 0.08710127 -0.085094795
-0.016664527 0.042921744 -0.021423109 -0.07191077 -0.0513105 -0.045940105 0.03664451 0.0562732
00000000: e655 123d ccfc 8b3c 8498 a53c 0f9a 9e3d
00000010: 6bff 49ba eee9 76bd cf2c 23bd d804 3b3c
00000020: a8f2 5ebc cda5 81bd 0092 213b 5a4d 4f3d
00000030: 400a 403b 58d8 603d cb59 59bd 2bf7 8d3d
00000040: 348d 063b fde6 0dbd b673 ce3c c1ef 263d
00000050: 953a 1bbd 8240 68bd 4e7b 083d 5e87 9fbd
00000060: d80d ba3c df4a 673c dac8 76bd 0889 32bc
00000070: a92e 0f3c 56d7 7b3d ed5f 843d 4cf5 babd
00000080: 9579 b8bd 1e2f 3a3d c197 b23d 29bc 923d
00000090: 59b9 913c 31a3 ab3d a435 26bd 3b72 20bc
000000a0: c59c 99bd 186e b3bd 0cd7 74bd 0a35 a4bd
000000b0: 1f64 353c 3e1f 903c 0c78 673c 8cdc 263d
000000c0: 682f 90bd fcfa d0bc cd70 8e3d 2933 a0bd
000000d0: 7674 7e3d fcf9 de3c 1ef5 92bd ac36 9c3c
000000e0: 3bc5 01bd a164 40bc f91a 10bd 46e2 233d
000000f0: 37c8 8c3d eae4 4a3d 78fd 0abc 98e6 b6bd
00000100: 555f 7b3d 954f 0bbc f16a 933d 8aaa b73c
00000110: 0073 be3a f4e5 f43c 3e35 1b3d 33b7 ce39
00000120: d639 8c3b a029 6bbb ca10 783d 8fdb c93c
00000130: f779 25bd 09b1 a83d e375 ad3d db62 723d
00000140: 44bd 813c 1025 b13b db01 a8bd 6bf6 833d
00000150: 5110 82bd 005e aabd 5f85 5d3c fb40 f2bd
00000160: e51a 163b fa5c 2ebd fbed 2eba 3c7b 0bbd
00000170: a560 923d 0437 aebd 0804 853c ff05 04bc
00000180: 133f acbd d825 5c3d 8b26 02bc 8bf9 d1bd
00000190: cf1a b5bd 8856 333c 9ff7 813d d400 a5bc
000001a0: 1ae7 d5bc 2a1a b6bd 6c59 3d3d aadf 23bd
000001b0: 1468 26bd 48c1 093d f74f 9e3d e8d5 e43c
000001c0: c0d7 d03c 2507 9b3d 005e 763b f805 603c
000001d0: c09f d3bb b5ea 8cbd 33f1 8fbc 55af 7bbd
000001e0: 2a83 513d b3b9 79bd 96c3 c6bd a6fa f2bc
000001f0: 2379 863d 9cbb a5bd 6aeb 2cbd 30eb ddbb
00000200: 2254 1ebd 9e08 2b3d af1f 9e3d 12f4 433d
00000210: e4b3 98bc 701f 8ebd 7e75 95bd 1463 adbc
00000220: 621a e4bc 4048 89bd d810 b33c 0b2f 09bd
00000230: d0fa d13c 5840 40bd 907c 02bc d2e8 d9bc
00000240: a261 5e3d 3235 a5bd a7c3 0ebd a0a0 9a3c
00000250: 14ff cbbc 8045 c6ba 4eaf 743d 704e 4f3c
00000260: 6085 323c 5489 d33c 32c8 42bd 4196 10bd
00000270: 4a6c 2d3d 78ee 513c aa2b 6c3d 78e3 38bc
00000280: f70c aa3d 8635 583d 48d8 cabc 3405 39bd
00000290: 7838 923c e802 97bd 00cd 25bd 2cd2 dd3c
000002a0: 109e fc3b c2d7 233d 406f 17bd 3956 983d
000002b0: e415 47bd 3882 39bd da37 723d f8b2 8bbc
000002c0: f423 cf3c 08a1 80bc ca05 80bd 20b7 67bb
000002d0: ae3f 243d d6fd 733d f915 8a3d 20fb 4bbb
000002e0: b11c 833d 6c40 cc3c a05d 563b 00de da3a
000002f0: 902e 0abc 98c9 ce3c a0a1 95bb 72d4 683d
00000300: 0092 5cbc be0a 49bd 246d d23c f6dc 4abd
00000310: 66d5 603d 1dd7 933d 287a 683c 5c40 91bc
00000320: b0c9 82bb 3e8e 293d a448 8abd 28d1 c1bc
00000330: 9493 5cbd 51bb a3bd 1285 81bd c59d 68bd
00000340: e1d4 893d ba49 5d3d 7ec8 75bd 36da 8ebd
00000350: 071c a23d dcde ab3c f6b7 263d 0827 623c
00000360: 5046 07bd 1698 43bd eac8 423d 0fd2 b2bd
00000370: 3fa1 96bd 58a8 da3c 64e2 bdbc d080 8a3c
00000380: 7217 413d 4e0d 50bd a7cb 4bbd eaac 5ebd
00000390: 2d62 9ebd 200d c4bb 2db7 993d 6006 b1bb
000003a0: 5e8d 463d 780c 34bd 20af 0f3c 41ed 87bd
000003b0: 0073 bfbb f8e5 9e3c 63e7 1abd 3b32 a63d
000003c0: 1c6f cc3c f215 353d b727 b43d 4e78 193d
000003d0: 908a e3bb c2e8 2c3d 2762 b23d 2e46 aebd
000003e0: 0c84 88bc b6ce 2f3d 847f afbc f445 93bd
000003f0: f52a 52bd b12b 3cbd 8e18 163d ba7e 663d

network.2.bias f4 [128]
-0.006428262 -0.079961084 0.051228005 -0.0074179657 0.030916318 -0.060674958 -0.05963759 0.04700776
-0.0074158427 0.018690571 -0.07937601 -0.03619764 -0.053973842 -0.056024972 0.0444866 -0.012623046
-0.025471903 0.08015404 -0.029218722 -0.004308968 -0.075068645 -0.0061414097 0.053117555 0.051346872
0.1091766 -0.040081427 -0.0743941 0.11137764 0.02705874 -0.017375262 0.10917239 0.025057662
-0.07463722 0.06750253 -0.04783181 -0.027953539 0.107212774 -0.019284908 -0.0022479214 0.019626055
0.04918759 -0.01913599 0.051750794 -0.03728512 -0.022464797 -0.014104937 -0.05438267 -0.03489056
-0.023983277 -0.037171632 0.05776999 -0.010012611 0.06424682 0.06162231 0.014447618 0.04677857
-0.068222195 -0.008875834 0.0453315 -0.03254251 -0.058153134 0.020881148 -0.030477852 -0.05630076
0.05350476 0.032527808 -0.0077335825 -0.081627704 -0.01518781 0.046446033 -0.0039374945 0.039696243
-0.021183819 -0.0017841712 -0.005087276 -0.013087571 0.08860174 -0.014079061 0.0060475194 0.028049668
0.10599253 0.012358944 -0.08028053 0.093066186 0.10523807 0.040429737 -0.054776784 0.07834395
0.03627755 -0.024063097 -0.087875 0.04847618 -0.07166045 0.036938023 0.05761127 -0.0023338525
-0.01827424 -0.016625065 -0.056046184 -0.056564394 -0.039915424 0.050261855 0.045897733 -0.028682828
0.02364279 -0.008832007 -0.027239474 0.049032837 -0.061600633 -0.006562552 0.030248983 0.004775288
-0.009655505 0.035351403 0.034410313 -0.01652974 0.040826097 0.024874456 -0.034063607 -0.06284185
0.03269552 -0.0081016645 0.049146518 0.025129387 0.03472416 0.04338225 0.095267065 -0.028894708
00000000: 2ca4 d2bb a3c2 a3bd 75d4 513d 6812 f3bb
00000010: 3844 fd3c 4e86 78bd 8c46 74bd 358b 403d
00000020: 9900 f3bb f81c 993c e48f a2bd fa43 14bd
00000030: ad13 5dbd 717a 65bd 9537 363d e4d0 4ebc
00000040: 74aa d0bc cd27 a43d 1a5c efbc 3e32 8dbb
00000050: 97bd 99bd e13d c9bb cb91 593d 1951 523d
00000060: fb97 df3d 6c2c 24bd ef5b 98bd f619 e43d
00000070: 4aaa dd3c 9156 8ebc c695 df3d ba45 cd3c
00000080: 66db 98bd c43e 8a3d 4aeb 43bd d2fe e4bc
00000090: 5f92 db3d 62fb 9dbc dd51 13bb d2c6 a03c
000000a0: ed78 493d 14c3 9cbc a4f8 533d 48b8 18bd
000000b0: 1808 b8bc 6518 67bc 5dc0 5ebd 67e9 0ebd
000000c0: 9478 c4bc 4841 18bd 3aa0 6c3d ef0b 24bc
000000d0: d693 833d ad67 7c3d b4b5 6c3c e39a 3f3d
000000e0: 14b8 8bbd f26b 11bc 86ad 393d 4c4b 05bd
000000f0: fb31 6ebd f10e ab3c b0ac f9bc a09b 66bd
00000100: cf27 5b3d e13b 053d fe69 fdbb 6d2c a7bd
00000110: 4bd6 78bc 323e 3e3d 1906 81bb 8798 223d
00000120: b089 adbc dada e9ba 2ab3 a6bb 406d 56bc
00000130: d474 b53d ddab 66bc 452a c63b 6bc8 e53c
00000140: 9d12 d93d 2b7d 4a3c 1e6a a4bd 7c99 be3d
00000150: 0f87 d73d a799 253d 9f5d 60bd cb72 a03d
00000160: c597 143d f91f c5bc cff7 b3bd f58e 463d
00000170: b7c2 92bd 534c 173d ccf9 6b3d 8cf3 18bb
00000180: dcb3 95bc 4a31 88bc af90 65bd 11b0 67bd
00000190: 5b7e 23bd 60df 4d3d 43ff 3b3d 40f8 eabc
000001a0: 86ae c13c 1fb4 10bc 5125 dfbc a8d6 483d
000001b0: f250 7cbd ad0a d7bb b7cc f73c 057a 9c3b
000001c0: 2032 1ebc a2cc 103d d4f1 0c3d 6169 87bc
000001d0: 4439 273d 84c5 cb3c 4886 0bbd 3ab3 80bd
000001e0: bdeb 053d d8bc 04bc dc4d 493d 25dc cd3c
000001f0: ec3a 0e3d 96b1 313d 611b c33d 98b4 ecbc
