models/dqn_step_10000.pt (torch, 413509 bytes, 24 tensors)

network.0.weight f4 [128, 64]
000000 cc b8 c3 3d 66 7b d4 3d 20 e5 ef bc 1c 2a eb 3d
       0.095567316 0.10375099 -0.02928406 0.11482641
000010 b0 5c e0 bc 38 a2 ce 3c 10 45 79 bd 28 58 96 3d
       -0.027387947 0.025223836 -0.06085688 0.07341033
000020 cc ac e1 3d 0e cf bb bd a4 83 de 3d b0 a6 bf 3c
       0.110192865 -0.09170352 0.10864952 0.023394912
000030 94 22 bd 3d 50 ae 8a 3c 5c e1 76 3d 60 94 90 bc
       0.09235111 0.016928822 0.060273513 -0.017648876
000040 c6 58 c5 3d 38 5b 97 3c a4 05 6f bd 08 82 02 3d
       0.09636073 0.018476114 -0.05835499 0.03186229
000050 ac e5 6b bd c0 2c 70 bc fc f3 4f bd ae d2 a9 3d
       -0.05759208 -0.014659107 -0.05076979 0.08292137
000060 2a 14 ca bd 8c 09 6c bd 6c 93 10 bd fe ec 99 bd
       -0.09867127 -0.057626292 -0.035296842 -0.07515906
000070 f0 4b 41 3c 8a d8 fc bd 28 32 e7 3d c0 76 d9 bd
       0.01179789 -0.12345989 0.112888634 -0.10618353
000080 96 a3 c5 3d c8 69 aa 3c ac 3f 26 bd f8 31 9e 3d
       0.09650342 0.020802394 -0.040588066 0.077243745
000090 58 97 9f 3c b0 d6 ce 3d 00 e3 5f 3c 98 78 21 bd
       0.019481346 0.10099542 0.013664961 -0.039421648
0000a0 e8 90 09 3d 08 d8 0a bd a4 7a 57 3d fe 8f e4 3d
       0.03358546 -0.03389743 0.052607194 0.11160277
0000b0 b6 fb 93 3d 14 d5 5f bd 9e c7 93 3d 70 38 b7 3c
       0.072257444 -0.054646567 0.07215808 0.022365779
0000c0 7a 01 82 3d 86 08 9c bd a4 6a fd bd 0c d1 45 bd
       0.06347938 -0.07618813 -0.12373856 -0.048295066
0000d0 9c 5b c4 bd d6 0e d2 3d d8 78 13 3d cc 13 54 3d
       -0.095877856 0.10256736 0.036003917 0.051776692
0000e0 fc ec 21 3d 00 82 0e bb 04 59 c8 3d 38 e4 b5 bd
       0.039532647 -0.0021744967 0.097826034 -0.0888142
0000f0 20 f3 00 3c f4 ba ae bd 50 e0 1d 3d e0 52 30 bd
       0.0078704655 -0.08531752 0.038544 -0.043047786
000100 98 e2 1c 3d 78 57 d5 bc 06 53 d4 3d 50 bb 97 bd
       0.038302034 -0.026042685 0.10367398 -0.07408774
000110 8a ad 98 bd e6 af 98 bd e2 41 e6 3d e4 9f 2a 3d
       -0.07454975 -0.07455425 0.11243035 0.04165639
000120 10 56 f6 3d 4e 45 d3 bd 98 eb fd bd fe 48 c8 bd
       0.12028134 -0.10315953 -0.123984516 -0.09779547
000130 5a 35 ac bd 6c 61 4f 3d b8 55 37 3d 76 b7 d4 3d
       -0.084086135 0.050630018 0.044759482 0.10386555
000140 74 34 84 bd aa 84 ae bd f8 d3 87 3d e4 f3 4e bd
       -0.06455317 -0.085213974 0.06632227 -0.05052556
000150 5c 5f 9b 3d f0 fe f2 bc 9a 71 92 3d 60 e7 c6 bd
       0.07586548 -0.02966258 0.07150574 -0.097121
000160 ba 30 81 bd c4 18 1c 3d 38 7b d8 3c f4 89 02 bd
       -0.06308122 0.038109556 0.026425943 -0.031869844
000170 02 98 98 3d fa 07 ae 3d f6 a4 b9 bd 96 ab 88 bd
       0.07450868 0.08497615 -0.09064667 -0.066733524
000180 d2 68 ea 3d f4 c3 2c bd 2c 83 35 bd 48 b4 f7 bd
       0.11445774 -0.042179063 -0.04431455 -0.12094933
000190 84 9a 92 bd 88 cc ff 3c 38 29 87 bc aa d3 b9 bd
       -0.07158378 0.031225458 -0.016499147 -0.09073575
0001a0 40 28 40 3b 6e de ae bd 86 30 d9 bd 3a f8 8c bd
       0.0029320866 -0.08538519 -0.10604958 -0.06883283
0001b0 e6 0d e0 bd 44 01 a3 bd 5e e6 ff 3d 70 68 c1 3c
       -0.10940151 -0.07959226 0.12495111 0.02360937
0001c0 1c c7 1d 3d 66 c4 ee bd 54 22 a8 bd 14 6c 2a bd
       0.038519964 -0.11658554 -0.082096726 -0.041606978
0001d0 c0 1f a0 3c 86 42 e1 bd 64 9b 5c bd 58 42 99 bd
       0.01954639 -0.109990165 -0.05385913 -0.07483357
0001e0 00 9e b5 39 50 84 3e bd f0 ea 0d bc 24 79 ad bd
       0.0003464073 -0.0465129 -0.0086619705 -0.08470371
0001f0 98 b7 af bd d2 59 95 bd 9c 41 2f bd 50 0e ca bd
       -0.085799396 -0.072925225 -0.04278718 -0.09866011
000200 2b 82 ac c0 8b 11 b4 c0 c1 ba c4 3e 9b ea 2f 40
       -5.3908896 -5.6271415 0.38423732 2.7486942
000210 89 53 3e 40 fb 9f d5 be af bd 96 c0 1e 67 ad 3f
       2.9738486 -0.41723618 -4.7106547 1.3547094
000220 8b a9 e1 be bb f9 dd be 56 ab 1b 3f df 84 ad 3f
       -0.44074664 -0.43354592 0.6080831 1.3556174
000230 ff e6 cf 3e 27 c2 cd bf 71 45 58 40 d7 cb 34 3e
       0.40605924 -1.6074876 3.3792384 0.17655884
000240 3d 41 0a bf 91 b1 3c be 09 74 c9 3b d1 6a 6c 3f
       -0.54005796 -0.18427111 0.0061478657 0.9235049
000250 62 e7 f2 bf dc 01 92 bf e3 1a 6f 3e 11 19 35 40
       -1.8976862 -1.1406817 0.233501 2.829655
000260 38 62 2f 3f 1f b7 f8 3d ce 24 24 3f 16 b8 d6 bf
       0.68509245 0.121443026 0.6411866 -1.6774929
000270 88 b2 9f 3f a2 0e eb bd 8e 5d 08 c0 2b 58 b9 3f
       1.2476358 -0.114774 -2.1307101 1.4480032
000280 97 d3 5b 3d fb cc ed 3d c0 36 41 3f c1 5c 7f bf
       0.053668585 0.116113625 0.75474167 -0.99750906
000290 6c 4f a8 bd cb a1 1d bf d6 f5 1a be 8f 9d c3 3f
       -0.082182735 -0.61575 -0.15132841 1.5282458
0002a0 45 16 a6 3f c9 b8 fd bf 28 08 82 3f 5c 9d 42 3f
       1.2975546 -1.9822017 1.0158739 0.7602136
0002b0 3d 13 83 bf 1b 41 a2 3f d8 3a 73 3e d2 f3 48 be
       -1.0240246 1.2676119 0.23752916 -0.1962426
0002c0 6d b9 0f 3f 52 fb 9c 3e 8b 90 ac bf b3 4b d8 bf
       0.5614231 0.30660492 -1.3481611 -1.6898102
0002d0 f2 dc 08 bf d3 28 be 3e 7e 7b 52 3f 1e 2f 99 bf
       -0.53462136 0.3714052 0.82219684 -1.1967504
0002e0 2d 76 80 bd 5c 4f 2f be fb d6 22 bf f1 05 96 bf
       -0.0627254 -0.17120117 -0.63609284 -1.1720563
0002f0 df 2e 7c bd 68 5a 77 bc d0 e4 b4 bc 16 06 86 bd
       -0.061568137 -0.015097238 -0.022081763 -0.065441296
000300 10 a3 a3 3d 9c 01 dc 3d 20 bf 4a bc 38 45 e5 bc
       0.07990086 0.107424945 -0.012374669 -0.027987108
000310 80 14 ef 3a a0 90 f4 bb 60 2e f6 3c c8 7a 0f 3d
       0.0018240362 -0.0074635297 0.03005141 0.035029203
000320 84 83 e8 bd 84 f2 3c bd cc 95 d7 3d c0 73 47 3d
       -0.113532096 -0.04612972 0.10526618 0.048694372
000330 a0 b9 cb bb 08 58 9a bd 42 9f 9c bd fa 50 e5 bd
       -0.0062171966 -0.07536322 -0.076475635 -0.11197086
000340 8c e4 26 bd 90 e7 2c 3d 2c 3b a3 3d 98 63 6c 3d
       -0.040745303 0.042213023 0.079702705 0.057712168
000350 28 4a e2 bd e4 f2 99 bd b0 9a a1 bc 38 a4 f7 3d
       -0.110493004 -0.07517031 -0.019727081 0.12091869
000360 18 21 94 3c d0 97 04 bd 7c d2 53 3d e8 02 43 bd
       0.018082187 -0.032371342 0.051714405 -0.047610193
000370 8c b2 a5 bd e4 d9 ba 3d ac ce 68 bd 28 47 cd bc
       -0.08090696 0.091235906 -0.056837723 -0.025058344
000380 7e ab fe bd 52 55 ab 3d 58 f4 c1 3d f4 98 3a 3d
       -0.12435053 0.08365883 0.09470433 0.045556024
000390 90 80 b2 bd 18 a8 fc bd f6 ea cf bd 36 e6 be 3d
       -0.087159276 -0.12336749 -0.10152237 0.09321253
0003a0 6c d0 75 3d d6 6c d7 3d 56 1c 86 3d 4c 95 01 3d
       0.06001322 0.10518806 0.065483734 0.03163652
0003b0 80 71 a0 ba 86 b0 c2 bd 6c 55 db bd 02 73 ef bd
       -0.0012240857 -0.095063254 -0.10709652 -0.11691858
0003c0 e4 97 51 3d 28 60 7b bd 28 15 ce bc 50 54 93 bd
       0.051170245 -0.061371 -0.025156572 -0.07193816
0003d0 d0 98 ba bc 86 2e b4 bd 40 46 a7 bd 00 d6 29 3d
       -0.022777945 -0.08797936 -0.08167696 0.041463852
0003e0 20 2a 18 bd 34 0a 9e 3d 0c 41 24 bd 10 cb bb bd
       -0.03714955 0.0771679 -0.040101096 -0.091695905
0003f0 68 ac b4 bc d0 30 78 bd 60 a4 1c bd fc b5 f3 bd
       -0.022054866 -0.060593426 -0.038242698 -0.11899945

network.0.bias f4 [128]
000000 00 c8 30 3a b8 ef a4 bc 2e 00 8d 3d 00 3f f5 3b
       0.00067436695 -0.020133838 0.068848 0.007484317
000010 a6 4b b5 bd 2a 81 71 bc da 59 bd bd 30 e1 98 3c
       -0.088523194 -0.014740268 -0.092456535 0.018662065
000020 bc 8a c0 3c 7e 5b f1 bd 80 1d af bd 9c 94 80 bd
       0.023503654 -0.11785029 -0.085505486 -0.06278345
000030 14 06 33 bd 7f 95 07 bd b3 2e 29 3d 16 10 ca bd
       -0.04370697 -0.033101555 0.0413043 -0.098663494
000040 8c 35 56 bb da 84 d3 bd fd 0a 98 bb 50 f2 a5 bd
       -0.0032685725 -0.10328074 -0.004639982 -0.08102858
000050 66 d7 c3 bd 3d 89 97 3d 04 04 fd 3c c8 77 2d bd
       -0.09562568 0.07399223 0.030885704 -0.04235056
000060 71 81 53 3d 03 0e c3 bb 6c f2 39 3d a0 55 f0 bb
       0.051637117 -0.005952598 0.045397207 -0.007334426
000070 0b 09 cc bd 68 32 39 bd d2 7d db bd e7 8c b6 3c
       -0.09962662 -0.045214087 -0.10717358 0.022283984
000080 71 2f 44 3d 4d bf ce 3d 66 a9 fb bd 94 9d e6 3d
       0.047896806 0.100950815 -0.122881696 0.112605244
000090 2a 15 89 bc 5c 9b 0b 3d cc c1 5b bd a8 a4 13 3d
       -0.016733725 0.03408371 -0.053651616 0.0360457
0000a0 7e 82 66 3d e0 07 6b 3d 6a 5d d3 bd a8 a4 9b 3c
       0.05627679 0.057380557 -0.10320552 0.018999413
0000b0 24 9d 79 3c 49 85 10 be cd ae 27 3d 9a d9 5b 3c
       0.015235219 -0.14113344 0.040938187 0.0134185795
0000c0 ba 94 cd bd d6 c7 db bd a0 19 a7 3b fc 54 cd 3d
       -0.10038133 -0.10731475 0.0050994903 0.10025975
0000d0 3c ad 14 3d e0 fd 8f 3c d0 a9 04 bc 92 5c fe bd
       0.03629802 0.017577112 -0.008097127 -0.1242
0000e0 a6 19 4e 3c 6a 87 1a 3d b1 e3 d6 bd a0 a2 bc bc
       0.012579357 0.037726797 -0.104926474 -0.023026764
0000f0 46 e1 f8 3d b3 30 95 bd de c3 af bd 72 af f1 3c
       0.121523425 -0.07284679 -0.085822806 0.029502604
000100 28 9e b7 3c 01 14 a9 3d 2e 4e a8 bd d9 91 91 bb
       0.022414282 0.082557686 -0.082180366 -0.004442435
000110 d0 83 f6 3c 4a 65 a1 3d 59 43 fc 3c 18 1a c4 3c
       0.03009215 0.078806475 0.030793833 0.023938224
000120 2b d3 18 bd 60 ab b6 bc 32 27 8a bd ab 63 5d 3b
       -0.03731076 -0.022298515 -0.06745757 0.003378133
000130 77 f5 08 3d 34 22 82 bd 44 f0 ae bd bb f1 8c 3c
       0.03343722 -0.0635418 -0.08541921 0.01720511
000140 28 96 89 3c d4 59 71 bd f8 a9 5d 3d 60 95 d0 bd
       0.016795233 -0.058923557 0.054117173 -0.10184741
000150 50 90 7b bd 2e bc 6f bd dc a2 84 bd b1 ce c5 bc
       -0.061416924 -0.05852907 -0.064763755 -0.02414641
000160 1c 52 ad 3c 4c c7 32 bd 48 f2 8a bc e4 83 85 bd
       0.021157317 -0.043647096 -0.016961232 -0.06519297
000170 aa 53 a8 bd bc 57 75 3c 50 c5 bc 3d c6 c6 ad 3d
       -0.08219083 0.014974531 0.09217322 0.08485179
000180 24 cc c7 bd 2d 91 ef 3c 94 95 9e bd 13 fa f5 bc
       -0.097557336 0.02924403 -0.077433735 -0.030026471
000190 e0 1d 37 bc 19 7c 62 3d 42 a7 8b 3d 54 49 cf bd
       -0.011176556 0.05529413 0.06819011 -0.10121408
0001a0 38 13 de 3c 88 99 f2 3c 4b 30 43 bc af 84 3e bd
       0.027108774 0.029614225 -0.011913369 -0.046513256
0001b0 c8 b2 71 bd ac 9f b4 bd 40 f9 fb bd 83 60 64 bd
       -0.05900839 -0.088195175 -0.123034 -0.055756103
0001c0 88 8b 45 bd 16 d7 b6 3c c0 73 58 bd b6 a3 d4 3d
       -0.04822877 0.022319358 -0.052844763 0.10382788
0001d0 5c 9f b4 bd c4 d6 b3 3d d9 d7 8e bd de 3e a9 bc
       -0.08819458 0.08781198 -0.069747634 -0.02065986
0001e0 a8 c0 3b bd 7c cc 57 3d 4e 01 54 3d a1 41 47 3d
       -0.04583803 0.052685246 0.051759057 0.048646573
0001f0 0c 4e b1 bd a7 69 11 3d 74 9c 8e 3d f8 12 d2 bd
       -0.086574644 0.03550115 0.06963435 -0.10257524

network.2.weight f4 [128, 128]
000000 e6 55 12 3d cc fc 8b 3c 84 98 a5 3c 0f 9a 9e 3d
       0.03572645 0.017088316 0.020214327 0.07744228
000010 6b ff 49 ba ee e9 76 bd cf 2c 23 bd d8 04 3b 3c
       -0.0007705602 -0.060281686 -0.039837655 0.011414729
000020 a8 f2 5e bc cd a5 81 bd 00 92 21 3b 5a 4d 4f 3d
       -0.013607658 -0.06330452 0.0024653673 0.050610878
000030 40 0a 40 3b 58 d8 60 3d cb 59 59 bd 2b f7 8d 3d
       0.0029302984 0.05489382 -0.05306415 0.06931909
000040 34 8d 06 3b fd e6 0d bd b6 73 ce 3c c1 ef 26 3d
       0.002053094 -0.034644116 0.02520166 0.04075599
000050 95 3a 1b bd 82 40 68 bd 4e 7b 08 3d 5e 87 9f bd
       -0.037897665 -0.056702144 0.033320718 -0.07789491
000060 d8 0d ba 3c df 4a 67 3c da c8 76 bd 08 89 32 bc
       0.02271168 0.014116972 -0.06025014 -0.010896929
000070 a9 2e 0f 3c 56 d7 7b 3d ed 5f 84 3d 4c f5 ba bd
       0.008739152 0.061484657 0.06463609 -0.09128818
000080 95 79 b8 bd 1e 2f 3a 3d c1 97 b2 3d 29 bc 92 3d
       -0.09007565 0.04545509 0.08720351 0.07164795
000090 59 b9 91 3c 31 a3 ab 3d a4 35 26 bd 3b 72 20 bc
       0.017788576 0.08380736 -0.0405785 -0.00979286
0000a0 c5 9c 99 bd 18 6e b3 bd 0c d7 74 bd 0a 35 a4 bd
       -0.075006045 -0.08761233 -0.059775397 -0.08017929
0000b0 1f 64 35 3c 3e 1f 90 3c 0c 78 67 3c 8c dc 26 3d
       0.011071234 0.017593022 0.0141277425 0.040737674
0000c0 68 2f 90 bd fc fa d0 bc cd 70 8e 3d 29 33 a0 bd
       -0.07040292 -0.025510304 0.06955109 -0.07822258
0000d0 76 74 7e 3d fc f9 de 3c 1e f5 92 bd ac 36 9c 3c
       0.062122785 0.027218811 -0.07175659 0.019069038
0000e0 3b c5 01 bd a1 64 40 bc f9 1a 10 bd 46 e2 23 3d
       -0.031682234 -0.011742742 -0.035181973 0.040010713
0000f0 37 c8 8c 3d ea e4 4a 3d 78 fd 0a bc 98 e6 b6 bd
       0.068741255 0.049534716 -0.008483283 -0.08930701
000100 55 5f 7b 3d 95 4f 0b bc f1 6a 93 3d 8a aa b7 3c
       0.061370213 -0.008502861 0.07198132 0.022420187
000110 00 73 be 3a f4 e5 f4 3c 3e 35 1b 3d 33 b7 ce 39
       0.0014530122 0.029894806 0.037892573 0.00039427876
000120 d6 39 8c 3b a0 29 6b bb ca 10 78 3d 8f db c9 3c
       0.0042793555 -0.0035882965 0.060562886 0.024640827
000130 f7 79 25 bd 09 b1 a8 3d e3 75 ad 3d db 62 72 3d
       -0.040399518 0.08236892 0.08469751 0.059176307
000140 44 bd 81 3c 10 25 b1 3b db 01 a8 bd 6b f6 83 3d
       0.01583732 0.0054060295 -0.08203479 0.06443485
000150 51 10 82 bd 00 5e aa bd 5f 85 5d 3c fb 40 f2 bd
       -0.06350768 -0.0831871 0.013520568 -0.118288
000160 e5 1a 16 3b fa 5c 2e bd fb ed 2e ba 3c 7b 0b bd
       0.0022904214 -0.042569138 -0.0006673035 -0.034053072
000170 a5 60 92 3d 04 37 ae bd 08 04 85 3c ff 05 04 bc
       0.0714734 -0.08506587 0.016237274 -0.00805807
000180 13 3f ac bd d8 25 5c 3d 8b 26 02 bc 8b f9 d1 bd
       -0.08410468 0.053747028 -0.00794376 -0.10252675
000190 cf 1a b5 bd 88 56 33 3c 9f f7 81 3d d4 00 a5 bc
       -0.08843004 0.010945924 0.06346058 -0.020141996
0001a0 1a e7 d5 bc 2a 1a b6 bd 6c 59 3d 3d aa df 23 bd
       -0.026111174 -0.08891709 0.046227857 -0.040008225
0001b0 14 68 26 bd 48 c1 09 3d f7 4f 9e 3d e8 d5 e4 3c
       -0.0406266 0.033631593 0.07730096 0.02793403
0001c0 c0 d7 d0 3c 25 07 9b 3d 00 5e 76 3b f8 05 60 3c
       0.025493503 0.07569722 0.003759265 0.013673298
0001d0 c0 9f d3 bb b5 ea 8c bd 33 f1 8f bc 55 af 7b bd
       -0.0064582527 -0.06880704 -0.017571067 -0.061446507
0001e0 2a 83 51 3d b3 b9 79 bd 96 c3 c6 bd a6 fa f2 bc
       0.05115048 -0.060968112 -0.09705274 -0.029660534
0001f0 23 79 86 3d 9c bb a5 bd 6a eb 2c bd 30 eb dd bb
       0.06566074 -0.08092424 -0.042216696 -0.0067724213
000200 22 54 1e bd 9e 08 2b 3d af 1f 9e 3d 12 f4 43 3d
       -0.038654454 0.041756265 0.07720887 0.047840185
000210 e4 b3 98 bc 70 1f 8e bd 7e 75 95 bd 14 63 ad bc
       -0.018640466 -0.0693959 -0.072978005 -0.021165408
000220 62 1a e4 bc 40 48 89 bd d8 10 b3 3c 0b 2f 09 bd
       -0.027844612 -0.06703234 0.021858618 -0.03349213
000230 d0 fa d1 3c 58 40 40 bd 90 7c 02 bc d2 e8 d9 bc
       0.025632292 -0.046936363 -0.007964268 -0.026600275
000240 a2 61 5e 3d 32 35 a5 bd a7 c3 0e bd a0 a0 9a 3c
       0.05429233 -0.08066787 -0.034854557 0.01887542
000250 14 ff cb bc 80 45 c6 ba 4e af 74 3d 70 4e 4f 3c
       -0.024901904 -0.0015126914 0.059737496 0.012652978
000260 60 85 32 3c 54 89 d3 3c 32 c8 42 bd 41 96 10 bd
       0.010896057 0.02582232 -0.047554202 -0.035299543
000270 4a 6c 2d 3d 78 ee 51 3c aa 2b 6c 3d 78 e3 38 bc
       0.0423396 0.012813203 0.05765883 -0.0112847015
000280 f7 0c aa 3d 86 35 58 3d 48 d8 ca bc 34 05 39 bd
       0.08303254 0.05278542 -0.024761334 -0.045170978
000290 78 38 92 3c e8 02 97 bd 00 cd 25 bd 2c d2 dd 3c
       0.017849192 -0.07373601 -0.040478706 0.027077757
0002a0 10 9e fc 3b c2 d7 23 3d 40 6f 17 bd 39 56 98 3d
       0.007709272 0.040000685 -0.03697133 0.07438321
0002b0 e4 15 47 bd 38 82 39 bd da 37 72 3d f8 b2 8b bc
       -0.04860486 -0.045290202 0.059135295 -0.017053112
0002c0 f4 23 cf 3c 08 a1 80 bc ca 05 80 bd 20 b7 67 bb
       0.025285698 -0.015701786 -0.06251104 -0.0035356954
0002d0 ae 3f 24 3d d6 fd 73 3d f9 15 8a 3d 20 fb 4b bb
       0.040099792 0.05956825 0.06742472 -0.0031125024
0002e0 b1 1c 83 3d 6c 40 cc 3c a0 5d 56 3b 00 de da 3a
       0.06401957 0.024933062 0.0032709613 0.0016698241
0002f0 90 2e 0a bc 98 c9 ce 3c a0 a1 95 bb 72 d4 68 3d
       -0.008433953 0.025242612 -0.0045663863 0.05684323
000300 00 92 5c bc be 0a 49 bd 24 6d d2 3c f6 dc 4a bd
       -0.0134625435 -0.04908251 0.025686808 -0.04952713
000310 66 d5 60 3d 1d d7 93 3d 28 7a 68 3c 5c 40 91 bc
       0.054891013 0.07218764 0.014189281 -0.017730884
000320 b0 c9 82 bb 3e 8e 29 3d a4 48 8a bd 28 d1 c1 bc
       -0.003991328 0.04139542 -0.06752136 -0.023659304
000330 94 93 5c bd 51 bb a3 bd 12 85 81 bd c5 9d 68 bd
       -0.05385168 -0.07994712 -0.06324209 -0.056791086
000340 e1 d4 89 3d ba 49 5d 3d 7e c8 75 bd 36 da 8e bd
       0.067300566 0.05402539 -0.060005657 -0.06975214
000350 07 1c a2 3d dc de ab 3c f6 b7 26 3d 08 27 62 3c
       0.07915502 0.020980291 0.040702783 0.013803251
000360 50 46 07 bd 16 98 43 bd ea c8 42 3d 0f d2 b2 bd
       -0.03302604 -0.047752462 0.047554888 -0.08731472
000370 3f a1 96 bd 58 a8 da 3c 64 e2 bd bc d0 80 8a 3c
       -0.07354974 0.0266916 -0.02317924 0.016907126
000380 72 17 41 3d 4e 0d 50 bd a7 cb 4b bd ea ac 5e bd
       0.0471415 -0.05079394 -0.049754765 -0.054364122
000390 2d 62 9e bd 20 0d c4 bb 2d b7 99 3d 60 06 b1 bb
       -0.07733569 -0.00598301 0.07505641 -0.0054023713
0003a0 5e 8d 46 3d 78 0c 34 bd 20 af 0f 3c 41 ed 87 bd
       0.048474662 -0.043957204 0.00876978 -0.066370495
0003b0 00 73 bf bb f8 e5 9e 3c 63 e7 1a bd 3b 32 a6 3d
       -0.0058425665 0.019396767 -0.037818324 0.081150495
0003c0 1c 6f cc 3c f2 15 35 3d b7 27 b4 3d 4e 78 19 3d
       0.024955325 0.04421038 0.087966375 0.037468247
0003d0 90 8a e3 bb c2 e8 2c 3d 27 62 b2 3d 2e 46 ae bd
       -0.006944008 0.042214163 0.08710127 -0.085094795
0003e0 0c 84 88 bc b6 ce 2f 3d 84 7f af bc f4 45 93 bd
       -0.016664527 0.042921744 -0.021423109 -0.07191077
0003f0 f5 2a 52 bd b1 2b 3c bd 8e 18 16 3d ba 7e 66 3d
       -0.0513105 -0.045940105 0.03664451 0.0562732

network.2.bias f4 [128]
000000 2c a4 d2 bb a3 c2 a3 bd 0e a2 27 3d 68 12 f3 bb
       -0.006428262 -0.079961084 0.04092603 -0.0074179657
000010 1c 59 e4 3c 4e 86 78 bd 8c 46 74 bd 5d 30 11 3d
       0.027874522 -0.060674958 -0.05963759 0.035446513
000020 99 00 f3 bb 30 8f 8e 3d e4 8f a2 bd fa 43 14 bd
       -0.0074158427 0.069609046 -0.07937601 -0.03619764
000030 ad 13 5d bd 71 7a 65 bd c6 9e 1d 3d e4 d0 4e bc
       -0.053973842 -0.056024972 0.038481496 -0.012623046
000040 74 aa d0 bc bf be 71 3c 1a 5c ef bc 3e 32 8d bb
       -0.025471903 0.01475495 -0.029218722 -0.004308968
000050 97 bd 99 bd 2b b9 0c bd 28 9f 17 3d 11 b3 25 3d
       -0.075068645 -0.034356277 0.037017018 0.040453974
000060 00 6e 08 3d 6c 2c 24 bd ef 5b 98 bd e1 4d 12 3d
       0.03330803 -0.040081427 -0.0743941 0.035718802
000070 cd 4b 80 3d 91 56 8e bc 9a 7c 2b 3d a4 d0 86 3d
       0.06264458 -0.017375262 0.041866876 0.06582764
000080 66 db 98 bd f4 bc 62 3d 4a eb 43 bd d2 fe e4 bc
       -0.07463722 0.05535598 -0.04783181 -0.027953539
000090 20 2c 03 3d 62 fb 9d bc dd 51 13 bb 96 f6 83 3d
       0.032024503 -0.019284908 -0.0022479214 0.06443517
0000a0 1f 91 10 3d 14 c3 9c bc 8f ae 0b 3d 48 b8 18 bd
       0.03529465 -0.01913599 0.03410202 -0.03728512
0000b0 18 08 b8 bc 65 18 67 bc 5d c0 5e bd 67 e9 0e bd
       -0.022464797 -0.014104937 -0.05438267 -0.03489056
0000c0 94 78 c4 bc 48 41 18 bd 11 c6 44 3d ef 0b 24 bc
       -0.023983277 -0.037171632 0.048040453 -0.010012611
0000d0 d5 9e 35 3d 6a ff a9 3d 10 0d 71 3d b8 66 40 3d
       0.044340927 0.083006695 0.058850348 0.04697296
0000e0 14 b8 8b bd f2 6b 11 bc 33 22 3a 3d 4c 4b 05 bd
       -0.068222195 -0.008875834 0.04544277 -0.03254251
0000f0 fb 31 6e bd 57 99 8a 3d b0 ac f9 bc a0 9b 66 bd
       -0.058153134 0.067675285 -0.030477852 -0.05630076
000100 5a ad e7 3c 71 2c 7b 3d fe 69 fd bb 6d 2c a7 bd
       0.028280903 0.06132168 -0.0077335825 -0.081627704
000110 4b d6 78 bc 88 16 2d 3d 19 06 81 bb 84 fa a3 3d
       -0.01518781 0.042257816 -0.0039374945 0.080067664
000120 b0 89 ad bc 5d 70 93 bb 2a b3 a6 bb 40 6d 56 bc
       -0.021183819 -0.0044994787 -0.005087276 -0.013087571
000130 7d 72 fe 3c dd ab 66 bc 2d e3 93 bb f4 d5 8d 3d
       0.031060452 -0.014079061 -0.0045131654 0.06925574
000140 82 33 03 3d 42 38 85 39 1e 6a a4 bd 6f c1 f1 3c
       0.032031544 0.00025409652 -0.08028053 0.029511182
000150 e7 a3 00 3d ec 40 a8 3d 9f 5d 60 bd 62 ae 15 3d
       0.03140631 0.08215508 -0.054776784 0.036543258
000160 5d 9e 85 3d f9 1f c5 bc cf f7 b3 bd 90 08 23 3d
       0.06524346 -0.024063097 -0.087875 0.039803088
000170 b7 c2 92 bd 49 16 fc 3c 28 81 aa 3d d3 f2 2e bb
       -0.07166045 0.030772345 0.08325416 -0.0026695027
000180 dc b3 95 bc 4a 31 88 bc af 90 65 bd 11 b0 67 bd
       -0.01827424 -0.016625065 -0.056046184 -0.056564394
000190 5b 7e 23 bd b3 02 2b 3d ac a6 30 3d 40 f8 ea bc
       -0.039915424 0.04175062 0.0431277 -0.028682828
0001a0 d7 c6 99 3d 1f b4 10 bc 51 25 df bc 14 ba 27 3d
       0.07508629 -0.008832007 -0.027239474 0.040948942
0001b0 f2 50 7c bd 8c 4f 14 bc ce 69 90 3d cd ca 50 3d
       -0.061600633 -0.009052169 0.07051431 0.050974656
0001c0 20 32 1e bc ab a4 6f 3d 40 aa 80 3d 61 69 87 bc
       -0.009655505 0.05850665 0.062824726 -0.01652974
0001d0 28 9e 36 3d 41 1b 82 3d 48 86 0b bd 3a b3 80 bd
       0.044584423 0.063528545 -0.034063607 -0.06284185
0001e0 76 9b 21 3d d8 bc 04 bc 92 55 18 3d 1c 1d 7e 3d
       0.0394549 -0.0081016645 0.03719098 0.06203948
0001f0 5e b2 02 3d 8e 86 32 3d 54 0d 02 3d 98 b4 ec bc
       0.031908385 0.043585353 0.031750992 -0.028894708

network.4.weight f4 [3, 128]
000000 6a d8 29 3d b4 e0 86 bc 6f 9e 48 3f 72 e0 ab bd
       0.041466154 -0.016464569 0.7836675 -0.08392419
000010 11 d1 5b 3f 42 33 49 3d 8d cb 84 3d 6a a3 63 3f
       0.85865885 0.04912115 0.06484137 0.88921225
000020 b2 15 46 bd 76 4f 19 3f 64 db 50 bd d0 d5 d1 3b
       -0.048360534 0.5988687 -0.050990477 0.0064036623
000030 a0 cc 2b 3b 68 7e 7d bc 99 f8 5c 3f e0 19 05 3d
       0.0026214495 -0.015472032 0.8631683 0.03249538
000040 92 7d 71 3d 95 94 ad 3d 89 c2 a2 bd f3 42 29 bd
       0.058957644 0.084756054 -0.07947261 -0.041323613
000050 40 38 20 bc 13 fe 1d bd 1b 4e 71 3f b9 97 62 3f
       -0.009779036 -0.038572382 0.94259804 0.8851276
000060 09 68 9f 3d fb 32 83 3d a0 84 d2 bc 34 ff 95 3e
       0.07783515 0.06406208 -0.025698006 0.29296267
000070 3f 1c 97 3f 12 23 8b bc 92 08 b9 3d f1 e9 61 3d
       1.1805495 -0.016984496 0.09034838 0.055154745
000080 81 96 a3 3d d0 09 23 3f 03 55 a6 3d e7 af b3 3d
       0.07987691 0.6368685 0.081216834 0.08773785
000090 0c 70 eb 3d e1 ea 5b ba 7a 28 62 bb ba 64 61 3f
       0.114959806 -0.00083891867 -0.003450899 0.8804432
0000a0 9d 5e 51 3f fa e1 7c bd bf 56 7a 3f c2 27 02 3d
       0.81784993 -0.061738946 0.97788614 0.031776197
0000b0 39 43 64 bb fd a5 55 3d db 17 21 3c 5a ad 8b 3d
       -0.0034830107 0.052160252 0.009832348 0.068201736
0000c0 29 73 52 bd 72 06 89 bd c9 af 1f 3f 8c 4c 67 3d
       -0.051379357 -0.066906825 0.623776 0.056469485
0000d0 aa 75 4b 3f 15 1c 96 3f 3e bc 7e 3f c9 d2 4c 3f
       0.79476416 1.172732 0.99505985 0.8000913
0000e0 61 dd b0 bd 94 bf 2a 3d 94 50 62 3f 51 45 0e 3c
       -0.08635975 0.04168661 0.884042 0.0086835185
0000f0 95 a9 b0 bd 91 24 70 3f 30 d2 40 3c 7d db 8b 3d
       -0.08626095 0.93805796 0.011768863 0.068289734
000100 a9 b5 6b 3f b6 53 c4 3d c8 3a 9b 3d 44 b0 aa bd
       0.92074066 0.09586279 0.07579571 -0.08334401
000110 15 47 72 bb f3 61 4a 3f 39 30 a2 bd 29 47 4a 3f
       -0.0036968638 0.7905571 -0.07919354 0.7901483
000120 53 92 a1 3d 9d 2c fd bc ef 2e 83 bd 38 6e 90 3c
       0.07889237 -0.030905062 -0.06405436 0.017630681
000130 d8 54 b5 3e 88 a9 8f 3c 18 cf 39 bd f0 6e 33 3f
       0.35416293 0.017536893 -0.045363516 0.7009115
000140 3d 8a 85 3e 8c cd 3c 3d bd 3e a5 3d 23 92 87 3e
       0.2608203 0.046094462 0.08068607 0.2647868
000150 a9 0f 62 3e d3 44 4d 3f e1 c7 a4 3d fe e9 6f 3e
       0.22076286 0.8018314 0.080459364 0.23429105
000160 e0 48 86 bd 38 a3 98 bc 20 90 85 bd 64 56 3d 3f
       -0.065568686 -0.018632516 -0.0652163 0.73959947
000170 c0 c1 b8 bb 50 0d 56 3f fd 2b b2 3d e4 88 1a be
       -0.005638331 0.83614063 0.08699796 -0.15091282
000180 66 29 3c 3d 2d 7a c6 3c 00 c5 f7 3c 7c 56 17 bd
       0.045937918 0.02422818 0.030245304 -0.036947712
000190 ee 14 21 3d 48 a6 4a 3f ab ea 56 3f ac 34 c7 3c
       0.0393266 0.79159975 0.83951825 0.024317108
0001a0 c5 4f ff 3e a7 91 29 3d 03 a2 aa 3d cc 02 29 3f
       0.49865547 0.04139867 0.083316825 0.6601989
0001b0 78 63 9d 3c 5e 0c 40 bd aa 44 54 3f 87 64 4a 3f
       0.01921247 -0.046886794 0.82917273 0.7905964
0001c0 5a 40 74 3d 79 6d 9c 3f 9d f2 97 3f 40 02 9c bb
       0.059631683 1.2220908 1.1870915 -0.0047610104
0001d0 6a ac 42 3f 37 64 35 3f 40 d7 ef bb 04 33 cb 3c
       0.76044333 0.7085604 -0.007319361 0.0248046
0001e0 35 16 2b 3f e3 98 18 bd 30 6e 66 3f 47 d4 91 3f
       0.6683076 -0.03725518 0.9001188 1.1392907
0001f0 b6 67 52 3f 30 74 20 3f 5c d8 0c 3e 24 9c c5 3c
       0.821895 0.6267729 0.1375441 0.024122305
000200 98 3c da 3a be 18 fe bc 60 e1 10 3f 47 72 46 bd
       0.0016650138 -0.031017657 0.56593895 -0.048448827
000210 9f b2 c0 3e 01 88 ac bd d0 93 6c 3c 54 e3 03 3f
       0.37636277 -0.08424378 0.014439538 0.5151875
000220 0e cc ea bc b5 f6 82 3f 12 77 7c bd af 98 b1 bd
       -0.028661754 1.0231539 -0.06163699 -0.086717
000230 b2 ec 1e 3d fe 46 2b 3d 30 83 4b 3f 2f b7 5e bd
       0.03879995 0.04181575 0.7949705 -0.054373916
000240 1b df 99 3d 6e 84 b5 3e c5 db ae 3d 2a d2 10 3d
       0.07513257 0.35452598 0.085380115 0.035356678
000250 45 0b 9a 3d 48 9f 00 bd 4c 59 fe 3e a3 2c 27 3f
       0.07521681 -0.031401902 0.49677503 0.65302485
000260 ed cf cd 3e 40 ab 83 bd 20 73 c3 bc 43 f1 e8 3e
       0.40197697 -0.06429148 -0.023858607 0.45496568
000270 09 63 95 3f d2 a2 38 3d 57 66 a9 3e 25 f5 16 bf
       1.1670848 0.045077153 0.33085892 -0.5896781
000280 52 6e 70 3d 2e 51 a7 3d 43 ec e3 3c 8c 88 2d bd
       0.05869896 0.08169781 0.02782262 -0.04236655
000290 aa 95 e5 3e 20 24 9f bd c6 aa 79 bd 56 f1 93 3f
       0.44840747 -0.07770562 -0.060953878 1.1558025
0002a0 2b 66 f0 3e 38 d2 ab 3c 95 71 24 3f 3a c2 a6 bc
       0.46952948 0.020974264 0.6423581 -0.020356286
0002b0 80 3c 53 3d 2a 31 86 3d 3f c6 d8 3c ec 34 85 3b
       0.05157137 0.06552346 0.026461719 0.0040651467
0002c0 91 48 5d bd b7 93 87 3d 5b a9 ec 3e 0c e9 85 bb
       -0.054024283 0.06619971 0.46222958 -0.0040866192
0002d0 3f cd e1 3e b1 3f a1 3f 63 13 89 3f 5c ff 21 3f
       0.44101903 1.2597562 1.0709041 0.6328027
0002e0 30 9c 4b 3c f7 67 39 bb c0 48 58 3f b6 54 93 bd
       0.012427375 -0.0028290728 0.8448601 -0.07193892
0002f0 d3 8c 0e bd 8e 45 97 3f a2 39 f8 bc e7 ad 42 bd
       -0.03480227 1.1818101 -0.030300919 -0.047529127
000300 ea 94 00 3f 80 5b 2a bf fe a3 47 bd 23 da 29 bd
       0.50227225 -0.6654587 -0.04874038 -0.041467797
000310 d4 9a 84 3d 7c c2 1a 3f e0 dd 06 3d 7b 15 89 3f
       0.064748436 0.6045301 0.03292644 1.070968
000320 2a 99 6e 3d 87 44 cb bc 9c a4 3e bb 1f e0 5b bc
       0.058251537 -0.02481295 -0.0029089814 -0.013420134
000330 4d 91 00 3f 51 8f c2 bc b8 bb c1 3c 88 0e 92 3f
       0.5022171 -0.02374998 0.023649082 1.1410685
000340 10 6c ee 3e dd 6d 2a bb c0 2f 99 3c f9 a2 e2 3e
       0.4656682 -0.0026005425 0.018699527 0.44264963
000350 ee 16 ed 3e 59 80 98 3f 08 37 4d bc 1e 4e ee 3e
       0.46306556 1.1914169 -0.0125253275 0.46543974
000360 dd d3 24 bf d5 1d 0e 3d 80 e5 bd bb 11 72 19 3f
       -0.6438578 0.03469642 -0.005795181 0.59939677
000370 b3 f7 3b bd 3a 76 d8 3e af 52 f8 be 4f b8 3f bd
       -0.04589052 0.422777 -0.48500583 -0.04680663
000380 76 30 20 3d 01 f5 b3 bc 5c a8 a1 bc bc a9 80 3c
       0.039108716 -0.021967413 -0.0197336 0.015705936
000390 83 69 88 bd b4 66 18 3f ae dc 19 3f 70 e1 28 bd
       -0.0666075 0.5953171 0.60102355 -0.04123062
0003a0 65 37 95 3f 1b 2e fa 3b e0 a4 2a bd a4 21 00 3f
       1.165753 0.0076348907 -0.041661143 0.5005133
0003b0 69 b6 31 bd 14 f5 bc 3c c4 a3 93 3f c2 91 75 3f
       -0.04338685 0.023066081 1.1534352 0.95925534
0003c0 30 39 7f bc 52 b8 72 3f 2f 2c 86 3f 22 88 59 bb
       -0.015577599 0.948125 1.0482234 -0.0033192714
0003d0 1d 94 1f 3f c6 32 87 3f b6 ee 7b 3d 7c a6 cd 3c
       0.6233538 1.056237 0.06150695 0.0251038
0003e0 77 15 14 3f 8c 2d c9 bc de 05 06 3f 57 2e 94 3f
       0.5784525 -0.024557851 0.523527 1.1576642
0003f0 83 03 01 3f 94 d0 29 3e b5 49 c1 3e ee dc 79 3d
       0.50395983 0.16583472 0.37751547 0.06100171

network.4.bias f4 [3]
000000 4f 92 98 3c f1 a9 0d 3d f6 af 96 3c
       0.018624453 0.034585897 0.018394452

network.0.weight f4 [128, 64]
000000 cc b8 c3 3d 66 7b d4 3d 20 e5 ef bc 1c 2a eb 3d
       0.095567316 0.10375099 -0.02928406 0.11482641
000010 b0 5c e0 bc 38 a2 ce 3c 10 45 79 bd 28 58 96 3d
       -0.027387947 0.025223836 -0.06085688 0.07341033
000020 cc ac e1 3d 0e cf bb bd a4 83 de 3d b0 a6 bf 3c
       0.110192865 -0.09170352 0.10864952 0.023394912
000030 94 22 bd 3d 50 ae 8a 3c 5c e1 76 3d 60 94 90 bc
       0.09235111 0.016928822 0.060273513 -0.017648876
000040 c6 58 c5 3d 38 5b 97 3c a4 05 6f bd 08 82 02 3d
       0.09636073 0.018476114 -0.05835499 0.03186229
000050 ac e5 6b bd c0 2c 70 bc fc f3 4f bd ae d2 a9 3d
       -0.05759208 -0.014659107 -0.05076979 0.08292137
000060 2a 14 ca bd 8c 09 6c bd 6c 93 10 bd fe ec 99 bd
       -0.09867127 -0.057626292 -0.035296842 -0.07515906
000070 f0 4b 41 3c 8a d8 fc bd 28 32 e7 3d c0 76 d9 bd
       0.01179789 -0.12345989 0.112888634 -0.10618353
000080 96 a3 c5 3d c8 69 aa 3c ac 3f 26 bd f8 31 9e 3d
       0.09650342 0.020802394 -0.040588066 0.077243745
000090 58 97 9f 3c b0 d6 ce 3d 00 e3 5f 3c 98 78 21 bd
       0.019481346 0.10099542 0.013664961 -0.039421648
0000a0 e8 90 09 3d 08 d8 0a bd a4 7a 57 3d fe 8f e4 3d
       0.03358546 -0.03389743 0.052607194 0.11160277
0000b0 b6 fb 93 3d 14 d5 5f bd 9e c7 93 3d 70 38 b7 3c
       0.072257444 -0.054646567 0.07215808 0.022365779
0000c0 7a 01 82 3d 86 08 9c bd a4 6a fd bd 0c d1 45 bd
       0.06347938 -0.07618813 -0.12373856 -0.048295066
0000d0 9c 5b c4 bd d6 0e d2 3d d8 78 13 3d cc 13 54 3d
       -0.095877856 0.10256736 0.036003917 0.051776692
0000e0 fc ec 21 3d 00 82 0e bb 04 59 c8 3d 38 e4 b5 bd
       0.039532647 -0.0021744967 0.097826034 -0.0888142
0000f0 20 f3 00 3c f4 ba ae bd 50 e0 1d 3d e0 52 30 bd
       0.0078704655 -0.08531752 0.038544 -0.043047786
000100 98 e2 1c 3d 78 57 d5 bc 06 53 d4 3d 50 bb 97 bd
       0.038302034 -0.026042685 0.10367398 -0.07408774
000110 8a ad 98 bd e6 af 98 bd e2 41 e6 3d e4 9f 2a 3d
       -0.07454975 -0.07455425 0.11243035 0.04165639
000120 10 56 f6 3d 4e 45 d3 bd 98 eb fd bd fe 48 c8 bd
       0.12028134 -0.10315953 -0.123984516 -0.09779547
000130 5a 35 ac bd 6c 61 4f 3d b8 55 37 3d 76 b7 d4 3d
       -0.084086135 0.050630018 0.044759482 0.10386555
000140 74 34 84 bd aa 84 ae bd f8 d3 87 3d e4 f3 4e bd
       -0.06455317 -0.085213974 0.06632227 -0.05052556
000150 5c 5f 9b 3d f0 fe f2 bc 9a 71 92 3d 60 e7 c6 bd
       0.07586548 -0.02966258 0.07150574 -0.097121
000160 ba 30 81 bd c4 18 1c 3d 38 7b d8 3c f4 89 02 bd
       -0.06308122 0.038109556 0.026425943 -0.031869844
000170 02 98 98 3d fa 07 ae 3d f6 a4 b9 bd 96 ab 88 bd
       0.07450868 0.08497615 -0.09064667 -0.066733524
000180 d2 68 ea 3d f4 c3 2c bd 2c 83 35 bd 48 b4 f7 bd
       0.11445774 -0.042179063 -0.04431455 -0.12094933
000190 84 9a 92 bd 88 cc ff 3c 38 29 87 bc aa d3 b9 bd
       -0.07158378 0.031225458 -0.016499147 -0.09073575
0001a0 40 28 40 3b 6e de ae bd 86 30 d9 bd 3a f8 8c bd
       0.0029320866 -0.08538519 -0.10604958 -0.06883283
0001b0 e6 0d e0 bd 44 01 a3 bd 5e e6 ff 3d 70 68 c1 3c
       -0.10940151 -0.07959226 0.12495111 0.02360937
0001c0 1c c7 1d 3d 66 c4 ee bd 54 22 a8 bd 14 6c 2a bd
       0.038519964 -0.11658554 -0.082096726 -0.041606978
0001d0 c0 1f a0 3c 86 42 e1 bd 64 9b 5c bd 58 42 99 bd
       0.01954639 -0.109990165 -0.05385913 -0.07483357
0001e0 00 9e b5 39 50 84 3e bd f0 ea 0d bc 24 79 ad bd
       0.0003464073 -0.0465129 -0.0086619705 -0.08470371
0001f0 98 b7 af bd d2 59 95 bd 9c 41 2f bd 50 0e ca bd
       -0.085799396 -0.072925225 -0.04278718 -0.09866011
000200 2b 82 ac c0 8b 11 b4 c0 c1 ba c4 3e 9b ea 2f 40
       -5.3908896 -5.6271415 0.38423732 2.7486942
000210 89 53 3e 40 fb 9f d5 be af bd 96 c0 1e 67 ad 3f
       2.9738486 -0.41723618 -4.7106547 1.3547094
000220 8b a9 e1 be bb f9 dd be 56 ab 1b 3f df 84 ad 3f
       -0.44074664 -0.43354592 0.6080831 1.3556174
000230 ff e6 cf 3e 27 c2 cd bf 71 45 58 40 d7 cb 34 3e
       0.40605924 -1.6074876 3.3792384 0.17655884
000240 3d 41 0a bf 91 b1 3c be 09 74 c9 3b d1 6a 6c 3f
       -0.54005796 -0.18427111 0.0061478657 0.9235049
000250 62 e7 f2 bf dc 01 92 bf e3 1a 6f 3e 11 19 35 40
       -1.8976862 -1.1406817 0.233501 2.829655
000260 38 62 2f 3f 1f b7 f8 3d ce 24 24 3f 16 b8 d6 bf
       0.68509245 0.121443026 0.6411866 -1.6774929
000270 88 b2 9f 3f a2 0e eb bd 8e 5d 08 c0 2b 58 b9 3f
       1.2476358 -0.114774 -2.1307101 1.4480032
000280 97 d3 5b 3d fb cc ed 3d c0 36 41 3f c1 5c 7f bf
       0.053668585 0.116113625 0.75474167 -0.99750906
000290 6c 4f a8 bd cb a1 1d bf d6 f5 1a be 8f 9d c3 3f
       -0.082182735 -0.61575 -0.15132841 1.5282458
0002a0 45 16 a6 3f c9 b8 fd bf 28 08 82 3f 5c 9d 42 3f
       1.2975546 -1.9822017 1.0158739 0.7602136
0002b0 3d 13 83 bf 1b 41 a2 3f d8 3a 73 3e d2 f3 48 be
       -1.0240246 1.2676119 0.23752916 -0.1962426
0002c0 6d b9 0f 3f 52 fb 9c 3e 8b 90 ac bf b3 4b d8 bf
       0.5614231 0.30660492 -1.3481611 -1.6898102
0002d0 f2 dc 08 bf d3 28 be 3e 7e 7b 52 3f 1e 2f 99 bf
       -0.53462136 0.3714052 0.82219684 -1.1967504
0002e0 2d 76 80 bd 5c 4f 2f be fb d6 22 bf f1 05 96 bf
       -0.0627254 -0.17120117 -0.63609284 -1.1720563
0002f0 df 2e 7c bd 68 5a 77 bc d0 e4 b4 bc 16 06 86 bd
       -0.061568137 -0.015097238 -0.022081763 -0.065441296
000300 10 a3 a3 3d 9c 01 dc 3d 20 bf 4a bc 38 45 e5 bc
       0.07990086 0.107424945 -0.012374669 -0.027987108
000310 80 14 ef 3a a0 90 f4 bb 60 2e f6 3c c8 7a 0f 3d
       0.0018240362 -0.0074635297 0.03005141 0.035029203
000320 84 83 e8 bd 84 f2 3c bd cc 95 d7 3d c0 73 47 3d
       -0.113532096 -0.04612972 0.10526618 0.048694372
000330 a0 b9 cb bb 08 58 9a bd 42 9f 9c bd fa 50 e5 bd
       -0.0062171966 -0.07536322 -0.076475635 -0.11197086
000340 8c e4 26 bd 90 e7 2c 3d 2c 3b a3 3d 98 63 6c 3d
       -0.040745303 0.042213023 0.079702705 0.057712168
000350 28 4a e2 bd e4 f2 99 bd b0 9a a1 bc 38 a4 f7 3d
       -0.110493004 -0.07517031 -0.019727081 0.12091869
000360 18 21 94 3c d0 97 04 bd 7c d2 53 3d e8 02 43 bd
       0.018082187 -0.032371342 0.051714405 -0.047610193
000370 8c b2 a5 bd e4 d9 ba 3d ac ce 68 bd 28 47 cd bc
       -0.08090696 0.091235906 -0.056837723 -0.025058344
000380 7e ab fe bd 52 55 ab 3d 58 f4 c1 3d f4 98 3a 3d
       -0.12435053 0.08365883 0.09470433 0.045556024
000390 90 80 b2 bd 18 a8 fc bd f6 ea cf bd 36 e6 be 3d
       -0.087159276 -0.12336749 -0.10152237 0.09321253
0003a0 6c d0 75 3d d6 6c d7 3d 56 1c 86 3d 4c 95 01 3d
       0.06001322 0.10518806 0.065483734 0.03163652
0003b0 80 71 a0 ba 86 b0 c2 bd 6c 55 db bd 02 73 ef bd
       -0.0012240857 -0.095063254 -0.10709652 -0.11691858
0003c0 e4 97 51 3d 28 60 7b bd 28 15 ce bc 50 54 93 bd
       0.051170245 -0.061371 -0.025156572 -0.07193816
0003d0 d0 98 ba bc 86 2e b4 bd 40 46 a7 bd 00 d6 29 3d
       -0.022777945 -0.08797936 -0.08167696 0.041463852
0003e0 20 2a 18 bd 34 0a 9e 3d 0c 41 24 bd 10 cb bb bd
       -0.03714955 0.0771679 -0.040101096 -0.091695905
0003f0 68 ac b4 bc d0 30 78 bd 60 a4 1c bd fc b5 f3 bd
       -0.022054866 -0.060593426 -0.038242698 -0.11899945

network.0.bias f4 [128]
000000 00 c8 30 3a b8 ef a4 bc 2e 00 8d 3d 00 3f f5 3b
       0.00067436695 -0.020133838 0.068848 0.007484317
000010 a6 4b b5 bd 2a 81 71 bc da 59 bd bd 30 e1 98 3c
       -0.088523194 -0.014740268 -0.092456535 0.018662065
000020 bc 8a c0 3c 7e 5b f1 bd 80 1d af bd 9c 94 80 bd
       0.023503654 -0.11785029 -0.085505486 -0.06278345
000030 14 06 33 bd 7f 95 07 bd b3 2e 29 3d 16 10 ca bd
       -0.04370697 -0.033101555 0.0413043 -0.098663494
000040 8c 35 56 bb da 84 d3 bd fd 0a 98 bb 50 f2 a5 bd
       -0.0032685725 -0.10328074 -0.004639982 -0.08102858
000050 66 d7 c3 bd 3d 89 97 3d 04 04 fd 3c c8 77 2d bd
       -0.09562568 0.07399223 0.030885704 -0.04235056
000060 71 81 53 3d 03 0e c3 bb 6c f2 39 3d a0 55 f0 bb
       0.051637117 -0.005952598 0.045397207 -0.007334426
000070 0b 09 cc bd 68 32 39 bd d2 7d db bd e7 8c b6 3c
       -0.09962662 -0.045214087 -0.10717358 0.022283984
000080 71 2f 44 3d 4d bf ce 3d 66 a9 fb bd 94 9d e6 3d
       0.047896806 0.100950815 -0.122881696 0.112605244
000090 2a 15 89 bc 5c 9b 0b 3d cc c1 5b bd a8 a4 13 3d
       -0.016733725 0.03408371 -0.053651616 0.0360457
0000a0 7e 82 66 3d e0 07 6b 3d 6a 5d d3 bd a8 a4 9b 3c
       0.05627679 0.057380557 -0.10320552 0.018999413
0000b0 24 9d 79 3c 49 85 10 be cd ae 27 3d 9a d9 5b 3c
       0.015235219 -0.14113344 0.040938187 0.0134185795
0000c0 ba 94 cd bd d6 c7 db bd a0 19 a7 3b fc 54 cd 3d
       -0.10038133 -0.10731475 0.0050994903 0.10025975
0000d0 3c ad 14 3d e0 fd 8f 3c d0 a9 04 bc 92 5c fe bd
       0.03629802 0.017577112 -0.008097127 -0.1242
0000e0 a6 19 4e 3c 6a 87 1a 3d b1 e3 d6 bd a0 a2 bc bc
       0.012579357 0.037726797 -0.104926474 -0.023026764
0000f0 46 e1 f8 3d b3 30 95 bd de c3 af bd 72 af f1 3c
       0.121523425 -0.07284679 -0.085822806 0.029502604
000100 28 9e b7 3c 01 14 a9 3d 2e 4e a8 bd d9 91 91 bb
       0.022414282 0.082557686 -0.082180366 -0.004442435
000110 d0 83 f6 3c 4a 65 a1 3d 59 43 fc 3c 18 1a c4 3c
       0.03009215 0.078806475 0.030793833 0.023938224
000120 2b d3 18 bd 60 ab b6 bc 32 27 8a bd ab 63 5d 3b
       -0.03731076 -0.022298515 -0.06745757 0.003378133
000130 77 f5 08 3d 34 22 82 bd 44 f0 ae bd bb f1 8c 3c
       0.03343722 -0.0635418 -0.08541921 0.01720511
000140 28 96 89 3c d4 59 71 bd f8 a9 5d 3d 60 95 d0 bd
       0.016795233 -0.058923557 0.054117173 -0.10184741
000150 50 90 7b bd 2e bc 6f bd dc a2 84 bd b1 ce c5 bc
       -0.061416924 -0.05852907 -0.064763755 -0.02414641
000160 1c 52 ad 3c 4c c7 32 bd 48 f2 8a bc e4 83 85 bd
       0.021157317 -0.043647096 -0.016961232 -0.06519297
000170 aa 53 a8 bd bc 57 75 3c 50 c5 bc 3d c6 c6 ad 3d
       -0.08219083 0.014974531 0.09217322 0.08485179
000180 24 cc c7 bd 2d 91 ef 3c 94 95 9e bd 13 fa f5 bc
       -0.097557336 0.02924403 -0.077433735 -0.030026471
000190 e0 1d 37 bc 19 7c 62 3d 42 a7 8b 3d 54 49 cf bd
       -0.011176556 0.05529413 0.06819011 -0.10121408
0001a0 38 13 de 3c 88 99 f2 3c 4b 30 43 bc af 84 3e bd
       0.027108774 0.029614225 -0.011913369 -0.046513256
0001b0 c8 b2 71 bd ac 9f b4 bd 40 f9 fb bd 83 60 64 bd
       -0.05900839 -0.088195175 -0.123034 -0.055756103
0001c0 88 8b 45 bd 16 d7 b6 3c c0 73 58 bd b6 a3 d4 3d
       -0.04822877 0.022319358 -0.052844763 0.10382788
0001d0 5c 9f b4 bd c4 d6 b3 3d d9 d7 8e bd de 3e a9 bc
       -0.08819458 0.08781198 -0.069747634 -0.02065986
0001e0 a8 c0 3b bd 7c cc 57 3d 4e 01 54 3d a1 41 47 3d
       -0.04583803 0.052685246 0.051759057 0.048646573
0001f0 0c 4e b1 bd a7 69 11 3d 74 9c 8e 3d f8 12 d2 bd
       -0.086574644 0.03550115 0.06963435 -0.10257524

network.2.weight f4 [128, 128]
000000 e6 55 12 3d cc fc 8b 3c 84 98 a5 3c 0f 9a 9e 3d
       0.03572645 0.017088316 0.020214327 0.07744228
000010 6b ff 49 ba ee e9 76 bd cf 2c 23 bd d8 04 3b 3c
       -0.0007705602 -0.060281686 -0.039837655 0.011414729
000020 a8 f2 5e bc cd a5 81 bd 00 92 21 3b 5a 4d 4f 3d
       -0.013607658 -0.06330452 0.0024653673 0.050610878
000030 40 0a 40 3b 58 d8 60 3d cb 59 59 bd 2b f7 8d 3d
       0.0029302984 0.05489382 -0.05306415 0.06931909
000040 34 8d 06 3b fd e6 0d bd b6 73 ce 3c c1 ef 26 3d
       0.002053094 -0.034644116 0.02520166 0.04075599
000050 95 3a 1b bd 82 40 68 bd 4e 7b 08 3d 5e 87 9f bd
       -0.037897665 -0.056702144 0.033320718 -0.07789491
000060 d8 0d ba 3c df 4a 67 3c da c8 76 bd 08 89 32 bc
       0.02271168 0.014116972 -0.06025014 -0.010896929
000070 a9 2e 0f 3c 56 d7 7b 3d ed 5f 84 3d 4c f5 ba bd
       0.008739152 0.061484657 0.06463609 -0.09128818
000080 95 79 b8 bd 1e 2f 3a 3d c1 97 b2 3d 29 bc 92 3d
       -0.09007565 0.04545509 0.08720351 0.07164795
000090 59 b9 91 3c 31 a3 ab 3d a4 35 26 bd 3b 72 20 bc
       0.017788576 0.08380736 -0.0405785 -0.00979286
0000a0 c5 9c 99 bd 18 6e b3 bd 0c d7 74 bd 0a 35 a4 bd
       -0.075006045 -0.08761233 -0.059775397 -0.08017929
0000b0 1f 64 35 3c 3e 1f 90 3c 0c 78 67 3c 8c dc 26 3d
       0.011071234 0.017593022 0.0141277425 0.040737674
0000c0 68 2f 90 bd fc fa d0 bc cd 70 8e 3d 29 33 a0 bd
       -0.07040292 -0.025510304 0.06955109 -0.07822258
0000d0 76 74 7e 3d fc f9 de 3c 1e f5 92 bd ac 36 9c 3c
       0.062122785 0.027218811 -0.07175659 0.019069038
0000e0 3b c5 01 bd a1 64 40 bc f9 1a 10 bd 46 e2 23 3d
       -0.031682234 -0.011742742 -0.035181973 0.040010713
0000f0 37 c8 8c 3d ea e4 4a 3d 78 fd 0a bc 98 e6 b6 bd
       0.068741255 0.049534716 -0.008483283 -0.08930701
000100 55 5f 7b 3d 95 4f 0b bc f1 6a 93 3d 8a aa b7 3c
       0.061370213 -0.008502861 0.07198132 0.022420187
000110 00 73 be 3a f4 e5 f4 3c 3e 35 1b 3d 33 b7 ce 39
       0.0014530122 0.029894806 0.037892573 0.00039427876
000120 d6 39 8c 3b a0 29 6b bb ca 10 78 3d 8f db c9 3c
       0.0042793555 -0.0035882965 0.060562886 0.024640827
000130 f7 79 25 bd 09 b1 a8 3d e3 75 ad 3d db 62 72 3d
       -0.040399518 0.08236892 0.08469751 0.059176307
000140 44 bd 81 3c 10 25 b1 3b db 01 a8 bd 6b f6 83 3d
       0.01583732 0.0054060295 -0.08203479 0.06443485
000150 51 10 82 bd 00 5e aa bd 5f 85 5d 3c fb 40 f2 bd
       -0.06350768 -0.0831871 0.013520568 -0.118288
000160 e5 1a 16 3b fa 5c 2e bd fb ed 2e ba 3c 7b 0b bd
       0.0022904214 -0.042569138 -0.0006673035 -0.034053072
000170 a5 60 92 3d 04 37 ae bd 08 04 85 3c ff 05 04 bc
       0.0714734 -0.08506587 0.016237274 -0.00805807
000180 13 3f ac bd d8 25 5c 3d 8b 26 02 bc 8b f9 d1 bd
       -0.08410468 0.053747028 -0.00794376 -0.10252675
000190 cf 1a b5 bd 88 56 33 3c 9f f7 81 3d d4 00 a5 bc
       -0.08843004 0.010945924 0.06346058 -0.020141996
0001a0 1a e7 d5 bc 2a 1a b6 bd 6c 59 3d 3d aa df 23 bd
       -0.026111174 -0.08891709 0.046227857 -0.040008225
0001b0 14 68 26 bd 48 c1 09 3d f7 4f 9e 3d e8 d5 e4 3c
       -0.0406266 0.033631593 0.07730096 0.02793403
0001c0 c0 d7 d0 3c 25 07 9b 3d 00 5e 76 3b f8 05 60 3c
       0.025493503 0.07569722 0.003759265 0.013673298
0001d0 c0 9f d3 bb b5 ea 8c bd 33 f1 8f bc 55 af 7b bd
       -0.0064582527 -0.06880704 -0.017571067 -0.061446507
0001e0 2a 83 51 3d b3 b9 79 bd 96 c3 c6 bd a6 fa f2 bc
       0.05115048 -0.060968112 -0.09705274 -0.029660534
0001f0 23 79 86 3d 9c bb a5 bd 6a eb 2c bd 30 eb dd bb
       0.06566074 -0.08092424 -0.042216696 -0.0067724213
000200 22 54 1e bd 9e 08 2b 3d af 1f 9e 3d 12 f4 43 3d
       -0.038654454 0.041756265 0.07720887 0.047840185
000210 e4 b3 98 bc 70 1f 8e bd 7e 75 95 bd 14 63 ad bc
       -0.018640466 -0.0693959 -0.072978005 -0.021165408
000220 62 1a e4 bc 40 48 89 bd d8 10 b3 3c 0b 2f 09 bd
       -0.027844612 -0.06703234 0.021858618 -0.03349213
000230 d0 fa d1 3c 58 40 40 bd 90 7c 02 bc d2 e8 d9 bc
       0.025632292 -0.046936363 -0.007964268 -0.026600275
000240 a2 61 5e 3d 32 35 a5 bd a7 c3 0e bd a0 a0 9a 3c
       0.05429233 -0.08066787 -0.034854557 0.01887542
000250 14 ff cb bc 80 45 c6 ba 4e af 74 3d 70 4e 4f 3c
       -0.024901904 -0.0015126914 0.059737496 0.012652978
000260 60 85 32 3c 54 89 d3 3c 32 c8 42 bd 41 96 10 bd
       0.010896057 0.02582232 -0.047554202 -0.035299543
000270 4a 6c 2d 3d 78 ee 51 3c aa 2b 6c 3d 78 e3 38 bc
       0.0423396 0.012813203 0.05765883 -0.0112847015
000280 f7 0c aa 3d 86 35 58 3d 48 d8 ca bc 34 05 39 bd
       0.08303254 0.05278542 -0.024761334 -0.045170978
000290 78 38 92 3c e8 02 97 bd 00 cd 25 bd 2c d2 dd 3c
       0.017849192 -0.07373601 -0.040478706 0.027077757
0002a0 10 9e fc 3b c2 d7 23 3d 40 6f 17 bd 39 56 98 3d
       0.007709272 0.040000685 -0.03697133 0.07438321
0002b0 e4 15 47 bd 38 82 39 bd da 37 72 3d f8 b2 8b bc
       -0.04860486 -0.045290202 0.059135295 -0.017053112
0002c0 f4 23 cf 3c 08 a1 80 bc ca 05 80 bd 20 b7 67 bb
       0.025285698 -0.015701786 -0.06251104 -0.0035356954
0002d0 ae 3f 24 3d d6 fd 73 3d f9 15 8a 3d 20 fb 4b bb
       0.040099792 0.05956825 0.06742472 -0.0031125024
0002e0 b1 1c 83 3d 6c 40 cc 3c a0 5d 56 3b 00 de da 3a
       0.06401957 0.024933062 0.0032709613 0.0016698241
0002f0 90 2e 0a bc 98 c9 ce 3c a0 a1 95 bb 72 d4 68 3d
       -0.008433953 0.025242612 -0.0045663863 0.05684323
000300 00 92 5c bc be 0a 49 bd 24 6d d2 3c f6 dc 4a bd
       -0.0134625435 -0.04908251 0.025686808 -0.04952713
000310 66 d5 60 3d 1d d7 93 3d 28 7a 68 3c 5c 40 91 bc
       0.054891013 0.07218764 0.014189281 -0.017730884
000320 b0 c9 82 bb 3e 8e 29 3d a4 48 8a bd 28 d1 c1 bc
       -0.003991328 0.04139542 -0.06752136 -0.023659304
000330 94 93 5c bd 51 bb a3 bd 12 85 81 bd c5 9d 68 bd
       -0.05385168 -0.07994712 -0.06324209 -0.056791086
000340 e1 d4 89 3d ba 49 5d 3d 7e c8 75 bd 36 da 8e bd
       0.067300566 0.05402539 -0.060005657 -0.06975214
000350 07 1c a2 3d dc de ab 3c f6 b7 26 3d 08 27 62 3c
       0.07915502 0.020980291 0.040702783 0.013803251
000360 50 46 07 bd 16 98 43 bd ea c8 42 3d 0f d2 b2 bd
       -0.03302604 -0.047752462 0.047554888 -0.08731472
000370 3f a1 96 bd 58 a8 da 3c 64 e2 bd bc d0 80 8a 3c
       -0.07354974 0.0266916 -0.02317924 0.016907126
000380 72 17 41 3d 4e 0d 50 bd a7 cb 4b bd ea ac 5e bd
       0.0471415 -0.05079394 -0.049754765 -0.054364122
000390 2d 62 9e bd 20 0d c4 bb 2d b7 99 3d 60 06 b1 bb
       -0.07733569 -0.00598301 0.07505641 -0.0054023713
0003a0 5e 8d 46 3d 78 0c 34 bd 20 af 0f 3c 41 ed 87 bd
       0.048474662 -0.043957204 0.00876978 -0.066370495
0003b0 00 73 bf bb f8 e5 9e 3c 63 e7 1a bd 3b 32 a6 3d
       -0.0058425665 0.019396767 -0.037818324 0.081150495
0003c0 1c 6f cc 3c f2 15 35 3d b7 27 b4 3d 4e 78 19 3d
       0.024955325 0.04421038 0.087966375 0.037468247
0003d0 90 8a e3 bb c2 e8 2c 3d 27 62 b2 3d 2e 46 ae bd
       -0.006944008 0.042214163 0.08710127 -0.085094795
0003e0 0c 84 88 bc b6 ce 2f 3d 84 7f af bc f4 45 93 bd
       -0.016664527 0.042921744 -0.021423109 -0.07191077
0003f0 f5 2a 52 bd b1 2b 3c bd 8e 18 16 3d ba 7e 66 3d
       -0.0513105 -0.045940105 0.03664451 0.0562732

network.2.bias f4 [128]
000000 2c a4 d2 bb a3 c2 a3 bd 0e a2 27 3d 68 12 f3 bb
       -0.006428262 -0.079961084 0.04092603 -0.0074179657
000010 1c 59 e4 3c 4e 86 78 bd 8c 46 74 bd 5d 30 11 3d
       0.027874522 -0.060674958 -0.05963759 0.035446513
000020 99 00 f3 bb 30 8f 8e 3d e4 8f a2 bd fa 43 14 bd
       -0.0074158427 0.069609046 -0.07937601 -0.03619764
000030 ad 13 5d bd 71 7a 65 bd c6 9e 1d 3d e4 d0 4e bc
       -0.053973842 -0.056024972 0.038481496 -0.012623046
000040 74 aa d0 bc bf be 71 3c 1a 5c ef bc 3e 32 8d bb
       -0.025471903 0.01475495 -0.029218722 -0.004308968
000050 97 bd 99 bd 2b b9 0c bd 28 9f 17 3d 11 b3 25 3d
       -0.075068645 -0.034356277 0.037017018 0.040453974
000060 00 6e 08 3d 6c 2c 24 bd ef 5b 98 bd e1 4d 12 3d
       0.03330803 -0.040081427 -0.0743941 0.035718802
000070 cd 4b 80 3d 91 56 8e bc 9a 7c 2b 3d a4 d0 86 3d
       0.06264458 -0.017375262 0.041866876 0.06582764
000080 66 db 98 bd f4 bc 62 3d 4a eb 43 bd d2 fe e4 bc
       -0.07463722 0.05535598 -0.04783181 -0.027953539
000090 20 2c 03 3d 62 fb 9d bc dd 51 13 bb 96 f6 83 3d
       0.032024503 -0.019284908 -0.0022479214 0.06443517
0000a0 1f 91 10 3d 14 c3 9c bc 8f ae 0b 3d 48 b8 18 bd
       0.03529465 -0.01913599 0.03410202 -0.03728512
0000b0 18 08 b8 bc 65 18 67 bc 5d c0 5e bd 67 e9 0e bd
       -0.022464797 -0.014104937 -0.05438267 -0.03489056
0000c0 94 78 c4 bc 48 41 18 bd 11 c6 44 3d ef 0b 24 bc
       -0.023983277 -0.037171632 0.048040453 -0.010012611
0000d0 d5 9e 35 3d 6a ff a9 3d 10 0d 71 3d b8 66 40 3d
       0.044340927 0.083006695 0.058850348 0.04697296
0000e0 14 b8 8b bd f2 6b 11 bc 33 22 3a 3d 4c 4b 05 bd
       -0.068222195 -0.008875834 0.04544277 -0.03254251
0000f0 fb 31 6e bd 57 99 8a 3d b0 ac f9 bc a0 9b 66 bd
       -0.058153134 0.067675285 -0.030477852 -0.05630076
000100 5a ad e7 3c 71 2c 7b 3d fe 69 fd bb 6d 2c a7 bd
       0.028280903 0.06132168 -0.0077335825 -0.081627704
000110 4b d6 78 bc 88 16 2d 3d 19 06 81 bb 84 fa a3 3d
       -0.01518781 0.042257816 -0.0039374945 0.080067664
000120 b0 89 ad bc 5d 70 93 bb 2a b3 a6 bb 40 6d 56 bc
       -0.021183819 -0.0044994787 -0.005087276 -0.013087571
000130 7d 72 fe 3c dd ab 66 bc 2d e3 93 bb f4 d5 8d 3d
       0.031060452 -0.014079061 -0.0045131654 0.06925574
000140 82 33 03 3d 42 38 85 39 1e 6a a4 bd 6f c1 f1 3c
       0.032031544 0.00025409652 -0.08028053 0.029511182
000150 e7 a3 00 3d ec 40 a8 3d 9f 5d 60 bd 62 ae 15 3d
       0.03140631 0.08215508 -0.054776784 0.036543258
000160 5d 9e 85 3d f9 1f c5 bc cf f7 b3 bd 90 08 23 3d
       0.06524346 -0.024063097 -0.087875 0.039803088
000170 b7 c2 92 bd 49 16 fc 3c 28 81 aa 3d d3 f2 2e bb
       -0.07166045 0.030772345 0.08325416 -0.0026695027
000180 dc b3 95 bc 4a 31 88 bc af 90 65 bd 11 b0 67 bd
       -0.01827424 -0.016625065 -0.056046184 -0.056564394
000190 5b 7e 23 bd b3 02 2b 3d ac a6 30 3d 40 f8 ea bc
       -0.039915424 0.04175062 0.0431277 -0.028682828
0001a0 d7 c6 99 3d 1f b4 10 bc 51 25 df bc 14 ba 27 3d
       0.07508629 -0.008832007 -0.027239474 0.040948942
0001b0 f2 50 7c bd 8c 4f 14 bc ce 69 90 3d cd ca 50 3d
       -0.061600633 -0.009052169 0.07051431 0.050974656
0001c0 20 32 1e bc ab a4 6f 3d 40 aa 80 3d 61 69 87 bc
       -0.009655505 0.05850665 0.062824726 -0.01652974
0001d0 28 9e 36 3d 41 1b 82 3d 48 86 0b bd 3a b3 80 bd
       0.044584423 0.063528545 -0.034063607 -0.06284185
0001e0 76 9b 21 3d d8 bc 04 bc 92 55 18 3d 1c 1d 7e 3d
       0.0394549 -0.0081016645 0.03719098 0.06203948
0001f0 5e b2 02 3d 8e 86 32 3d 54 0d 02 3d 98 b4 ec bc
       0.031908385 0.043585353 0.031750992 -0.028894708
