models/dqn_step_14000.pt (torch, 413509 bytes, 24 tensors)

network.0.weight f4 [128, 64]
00000000: ccb8 c33d 667b d43d 20e5 efbc 1c2a eb3d
00000010: b05c e0bc 38a2 ce3c 1045 79bd 2858 963d
00000020: ccac e13d 0ecf bbbd a483 de3d b0a6 bf3c
00000030: 9422 bd3d 50ae 8a3c 5ce1 763d 6094 90bc
00000040: c658 c53d 385b 973c a405 6fbd 0882 023d
00000050: ace5 6bbd c02c 70bc fcf3 4fbd aed2 a93d
00000060: 2a14 cabd 8c09 6cbd 6c93 10bd feec 99bd
00000070: f04b 413c 8ad8 fcbd 2832 e73d c076 d9bd
00000080: 96a3 c53d c869 aa3c ac3f 26bd f831 9e3d
00000090: 5897 9f3c b0d6 ce3d 00e3 5f3c 9878 21bd
000000a0: e890 093d 08d8 0abd a47a 573d fe8f e43d
000000b0: b6fb 933d 14d5 5fbd 9ec7 933d 7038 b73c
000000c0: 7a01 823d 8608 9cbd a46a fdbd 0cd1 45bd
000000d0: 9c5b c4bd d60e d23d d878 133d cc13 543d
000000e0: fcec 213d 0082 0ebb 0459 c83d 38e4 b5bd
000000f0: 20f3 003c f4ba aebd 50e0 1d3d e052 30bd
00000100: 98e2 1c3d 7857 d5bc 0653 d43d 50bb 97bd
00000110: 8aad 98bd e6af 98bd e241 e63d e49f 2a3d
00000120: 1056 f63d 4e45 d3bd 98eb fdbd fe48 c8bd
00000130: 5a35 acbd 6c61 4f3d b855 373d 76b7 d43d
00000140: 7434 84bd aa84 aebd f8d3 873d e4f3 4ebd
00000150: 5c5f 9b3d f0fe f2bc 9a71 923d 60e7 c6bd
00000160: ba30 81bd c418 1c3d 387b d83c f489 02bd
00000170: 0298 983d fa07 ae3d f6a4 b9bd 96ab 88bd
00000180: d268 ea3d f4c3 2cbd 2c83 35bd 48b4 f7bd
00000190: 849a 92bd 88cc ff3c 3829 87bc aad3 b9bd
000001a0: 4028 403b 6ede aebd 8630 d9bd 3af8 8cbd
000001b0: e60d e0bd 4401 a3bd 5ee6 ff3d 7068 c13c
000001c0: 1cc7 1d3d 66c4 eebd 5422 a8bd 146c 2abd
000001d0: c01f a03c 8642 e1bd 649b 5cbd 5842 99bd
000001e0: 009e b539 5084 3ebd f0ea 0dbc 2479 adbd
000001f0: 98b7 afbd d259 95bd 9c41 2fbd 500e cabd
00000200: 192b b9c0 fd78 c3c0 2f23 52be 3579 2840
00000210: 645e 3840 e9a6 7dbf 72be b2c0 2170 703f
00000220: d5fc a5bf 162f 30bf 5128 333f 75e7 653f
00000230: 817b 853d a553 90bf a07e 8c40 a69c 9b3e
00000240: 213e debe e0e8 9abe 9230 a23d 6d0e e03f
00000250: 4d80 05c0 ac65 b9bf 2013 743f acba 6740
00000260: 240c 0b3f 7167 e1be f577 083f 0e7e ddbf
00000270: 8995 0f3f 74e5 13bd 52a0 18c0 e29a de3f
00000280: 8be0 25bf dafa 073f 7cbc 213f f36a ecbf
00000290: 9d2b 2ebd 0037 95bf b30d bb3e e010 ca3f
000002a0: 462e f93f 4707 e1bf 1d08 033f 9764 773e
000002b0: 0df6 d9be 4fe3 b93f d31f b33e d9da d2bd
000002c0: f824 0c3f 6fc6 bbbe 4e9e cabe 27e6 e0bf
000002d0: 8a35 8abf c35d 91be 9992 5b3e 05c9 95bf
000002e0: a138 9abd 3ac8 583c f57c 4bbf dd6f dbbf
000002f0: 6817 73bd bcfc 52bc d0e4 b4bc 7f3c 81bd
00000300: 10a3 a33d 9c01 dc3d 20bf 4abc 3845 e5bc
00000310: 8014 ef3a a090 f4bb 602e f63c c87a 0f3d
00000320: 8483 e8bd 84f2 3cbd cc95 d73d c073 473d
00000330: a0b9 cbbb 0858 9abd 429f 9cbd fa50 e5bd
00000340: 8ce4 26bd 90e7 2c3d 2c3b a33d 9863 6c3d
00000350: 284a e2bd e4f2 99bd b09a a1bc 38a4 f73d
00000360: 1821 943c d097 04bd 7cd2 533d e802 43bd
00000370: 8cb2 a5bd e4d9 ba3d acce 68bd 2847 cdbc
00000380: 7eab febd 5255 ab3d 58f4 c13d f498 3a3d
00000390: 9080 b2bd 18a8 fcbd f6ea cfbd 36e6 be3d
000003a0: 6cd0 753d d66c d73d 561c 863d 4c95 013d
000003b0: 8071 a0ba 86b0 c2bd 6c55 dbbd 0273 efbd
000003c0: e497 513d 2860 7bbd 2815 cebc 5054 93bd
000003d0: d098 babc 862e b4bd 4046 a7bd 00d6 293d
000003e0: 202a 18bd 340a 9e3d 0c41 24bd 10cb bbbd
000003f0: 68ac b4bc d030 78bd 60a4 1cbd fcb5 f3bd
0.095567316 0.10375099 -0.02928406 0.11482641 -0.027387947 0.025223836 -0.06085688 0.07341033
0.110192865 -0.09170352 0.10864952 0.023394912 0.09235111 0.016928822 0.060273513 -0.017648876
0.09636073 0.018476114 -0.05835499 0.03186229 -0.05759208 -0.014659107 -0.05076979 0.08292137
-0.09867127 -0.057626292 -0.035296842 -0.07515906 0.01179789 -0.12345989 0.112888634 -0.10618353
0.09650342 0.020802394 -0.040588066 0.077243745 0.019481346 0.10099542 0.013664961 -0.039421648
0.03358546 -0.03389743 0.052607194 0.11160277 0.072257444 -0.054646567 0.07215808 0.022365779
0.06347938 -0.07618813 -0.12373856 -0.048295066 -0.095877856 0.10256736 0.036003917 0.051776692
0.039532647 -0.0021744967 0.097826034 -0.0888142 0.0078704655 -0.08531752 0.038544 -0.043047786
0.038302034 -0.026042685 0.10367398 -0.07408774 -0.07454975 -0.07455425 0.11243035 0.04165639
0.12028134 -0.10315953 -0.123984516 -0.09779547 -0.084086135 0.050630018 0.044759482 0.10386555
-0.06455317 -0.085213974 0.06632227 -0.05052556 0.07586548 -0.02966258 0.07150574 -0.097121
-0.06308122 0.038109556 0.026425943 -0.031869844 0.07450868 0.08497615 -0.09064667 -0.066733524
0.11445774 -0.042179063 -0.04431455 -0.12094933 -0.07158378 0.031225458 -0.016499147 -0.09073575
0.0029320866 -0.08538519 -0.10604958 -0.06883283 -0.10940151 -0.07959226 0.12495111 0.02360937
0.038519964 -0.11658554 -0.082096726 -0.041606978 0.01954639 -0.109990165 -0.05385913 -0.07483357
0.0003464073 -0.0465129 -0.0086619705 -0.08470371 -0.085799396 -0.072925225 -0.04278718 -0.09866011
-5.786511 -6.108519 -0.20521234 2.632398 2.8807611 -0.9908281 -5.5857477 0.93921095
-1.2967783 -0.6882185 0.6998339 0.898063 0.06517697 -1.1275526 4.390457 0.3039295
-0.43406776 -0.30255795 0.0791942 1.7504402 -2.0859559 -1.4484153 0.9534168 3.6207685
0.543154 -0.44024232 0.5330804 -1.7304094 0.5608755 -0.036107495 -2.3847852 1.7391016
-0.6479575 0.53117144 0.6317823 -1.8470138 -0.04252206 -1.165741 0.3653389 1.57864
1.9467247 -1.7580346 0.51184255 0.24159466 -0.42570534 1.4522494 0.34985217 -0.10295648
0.5474391 -0.3667483 -0.39573902 -1.7570237 -1.0797589 -0.28391847 0.21442641 -1.1701971
-0.07530332 0.0132313315 -0.79487544 -1.7143513 -0.059348494 -0.012877639 -0.022081763 -0.06310367
0.07990086 0.107424945 -0.012374669 -0.027987108 0.0018240362 -0.0074635297 0.03005141 0.035029203
-0.113532096 -0.04612972 0.10526618 0.048694372 -0.0062171966 -0.07536322 -0.076475635 -0.11197086
-0.040745303 0.042213023 0.079702705 0.057712168 -0.110493004 -0.07517031 -0.019727081 0.12091869
0.018082187 -0.032371342 0.051714405 -0.047610193 -0.08090696 0.091235906 -0.056837723 -0.025058344
-0.12435053 0.08365883 0.09470433 0.045556024 -0.087159276 -0.12336749 -0.10152237 0.09321253
0.06001322 0.10518806 0.065483734 0.03163652 -0.0012240857 -0.095063254 -0.10709652 -0.11691858
0.051170245 -0.061371 -0.025156572 -0.07193816 -0.022777945 -0.08797936 -0.08167696 0.041463852
-0.03714955 0.0771679 -0.040101096 -0.091695905 -0.022054866 -0.060593426 -0.038242698 -0.11899945

network.0.bias f4 [128]
00000000: 00c8 303a b8ef a4bc ee8b 913d 003f f53b
00000010: a64b b5bd 711a 6abc da59 bdbd 30e1 983c
00000020: bc8a c03c 7e5b f1bd 801d afbd 9c94 80bd
00000030: 1406 33bd 7f95 07bd 814e 293d 1610 cabd
00000040: 5af6 84bb da84 d3bd fd0a 98bb 50f2 a5bd
00000050: 66d7 c3bd f699 953d 74e0 fd3c c877 2dbd
00000060: b9f5 433d 030e c3bb 6cf2 393d a055 f0bb
00000070: 0b09 ccbd 6832 39bd d27d dbbd 44ba c23c
00000080: 9f10 3d3d 4dbf ce3d 66a9 fbbd 949d e63d
00000090: fc84 42bc 5c9b 0b3d ccc1 5bbd a8a4 133d
000000a0: 7e82 663d 22d4 763d 6a5d d3bd a8a4 9b3c
000000b0: 88f9 7c3c 4985 10be be3a 2c3d cde0 313c
000000c0: ba94 cdbd d6c7 dbbd a019 a73b fc54 cd3d
000000d0: 3cad 143d e0fd 8f3c d0a9 04bc 925c febd
000000e0: e054 3e3c e038 1a3d eeb1 d8bd a0a2 bcbc
000000f0: 46e1 f83d dc4e 8bbd dec3 afbd 72af f13c
00000100: 455b b93c 70ce ac3d 2e4e a8bd 4fdd 89bb
00000110: d083 f63c 4a65 a13d 1989 f33c 181a c43c
00000120: 1601 16bd 60ab b6bc 3227 8abd ab63 5d3b
00000130: 30c5 0a3d 3422 82bd 44f0 aebd bbf1 8c3c
00000140: 2896 893c d459 71bd f8a9 5d3d 6095 d0bd
00000150: 5090 7bbd 2ebc 6fbd dca2 84bd a794 d3bc
00000160: 80e0 9d3c 4cc7 32bd 48f2 8abc e483 85bd
00000170: aa53 a8bd b7a4 7e3c 50c5 bc3d c6c6 ad3d
00000180: 24cc c7bd e2cd f13c b491 9fbd d0cf 16bd
00000190: e01d 37bc 9f5f 5c3d e2b5 8a3d 5449 cfbd
000001a0: 3813 de3c 49ca 003d 4b30 43bc af84 3ebd
000001b0: c8b2 71bd ac9f b4bd 40f9 fbbd 8360 64bd
000001c0: 888b 45bd 16d7 b63c c073 58bd b6a3 d43d
000001d0: 5c9f b4bd c4d6 b33d 8817 8fbd de3e a9bc
000001e0: a8c0 3bbd 7ccc 573d 158b 523d a141 473d
000001f0: 0c4e b1bd b315 f73c de7c 8d3d f812 d2bd
0.00067436695 -0.020133838 0.071067676 0.007484317 -0.088523194 -0.014288531 -0.092456535 0.018662065
0.023503654 -0.11785029 -0.085505486 -0.06278345 -0.04370697 -0.033101555 0.041334633 -0.098663494
-0.0040576877 -0.10328074 -0.004639982 -0.08102858 -0.09562568 0.07304756 0.030990817 -0.04235056
0.04784176 -0.005952598 0.045397207 -0.007334426 -0.09962662 -0.045214087 -0.10717358 0.023770459
0.04615843 0.100950815 -0.122881696 0.112605244 -0.011872526 0.03408371 -0.053651616 0.0360457
0.05627679 0.0602609 -0.10320552 0.018999413 0.015440352 -0.14113344 0.04204821 0.010856819
-0.10038133 -0.10731475 0.0050994903 0.10025975 0.03629802 0.017577112 -0.008097127 -0.1242
0.011616915 0.037651896 -0.105808124 -0.023026764 0.121523425 -0.068021506 -0.085822806 0.029502604
0.022626529 0.08437812 -0.082180366 -0.0042072902 0.03009215 0.078806475 0.02972846 0.023938224
-0.03662213 -0.022298515 -0.06745757 0.003378133 0.03387946 -0.0635418 -0.08541921 0.01720511
0.016795233 -0.058923557 0.054117173 -0.10184741 -0.061416924 -0.05852907 -0.064763755 -0.025827719
0.019272089 -0.043647096 -0.016961232 -0.06519297 -0.08219083 0.015542201 0.09217322 0.08485179
-0.097557336 0.029517118 -0.077914625 -0.03681928 -0.011176556 0.05380213 0.06772973 -0.10121408
0.027108774 0.031442914 -0.011913369 -0.046513256 -0.05900839 -0.088195175 -0.123034 -0.055756103
-0.04822877 0.022319358 -0.052844763 0.10382788 -0.08819458 0.08781198 -0.0698691 -0.02065986
-0.04583803 0.052685246 0.05140217 0.048646573 -0.086574644 0.030161714 0.06908582 -0.10257524

network.2.weight f4 [128, 128]
00000000: e655 123d ccfc 8b3c 8498 a53c 0f9a 9e3d
00000010: 6bff 49ba eee9 76bd cf2c 23bd d804 3b3c
00000020: a8f2 5ebc cda5 81bd 0092 213b 5a4d 4f3d
00000030: 400a 403b 58d8 603d cb59 59bd 2bf7 8d3d
00000040: 348d 063b fde6 0dbd b673 ce3c c1ef 263d
00000050: 953a 1bbd 8240 68bd 4e7b 083d 5e87 9fbd
00000060: d80d ba3c df4a 673c dac8 76bd 0889 32bc
00000070: a92e 0f3c 56d7 7b3d ed5f 843d 4cf5 babd
00000080: 9579 b8bd 1e2f 3a3d c197 b23d 29bc 923d
00000090: 59b9 913c 31a3 ab3d a435 26bd 3b72 20bc
000000a0: c59c 99bd 186e b3bd 0cd7 74bd 0a35 a4bd
000000b0: 1f64 353c 3e1f 903c 0c78 673c 8cdc 263d
000000c0: 682f 90bd fcfa d0bc cd70 8e3d 2933 a0bd
000000d0: 7674 7e3d fcf9 de3c 1ef5 92bd ac36 9c3c
000000e0: 3bc5 01bd a164 40bc f91a 10bd 46e2 233d
000000f0: 37c8 8c3d eae4 4a3d 78fd 0abc 98e6 b6bd
00000100: 555f 7b3d 954f 0bbc f16a 933d 8aaa b73c
00000110: 0073 be3a f4e5 f43c 3e35 1b3d 33b7 ce39
00000120: d639 8c3b a029 6bbb ca10 783d 8fdb c93c
00000130: f779 25bd 09b1 a83d e375 ad3d db62 723d
00000140: 44bd 813c 1025 b13b db01 a8bd 6bf6 833d
00000150: 5110 82bd 005e aabd 5f85 5d3c fb40 f2bd
00000160: e51a 163b fa5c 2ebd fbed 2eba 3c7b 0bbd
00000170: a560 923d 0437 aebd 0804 853c ff05 04bc
00000180: 133f acbd d825 5c3d 8b26 02bc 8bf9 d1bd
00000190: cf1a b5bd 8856 333c 9ff7 813d d400 a5bc
000001a0: 1ae7 d5bc 2a1a b6bd 6c59 3d3d aadf 23bd
000001b0: 1468 26bd 48c1 093d f74f 9e3d e8d5 e43c
000001c0: c0d7 d03c 2507 9b3d 005e 763b f805 603c
000001d0: c09f d3bb b5ea 8cbd 33f1 8fbc 55af 7bbd
000001e0: 2a83 513d b3b9 79bd 96c3 c6bd a6fa f2bc
000001f0: 2379 863d 9cbb a5bd 6aeb 2cbd 30eb ddbb
00000200: 2254 1ebd 9e08 2b3d af1f 9e3d 12f4 433d
00000210: e4b3 98bc 701f 8ebd 7e75 95bd 1463 adbc
00000220: 621a e4bc 4048 89bd d810 b33c 0b2f 09bd
00000230: d0fa d13c 5840 40bd 907c 02bc d2e8 d9bc
00000240: a261 5e3d 3235 a5bd a7c3 0ebd a0a0 9a3c
00000250: 14ff cbbc 8045 c6ba 4eaf 743d 704e 4f3c
00000260: 6085 323c 5489 d33c 32c8 42bd 4196 10bd
00000270: 4a6c 2d3d 78ee 513c aa2b 6c3d 78e3 38bc
00000280: f70c aa3d 8635 583d 48d8 cabc 3405 39bd
00000290: 7838 923c e802 97bd 00cd 25bd 2cd2 dd3c
000002a0: 109e fc3b c2d7 233d 406f 17bd 3956 983d
000002b0: e415 47bd 3882 39bd da37 723d f8b2 8bbc
000002c0: f423 cf3c 08a1 80bc ca05 80bd 20b7 67bb
000002d0: ae3f 243d d6fd 733d f915 8a3d 20fb 4bbb
000002e0: b11c 833d 6c40 cc3c a05d 563b 00de da3a
000002f0: 902e 0abc 98c9 ce3c a0a1 95bb 72d4 683d
00000300: 0092 5cbc be0a 49bd 246d d23c f6dc 4abd
00000310: 66d5 603d 1dd7 933d 287a 683c 5c40 91bc
00000320: b0c9 82bb 3e8e 293d a448 8abd 28d1 c1bc
00000330: 9493 5cbd 51bb a3bd 1285 81bd c59d 68bd
00000340: e1d4 893d ba49 5d3d 7ec8 75bd 36da 8ebd
00000350: 071c a23d dcde ab3c f6b7 263d 0827 623c
00000360: 5046 07bd 1698 43bd eac8 423d 0fd2 b2bd
00000370: 3fa1 96bd 58a8 da3c 64e2 bdbc d080 8a3c
00000380: 7217 413d 4e0d 50bd a7cb 4bbd eaac 5ebd
00000390: 2d62 9ebd 200d c4bb 2db7 993d 6006 b1bb
000003a0: 5e8d 463d 780c 34bd 20af 0f3c 41ed 87bd
000003b0: 0073 bfbb f8e5 9e3c 63e7 1abd 3b32 a63d
000003c0: 1c6f cc3c f215 353d b727 b43d 4e78 193d
000003d0: 908a e3bb c2e8 2c3d 2762 b23d 2e46 aebd
000003e0: 0c84 88bc b6ce 2f3d 847f afbc f445 93bd
000003f0: f52a 52bd b12b 3cbd 8e18 163d ba7e 663d
0.03572645 0.017088316 0.020214327 0.07744228 -0.0007705602 -0.060281686 -0.039837655 0.011414729
-0.013607658 -0.06330452 0.0024653673 0.050610878 0.0029302984 0.05489382 -0.05306415 0.06931909
0.002053094 -0.034644116 0.02520166 0.04075599 -0.037897665 -0.056702144 0.033320718 -0.07789491
0.02271168 0.014116972 -0.06025014 -0.010896929 0.008739152 0.061484657 0.06463609 -0.09128818
-0.09007565 0.04545509 0.08720351 0.07164795 0.017788576 0.08380736 -0.0405785 -0.00979286
-0.075006045 -0.08761233 -0.059775397 -0.08017929 0.011071234 0.017593022 0.0141277425 0.040737674
-0.07040292 -0.025510304 0.06955109 -0.07822258 0.062122785 0.027218811 -0.07175659 0.019069038
-0.031682234 -0.011742742 -0.035181973 0.040010713 0.068741255 0.049534716 -0.008483283 -0.08930701
0.061370213 -0.008502861 0.07198132 0.022420187 0.0014530122 0.029894806 0.037892573 0.00039427876
0.0042793555 -0.0035882965 0.060562886 0.024640827 -0.040399518 0.08236892 0.08469751 0.059176307
0.01583732 0.0054060295 -0.08203479 0.06443485 -0.06350768 -0.0831871 0.013520568 -0.118288
0.0022904214 -0.042569138 -0.0006673035 -0.034053072 0.0714734 -0.08506587 0.016237274 -0.00805807
-0.08410468 0.053747028 -0.00794376 -0.10252675 -0.08843004 0.010945924 0.06346058 -0.020141996
-0.026111174 -0.08891709 0.046227857 -0.040008225 -0.0406266 0.033631593 0.07730096 0.02793403
0.025493503 0.07569722 0.003759265 0.013673298 -0.0064582527 -0.06880704 -0.017571067 -0.061446507
0.05115048 -0.060968112 -0.09705274 -0.029660534 0.06566074 -0.08092424 -0.042216696 -0.0067724213
-0.038654454 0.041756265 0.07720887 0.047840185 -0.018640466 -0.0693959 -0.072978005 -0.021165408
-0.027844612 -0.06703234 0.021858618 -0.03349213 0.025632292 -0.046936363 -0.007964268 -0.026600275
0.05429233 -0.08066787 -0.034854557 0.01887542 -0.024901904 -0.0015126914 0.059737496 0.012652978
0.010896057 0.02582232 -0.047554202 -0.035299543 0.0423396 0.012813203 0.05765883 -0.0112847015
0.08303254 0.05278542 -0.024761334 -0.045170978 0.017849192 -0.07373601 -0.040478706 0.027077757
0.007709272 0.040000685 -0.03697133 0.07438321 -0.04860486 -0.045290202 0.059135295 -0.017053112
0.025285698 -0.015701786 -0.06251104 -0.0035356954 0.040099792 0.05956825 0.06742472 -0.0031125024
0.06401957 0.024933062 0.0032709613 0.0016698241 -0.008433953 0.025242612 -0.0045663863 0.05684323
-0.0134625435 -0.04908251 0.025686808 -0.04952713 0.054891013 0.07218764 0.014189281 -0.017730884
-0.003991328 0.04139542 -0.06752136 -0.023659304 -0.05385168 -0.07994712 -0.06324209 -0.056791086
0.067300566 0.05402539 -0.060005657 -0.06975214 0.07915502 0.020980291 0.040702783 0.013803251
-0.03302604 -0.047752462 0.047554888 -0.08731472 -0.07354974 0.0266916 -0.02317924 0.016907126
0.0471415 -0.05079394 -0.049754765 -0.054364122 -0.07733569 -0.00598301 0.07505641 -0.0054023713
0.048474662 -0.043957204 0.00876978 -0.066370495 -0.0058425665 0.019396767 -0.037818324 0.081150495
0.024955325 0.04421038 0.087966375 0.037468247 -0.006944008 0.042214163 0.08710127 -0.085094795
-0.016664527 0.042921744 -0.021423109 -0.07191077 -0.0513105 -0.045940105 0.03664451 0.0562732

network.2.bias f4 [128]
00000000: 2ca4 d2bb a3c2 a3bd d7d3 0a3d 6812 f3bb
00000010: a065 2d3d 4e86 78bd 8c46 74bd d2ab 953c
00000020: 9900 f3bb 0eaf bd3d e48f a2bd fa43 14bd
00000030: ad13 5dbd 717a 65bd 39b9 c43c e4d0 4ebc
00000040: 74aa d0bc 5e92 103d 1a5c efbc 3e32 8dbb
00000050: 97bd 99bd 2bb9 0cbd 81a8 4cba 56c7 5e3d
00000060: 9f99 2b3d 6c2c 24bd ef5b 98bd d5fa 933c
00000070: a16c 6f3d 9156 8ebc ef6b 653d 1a6f 813d
00000080: 66db 98bd ae77 383d 4aeb 43bd d2fe e4bc
00000090: 8e79 bb3c 62fb 9dbc dd51 13bb 91bd 8d3d
000000a0: ef0d 613d 14c3 9cbc ce3a d93c 48b8 18bd
000000b0: 1808 b8bc 6518 67bc 5dc0 5ebd 67e9 0ebd
000000c0: 9478 c4bc 4841 18bd fc08 433d a92d 25bd
000000d0: 7ae8 b83c e2d6 933d 3808 653d d45e 2c3d
000000e0: 14b8 8bbd f26b 11bc c803 f43c 4c4b 05bd
000000f0: fb31 6ebd 8975 8f3d b0ac f9bc a09b 66bd
00000100: 5847 2a3d f5c1 663d fe69 fdbb 6d2c a7bd
00000110: 4bd6 78bc 8f60 663d 1906 81bb 4d86 bc3d
00000120: b089 adbc 5d70 93bb 2ab3 a6bb 406d 56bc
00000130: 965e 2e3c ddab 66bc 2de3 93bb 3916 bf3d
00000140: fea0 7d3c 4238 8539 1e6a a4bd ed5a 003d
00000150: c3c9 863c 4b52 b53d 9f5d 60bd d122 3b3d
00000160: e407 aa3d f91f c5bc cff7 b3bd feb8 783d
00000170: b7c2 92bd 5859 ee3c e44a 963d d3f2 2ebb
00000180: dcb3 95bc 4a31 88bc af90 65bd 11b0 67bd
00000190: 5b7e 23bd 061f 5d3d 2034 733d 40f8 eabc
000001a0: 9bae d93d 1fb4 10bc 5125 dfbc 0626 823d
000001b0: f250 7cbd f175 1dbc df60 983d 8c05 813d
000001c0: 2032 1ebc 5a84 413d dfde 4c3d 6169 87bc
000001d0: 63fa ab3c cdd3 ae3d 4886 0bbd 3ab3 80bd
000001e0: a057 383d d8bc 04bc e4d0 0cbb c08e 773d
000001f0: b66a 4c3d 1eca 273d e143 e03c 98b4 ecbc
-0.006428262 -0.079961084 0.033893432 -0.0074179657 0.042333245 -0.060674958 -0.05963759 0.018270407
-0.0074158427 0.09261905 -0.07937601 -0.03619764 -0.053973842 -0.056024972 0.024014102 -0.012623046
-0.025471903 0.035295837 -0.029218722 -0.004308968 -0.075068645 -0.034356277 -0.00078070915 0.05438932
0.04189455 -0.040081427 -0.0743941 0.018063942 0.058453206 -0.017375262 0.056011137 0.06320019
-0.07463722 0.04503601 -0.04783181 -0.027953539 0.02288511 -0.019284908 -0.0022479214 0.069209225
0.05494493 -0.01913599 0.026517298 -0.03728512 -0.022464797 -0.014104937 -0.05438267 -0.03489056
-0.023983277 -0.037171632 0.04761599 -0.040326748 0.022571791 0.0721872 0.05591604 0.042082623
-0.068222195 -0.008875834 0.02978696 -0.03254251 -0.058153134 0.0700484 -0.030477852 -0.05630076
0.041571945 0.056337316 -0.0077335825 -0.081627704 -0.01518781 0.05624443 -0.0039374945 0.09205303
-0.021183819 -0.0044994787 -0.005087276 -0.013087571 0.010642668 -0.014079061 -0.0045131654 0.093304105
0.015480278 0.00025409652 -0.08028053 0.031336714 0.01645363 0.08853587 -0.054776784 0.0456875
0.08302286 -0.024063097 -0.087875 0.060723297 -0.07166045 0.029095337 0.07338503 -0.0026695027
-0.01827424 -0.016625065 -0.056046184 -0.056564394 -0.039915424 0.053984664 0.059375882 -0.028682828
0.106290065 -0.008832007 -0.027239474 0.06354909 -0.061600633 -0.009610639 0.07440352 0.06299886
-0.009655505 0.04724536 0.050017234 -0.01652974 0.020993417 0.085364915 -0.034063607 -0.06284185
0.04500544 -0.0081016645 -0.0021486813 0.06043887 0.049906455 0.04096424 0.027376117 -0.028894708

network.4.weight f4 [3, 128]
00000000: 6ad8 293d b4e0 86bc 6a5a 903f 72e0 abbd
00000010: a267 a33f 4233 493d 8dcb 843d 3fb4 963f
00000020: b215 46bd a9b0 413f 64db 50bd d0d5 d13b
00000030: a0cc 2b3b 687e 7dbc e886 983f e019 053d
00000040: 927d 713d 3bf5 fe3d 89c2 a2bd f342 29bd
00000050: 4038 20bc 13fe 1dbd 0519 b13f 10e4 9f3f
00000060: e18f e23d fb32 833d a084 d2bc 1dba d33e
00000070: 12c2 e73f 1223 8bbc 87cb 623d 60ba 06bd
00000080: 8196 a33d bf5a 8d3f 0355 a63d e7af b33d
00000090: 0632 2f3e e1ea 5bba 7a28 62bb 4d05 993f
000000a0: 1276 963f fae1 7cbd 9811 aa3f c227 023d
000000b0: 3943 64bb fda5 553d db17 213c 5aad 8b3d
000000c0: 2973 52bd 7206 89bd d670 813f 4899 663d
000000d0: 3542 893f 1e4b d93f 540a c33f 80a4 963f
000000e0: 61dd b0bd 94bf 2a3d a969 9c3f 5145 0e3c
000000f0: 95a9 b0bd 3a2a a23f 30d2 403c 7ddb 8b3d
00000100: 2d8d a23f 9a18 e83c c83a 9b3d 44b0 aabd
00000110: 1547 72bb 80d9 933f 3930 a2bd 9333 843f
00000120: 5392 a13d 9d2c fdbc ef2e 83bd 386e 903c
00000130: d051 f63e 88a9 8f3c 18cf 39bd 60fc 5c3f
00000140: 729d ba3e 8ccd 3c3d bd3e a53d b01b c33e
00000150: 93cc a13e 657b 853f e1c7 a43d c1ed b73e
00000160: 3b6a 6dbe 38a3 98bc 2090 85bd 3dba 8e3f
00000170: c0c1 b8bb 48e2 a63f b6be 8a3d e488 1abe
00000180: 6629 3c3d 2d7a c63c 00c5 f73c 7c56 17bd
00000190: ee14 213d eb59 943f 8296 9b3f ac34 c73c
000001a0: 206e 153f a791 293d 03a2 aa3d a83d 873f
000001b0: 7863 9d3c 272e 40bd 98b6 8e3f eb3d 8d3f
000001c0: 5a40 743d 4aed ec3f 76ed e63f 4002 9cbb
000001d0: 993e 813f 7cfb 6b3f 40d7 efbb 0433 cb3c
000001e0: c110 8a3f e398 18bd 61a6 a83f abbe da3f
000001f0: 1ebd 9b3f 713c 963f eb57 4d3e 249c c53c
00000200: 983c da3a be18 febc e1a3 8a3f 4772 46bd
00000210: de68 283f 0188 acbd d093 6c3c e3fd 2a3f
00000220: 0ecc eabc 7d72 b43f 1277 7cbd af98 b1bd
00000230: b2ec 1e3d fe46 2b3d 50ea ac3f 2fb7 5ebd
00000240: 1bdf 993d 1d84 053f c5db ae3d 2ad2 103d
00000250: 450b 9a3d 489f 00bd b52b 613f 8bd1 8f3f
00000260: cb72 1a3f 40ab 83bd 2073 c3bc 2e2a 133f
00000270: dd0a b43f d2a2 383d 6bb2 053f 67a4 7abf
00000280: 526e 703d 2825 5a3e 43ec e33c 8c88 2dbd
00000290: 848d 283f 2024 9fbd c6aa 79bd cb8c c13f
000002a0: eb81 4a3f 38d2 ab3c 69c2 893f 3ac2 a6bc
000002b0: 803c 533d 2a31 863d 3fc6 d83c ec34 853b
000002c0: 9148 5dbd b793 873d e599 773f 0ce9 85bb
000002d0: be13 153f 7388 c23f ae4b aa3f 1d4b 943f
000002e0: 309c 4b3c f767 39bb 1089 c03f b654 93bd
000002f0: d38c 0ebd 346e c33f a239 f8bc e7ad 42bd
00000300: d53b 5a3f 3a2f 80bf fea3 47bd 23da 29bd
00000310: d49a 843d 1725 8c3f e0dd 063d 3fd8 ba3f
00000320: 2a99 6e3d 8744 cbbc 9ca4 3ebb 1fe0 5bbc
00000330: 0a11 1e3f 518f c2bc b8bb c13c e988 c63f
00000340: 2a7c 223f dd6d 2abb c02f 993c 0339 153f
00000350: e58a 203f 13b0 c93f 0837 4dbc b0de 203f
00000360: 6964 71bf d51d 0e3d 80e5 bdbb a069 8d3f
00000370: b3f7 3bbd 4a38 493f dd9b 44bf 4fb8 3fbd
00000380: 7630 203d 01f5 b3bc 5ca8 a1bc bca9 803c
00000390: 8369 88bd 7d1a 883f bdc9 8c3f 70e1 28bd
000003a0: 0301 d03f 1b2e fa3b e0a4 2abd 0517 6a3f
000003b0: 69b6 31bd 0848 bc3c 5fab bf3f c635 a03f
000003c0: 3039 7fbc d43e 8d3f 432c 9d3f 2288 59bb
000003d0: ed03 4c3f cd7d b53f b6ee 7b3d 7ca6 cd3c
000003e0: 8767 9d3f 8c2d c9bc 9c5a 6c3f 61e7 b43f
000003f0: e8db 5a3f fc69 c93e 02c8 1b3f eedc 793d
0.041466154 -0.016464569 1.1277592 -0.08392419 1.2766001 0.04912115 0.06484137 1.1773757
-0.048360534 0.75660187 -0.050990477 0.0064036623 0.0026214495 -0.015472032 1.191617 0.03249538
0.058957644 0.12449118 -0.07947261 -0.041323613 -0.009779036 -0.038572382 1.383576 1.2491474
0.11062599 0.06406208 -0.025698006 0.4135293 1.81061 -0.016984496 0.05536988 -0.032892585
0.07987691 1.1043319 0.081216834 0.08773785 0.17108926 -0.00083891867 -0.003450899 1.1954743
1.1754782 -0.061738946 1.3286619 0.031776197 -0.0034830107 0.052160252 0.009832348 0.068201736
-0.051379357 -0.066906825 1.011256 0.056298524 1.072333 1.6976049 1.5237527 1.1768951
-0.08635975 0.04168661 1.2219745 0.0086835185 -0.08626095 1.2669137 0.011768863 0.068289734
1.2699333 0.028332043 0.07579571 -0.08334401 -0.0036968638 1.1550751 -0.07919354 1.0328239
0.07889237 -0.030905062 -0.06405436 0.017630681 0.48109293 0.017536893 -0.045363516 0.86322594
0.36448246 0.046094462 0.08068607 0.3810706 0.3160139 1.0428282 0.080459364 0.3592358
-0.23185055 -0.018632516 -0.0652163 1.1150585 -0.005638331 1.3037806 0.067746565 -0.15091282
0.045937918 0.02422818 0.030245304 -0.036947712 0.0393266 1.1589941 1.2155306 0.024317108
0.5837116 0.04139867 0.083316825 1.0565691 0.01921247 -0.046919014 1.1149473 1.1034521
0.059631683 1.8509915 1.8041217 -0.0047610104 1.0097228 0.9218061 -0.007319361 0.0248046
1.0786363 -0.03725518 1.3175775 1.7089437 1.2167089 1.1737195 0.2005307 0.024122305
0.0016650138 -0.031017657 1.0831262 -0.048448827 0.65785015 -0.08424378 0.014439538 0.6679365
-0.028661754 1.4097439 -0.06163699 -0.086717 0.03879995 0.04181575 1.3509007 -0.054373916
0.07513257 0.52154714 0.085380115 0.035356678 0.07521681 -0.031401902 0.87957317 1.1235822
0.6033141 -0.06429148 -0.023858607 0.57486236 1.4065815 0.045077153 0.5222537 -0.9790711
0.05869896 0.21303236 0.02782262 -0.04236655 0.65840936 -0.07770562 -0.060953878 1.5121092
0.7910449 0.020974264 1.0762454 -0.020356286 0.05157137 0.06552346 0.026461719 0.0040651467
-0.054024283 0.06619971 0.967192 -0.0040866192 0.5823325 1.5197891 1.3304346 1.1585423
0.012427375 -0.0028290728 1.5041828 -0.07193892 -0.03480227 1.5268006 -0.030300919 -0.047529127
0.85247546 -1.0014412 -0.04874038 -0.041467797 0.064748436 1.0948819 0.03292644 1.4597243
0.058251537 -0.02481295 -0.0029089814 -0.013420134 0.6174475 -0.02374998 0.023649082 1.5510532
0.6347071 -0.0026005425 0.018699527 0.5829012 0.62711936 1.5756859 -0.0125253275 0.62839794
-0.9429384 0.03469642 -0.005795181 1.1047859 -0.04589052 0.78601515 -0.7680033 -0.04680663
0.039108716 -0.021967413 -0.0197336 0.015705936 -0.0666075 1.0633084 1.0999066 -0.04123062
1.6250309 0.0076348907 -0.041661143 0.91441375 -0.04338685 0.022983566 1.4974173 1.251641
-0.015577599 1.1034799 1.2279133 -0.0033192714 0.7969349 1.4179016 0.06150695 0.0251038
1.2297219 -0.024557851 0.9232576 1.4133111 0.854918 0.39338672 0.6085206 0.06100171

network.4.bias f4 [3]
00000000: 0040 0fbe 9238 60ba 205c 0ebe
-0.13989258 -0.00085533515 -0.1390233

network.0.weight f4 [128, 64]
00000000: ccb8 c33d 667b d43d 20e5 efbc 1c2a eb3d
00000010: b05c e0bc 38a2 ce3c 1045 79bd 2858 963d
00000020: ccac e13d 0ecf bbbd a483 de3d b0a6 bf3c
00000030: 9422 bd3d 50ae 8a3c 5ce1 763d 6094 90bc
00000040: c658 c53d 385b 973c a405 6fbd 0882 023d
00000050: ace5 6bbd c02c 70bc fcf3 4fbd aed2 a93d
00000060: 2a14 cabd 8c09 6cbd 6c93 10bd feec 99bd
00000070: f04b 413c 8ad8 fcbd 2832 e73d c076 d9bd
00000080: 96a3 c53d c869 aa3c ac3f 26bd f831 9e3d
00000090: 5897 9f3c b0d6 ce3d 00e3 5f3c 9878 21bd
000000a0: e890 093d 08d8 0abd a47a 573d fe8f e43d
000000b0: b6fb 933d 14d5 5fbd 9ec7 933d 7038 b73c
000000c0: 7a01 823d 8608 9cbd a46a fdbd 0cd1 45bd
000000d0: 9c5b c4bd d60e d23d d878 133d cc13 543d
000000e0: fcec 213d 0082 0ebb 0459 c83d 38e4 b5bd
000000f0: 20f3 003c f4ba aebd 50e0 1d3d e052 30bd
00000100: 98e2 1c3d 7857 d5bc 0653 d43d 50bb 97bd
00000110: 8aad 98bd e6af 98bd e241 e63d e49f 2a3d
00000120: 1056 f63d 4e45 d3bd 98eb fdbd fe48 c8bd
00000130: 5a35 acbd 6c61 4f3d b855 373d 76b7 d43d
00000140: 7434 84bd aa84 aebd f8d3 873d e4f3 4ebd
00000150: 5c5f 9b3d f0fe f2bc 9a71 923d 60e7 c6bd
00000160: ba30 81bd c418 1c3d 387b d83c f489 02bd
00000170: 0298 983d fa07 ae3d f6a4 b9bd 96ab 88bd
00000180: d268 ea3d f4c3 2cbd 2c83 35bd 48b4 f7bd
00000190: 849a 92bd 88cc ff3c 3829 87bc aad3 b9bd
000001a0: 4028 403b 6ede aebd 8630 d9bd 3af8 8cbd
000001b0: e60d e0bd 4401 a3bd 5ee6 ff3d 7068 c13c
000001c0: 1cc7 1d3d 66c4 eebd 5422 a8bd 146c 2abd
000001d0: c01f a03c 8642 e1bd 649b 5cbd 5842 99bd
000001e0: 009e b539 5084 3ebd f0ea 0dbc 2479 adbd
000001f0: 98b7 afbd d259 95bd 9c41 2fbd 500e cabd
00000200: 192b b9c0 fd78 c3c0 2f23 52be 3579 2840
00000210: 645e 3840 e9a6 7dbf 72be b2c0 2170 703f
00000220: d5fc a5bf 162f 30bf 5128 333f 75e7 653f
00000230: 817b 853d a553 90bf a07e 8c40 a69c 9b3e
00000240: 213e debe e0e8 9abe 9230 a23d 6d0e e03f
00000250: 4d80 05c0 ac65 b9bf 2013 743f acba 6740
00000260: 240c 0b3f 7167 e1be f577 083f 0e7e ddbf
00000270: 8995 0f3f 74e5 13bd 52a0 18c0 e29a de3f
00000280: 8be0 25bf dafa 073f 7cbc 213f f36a ecbf
00000290: 9d2b 2ebd 0037 95bf b30d bb3e e010 ca3f
000002a0: 462e f93f 4707 e1bf 1d08 033f 9764 773e
000002b0: 0df6 d9be 4fe3 b93f d31f b33e d9da d2bd
000002c0: f824 0c3f 6fc6 bbbe 4e9e cabe 27e6 e0bf
000002d0: 8a35 8abf c35d 91be 9992 5b3e 05c9 95bf
000002e0: a138 9abd 3ac8 583c f57c 4bbf dd6f dbbf
000002f0: 6817 73bd bcfc 52bc d0e4 b4bc 7f3c 81bd
00000300: 10a3 a33d 9c01 dc3d 20bf 4abc 3845 e5bc
00000310: 8014 ef3a a090 f4bb 602e f63c c87a 0f3d
00000320: 8483 e8bd 84f2 3cbd cc95 d73d c073 473d
00000330: a0b9 cbbb 0858 9abd 429f 9cbd fa50 e5bd
00000340: 8ce4 26bd 90e7 2c3d 2c3b a33d 9863 6c3d
00000350: 284a e2bd e4f2 99bd b09a a1bc 38a4 f73d
00000360: 1821 943c d097 04bd 7cd2 533d e802 43bd
00000370: 8cb2 a5bd e4d9 ba3d acce 68bd 2847 cdbc
00000380: 7eab febd 5255 ab3d 58f4 c13d f498 3a3d
00000390: 9080 b2bd 18a8 fcbd f6ea cfbd 36e6 be3d
000003a0: 6cd0 753d d66c d73d 561c 863d 4c95 013d
000003b0: 8071 a0ba 86b0 c2bd 6c55 dbbd 0273 efbd
000003c0: e497 513d 2860 7bbd 2815 cebc 5054 93bd
000003d0: d098 babc 862e b4bd 4046 a7bd 00d6 293d
000003e0: 202a 18bd 340a 9e3d 0c41 24bd 10cb bbbd
000003f0: 68ac b4bc d030 78bd 60a4 1cbd fcb5 f3bd
0.095567316 0.10375099 -0.02928406 0.11482641 -0.027387947 0.025223836 -0.06085688 0.07341033
0.110192865 -0.09170352 0.10864952 0.023394912 0.09235111 0.016928822 0.060273513 -0.017648876
0.09636073 0.018476114 -0.05835499 0.03186229 -0.05759208 -0.014659107 -0.05076979 0.08292137
-0.09867127 -0.057626292 -0.035296842 -0.07515906 0.01179789 -0.12345989 0.112888634 -0.10618353
0.09650342 0.020802394 -0.040588066 0.077243745 0.019481346 0.10099542 0.013664961 -0.039421648
0.03358546 -0.03389743 0.052607194 0.11160277 0.072257444 -0.054646567 0.07215808 0.022365779
0.06347938 -0.07618813 -0.12373856 -0.048295066 -0.095877856 0.10256736 0.036003917 0.051776692
0.039532647 -0.0021744967 0.097826034 -0.0888142 0.0078704655 -0.08531752 0.038544 -0.043047786
0.038302034 -0.026042685 0.10367398 -0.07408774 -0.07454975 -0.07455425 0.11243035 0.04165639
0.12028134 -0.10315953 -0.123984516 -0.09779547 -0.084086135 0.050630018 0.044759482 0.10386555
-0.06455317 -0.085213974 0.06632227 -0.05052556 0.07586548 -0.02966258 0.07150574 -0.097121
-0.06308122 0.038109556 0.026425943 -0.031869844 0.07450868 0.08497615 -0.09064667 -0.066733524
0.11445774 -0.042179063 -0.04431455 -0.12094933 -0.07158378 0.031225458 -0.016499147 -0.09073575
0.0029320866 -0.08538519 -0.10604958 -0.06883283 -0.10940151 -0.07959226 0.12495111 0.02360937
0.038519964 -0.11658554 -0.082096726 -0.041606978 0.01954639 -0.109990165 -0.05385913 -0.07483357
0.0003464073 -0.0465129 -0.0086619705 -0.08470371 -0.085799396 -0.072925225 -0.04278718 -0.09866011
-5.786511 -6.108519 -0.20521234 2.632398 2.8807611 -0.9908281 -5.5857477 0.93921095
-1.2967783 -0.6882185 0.6998339 0.898063 0.06517697 -1.1275526 4.390457 0.3039295
-0.43406776 -0.30255795 0.0791942 1.7504402 -2.0859559 -1.4484153 0.9534168 3.6207685
0.543154 -0.44024232 0.5330804 -1.7304094 0.5608755 -0.036107495 -2.3847852 1.7391016
-0.6479575 0.53117144 0.6317823 -1.8470138 -0.04252206 -1.165741 0.3653389 1.57864
1.9467247 -1.7580346 0.51184255 0.24159466 -0.42570534 1.4522494 0.34985217 -0.10295648
0.5474391 -0.3667483 -0.39573902 -1.7570237 -1.0797589 -0.28391847 0.21442641 -1.1701971
-0.07530332 0.0132313315 -0.79487544 -1.7143513 -0.059348494 -0.012877639 -0.022081763 -0.06310367
0.07990086 0.107424945 -0.012374669 -0.027987108 0.0018240362 -0.0074635297 0.03005141 0.035029203
-0.113532096 -0.04612972 0.10526618 0.048694372 -0.0062171966 -0.07536322 -0.076475635 -0.11197086
-0.040745303 0.042213023 0.079702705 0.057712168 -0.110493004 -0.07517031 -0.019727081 0.12091869
0.018082187 -0.032371342 0.051714405 -0.047610193 -0.08090696 0.091235906 -0.056837723 -0.025058344
-0.12435053 0.08365883 0.09470433 0.045556024 -0.087159276 -0.12336749 -0.10152237 0.09321253
0.06001322 0.10518806 0.065483734 0.03163652 -0.0012240857 -0.095063254 -0.10709652 -0.11691858
0.051170245 -0.061371 -0.025156572 -0.07193816 -0.022777945 -0.08797936 -0.08167696 0.041463852
-0.03714955 0.0771679 -0.040101096 -0.091695905 -0.022054866 -0.060593426 -0.038242698 -0.11899945

network.0.bias f4 [128]
00000000: 00c8 303a b8ef a4bc ee8b 913d 003f f53b
00000010: a64b b5bd 711a 6abc da59 bdbd 30e1 983c
00000020: bc8a c03c 7e5b f1bd 801d afbd 9c94 80bd
00000030: 1406 33bd 7f95 07bd 814e 293d 1610 cabd
00000040: 5af6 84bb da84 d3bd fd0a 98bb 50f2 a5bd
00000050: 66d7 c3bd f699 953d 74e0 fd3c c877 2dbd
00000060: b9f5 433d 030e c3bb 6cf2 393d a055 f0bb
00000070: 0b09 ccbd 6832 39bd d27d dbbd 44ba c23c
00000080: 9f10 3d3d 4dbf ce3d 66a9 fbbd 949d e63d
00000090: fc84 42bc 5c9b 0b3d ccc1 5bbd a8a4 133d
000000a0: 7e82 663d 22d4 763d 6a5d d3bd a8a4 9b3c
000000b0: 88f9 7c3c 4985 10be be3a 2c3d cde0 313c
000000c0: ba94 cdbd d6c7 dbbd a019 a73b fc54 cd3d
000000d0: 3cad 143d e0fd 8f3c d0a9 04bc 925c febd
000000e0: e054 3e3c e038 1a3d eeb1 d8bd a0a2 bcbc
000000f0: 46e1 f83d dc4e 8bbd dec3 afbd 72af f13c
00000100: 455b b93c 70ce ac3d 2e4e a8bd 4fdd 89bb
00000110: d083 f63c 4a65 a13d 1989 f33c 181a c43c
00000120: 1601 16bd 60ab b6bc 3227 8abd ab63 5d3b
00000130: 30c5 0a3d 3422 82bd 44f0 aebd bbf1 8c3c
00000140: 2896 893c d459 71bd f8a9 5d3d 6095 d0bd
00000150: 5090 7bbd 2ebc 6fbd dca2 84bd a794 d3bc
00000160: 80e0 9d3c 4cc7 32bd 48f2 8abc e483 85bd
00000170: aa53 a8bd b7a4 7e3c 50c5 bc3d c6c6 ad3d
00000180: 24cc c7bd e2cd f13c b491 9fbd d0cf 16bd
00000190: e01d 37bc 9f5f 5c3d e2b5 8a3d 5449 cfbd
000001a0: 3813 de3c 49ca 003d 4b30 43bc af84 3ebd
000001b0: c8b2 71bd ac9f b4bd 40f9 fbbd 8360 64bd
000001c0: 888b 45bd 16d7 b63c c073 58bd b6a3 d43d
000001d0: 5c9f b4bd c4d6 b33d 8817 8fbd de3e a9bc
000001e0: a8c0 3bbd 7ccc 573d 158b 523d a141 473d
000001f0: 0c4e b1bd b315 f73c de7c 8d3d f812 d2bd
0.00067436695 -0.020133838 0.071067676 0.007484317 -0.088523194 -0.014288531 -0.092456535 0.018662065
0.023503654 -0.11785029 -0.085505486 -0.06278345 -0.04370697 -0.033101555 0.041334633 -0.098663494
-0.0040576877 -0.10328074 -0.004639982 -0.08102858 -0.09562568 0.07304756 0.030990817 -0.04235056
0.04784176 -0.005952598 0.045397207 -0.007334426 -0.09962662 -0.045214087 -0.10717358 0.023770459
0.04615843 0.100950815 -0.122881696 0.112605244 -0.011872526 0.03408371 -0.053651616 0.0360457
0.05627679 0.0602609 -0.10320552 0.018999413 0.015440352 -0.14113344 0.04204821 0.010856819
-0.10038133 -0.10731475 0.0050994903 0.10025975 0.03629802 0.017577112 -0.008097127 -0.1242
0.011616915 0.037651896 -0.105808124 -0.023026764 0.121523425 -0.068021506 -0.085822806 0.029502604
0.022626529 0.08437812 -0.082180366 -0.0042072902 0.03009215 0.078806475 0.02972846 0.023938224
-0.03662213 -0.022298515 -0.06745757 0.003378133 0.03387946 -0.0635418 -0.08541921 0.01720511
0.016795233 -0.058923557 0.054117173 -0.10184741 -0.061416924 -0.05852907 -0.064763755 -0.025827719
0.019272089 -0.043647096 -0.016961232 -0.06519297 -0.08219083 0.015542201 0.09217322 0.08485179
-0.097557336 0.029517118 -0.077914625 -0.03681928 -0.011176556 0.05380213 0.06772973 -0.10121408
0.027108774 0.031442914 -0.011913369 -0.046513256 -0.05900839 -0.088195175 -0.123034 -0.055756103
-0.04822877 0.022319358 -0.052844763 0.10382788 -0.08819458 0.08781198 -0.0698691 -0.02065986
-0.04583803 0.052685246 0.05140217 0.048646573 -0.086574644 0.030161714 0.06908582 -0.10257524

network.2.weight f4 [128, 128]
00000000: e655 123d ccfc 8b3c 8498 a53c 0f9a 9e3d
00000010: 6bff 49ba eee9 76bd cf2c 23bd d804 3b3c
00000020: a8f2 5ebc cda5 81bd 0092 213b 5a4d 4f3d
00000030: 400a 403b 58d8 603d cb59 59bd 2bf7 8d3d
00000040: 348d 063b fde6 0dbd b673 ce3c c1ef 263d
00000050: 953a 1bbd 8240 68bd 4e7b 083d 5e87 9fbd
00000060: d80d ba3c df4a 673c dac8 76bd 0889 32bc
00000070: a92e 0f3c 56d7 7b3d ed5f 843d 4cf5 babd
00000080: 9579 b8bd 1e2f 3a3d c197 b23d 29bc 923d
00000090: 59b9 913c 31a3 ab3d a435 26bd 3b72 20bc
000000a0: c59c 99bd 186e b3bd 0cd7 74bd 0a35 a4bd
000000b0: 1f64 353c 3e1f 903c 0c78 673c 8cdc 263d
000000c0: 682f 90bd fcfa d0bc cd70 8e3d 2933 a0bd
000000d0: 7674 7e3d fcf9 de3c 1ef5 92bd ac36 9c3c
000000e0: 3bc5 01bd a164 40bc f91a 10bd 46e2 233d
000000f0: 37c8 8c3d eae4 4a3d 78fd 0abc 98e6 b6bd
00000100: 555f 7b3d 954f 0bbc f16a 933d 8aaa b73c
00000110: 0073 be3a f4e5 f43c 3e35 1b3d 33b7 ce39
00000120: d639 8c3b a029 6bbb ca10 783d 8fdb c93c
00000130: f779 25bd 09b1 a83d e375 ad3d db62 723d
00000140: 44bd 813c 1025 b13b db01 a8bd 6bf6 833d
00000150: 5110 82bd 005e aabd 5f85 5d3c fb40 f2bd
00000160: e51a 163b fa5c 2ebd fbed 2eba 3c7b 0bbd
00000170: a560 923d 0437 aebd 0804 853c ff05 04bc
00000180: 133f acbd d825 5c3d 8b26 02bc 8bf9 d1bd
00000190: cf1a b5bd 8856 333c 9ff7 813d d400 a5bc
000001a0: 1ae7 d5bc 2a1a b6bd 6c59 3d3d aadf 23bd
000001b0: 1468 26bd 48c1 093d f74f 9e3d e8d5 e43c
000001c0: c0d7 d03c 2507 9b3d 005e 763b f805 603c
000001d0: c09f d3bb b5ea 8cbd 33f1 8fbc 55af 7bbd
000001e0: 2a83 513d b3b9 79bd 96c3 c6bd a6fa f2bc
000001f0: 2379 863d 9cbb a5bd 6aeb 2cbd 30eb ddbb
00000200: 2254 1ebd 9e08 2b3d af1f 9e3d 12f4 433d
00000210: e4b3 98bc 701f 8ebd 7e75 95bd 1463 adbc
00000220: 621a e4bc 4048 89bd d810 b33c 0b2f 09bd
00000230: d0fa d13c 5840 40bd 907c 02bc d2e8 d9bc
00000240: a261 5e3d 3235 a5bd a7c3 0ebd a0a0 9a3c
00000250: 14ff cbbc 8045 c6ba 4eaf 743d 704e 4f3c
00000260: 6085 323c 5489 d33c 32c8 42bd 4196 10bd
00000270: 4a6c 2d3d 78ee 513c aa2b 6c3d 78e3 38bc
00000280: f70c aa3d 8635 583d 48d8 cabc 3405 39bd
00000290: 7838 923c e802 97bd 00cd 25bd 2cd2 dd3c
000002a0: 109e fc3b c2d7 233d 406f 17bd 3956 983d
000002b0: e415 47bd 3882 39bd da37 723d f8b2 8bbc
000002c0: f423 cf3c 08a1 80bc ca05 80bd 20b7 67bb
000002d0: ae3f 243d d6fd 733d f915 8a3d 20fb 4bbb
000002e0: b11c 833d 6c40 cc3c a05d 563b 00de da3a
000002f0: 902e 0abc 98c9 ce3c a0a1 95bb 72d4 683d
00000300: 0092 5cbc be0a 49bd 246d d23c f6dc 4abd
00000310: 66d5 603d 1dd7 933d 287a 683c 5c40 91bc
00000320: b0c9 82bb 3e8e 293d a448 8abd 28d1 c1bc
00000330: 9493 5cbd 51bb a3bd 1285 81bd c59d 68bd
00000340: e1d4 893d ba49 5d3d 7ec8 75bd 36da 8ebd
00000350: 071c a23d dcde ab3c f6b7 263d 0827 623c
00000360: 5046 07bd 1698 43bd eac8 423d 0fd2 b2bd
00000370: 3fa1 96bd 58a8 da3c 64e2 bdbc d080 8a3c
00000380: 7217 413d 4e0d 50bd a7cb 4bbd eaac 5ebd
00000390: 2d62 9ebd 200d c4bb 2db7 993d 6006 b1bb
000003a0: 5e8d 463d 780c 34bd 20af 0f3c 41ed 87bd
000003b0: 0073 bfbb f8e5 9e3c 63e7 1abd 3b32 a63d
000003c0: 1c6f cc3c f215 353d b727 b43d 4e78 193d
000003d0: 908a e3bb c2e8 2c3d 2762 b23d 2e46 aebd
000003e0: 0c84 88bc b6ce 2f3d 847f afbc f445 93bd
000003f0: f52a 52bd b12b 3cbd 8e18 163d ba7e 663d
0.03572645 0.017088316 0.020214327 0.07744228 -0.0007705602 -0.060281686 -0.039837655 0.011414729
-0.013607658 -0.06330452 0.0024653673 0.050610878 0.0029302984 0.05489382 -0.05306415 0.06931909
0.002053094 -0.034644116 0.02520166 0.04075599 -0.037897665 -0.056702144 0.033320718 -0.07789491
0.02271168 0.014116972 -0.06025014 -0.010896929 0.008739152 0.061484657 0.06463609 -0.09128818
-0.09007565 0.04545509 0.08720351 0.07164795 0.017788576 0.08380736 -0.0405785 -0.00979286
-0.075006045 -0.08761233 -0.059775397 -0.08017929 0.011071234 0.017593022 0.0141277425 0.040737674
-0.07040292 -0.025510304 0.06955109 -0.07822258 0.062122785 0.027218811 -0.07175659 0.019069038
-0.031682234 -0.011742742 -0.035181973 0.040010713 0.068741255 0.049534716 -0.008483283 -0.08930701
0.061370213 -0.008502861 0.07198132 0.022420187 0.0014530122 0.029894806 0.037892573 0.00039427876
0.0042793555 -0.0035882965 0.060562886 0.024640827 -0.040399518 0.08236892 0.08469751 0.059176307
0.01583732 0.0054060295 -0.08203479 0.06443485 -0.06350768 -0.0831871 0.013520568 -0.118288
0.0022904214 -0.042569138 -0.0006673035 -0.034053072 0.0714734 -0.08506587 0.016237274 -0.00805807
-0.08410468 0.053747028 -0.00794376 -0.10252675 -0.08843004 0.010945924 0.06346058 -0.020141996
-0.026111174 -0.08891709 0.046227857 -0.040008225 -0.0406266 0.033631593 0.07730096 0.02793403
0.025493503 0.07569722 0.003759265 0.013673298 -0.0064582527 -0.06880704 -0.017571067 -0.061446507
0.05115048 -0.060968112 -0.09705274 -0.029660534 0.06566074 -0.08092424 -0.042216696 -0.0067724213
-0.038654454 0.041756265 0.07720887 0.047840185 -0.018640466 -0.0693959 -0.072978005 -0.021165408
-0.027844612 -0.06703234 0.021858618 -0.03349213 0.025632292 -0.046936363 -0.007964268 -0.026600275
0.05429233 -0.08066787 -0.034854557 0.01887542 -0.024901904 -0.0015126914 0.059737496 0.012652978
0.010896057 0.02582232 -0.047554202 -0.035299543 0.0423396 0.012813203 0.05765883 -0.0112847015
0.08303254 0.05278542 -0.024761334 -0.045170978 0.017849192 -0.07373601 -0.040478706 0.027077757
0.007709272 0.040000685 -0.03697133 0.07438321 -0.04860486 -0.045290202 0.059135295 -0.017053112
0.025285698 -0.015701786 -0.06251104 -0.0035356954 0.040099792 0.05956825 0.06742472 -0.0031125024
0.06401957 0.024933062 0.0032709613 0.0016698241 -0.008433953 0.025242612 -0.0045663863 0.05684323
-0.0134625435 -0.04908251 0.025686808 -0.04952713 0.054891013 0.07218764 0.014189281 -0.017730884
-0.003991328 0.04139542 -0.06752136 -0.023659304 -0.05385168 -0.07994712 -0.06324209 -0.056791086
0.067300566 0.05402539 -0.060005657 -0.06975214 0.07915502 0.020980291 0.040702783 0.013803251
-0.03302604 -0.047752462 0.047554888 -0.08731472 -0.07354974 0.0266916 -0.02317924 0.016907126
0.0471415 -0.05079394 -0.049754765 -0.054364122 -0.07733569 -0.00598301 0.07505641 -0.0054023713
0.048474662 -0.043957204 0.00876978 -0.066370495 -0.0058425665 0.019396767 -0.037818324 0.081150495
0.024955325 0.04421038 0.087966375 0.037468247 -0.006944008 0.042214163 0.08710127 -0.085094795
-0.016664527 0.042921744 -0.021423109 -0.07191077 -0.0513105 -0.045940105 0.03664451 0.0562732

network.2.bias f4 [128]
00000000: 2ca4 d2bb a3c2 a3bd d7d3 0a3d 6812 f3bb
00000010: a065 2d3d 4e86 78bd 8c46 74bd d2ab 953c
00000020: 9900 f3bb 0eaf bd3d e48f a2bd fa43 14bd
00000030: ad13 5dbd 717a 65bd 39b9 c43c e4d0 4ebc
00000040: 74aa d0bc 5e92 103d 1a5c efbc 3e32 8dbb
00000050: 97bd 99bd 2bb9 0cbd 81a8 4cba 56c7 5e3d
00000060: 9f99 2b3d 6c2c 24bd ef5b 98bd d5fa 933c
00000070: a16c 6f3d 9156 8ebc ef6b 653d 1a6f 813d
00000080: 66db 98bd ae77 383d 4aeb 43bd d2fe e4bc
00000090: 8e79 bb3c 62fb 9dbc dd51 13bb 91bd 8d3d
000000a0: ef0d 613d 14c3 9cbc ce3a d93c 48b8 18bd
000000b0: 1808 b8bc 6518 67bc 5dc0 5ebd 67e9 0ebd
000000c0: 9478 c4bc 4841 18bd fc08 433d a92d 25bd
000000d0: 7ae8 b83c e2d6 933d 3808 653d d45e 2c3d
000000e0: 14b8 8bbd f26b 11bc c803 f43c 4c4b 05bd
000000f0: fb31 6ebd 8975 8f3d b0ac f9bc a09b 66bd
00000100: 5847 2a3d f5c1 663d fe69 fdbb 6d2c a7bd
00000110: 4bd6 78bc 8f60 663d 1906 81bb 4d86 bc3d
00000120: b089 adbc 5d70 93bb 2ab3 a6bb 406d 56bc
00000130: 965e 2e3c ddab 66bc 2de3 93bb 3916 bf3d
00000140: fea0 7d3c 4238 8539 1e6a a4bd ed5a 003d
00000150: c3c9 863c 4b52 b53d 9f5d 60bd d122 3b3d
00000160: e407 aa3d f91f c5bc cff7 b3bd feb8 783d
00000170: b7c2 92bd 5859 ee3c e44a 963d d3f2 2ebb
00000180: dcb3 95bc 4a31 88bc af90 65bd 11b0 67bd
00000190: 5b7e 23bd 061f 5d3d 2034 733d 40f8 eabc
000001a0: 9bae d93d 1fb4 10bc 5125 dfbc 0626 823d
000001b0: f250 7cbd f175 1dbc df60 983d 8c05 813d
000001c0: 2032 1ebc 5a84 413d dfde 4c3d 6169 87bc
000001d0: 63fa ab3c cdd3 ae3d 4886 0bbd 3ab3 80bd
000001e0: a057 383d d8bc 04bc e4d0 0cbb c08e 773d
000001f0: b66a 4c3d 1eca 273d e143 e03c 98b4 ecbc
-0.006428262 -0.079961084 0.033893432 -0.0074179657 0.042333245 -0.060674958 -0.05963759 0.018270407
-0.0074158427 0.09261905 -0.07937601 -0.03619764 -0.053973842 -0.056024972 0.024014102 -0.012623046
-0.025471903 0.035295837 -0.029218722 -0.004308968 -0.075068645 -0.034356277 -0.00078070915 0.05438932
0.04189455 -0.040081427 -0.0743941 0.018063942 0.058453206 -0.017375262 0.056011137 0.06320019
-0.07463722 0.04503601 -0.04783181 -0.027953539 0.02288511 -0.019284908 -0.0022479214 0.069209225
0.05494493 -0.01913599 0.026517298 -0.03728512 -0.022464797 -0.014104937 -0.05438267 -0.03489056
-0.023983277 -0.037171632 0.04761599 -0.040326748 0.022571791 0.0721872 0.05591604 0.042082623
-0.068222195 -0.008875834 0.02978696 -0.03254251 -0.058153134 0.0700484 -0.030477852 -0.05630076
0.041571945 0.056337316 -0.0077335825 -0.081627704 -0.01518781 0.05624443 -0.0039374945 0.09205303
-0.021183819 -0.0044994787 -0.005087276 -0.013087571 0.010642668 -0.014079061 -0.0045131654 0.093304105
0.015480278 0.00025409652 -0.08028053 0.031336714 0.01645363 0.08853587 -0.054776784 0.0456875
0.08302286 -0.024063097 -0.087875 0.060723297 -0.07166045 0.029095337 0.07338503 -0.0026695027
-0.01827424 -0.016625065 -0.056046184 -0.056564394 -0.039915424 0.053984664 0.059375882 -0.028682828
0.106290065 -0.008832007 -0.027239474 0.06354909 -0.061600633 -0.009610639 0.07440352 0.06299886
-0.009655505 0.04724536 0.050017234 -0.01652974 0.020993417 0.085364915 -0.034063607 -0.06284185
0.04500544 -0.0081016645 -0.0021486813 0.06043887 0.049906455 0.04096424 0.027376117 -0.028894708

network.4.weight f4 [3, 128]
00000000: 6ad8 293d b4e0 86bc 6a5a 903f 72e0 abbd
00000010: a267 a33f 4233 493d 8dcb 843d 3fb4 963f
00000020: b215 46bd a9b0 413f 64db 50bd d0d5 d13b
00000030: a0cc 2b3b 687e 7dbc e886 983f e019 053d
00000040: 927d 713d 3bf5 fe3d 89c2 a2bd f342 29bd
00000050: 4038 20bc 13fe 1dbd 0519 b13f 10e4 9f3f
00000060: e18f e23d fb32 833d a084 d2bc 1dba d33e
00000070: 12c2 e73f 1223 8bbc 87cb 623d 60ba 06bd
00000080: 8196 a33d bf5a 8d3f 0355 a63d e7af b33d
00000090: 0632 2f3e e1ea 5bba 7a28 62bb 4d05 993f
000000a0: 1276 963f fae1 7cbd 9811 aa3f c227 023d
000000b0: 3943 64bb fda5 553d db17 213c 5aad 8b3d
000000c0: 2973 52bd 7206 89bd d670 813f 4899 663d
000000d0: 3542 893f 1e4b d93f 540a c33f 80a4 963f
000000e0: 61dd b0bd 94bf 2a3d a969 9c3f 5145 0e3c
000000f0: 95a9 b0bd 3a2a a23f 30d2 403c 7ddb 8b3d
00000100: 2d8d a23f 9a18 e83c c83a 9b3d 44b0 aabd
00000110: 1547 72bb 80d9 933f 3930 a2bd 9333 843f
00000120: 5392 a13d 9d2c fdbc ef2e 83bd 386e 903c
00000130: d051 f63e 88a9 8f3c 18cf 39bd 60fc 5c3f
00000140: 729d ba3e 8ccd 3c3d bd3e a53d b01b c33e
00000150: 93cc a13e 657b 853f e1c7 a43d c1ed b73e
00000160: 3b6a 6dbe 38a3 98bc 2090 85bd 3dba 8e3f
00000170: c0c1 b8bb 48e2 a63f b6be 8a3d e488 1abe
00000180: 6629 3c3d 2d7a c63c 00c5 f73c 7c56 17bd
00000190: ee14 213d eb59 943f 8296 9b3f ac34 c73c
000001a0: 206e 153f a791 293d 03a2 aa3d a83d 873f
000001b0: 7863 9d3c 272e 40bd 98b6 8e3f eb3d 8d3f
000001c0: 5a40 743d 4aed ec3f 76ed e63f 4002 9cbb
000001d0: 993e 813f 7cfb 6b3f 40d7 efbb 0433 cb3c
000001e0: c110 8a3f e398 18bd 61a6 a83f abbe da3f
000001f0: 1ebd 9b3f 713c 963f eb57 4d3e 249c c53c
00000200: 983c da3a be18 febc e1a3 8a3f 4772 46bd
00000210: de68 283f 0188 acbd d093 6c3c e3fd 2a3f
00000220: 0ecc eabc 7d72 b43f 1277 7cbd af98 b1bd
00000230: b2ec 1e3d fe46 2b3d 50ea ac3f 2fb7 5ebd
00000240: 1bdf 993d 1d84 053f c5db ae3d 2ad2 103d
00000250: 450b 9a3d 489f 00bd b52b 613f 8bd1 8f3f
00000260: cb72 1a3f 40ab 83bd 2073 c3bc 2e2a 133f
00000270: dd0a b43f d2a2 383d 6bb2 053f 67a4 7abf
00000280: 526e 703d 2825 5a3e 43ec e33c 8c88 2dbd
00000290: 848d 283f 2024 9fbd c6aa 79bd cb8c c13f
000002a0: eb81 4a3f 38d2 ab3c 69c2 893f 3ac2 a6bc
000002b0: 803c 533d 2a31 863d 3fc6 d83c ec34 853b
000002c0: 9148 5dbd b793 873d e599 773f 0ce9 85bb
000002d0: be13 153f 7388 c23f ae4b aa3f 1d4b 943f
000002e0: 309c 4b3c f767 39bb 1089 c03f b654 93bd
000002f0: d38c 0ebd 346e c33f a239 f8bc e7ad 42bd
00000300: d53b 5a3f 3a2f 80bf fea3 47bd 23da 29bd
00000310: d49a 843d 1725 8c3f e0dd 063d 3fd8 ba3f
00000320: 2a99 6e3d 8744 cbbc 9ca4 3ebb 1fe0 5bbc
00000330: 0a11 1e3f 518f c2bc b8bb c13c e988 c63f
00000340: 2a7c 223f dd6d 2abb c02f 993c 0339 153f
00000350: e58a 203f 13b0 c93f 0837 4dbc b0de 203f
00000360: 6964 71bf d51d 0e3d 80e5 bdbb a069 8d3f
00000370: b3f7 3bbd 4a38 493f dd9b 44bf 4fb8 3fbd
00000380: 7630 203d 01f5 b3bc 5ca8 a1bc bca9 803c
00000390: 8369 88bd 7d1a 883f bdc9 8c3f 70e1 28bd
000003a0: 0301 d03f 1b2e fa3b e0a4 2abd 0517 6a3f
000003b0: 69b6 31bd 0848 bc3c 5fab bf3f c635 a03f
000003c0: 3039 7fbc d43e 8d3f 432c 9d3f 2288 59bb
000003d0: ed03 4c3f cd7d b53f b6ee 7b3d 7ca6 cd3c
000003e0: 8767 9d3f 8c2d c9bc 9c5a 6c3f 61e7 b43f
000003f0: e8db 5a3f fc69 c93e 02c8 1b3f eedc 793d
0.041466154 -0.016464569 1.1277592 -0.08392419 1.2766001 0.04912115 0.06484137 1.1773757
-0.048360534 0.75660187 -0.050990477 0.0064036623 0.0026214495 -0.015472032 1.191617 0.03249538
0.058957644 0.12449118 -0.07947261 -0.041323613 -0.009779036 -0.038572382 1.383576 1.2491474
0.11062599 0.06406208 -0.025698006 0.4135293 1.81061 -0.016984496 0.05536988 -0.032892585
0.07987691 1.1043319 0.081216834 0.08773785 0.17108926 -0.00083891867 -0.003450899 1.1954743
1.1754782 -0.061738946 1.3286619 0.031776197 -0.0034830107 0.052160252 0.009832348 0.068201736
-0.051379357 -0.066906825 1.011256 0.056298524 1.072333 1.6976049 1.5237527 1.1768951
-0.08635975 0.04168661 1.2219745 0.0086835185 -0.08626095 1.2669137 0.011768863 0.068289734
1.2699333 0.028332043 0.07579571 -0.08334401 -0.0036968638 1.1550751 -0.07919354 1.0328239
0.07889237 -0.030905062 -0.06405436 0.017630681 0.48109293 0.017536893 -0.045363516 0.86322594
0.36448246 0.046094462 0.08068607 0.3810706 0.3160139 1.0428282 0.080459364 0.3592358
-0.23185055 -0.018632516 -0.0652163 1.1150585 -0.005638331 1.3037806 0.067746565 -0.15091282
0.045937918 0.02422818 0.030245304 -0.036947712 0.0393266 1.1589941 1.2155306 0.024317108
0.5837116 0.04139867 0.083316825 1.0565691 0.01921247 -0.046919014 1.1149473 1.1034521
0.059631683 1.8509915 1.8041217 -0.0047610104 1.0097228 0.9218061 -0.007319361 0.0248046
1.0786363 -0.03725518 1.3175775 1.7089437 1.2167089 1.1737195 0.2005307 0.024122305
0.0016650138 -0.031017657 1.0831262 -0.048448827 0.65785015 -0.08424378 0.014439538 0.6679365
-0.028661754 1.4097439 -0.06163699 -0.086717 0.03879995 0.04181575 1.3509007 -0.054373916
0.07513257 0.52154714 0.085380115 0.035356678 0.07521681 -0.031401902 0.87957317 1.1235822
0.6033141 -0.06429148 -0.023858607 0.57486236 1.4065815 0.045077153 0.5222537 -0.9790711
0.05869896 0.21303236 0.02782262 -0.04236655 0.65840936 -0.07770562 -0.060953878 1.5121092
0.7910449 0.020974264 1.0762454 -0.020356286 0.05157137 0.06552346 0.026461719 0.0040651467
-0.054024283 0.06619971 0.967192 -0.0040866192 0.5823325 1.5197891 1.3304346 1.1585423
0.012427375 -0.0028290728 1.5041828 -0.07193892 -0.03480227 1.5268006 -0.030300919 -0.047529127
0.85247546 -1.0014412 -0.04874038 -0.041467797 0.064748436 1.0948819 0.03292644 1.4597243
0.058251537 -0.02481295 -0.0029089814 -0.013420134 0.6174475 -0.02374998 0.023649082 1.5510532
0.6347071 -0.0026005425 0.018699527 0.5829012 0.62711936 1.5756859 -0.0125253275 0.62839794
-0.9429384 0.03469642 -0.005795181 1.1047859 -0.04589052 0.78601515 -0.7680033 -0.04680663
0.039108716 -0.021967413 -0.0197336 0.015705936 -0.0666075 1.0633084 1.0999066 -0.04123062
1.6250309 0.0076348907 -0.041661143 0.91441375 -0.04338685 0.022983566 1.4974173 1.251641
-0.015577599 1.1034799 1.2279133 -0.0033192714 0.7969349 1.4179016 0.06150695 0.0251038
1.2297219 -0.024557851 0.9232576 1.4133111 0.854918 0.39338672 0.6085206 0.06100171
