models/dqn_step_7000.pt (torch, 413473 bytes, 24 tensors)

network.0.weight f4 [128, 64]
000000 cc b8 c3 3d 66 7b d4 3d 20 e5 ef bc 1c 2a eb 3d
       0.095567316 0.10375099 -0.02928406 0.11482641
000010 b0 5c e0 bc 38 a2 ce 3c 10 45 79 bd 28 58 96 3d
       -0.027387947 0.025223836 -0.06085688 0.07341033
000020 cc ac e1 3d 0e cf bb bd a4 83 de 3d b0 a6 bf 3c
       0.110192865 -0.09170352 0.10864952 0.023394912
000030 94 22 bd 3d 50 ae 8a 3c 5c e1 76 3d 60 94 90 bc
       0.09235111 0.016928822 0.060273513 -0.017648876
000040 c6 58 c5 3d 38 5b 97 3c a4 05 6f bd 08 82 02 3d
       0.09636073 0.018476114 -0.05835499 0.03186229
000050 ac e5 6b bd c0 2c 70 bc fc f3 4f bd ae d2 a9 3d
       -0.05759208 -0.014659107 -0.05076979 0.08292137
000060 2a 14 ca bd 8c 09 6c bd 6c 93 10 bd fe ec 99 bd
       -0.09867127 -0.057626292 -0.035296842 -0.07515906
000070 f0 4b 41 3c 8a d8 fc bd 28 32 e7 3d c0 76 d9 bd
       0.01179789 -0.12345989 0.112888634 -0.10618353
000080 96 a3 c5 3d c8 69 aa 3c ac 3f 26 bd f8 31 9e 3d
       0.09650342 0.020802394 -0.040588066 0.077243745
000090 58 97 9f 3c b0 d6 ce 3d 00 e3 5f 3c 98 78 21 bd
       0.019481346 0.10099542 0.013664961 -0.039421648
0000a0 e8 90 09 3d 08 d8 0a bd a4 7a 57 3d fe 8f e4 3d
       0.03358546 -0.03389743 0.052607194 0.11160277
0000b0 b6 fb 93 3d 14 d5 5f bd 9e c7 93 3d 70 38 b7 3c
       0.072257444 -0.054646567 0.07215808 0.022365779
0000c0 7a 01 82 3d 86 08 9c bd a4 6a fd bd 0c d1 45 bd
       0.06347938 -0.07618813 -0.12373856 -0.048295066
0000d0 9c 5b c4 bd d6 0e d2 3d d8 78 13 3d cc 13 54 3d
       -0.095877856 0.10256736 0.036003917 0.051776692
0000e0 fc ec 21 3d 00 82 0e bb 04 59 c8 3d 38 e4 b5 bd
       0.039532647 -0.0021744967 0.097826034 -0.0888142
0000f0 20 f3 00 3c f4 ba ae bd 50 e0 1d 3d e0 52 30 bd
       0.0078704655 -0.08531752 0.038544 -0.043047786
000100 98 e2 1c 3d 78 57 d5 bc 06 53 d4 3d 50 bb 97 bd
       0.038302034 -0.026042685 0.10367398 -0.07408774
000110 8a ad 98 bd e6 af 98 bd e2 41 e6 3d e4 9f 2a 3d
       -0.07454975 -0.07455425 0.11243035 0.04165639
000120 10 56 f6 3d 4e 45 d3 bd 98 eb fd bd fe 48 c8 bd
       0.12028134 -0.10315953 -0.123984516 -0.09779547
000130 5a 35 ac bd 6c 61 4f 3d b8 55 37 3d 76 b7 d4 3d
       -0.084086135 0.050630018 0.044759482 0.10386555
000140 74 34 84 bd aa 84 ae bd f8 d3 87 3d e4 f3 4e bd
       -0.06455317 -0.085213974 0.06632227 -0.05052556
000150 5c 5f 9b 3d f0 fe f2 bc 9a 71 92 3d 60 e7 c6 bd
       0.07586548 -0.02966258 0.07150574 -0.097121
000160 ba 30 81 bd c4 18 1c 3d 38 7b d8 3c f4 89 02 bd
       -0.06308122 0.038109556 0.026425943 -0.031869844
000170 02 98 98 3d fa 07 ae 3d f6 a4 b9 bd 96 ab 88 bd
       0.07450868 0.08497615 -0.09064667 -0.066733524
000180 d2 68 ea 3d f4 c3 2c bd 2c 83 35 bd 48 b4 f7 bd
       0.11445774 -0.042179063 -0.04431455 -0.12094933
000190 84 9a 92 bd 88 cc ff 3c 38 29 87 bc aa d3 b9 bd
       -0.07158378 0.031225458 -0.016499147 -0.09073575
0001a0 40 28 40 3b 6e de ae bd 86 30 d9 bd 3a f8 8c bd
       0.0029320866 -0.08538519 -0.10604958 -0.06883283
0001b0 e6 0d e0 bd 44 01 a3 bd 5e e6 ff 3d 70 68 c1 3c
       -0.10940151 -0.07959226 0.12495111 0.02360937
0001c0 1c c7 1d 3d 66 c4 ee bd 54 22 a8 bd 14 6c 2a bd
       0.038519964 -0.11658554 -0.082096726 -0.041606978
0001d0 c0 1f a0 3c 86 42 e1 bd 64 9b 5c bd 58 42 99 bd
       0.01954639 -0.109990165 -0.05385913 -0.07483357
0001e0 00 9e b5 39 50 84 3e bd f0 ea 0d bc 24 79 ad bd
       0.0003464073 -0.0465129 -0.0086619705 -0.08470371
0001f0 98 b7 af bd d2 59 95 bd 9c 41 2f bd 50 0e ca bd
       -0.085799396 -0.072925225 -0.04278718 -0.09866011
000200 92 80 aa c0 5b 7a b0 c0 52 c3 fc 3e 14 6c 31 40
       -5.3281946 -5.514936 0.49367768 2.7722216
000210 49 ec 34 40 71 ef 06 bf 87 88 8c c0 64 fa bb 3f
       2.8269217 -0.5270911 -4.391666 1.4685788
000220 52 37 03 3e 0d b8 74 be 70 a4 0c 3f 2d 88 c4 3f
       0.12814072 -0.23898335 0.5493841 1.5354058
000230 5a d3 db 3e 3e 5c 02 c0 28 c1 37 40 de 4a f4 3d
       0.42934686 -2.03688 2.8711643 0.11928342
000240 96 94 d1 be ab ae 3c be 01 16 2e bd a4 a9 44 3f
       -0.40933675 -0.18426006 -0.042501453 0.7682135
000250 95 4a e8 bf 9a 4c 6a bf 41 0b aa 3d 23 14 39 40
       -1.8147761 -0.91523135 0.08302928 2.891854
000260 13 d4 fa 3e d9 d8 d5 bd 62 98 7c 3f 79 45 c7 bf
       0.48989925 -0.10441751 0.9867002 -1.5568076
000270 1c 68 b3 3f 8d cd ea 3d 0b 11 e4 bf 15 34 d9 3f
       1.4016147 0.11464987 -1.7817701 1.6969019
000280 e0 47 21 bd d8 19 d1 3d 16 09 13 3f 2a b1 4f bf
       -0.039375186 0.102100074 0.5743574 -0.81129706
000290 9e e8 9c 3e a5 5f bc be 45 4e c8 be db e0 9d 3f
       0.30646223 -0.3679172 -0.39122215 1.2334245
0002a0 9f 66 46 3f fe 92 04 c0 fd 7c 7e 3f 7e 7a 1f 3f
       0.7750034 -2.0714717 0.99409467 0.62296283
0002b0 e4 59 71 bf 16 a1 bf 3f 46 80 2b 3f a6 a2 03 be
       -0.9427779 1.4971035 0.66992605 -0.12855014
0002c0 12 23 45 3f 65 fe a9 3e eb 4e 89 bf b8 88 d4 bf
       0.7700664 0.332019 -1.0727209 -1.6604223
0002d0 c1 0c 94 be 97 fb b7 3e a8 54 30 3f c1 05 a2 bf
       -0.2891598 0.35934135 0.68879175 -1.2658006
0002e0 53 39 5a 3a d4 bc 02 be 52 3c 28 bf 67 40 27 bf
       0.0008324582 -0.12767345 -0.6571704 -0.65332645
0002f0 29 00 76 bd 5e 9f 5e bc d0 e4 b4 bc c4 04 83 bd
       -0.060058746 -0.013587801 -0.022081763 -0.06397393
000300 10 a3 a3 3d 9c 01 dc 3d 20 bf 4a bc 38 45 e5 bc
       0.07990086 0.107424945 -0.012374669 -0.027987108
000310 80 14 ef 3a a0 90 f4 bb 60 2e f6 3c c8 7a 0f 3d
       0.0018240362 -0.0074635297 0.03005141 0.035029203
000320 84 83 e8 bd 84 f2 3c bd cc 95 d7 3d c0 73 47 3d
       -0.113532096 -0.04612972 0.10526618 0.048694372
000330 a0 b9 cb bb 08 58 9a bd 42 9f 9c bd fa 50 e5 bd
       -0.0062171966 -0.07536322 -0.076475635 -0.11197086
000340 8c e4 26 bd 90 e7 2c 3d 2c 3b a3 3d 98 63 6c 3d
       -0.040745303 0.042213023 0.079702705 0.057712168
000350 28 4a e2 bd e4 f2 99 bd b0 9a a1 bc 38 a4 f7 3d
       -0.110493004 -0.07517031 -0.019727081 0.12091869
000360 18 21 94 3c d0 97 04 bd 7c d2 53 3d e8 02 43 bd
       0.018082187 -0.032371342 0.051714405 -0.047610193
000370 8c b2 a5 bd e4 d9 ba 3d ac ce 68 bd 28 47 cd bc
       -0.08090696 0.091235906 -0.056837723 -0.025058344
000380 7e ab fe bd 52 55 ab 3d 58 f4 c1 3d f4 98 3a 3d
       -0.12435053 0.08365883 0.09470433 0.045556024
000390 90 80 b2 bd 18 a8 fc bd f6 ea cf bd 36 e6 be 3d
       -0.087159276 -0.12336749 -0.10152237 0.09321253
0003a0 6c d0 75 3d d6 6c d7 3d 56 1c 86 3d 4c 95 01 3d
       0.06001322 0.10518806 0.065483734 0.03163652
0003b0 80 71 a0 ba 86 b0 c2 bd 6c 55 db bd 02 73 ef bd
       -0.0012240857 -0.095063254 -0.10709652 -0.11691858
0003c0 e4 97 51 3d 28 60 7b bd 28 15 ce bc 50 54 93 bd
       0.051170245 -0.061371 -0.025156572 -0.07193816
0003d0 d0 98 ba bc 86 2e b4 bd 40 46 a7 bd 00 d6 29 3d
       -0.022777945 -0.08797936 -0.08167696 0.041463852
0003e0 20 2a 18 bd 34 0a 9e 3d 0c 41 24 bd 10 cb bb bd
       -0.03714955 0.0771679 -0.040101096 -0.091695905
0003f0 68 ac b4 bc d0 30 78 bd 60 a4 1c bd fc b5 f3 bd
       -0.022054866 -0.060593426 -0.038242698 -0.11899945

network.0.bias f4 [128]
000000 00 c8 30 3a b8 ef a4 bc 87 17 90 3d 00 3f f5 3b
       0.00067436695 -0.020133838 0.070357375 0.007484317
000010 a6 4b b5 bd f9 ee 86 bc da 59 bd bd 30 e1 98 3c
       -0.088523194 -0.016471373 -0.092456535 0.018662065
000020 bc 8a c0 3c 7e 5b f1 bd 80 1d af bd 9c 94 80 bd
       0.023503654 -0.11785029 -0.085505486 -0.06278345
000030 14 06 33 bd 7f 95 07 bd 41 b5 28 3d 16 10 ca bd
       -0.04370697 -0.033101555 0.041188482 -0.098663494
000040 7f 8c 26 bb da 84 d3 bd fd 0a 98 bb 50 f2 a5 bd
       -0.0025413332 -0.10328074 -0.004639982 -0.08102858
000050 66 d7 c3 bd 16 fa 95 3d e6 0e f4 3c c8 77 2d bd
       -0.09562568 0.07323091 0.02979226 -0.04235056
000060 ac e4 57 3d 03 0e c3 bb 6c f2 39 3d a0 55 f0 bb
       0.052708313 -0.005952598 0.045397207 -0.007334426
000070 0b 09 cc bd 68 32 39 bd d2 7d db bd df 4c 7d 3c
       -0.09962662 -0.045214087 -0.10717358 0.015460222
000080 78 06 3f 3d 4d bf ce 3d 66 a9 fb bd 94 9d e6 3d
       0.04663703 0.100950815 -0.122881696 0.112605244
000090 e5 9d 89 bc 5c 9b 0b 3d cc c1 5b bd a8 a4 13 3d
       -0.016798923 0.03408371 -0.053651616 0.0360457
0000a0 7e 82 66 3d 14 80 5d 3d 6a 5d d3 bd a8 a4 9b 3c
       0.05627679 0.054077223 -0.10320552 0.018999413
0000b0 2f b4 13 3c 49 85 10 be f4 86 31 3d 5a 9d 8e 3c
       0.009015127 -0.14113344 0.043341592 0.017409015
0000c0 ba 94 cd bd d6 c7 db bd a0 19 a7 3b fc 54 cd 3d
       -0.10038133 -0.10731475 0.0050994903 0.10025975
0000d0 3c ad 14 3d e0 fd 8f 3c d0 a9 04 bc 92 5c fe bd
       0.03629802 0.017577112 -0.008097127 -0.1242
0000e0 51 49 4d 3c 2c 48 16 3d 18 05 d5 bd a0 a2 bc bc
       0.012529687 0.036689922 -0.10401362 -0.023026764
0000f0 46 e1 f8 3d 7b 65 96 bd de c3 af bd 72 af f1 3c
       0.121523425 -0.073435746 -0.085822806 0.029502604
000100 e0 87 af 3c fc ec ac 3d 2e 4e a8 bd 2e 16 99 bb
       0.021427095 0.08443639 -0.082180366 -0.0046718335
000110 d0 83 f6 3c 4a 65 a1 3d 80 7b ff 3c 18 1a c4 3c
       0.03009215 0.078806475 0.03118682 0.023938224
000120 05 4e 18 bd 60 ab b6 bc 32 27 8a bd ab 63 5d 3b
       -0.03718378 -0.022298515 -0.06745757 0.003378133
000130 34 e2 08 3d 34 22 82 bd 44 f0 ae bd bb f1 8c 3c
       0.03341885 -0.0635418 -0.08541921 0.01720511
000140 28 96 89 3c d4 59 71 bd f8 a9 5d 3d 60 95 d0 bd
       0.016795233 -0.058923557 0.054117173 -0.10184741
000150 50 90 7b bd 2e bc 6f bd dc a2 84 bd 78 73 e8 bc
       -0.061416924 -0.05852907 -0.064763755 -0.028375372
000160 11 38 9f 3c 4c c7 32 bd 48 f2 8a bc e4 83 85 bd
       0.019435914 -0.043647096 -0.016961232 -0.06519297
000170 aa 53 a8 bd cd 64 7d 3c 50 c5 bc 3d c6 c6 ad 3d
       -0.08219083 0.015465927 0.09217322 0.08485179
000180 24 cc c7 bd ea bd f7 3c 7f 5e 9e bd e1 c4 e6 bc
       -0.097557336 0.030241925 -0.077328674 -0.028170051
000190 e0 1d 37 bc 08 ef 60 3d 1d 86 9b 3d 54 49 cf bd
       -0.011176556 0.054915458 0.075939395 -0.10121408
0001a0 38 13 de 3c 5f 30 f7 3c 4b 30 43 bc af 84 3e bd
       0.027108774 0.030174432 -0.011913369 -0.046513256
0001b0 c8 b2 71 bd ac 9f b4 bd 40 f9 fb bd 83 60 64 bd
       -0.05900839 -0.088195175 -0.123034 -0.055756103
0001c0 88 8b 45 bd 16 d7 b6 3c c0 73 58 bd b6 a3 d4 3d
       -0.04822877 0.022319358 -0.052844763 0.10382788
0001d0 5c 9f b4 bd c4 d6 b3 3d 65 6d 90 bd de 3e a9 bc
       -0.08819458 0.08781198 -0.07052115 -0.02065986
0001e0 a8 c0 3b bd 7c cc 57 3d 97 45 54 3d a1 41 47 3d
       -0.04583803 0.052685246 0.05182418 0.048646573
0001f0 0c 4e b1 bd 85 3f 26 3d 19 5e 8f 3d f8 12 d2 bd
       -0.086574644 0.04058792 0.070003696 -0.10257524

network.2.weight f4 [128, 128]
000000 e6 55 12 3d cc fc 8b 3c 84 98 a5 3c 0f 9a 9e 3d
       0.03572645 0.017088316 0.020214327 0.07744228
000010 6b ff 49 ba ee e9 76 bd cf 2c 23 bd d8 04 3b 3c
       -0.0007705602 -0.060281686 -0.039837655 0.011414729
000020 a8 f2 5e bc cd a5 81 bd 00 92 21 3b 5a 4d 4f 3d
       -0.013607658 -0.06330452 0.0024653673 0.050610878
000030 40 0a 40 3b 58 d8 60 3d cb 59 59 bd 2b f7 8d 3d
       0.0029302984 0.05489382 -0.05306415 0.06931909
000040 34 8d 06 3b fd e6 0d bd b6 73 ce 3c c1 ef 26 3d
       0.002053094 -0.034644116 0.02520166 0.04075599
000050 95 3a 1b bd 82 40 68 bd 4e 7b 08 3d 5e 87 9f bd
       -0.037897665 -0.056702144 0.033320718 -0.07789491
000060 d8 0d ba 3c df 4a 67 3c da c8 76 bd 08 89 32 bc
       0.02271168 0.014116972 -0.06025014 -0.010896929
000070 a9 2e 0f 3c 56 d7 7b 3d ed 5f 84 3d 4c f5 ba bd
       0.008739152 0.061484657 0.06463609 -0.09128818
000080 95 79 b8 bd 1e 2f 3a 3d c1 97 b2 3d 29 bc 92 3d
       -0.09007565 0.04545509 0.08720351 0.07164795
000090 59 b9 91 3c 31 a3 ab 3d a4 35 26 bd 3b 72 20 bc
       0.017788576 0.08380736 -0.0405785 -0.00979286
0000a0 c5 9c 99 bd 18 6e b3 bd 0c d7 74 bd 0a 35 a4 bd
       -0.075006045 -0.08761233 -0.059775397 -0.08017929
0000b0 1f 64 35 3c 3e 1f 90 3c 0c 78 67 3c 8c dc 26 3d
       0.011071234 0.017593022 0.0141277425 0.040737674
0000c0 68 2f 90 bd fc fa d0 bc cd 70 8e 3d 29 33 a0 bd
       -0.07040292 -0.025510304 0.06955109 -0.07822258
0000d0 76 74 7e 3d fc f9 de 3c 1e f5 92 bd ac 36 9c 3c
       0.062122785 0.027218811 -0.07175659 0.019069038
0000e0 3b c5 01 bd a1 64 40 bc f9 1a 10 bd 46 e2 23 3d
       -0.031682234 -0.011742742 -0.035181973 0.040010713
0000f0 37 c8 8c 3d ea e4 4a 3d 78 fd 0a bc 98 e6 b6 bd
       0.068741255 0.049534716 -0.008483283 -0.08930701
000100 55 5f 7b 3d 95 4f 0b bc f1 6a 93 3d 8a aa b7 3c
       0.061370213 -0.008502861 0.07198132 0.022420187
000110 00 73 be 3a f4 e5 f4 3c 3e 35 1b 3d 33 b7 ce 39
       0.0014530122 0.029894806 0.037892573 0.00039427876
000120 d6 39 8c 3b a0 29 6b bb ca 10 78 3d 8f db c9 3c
       0.0042793555 -0.0035882965 0.060562886 0.024640827
000130 f7 79 25 bd 09 b1 a8 3d e3 75 ad 3d db 62 72 3d
       -0.040399518 0.08236892 0.08469751 0.059176307
000140 44 bd 81 3c 10 25 b1 3b db 01 a8 bd 6b f6 83 3d
       0.01583732 0.0054060295 -0.08203479 0.06443485
000150 51 10 82 bd 00 5e aa bd 5f 85 5d 3c fb 40 f2 bd
       -0.06350768 -0.0831871 0.013520568 -0.118288
000160 e5 1a 16 3b fa 5c 2e bd fb ed 2e ba 3c 7b 0b bd
       0.0022904214 -0.042569138 -0.0006673035 -0.034053072
000170 a5 60 92 3d 04 37 ae bd 08 04 85 3c ff 05 04 bc
       0.0714734 -0.08506587 0.016237274 -0.00805807
000180 13 3f ac bd d8 25 5c 3d 8b 26 02 bc 8b f9 d1 bd
       -0.08410468 0.053747028 -0.00794376 -0.10252675
000190 cf 1a b5 bd 88 56 33 3c 9f f7 81 3d d4 00 a5 bc
       -0.08843004 0.010945924 0.06346058 -0.020141996
0001a0 1a e7 d5 bc 2a 1a b6 bd 6c 59 3d 3d aa df 23 bd
       -0.026111174 -0.08891709 0.046227857 -0.040008225
0001b0 14 68 26 bd 48 c1 09 3d f7 4f 9e 3d e8 d5 e4 3c
       -0.0406266 0.033631593 0.07730096 0.02793403
0001c0 c0 d7 d0 3c 25 07 9b 3d 00 5e 76 3b f8 05 60 3c
       0.025493503 0.07569722 0.003759265 0.013673298
0001d0 c0 9f d3 bb b5 ea 8c bd 33 f1 8f bc 55 af 7b bd
       -0.0064582527 -0.06880704 -0.017571067 -0.061446507
0001e0 2a 83 51 3d b3 b9 79 bd 96 c3 c6 bd a6 fa f2 bc
       0.05115048 -0.060968112 -0.09705274 -0.029660534
0001f0 23 79 86 3d 9c bb a5 bd 6a eb 2c bd 30 eb dd bb
       0.06566074 -0.08092424 -0.042216696 -0.0067724213
000200 22 54 1e bd 9e 08 2b 3d af 1f 9e 3d 12 f4 43 3d
       -0.038654454 0.041756265 0.07720887 0.047840185
000210 e4 b3 98 bc 70 1f 8e bd 7e 75 95 bd 14 63 ad bc
       -0.018640466 -0.0693959 -0.072978005 -0.021165408
000220 62 1a e4 bc 40 48 89 bd d8 10 b3 3c 0b 2f 09 bd
       -0.027844612 -0.06703234 0.021858618 -0.03349213
000230 d0 fa d1 3c 58 40 40 bd 90 7c 02 bc d2 e8 d9 bc
       0.025632292 -0.046936363 -0.007964268 -0.026600275
000240 a2 61 5e 3d 32 35 a5 bd a7 c3 0e bd a0 a0 9a 3c
       0.05429233 -0.08066787 -0.034854557 0.01887542
000250 14 ff cb bc 80 45 c6 ba 4e af 74 3d 70 4e 4f 3c
       -0.024901904 -0.0015126914 0.059737496 0.012652978
000260 60 85 32 3c 54 89 d3 3c 32 c8 42 bd 41 96 10 bd
       0.010896057 0.02582232 -0.047554202 -0.035299543
000270 4a 6c 2d 3d 78 ee 51 3c aa 2b 6c 3d 78 e3 38 bc
       0.0423396 0.012813203 0.05765883 -0.0112847015
000280 f7 0c aa 3d 86 35 58 3d 48 d8 ca bc 34 05 39 bd
       0.08303254 0.05278542 -0.024761334 -0.045170978
000290 78 38 92 3c e8 02 97 bd 00 cd 25 bd 2c d2 dd 3c
       0.017849192 -0.07373601 -0.040478706 0.027077757
0002a0 10 9e fc 3b c2 d7 23 3d 40 6f 17 bd 39 56 98 3d
       0.007709272 0.040000685 -0.03697133 0.07438321
0002b0 e4 15 47 bd 38 82 39 bd da 37 72 3d f8 b2 8b bc
       -0.04860486 -0.045290202 0.059135295 -0.017053112
0002c0 f4 23 cf 3c 08 a1 80 bc ca 05 80 bd 20 b7 67 bb
       0.025285698 -0.015701786 -0.06251104 -0.0035356954
0002d0 ae 3f 24 3d d6 fd 73 3d f9 15 8a 3d 20 fb 4b bb
       0.040099792 0.05956825 0.06742472 -0.0031125024
0002e0 b1 1c 83 3d 6c 40 cc 3c a0 5d 56 3b 00 de da 3a
       0.06401957 0.024933062 0.0032709613 0.0016698241
0002f0 90 2e 0a bc 98 c9 ce 3c a0 a1 95 bb 72 d4 68 3d
       -0.008433953 0.025242612 -0.0045663863 0.05684323
000300 00 92 5c bc be 0a 49 bd 24 6d d2 3c f6 dc 4a bd
       -0.0134625435 -0.04908251 0.025686808 -0.04952713
000310 66 d5 60 3d 1d d7 93 3d 28 7a 68 3c 5c 40 91 bc
       0.054891013 0.07218764 0.014189281 -0.017730884
000320 b0 c9 82 bb 3e 8e 29 3d a4 48 8a bd 28 d1 c1 bc
       -0.003991328 0.04139542 -0.06752136 -0.023659304
000330 94 93 5c bd 51 bb a3 bd 12 85 81 bd c5 9d 68 bd
       -0.05385168 -0.07994712 -0.06324209 -0.056791086
000340 e1 d4 89 3d ba 49 5d 3d 7e c8 75 bd 36 da 8e bd
       0.067300566 0.05402539 -0.060005657 -0.06975214
000350 07 1c a2 3d dc de ab 3c f6 b7 26 3d 08 27 62 3c
       0.07915502 0.020980291 0.040702783 0.013803251
000360 50 46 07 bd 16 98 43 bd ea c8 42 3d 0f d2 b2 bd
       -0.03302604 -0.047752462 0.047554888 -0.08731472
000370 3f a1 96 bd 58 a8 da 3c 64 e2 bd bc d0 80 8a 3c
       -0.07354974 0.0266916 -0.02317924 0.016907126
000380 72 17 41 3d 4e 0d 50 bd a7 cb 4b bd ea ac 5e bd
       0.0471415 -0.05079394 -0.049754765 -0.054364122
000390 2d 62 9e bd 20 0d c4 bb 2d b7 99 3d 60 06 b1 bb
       -0.07733569 -0.00598301 0.07505641 -0.0054023713
0003a0 5e 8d 46 3d 78 0c 34 bd 20 af 0f 3c 41 ed 87 bd
       0.048474662 -0.043957204 0.00876978 -0.066370495
0003b0 00 73 bf bb f8 e5 9e 3c 63 e7 1a bd 3b 32 a6 3d
       -0.0058425665 0.019396767 -0.037818324 0.081150495
0003c0 1c 6f cc 3c f2 15 35 3d b7 27 b4 3d 4e 78 19 3d
       0.024955325 0.04421038 0.087966375 0.037468247
0003d0 90 8a e3 bb c2 e8 2c 3d 27 62 b2 3d 2e 46 ae bd
       -0.006944008 0.042214163 0.08710127 -0.085094795
0003e0 0c 84 88 bc b6 ce 2f 3d 84 7f af bc f4 45 93 bd
       -0.016664527 0.042921744 -0.021423109 -0.07191077
0003f0 f5 2a 52 bd b1 2b 3c bd 8e 18 16 3d ba 7e 66 3d
       -0.0513105 -0.045940105 0.03664451 0.0562732

network.2.bias f4 [128]
000000 2c a4 d2 bb a3 c2 a3 bd 70 7e 3a 3d 68 12 f3 bb
       -0.006428262 -0.079961084 0.045530736 -0.0074179657
000010 cb 97 14 3d 4e 86 78 bd 8c 46 74 bd df 82 a0 3d
       0.036277574 -0.060674958 -0.05963759 0.07837462
000020 99 00 f3 bb 57 b2 1d 3d e4 8f a2 bd fa 43 14 bd
       -0.0074158427 0.038500156 -0.07937601 -0.03619764
000030 ad 13 5d bd 71 7a 65 bd e9 0f 6b 3d e4 d0 4e bc
       -0.053973842 -0.056024972 0.05738822 -0.012623046
000040 74 aa d0 bc 9d 3d 2c 3d 1a 5c ef bc 3e 32 8d bb
       -0.025471903 0.042050947 -0.029218722 -0.004308968
000050 97 bd 99 bd 2b b9 0c bd 12 d4 6c 3d 7f 5a 31 3d
       -0.075068645 -0.034356277 0.057819434 0.043299194
000060 db 25 98 3d 6c 2c 24 bd ef 5b 98 bd 82 c1 7f 3d
       0.07429095 -0.040081427 -0.0743941 0.062440403
000070 86 73 2f 3d 91 56 8e bc d1 66 9e 3d 47 7e 19 3d
       0.04283478 -0.017375262 0.077344544 0.037473943
000080 66 db 98 bd 7e e0 7a 3d 4a eb 43 bd d2 fe e4 bc
       -0.07463722 0.06124925 -0.04783181 -0.027953539
000090 70 fb 90 3d 62 fb 9d bc dd 51 13 bb 98 36 2a 3d
       0.07079208 -0.019284908 -0.0022479214 0.04155597
0000a0 20 3c 5e 3d 14 c3 9c bc 62 8b 6e 3d 48 b8 18 bd
       0.05425656 -0.01913599 0.058238395 -0.03728512
0000b0 18 08 b8 bc 65 18 67 bc 5d c0 5e bd 67 e9 0e bd
       -0.022464797 -0.014104937 -0.05438267 -0.03489056
0000c0 94 78 c4 bc 48 41 18 bd 91 15 2f 3d ef 0b 24 bc
       -0.023983277 -0.037171632 0.042745177 -0.010012611
0000d0 22 bc bb 3d 55 f7 8e 3d 25 23 12 3d 61 e8 1d 3d
       0.09166743 0.069807686 0.035678048 0.038551692
0000e0 14 b8 8b bd f2 6b 11 bc 40 12 16 3d 4c 4b 05 bd
       -0.068222195 -0.008875834 0.0366385 -0.03254251
0000f0 fb 31 6e bd f4 29 3a 3d b0 ac f9 bc a0 9b 66 bd
       -0.058153134 0.045450166 -0.030477852 -0.05630076
000100 68 18 82 3d e6 28 30 3d fe 69 fd bb 6d 2c a7 bd
       0.063523114 0.043007754 -0.0077335825 -0.081627704
000110 4b d6 78 bc 94 89 20 3d 19 06 81 bb c7 7e 5c 3d
       -0.01518781 0.039193705 -0.0039374945 0.05383184
000120 b0 89 ad bc b1 d4 29 bb 2a b3 a6 bb 40 6d 56 bc
       -0.021183819 -0.0025914127 -0.005087276 -0.013087571
000130 10 f8 58 3d dd ab 66 bc 2d e3 93 bb 4e 5f 2b 3d
       0.052970946 -0.014079061 -0.0045131654 0.041838937
000140 7d e0 7f 3d 42 38 85 39 1e 6a a4 bd 2c e0 43 3d
       0.062469948 0.00025409652 -0.08028053 0.04782121
000150 6c 6a 81 3d 41 c4 71 3d 9f 5d 60 bd 46 b2 4c 3d
       0.063191265 0.059025053 -0.054776784 0.049974702
000160 d1 9d 39 3d f9 1f c5 bc cf f7 b3 bd 97 67 23 3d
       0.04531652 -0.024063097 -0.087875 0.039893713
000170 b7 c2 92 bd b5 1f 33 3d e7 b5 7f 3d d3 f2 2e bb
       -0.07166045 0.04373141 0.062429335 -0.0026695027
000180 dc b3 95 bc 4a 31 88 bc af 90 65 bd 11 b0 67 bd
       -0.01827424 -0.016625065 -0.056046184 -0.056564394
000190 5b 7e 23 bd 07 33 2e 3d 69 b8 12 3d 40 f8 ea bc
       -0.039915424 0.042529132 0.0358204 -0.028682828
0001a0 c5 80 3a 3d 1f b4 10 bc 51 25 df bc 47 a1 17 3d
       0.04553296 -0.008832007 -0.027239474 0.03701904
0001b0 f2 50 7c bd 8c 4f 14 bc ed 23 44 3d a3 b0 b8 3c
       -0.061600633 -0.009052169 0.047885824 0.022545164
0001c0 20 32 1e bc 7e b1 2c 3d 9d 49 46 3d 61 69 87 bc
       -0.009655505 0.042161457 0.048410047 -0.01652974
0001d0 17 a7 a1 3d 57 00 18 3d 48 86 0b bd 3a b3 80 bd
       0.07893198 0.0371097 -0.034063607 -0.06284185
0001e0 69 9a ca 3c d8 bc 04 bc 0d 0b 5a 3d b3 dc 34 3d
       0.024731832 -0.0081016645 0.053233195 0.044155788
0001f0 f8 cd 0d 3d b1 39 24 3d ee 71 6a 3d 98 b4 ec bc
       0.034620255 0.04009408 0.057237558 -0.028894708

network.4.weight f4 [3, 128]
000000 6a d8 29 3d b4 e0 86 bc e1 9a f9 3e 72 e0 ab bd
       0.041466154 -0.016464569 0.48750976 -0.08392419
000010 a7 96 09 3f 42 33 49 3d 8d cb 84 3d 65 9b 36 3f
       0.537455 0.04912115 0.06484137 0.71330863
000020 b2 15 46 bd d8 ab a4 3e 64 db 50 bd d0 d5 d1 3b
       -0.048360534 0.32162356 -0.050990477 0.0064036623
000030 a0 cc 2b 3b 68 7e 7d bc 41 e7 0d 3f e0 19 05 3d
       0.0026214495 -0.015472032 0.5543099 0.03249538
000040 92 7d 71 3d 9e 87 3d 3d 89 c2 a2 bd f3 42 29 bd
       0.058957644 0.046271913 -0.07947261 -0.041323613
000050 40 38 20 bc 13 fe 1d bd ef c8 20 3f 64 de 0b 3f
       -0.009779036 -0.038572382 0.628066 0.54636216
000060 98 b5 3a 3d fb 32 83 3d a0 84 d2 bc 86 cc 5b 3e
       0.045583338 0.06406208 -0.025698006 0.21464738
000070 d8 e0 41 3f 12 23 8b bc c5 b1 88 3d 77 d3 f2 3c
       0.7573371 -0.016984496 0.06674532 0.02964185
000080 81 96 a3 3d 76 4b b5 3e 03 55 a6 3d e7 af b3 3d
       0.07987691 0.35409135 0.081216834 0.08773785
000090 da ee 92 3d e1 ea 5b ba 7a 28 62 bb 18 7b 05 3f
       0.071744636 -0.00083891867 -0.003450899 0.5214095
0000a0 78 c1 05 3f fa e1 7c bd 74 f4 2b 3f c2 27 02 3d
       0.52248335 -0.061738946 0.6716988 0.031776197
0000b0 39 43 64 bb fd a5 55 3d db 17 21 3c 5a ad 8b 3d
       -0.0034830107 0.052160252 0.009832348 0.068201736
0000c0 29 73 52 bd 72 06 89 bd b6 04 9a 3e 8c 4c 67 3d
       -0.051379357 -0.066906825 0.3008172 0.056469485
0000d0 3d c8 1e 3f c4 ad 49 3f c3 b3 19 3f cc 7f e5 3e
       0.6202429 0.7878077 0.6003992 0.44824064
0000e0 61 dd b0 bd 94 bf 2a 3d ef 70 08 3f 51 45 0e 3c
       -0.08635975 0.04168661 0.53297323 0.0086835185
0000f0 95 a9 b0 bd 31 c4 0f 3f 30 d2 40 3c 7d db 8b 3d
       -0.08626095 0.5615874 0.011768863 0.068289734
000100 b5 f3 27 3f 75 8e e2 3d c8 3a 9b 3d 44 b0 aa bd
       0.6560624 0.11062328 0.07579571 -0.08334401
000110 15 47 72 bb e0 3d e7 3e 39 30 a2 bd f4 c7 ed 3e
       -0.0036968638 0.45164394 -0.07919354 0.46441615
000120 53 92 a1 3d 8d 1d fd bc ef 2e 83 bd 38 6e 90 3c
       0.07889237 -0.03089788 -0.06405436 0.017630681
000130 37 f1 84 3e 88 a9 8f 3c 18 cf 39 bd 0e 0a d3 3e
       0.25965282 0.017536893 -0.045363516 0.4121861
000140 0a 37 48 3e 8c cd 3c 3d bd 3e a5 3d 49 89 3e 3e
       0.19552246 0.046094462 0.08068607 0.18607058
000150 53 09 21 3e 42 cc ee 3e e1 c7 a4 3d 44 ac 0a 3e
       0.15726213 0.4664021 0.080459364 0.13542277
000160 d4 d3 3c 3c 38 a3 98 bc 20 90 85 bd d6 57 cf 3e
       0.011525113 -0.018632516 -0.0652163 0.404967
000170 c0 c1 b8 bb 04 8d 04 3f 7b 34 73 3d e4 88 1a be
       -0.005638331 0.5177767 0.05937622 -0.15091282
000180 66 29 3c 3d 2d 7a c6 3c 00 c5 f7 3c 7c 56 17 bd
       0.045937918 0.02422818 0.030245304 -0.036947712
000190 ee 14 21 3d 3a d3 e8 3e 00 0e f1 3e ac 34 c7 3c
       0.0393266 0.45473653 0.47080994 0.024317108
0001a0 4a 41 70 3e a7 91 29 3d 03 a2 aa 3d ab 79 9f 3e
       0.23462406 0.04139867 0.083316825 0.31147513
0001b0 78 63 9d 3c 5e 0c 40 bd be 1f f8 3e 80 d5 f6 3e
       0.01921247 -0.046886794 0.48461717 0.48209763
0001c0 5a 40 74 3d d7 54 51 3f 68 17 48 3f 40 02 9c bb
       0.059631683 0.8177008 0.78160715 -0.0047610104
0001d0 01 74 1a 3f 40 9f d7 3e 40 d7 ef bb 04 33 cb 3c
       0.6033326 0.42113686 -0.007319361 0.0248046
0001e0 35 e6 92 3e e3 98 18 bd f2 0a 15 3f d6 1d 3c 3f
       0.2869126 -0.03725518 0.58219826 0.73483026
0001f0 90 09 fa 3e b3 3c 9b 3e 6c c6 bc 3d 24 9c c5 3c
       0.4883542 0.30319747 0.092175335 0.024122305
000200 98 3c da 3a be 18 fe bc 7e fb 15 3e 47 72 46 bd
       0.0016650138 -0.031017657 0.14646718 -0.048448827
000210 8f 66 b8 3d 01 88 ac bd d0 93 6c 3c 65 2d a5 3e
       0.090039365 -0.08424378 0.014439538 0.32261196
000220 0e cc ea bc a1 87 2e 3f 12 77 7c bd af 98 b1 bd
       -0.028661754 0.68175703 -0.06163699 -0.086717
000230 b2 ec 1e 3d fe 46 2b 3d 0c 9c a9 3e 2f b7 5e bd
       0.03879995 0.04181575 0.33126867 -0.054373916
000240 1b df 99 3d 10 9d 86 3e c5 db ae 3d 2a d2 10 3d
       0.07513257 0.26291704 0.085380115 0.035356678
000250 45 0b 9a 3d 48 9f 00 bd 00 25 36 3e c0 86 4d 3e
       0.07521681 -0.031401902 0.17787552 0.20070934
000260 5d 7a a4 3e 40 ab 83 bd 20 73 c3 bc 89 8d ab 3e
       0.32124606 -0.06429148 -0.023858607 0.3350642
000270 1d a2 4c 3f d2 a2 38 3d fb b5 6e 3e 1e 77 03 be
       0.79934865 0.045077153 0.23311608 -0.12838408
000280 52 6e 70 3d 9d 13 45 bd 43 ec e3 3c 8c 88 2d bd
       0.05869896 -0.048114408 0.02782262 -0.04236655
000290 c5 f1 b7 3e 20 24 9f bd c6 aa 79 bd 41 b3 4b 3f
       0.35926643 -0.07770562 -0.060953878 0.79570395
0002a0 45 9c 0c 3e 38 d2 ab 3c 3f d7 86 3e 3a c2 a6 bc
       0.13731487 0.020974264 0.26336095 -0.020356286
0002b0 80 3c 53 3d 2a 31 86 3d 3f c6 d8 3c ec 34 85 3b
       0.05157137 0.06552346 0.026461719 0.0040651467
0002c0 91 48 5d bd b7 93 87 3d 50 c4 46 3d 0c e9 85 bb
       -0.054024283 0.06619971 0.048527062 -0.0040866192
0002d0 41 61 88 3e 60 fd 67 3f 16 4a 36 3f b7 af 12 3e
       0.266367 0.90620995 0.71206796 0.14324842
0002e0 30 9c 4b 3c f7 67 39 bb b4 fb 8b 3e b6 54 93 bd
       0.012427375 -0.0028290728 0.27340472 -0.07193892
0002f0 d3 8c 0e bd 5e 5e 52 3f a2 39 f8 bc e7 ad 42 bd
       -0.03480227 0.8217524 -0.030300919 -0.047529127
000300 0c 0b 63 3e 56 50 93 be fe a3 47 bd 23 da 29 bd
       0.22172183 -0.2877223 -0.04874038 -0.041467797
000310 d4 9a 84 3d 5f c0 13 3e e0 dd 06 3d e4 90 35 3f
       0.064748436 0.14428852 0.03292644 0.7092421
000320 2a 99 6e 3d 87 44 cb bc 9c a4 3e bb 1f e0 5b bc
       0.058251537 -0.02481295 -0.0029089814 -0.013420134
000330 4f 8d b7 3e 51 8f c2 bc b8 bb c1 3c 9f da 49 3f
       0.35849997 -0.02374998 0.023649082 0.78849214
000340 e8 83 b3 3e dd 6d 2a bb c0 2f 99 3c 08 6f 9d 3e
       0.35061574 -0.0026005425 0.018699527 0.30748773
000350 34 12 b8 3e c2 71 54 3f 08 37 4d bc b9 33 9a 3e
       0.35951388 0.8298608 -0.0125253275 0.30117586
000360 88 7f 92 be d5 1d 0e 3d 80 e5 bd bb 62 4e 27 3e
       -0.28612924 0.03469642 -0.005795181 0.16338494
000370 b3 f7 3b bd cd b1 e7 3d d8 5c 30 be 4f b8 3f bd
       -0.04589052 0.1131321 -0.17222917 -0.04680663
000380 76 30 20 3d 01 f5 b3 bc 5c a8 a1 bc bc a9 80 3c
       0.039108716 -0.021967413 -0.0197336 0.015705936
000390 83 69 88 bd 30 e6 1b 3e 80 48 f2 3d 70 e1 28 bd
       -0.0666075 0.15224528 0.118302345 -0.04123062
0003a0 ac 4c 48 3f 1b 2e fa 3b e0 a4 2a bd fb 83 ab 3d
       0.7824199 0.0076348907 -0.041661143 0.08374783
0003b0 69 b6 31 bd 14 f5 bc 3c 1b 88 4d 3f 99 2a 26 3f
       -0.04338685 0.023066081 0.80285805 0.6490875
0003c0 30 39 7f bc 15 5e 22 3f f7 8b 38 3f 22 88 59 bb
       -0.015577599 0.6342481 0.7208857 -0.0033192714
0003d0 6c 02 d2 3e 43 b6 39 3f b6 ee 7b 3d 7c a6 cd 3c
       0.41017473 0.72543734 0.06150695 0.0251038
0003e0 f0 09 92 3d 8c 2d c9 bc f5 73 2d 3e 2f 6c 4a 3f
       0.07130802 -0.024557851 0.16938765 0.79071325
0003f0 f3 ed 00 3e 85 34 8d bc 86 ac 87 3e ee dc 79 3d
       0.1259077 -0.017236957 0.26498812 0.06100171

network.4.bias f4 [3]
000000 21 6e 95 3d 8c f8 d9 3d 4c 94 be 3d
       0.07296396 0.1064311 0.09305629

network.0.weight f4 [128, 64]
000000 cc b8 c3 3d 66 7b d4 3d 20 e5 ef bc 1c 2a eb 3d
       0.095567316 0.10375099 -0.02928406 0.11482641
000010 b0 5c e0 bc 38 a2 ce 3c 10 45 79 bd 28 58 96 3d
       -0.027387947 0.025223836 -0.06085688 0.07341033
000020 cc ac e1 3d 0e cf bb bd a4 83 de 3d b0 a6 bf 3c
       0.110192865 -0.09170352 0.10864952 0.023394912
000030 94 22 bd 3d 50 ae 8a 3c 5c e1 76 3d 60 94 90 bc
       0.09235111 0.016928822 0.060273513 -0.017648876
000040 c6 58 c5 3d 38 5b 97 3c a4 05 6f bd 08 82 02 3d
       0.09636073 0.018476114 -0.05835499 0.03186229
000050 ac e5 6b bd c0 2c 70 bc fc f3 4f bd ae d2 a9 3d
       -0.05759208 -0.014659107 -0.05076979 0.08292137
000060 2a 14 ca bd 8c 09 6c bd 6c 93 10 bd fe ec 99 bd
       -0.09867127 -0.057626292 -0.035296842 -0.07515906
000070 f0 4b 41 3c 8a d8 fc bd 28 32 e7 3d c0 76 d9 bd
       0.01179789 -0.12345989 0.112888634 -0.10618353
000080 96 a3 c5 3d c8 69 aa 3c ac 3f 26 bd f8 31 9e 3d
       0.09650342 0.020802394 -0.040588066 0.077243745
000090 58 97 9f 3c b0 d6 ce 3d 00 e3 5f 3c 98 78 21 bd
       0.019481346 0.10099542 0.013664961 -0.039421648
0000a0 e8 90 09 3d 08 d8 0a bd a4 7a 57 3d fe 8f e4 3d
       0.03358546 -0.03389743 0.052607194 0.11160277
0000b0 b6 fb 93 3d 14 d5 5f bd 9e c7 93 3d 70 38 b7 3c
       0.072257444 -0.054646567 0.07215808 0.022365779
0000c0 7a 01 82 3d 86 08 9c bd a4 6a fd bd 0c d1 45 bd
       0.06347938 -0.07618813 -0.12373856 -0.048295066
0000d0 9c 5b c4 bd d6 0e d2 3d d8 78 13 3d cc 13 54 3d
       -0.095877856 0.10256736 0.036003917 0.051776692
0000e0 fc ec 21 3d 00 82 0e bb 04 59 c8 3d 38 e4 b5 bd
       0.039532647 -0.0021744967 0.097826034 -0.0888142
0000f0 20 f3 00 3c f4 ba ae bd 50 e0 1d 3d e0 52 30 bd
       0.0078704655 -0.08531752 0.038544 -0.043047786
000100 98 e2 1c 3d 78 57 d5 bc 06 53 d4 3d 50 bb 97 bd
       0.038302034 -0.026042685 0.10367398 -0.07408774
000110 8a ad 98 bd e6 af 98 bd e2 41 e6 3d e4 9f 2a 3d
       -0.07454975 -0.07455425 0.11243035 0.04165639
000120 10 56 f6 3d 4e 45 d3 bd 98 eb fd bd fe 48 c8 bd
       0.12028134 -0.10315953 -0.123984516 -0.09779547
000130 5a 35 ac bd 6c 61 4f 3d b8 55 37 3d 76 b7 d4 3d
       -0.084086135 0.050630018 0.044759482 0.10386555
000140 74 34 84 bd aa 84 ae bd f8 d3 87 3d e4 f3 4e bd
       -0.06455317 -0.085213974 0.06632227 -0.05052556
000150 5c 5f 9b 3d f0 fe f2 bc 9a 71 92 3d 60 e7 c6 bd
       0.07586548 -0.02966258 0.07150574 -0.097121
000160 ba 30 81 bd c4 18 1c 3d 38 7b d8 3c f4 89 02 bd
       -0.06308122 0.038109556 0.026425943 -0.031869844
000170 02 98 98 3d fa 07 ae 3d f6 a4 b9 bd 96 ab 88 bd
       0.07450868 0.08497615 -0.09064667 -0.066733524
000180 d2 68 ea 3d f4 c3 2c bd 2c 83 35 bd 48 b4 f7 bd
       0.11445774 -0.042179063 -0.04431455 -0.12094933
000190 84 9a 92 bd 88 cc ff 3c 38 29 87 bc aa d3 b9 bd
       -0.07158378 0.031225458 -0.016499147 -0.09073575
0001a0 40 28 40 3b 6e de ae bd 86 30 d9 bd 3a f8 8c bd
       0.0029320866 -0.08538519 -0.10604958 -0.06883283
0001b0 e6 0d e0 bd 44 01 a3 bd 5e e6 ff 3d 70 68 c1 3c
       -0.10940151 -0.07959226 0.12495111 0.02360937
0001c0 1c c7 1d 3d 66 c4 ee bd 54 22 a8 bd 14 6c 2a bd
       0.038519964 -0.11658554 -0.082096726 -0.041606978
0001d0 c0 1f a0 3c 86 42 e1 bd 64 9b 5c bd 58 42 99 bd
       0.01954639 -0.109990165 -0.05385913 -0.07483357
0001e0 00 9e b5 39 50 84 3e bd f0 ea 0d bc 24 79 ad bd
       0.0003464073 -0.0465129 -0.0086619705 -0.08470371
0001f0 98 b7 af bd d2 59 95 bd 9c 41 2f bd 50 0e ca bd
       -0.085799396 -0.072925225 -0.04278718 -0.09866011
000200 92 80 aa c0 5b 7a b0 c0 52 c3 fc 3e 14 6c 31 40
       -5.3281946 -5.514936 0.49367768 2.7722216
000210 49 ec 34 40 71 ef 06 bf 87 88 8c c0 64 fa bb 3f
       2.8269217 -0.5270911 -4.391666 1.4685788
000220 52 37 03 3e 0d b8 74 be 70 a4 0c 3f 2d 88 c4 3f
       0.12814072 -0.23898335 0.5493841 1.5354058
000230 5a d3 db 3e 3e 5c 02 c0 28 c1 37 40 de 4a f4 3d
       0.42934686 -2.03688 2.8711643 0.11928342
000240 96 94 d1 be ab ae 3c be 01 16 2e bd a4 a9 44 3f
       -0.40933675 -0.18426006 -0.042501453 0.7682135
000250 95 4a e8 bf 9a 4c 6a bf 41 0b aa 3d 23 14 39 40
       -1.8147761 -0.91523135 0.08302928 2.891854
000260 13 d4 fa 3e d9 d8 d5 bd 62 98 7c 3f 79 45 c7 bf
       0.48989925 -0.10441751 0.9867002 -1.5568076
000270 1c 68 b3 3f 8d cd ea 3d 0b 11 e4 bf 15 34 d9 3f
       1.4016147 0.11464987 -1.7817701 1.6969019
000280 e0 47 21 bd d8 19 d1 3d 16 09 13 3f 2a b1 4f bf
       -0.039375186 0.102100074 0.5743574 -0.81129706
000290 9e e8 9c 3e a5 5f bc be 45 4e c8 be db e0 9d 3f
       0.30646223 -0.3679172 -0.39122215 1.2334245
0002a0 9f 66 46 3f fe 92 04 c0 fd 7c 7e 3f 7e 7a 1f 3f
       0.7750034 -2.0714717 0.99409467 0.62296283
0002b0 e4 59 71 bf 16 a1 bf 3f 46 80 2b 3f a6 a2 03 be
       -0.9427779 1.4971035 0.66992605 -0.12855014
0002c0 12 23 45 3f 65 fe a9 3e eb 4e 89 bf b8 88 d4 bf
       0.7700664 0.332019 -1.0727209 -1.6604223
0002d0 c1 0c 94 be 97 fb b7 3e a8 54 30 3f c1 05 a2 bf
       -0.2891598 0.35934135 0.68879175 -1.2658006
0002e0 53 39 5a 3a d4 bc 02 be 52 3c 28 bf 67 40 27 bf
       0.0008324582 -0.12767345 -0.6571704 -0.65332645
0002f0 29 00 76 bd 5e 9f 5e bc d0 e4 b4 bc c4 04 83 bd
       -0.060058746 -0.013587801 -0.022081763 -0.06397393
000300 10 a3 a3 3d 9c 01 dc 3d 20 bf 4a bc 38 45 e5 bc
       0.07990086 0.107424945 -0.012374669 -0.027987108
000310 80 14 ef 3a a0 90 f4 bb 60 2e f6 3c c8 7a 0f 3d
       0.0018240362 -0.0074635297 0.03005141 0.035029203
000320 84 83 e8 bd 84 f2 3c bd cc 95 d7 3d c0 73 47 3d
       -0.113532096 -0.04612972 0.10526618 0.048694372
000330 a0 b9 cb bb 08 58 9a bd 42 9f 9c bd fa 50 e5 bd
       -0.0062171966 -0.07536322 -0.076475635 -0.11197086
000340 8c e4 26 bd 90 e7 2c 3d 2c 3b a3 3d 98 63 6c 3d
       -0.040745303 0.042213023 0.079702705 0.057712168
000350 28 4a e2 bd e4 f2 99 bd b0 9a a1 bc 38 a4 f7 3d
       -0.110493004 -0.07517031 -0.019727081 0.12091869
000360 18 21 94 3c d0 97 04 bd 7c d2 53 3d e8 02 43 bd
       0.018082187 -0.032371342 0.051714405 -0.047610193
000370 8c b2 a5 bd e4 d9 ba 3d ac ce 68 bd 28 47 cd bc
       -0.08090696 0.091235906 -0.056837723 -0.025058344
000380 7e ab fe bd 52 55 ab 3d 58 f4 c1 3d f4 98 3a 3d
       -0.12435053 0.08365883 0.09470433 0.045556024
000390 90 80 b2 bd 18 a8 fc bd f6 ea cf bd 36 e6 be 3d
       -0.087159276 -0.12336749 -0.10152237 0.09321253
0003a0 6c d0 75 3d d6 6c d7 3d 56 1c 86 3d 4c 95 01 3d
       0.06001322 0.10518806 0.065483734 0.03163652
0003b0 80 71 a0 ba 86 b0 c2 bd 6c 55 db bd 02 73 ef bd
       -0.0012240857 -0.095063254 -0.10709652 -0.11691858
0003c0 e4 97 51 3d 28 60 7b bd 28 15 ce bc 50 54 93 bd
       0.051170245 -0.061371 -0.025156572 -0.07193816
0003d0 d0 98 ba bc 86 2e b4 bd 40 46 a7 bd 00 d6 29 3d
       -0.022777945 -0.08797936 -0.08167696 0.041463852
0003e0 20 2a 18 bd 34 0a 9e 3d 0c 41 24 bd 10 cb bb bd
       -0.03714955 0.0771679 -0.040101096 -0.091695905
0003f0 68 ac b4 bc d0 30 78 bd 60 a4 1c bd fc b5 f3 bd
       -0.022054866 -0.060593426 -0.038242698 -0.11899945

network.0.bias f4 [128]
000000 00 c8 30 3a b8 ef a4 bc 87 17 90 3d 00 3f f5 3b
       0.00067436695 -0.020133838 0.070357375 0.007484317
000010 a6 4b b5 bd f9 ee 86 bc da 59 bd bd 30 e1 98 3c
       -0.088523194 -0.016471373 -0.092456535 0.018662065
000020 bc 8a c0 3c 7e 5b f1 bd 80 1d af bd 9c 94 80 bd
       0.023503654 -0.11785029 -0.085505486 -0.06278345
000030 14 06 33 bd 7f 95 07 bd 41 b5 28 3d 16 10 ca bd
       -0.04370697 -0.033101555 0.041188482 -0.098663494
000040 7f 8c 26 bb da 84 d3 bd fd 0a 98 bb 50 f2 a5 bd
       -0.0025413332 -0.10328074 -0.004639982 -0.08102858
000050 66 d7 c3 bd 16 fa 95 3d e6 0e f4 3c c8 77 2d bd
       -0.09562568 0.07323091 0.02979226 -0.04235056
000060 ac e4 57 3d 03 0e c3 bb 6c f2 39 3d a0 55 f0 bb
       0.052708313 -0.005952598 0.045397207 -0.007334426
000070 0b 09 cc bd 68 32 39 bd d2 7d db bd df 4c 7d 3c
       -0.09962662 -0.045214087 -0.10717358 0.015460222
000080 78 06 3f 3d 4d bf ce 3d 66 a9 fb bd 94 9d e6 3d
       0.04663703 0.100950815 -0.122881696 0.112605244
000090 e5 9d 89 bc 5c 9b 0b 3d cc c1 5b bd a8 a4 13 3d
       -0.016798923 0.03408371 -0.053651616 0.0360457
0000a0 7e 82 66 3d 14 80 5d 3d 6a 5d d3 bd a8 a4 9b 3c
       0.05627679 0.054077223 -0.10320552 0.018999413
0000b0 2f b4 13 3c 49 85 10 be f4 86 31 3d 5a 9d 8e 3c
       0.009015127 -0.14113344 0.043341592 0.017409015
0000c0 ba 94 cd bd d6 c7 db bd a0 19 a7 3b fc 54 cd 3d
       -0.10038133 -0.10731475 0.0050994903 0.10025975
0000d0 3c ad 14 3d e0 fd 8f 3c d0 a9 04 bc 92 5c fe bd
       0.03629802 0.017577112 -0.008097127 -0.1242
0000e0 51 49 4d 3c 2c 48 16 3d 18 05 d5 bd a0 a2 bc bc
       0.012529687 0.036689922 -0.10401362 -0.023026764
0000f0 46 e1 f8 3d 7b 65 96 bd de c3 af bd 72 af f1 3c
       0.121523425 -0.073435746 -0.085822806 0.029502604
000100 e0 87 af 3c fc ec ac 3d 2e 4e a8 bd 2e 16 99 bb
       0.021427095 0.08443639 -0.082180366 -0.0046718335
000110 d0 83 f6 3c 4a 65 a1 3d 80 7b ff 3c 18 1a c4 3c
       0.03009215 0.078806475 0.03118682 0.023938224
000120 05 4e 18 bd 60 ab b6 bc 32 27 8a bd ab 63 5d 3b
       -0.03718378 -0.022298515 -0.06745757 0.003378133
000130 34 e2 08 3d 34 22 82 bd 44 f0 ae bd bb f1 8c 3c
       0.03341885 -0.0635418 -0.08541921 0.01720511
000140 28 96 89 3c d4 59 71 bd f8 a9 5d 3d 60 95 d0 bd
       0.016795233 -0.058923557 0.054117173 -0.10184741
000150 50 90 7b bd 2e bc 6f bd dc a2 84 bd 78 73 e8 bc
       -0.061416924 -0.05852907 -0.064763755 -0.028375372
000160 11 38 9f 3c 4c c7 32 bd 48 f2 8a bc e4 83 85 bd
       0.019435914 -0.043647096 -0.016961232 -0.06519297
000170 aa 53 a8 bd cd 64 7d 3c 50 c5 bc 3d c6 c6 ad 3d
       -0.08219083 0.015465927 0.09217322 0.08485179
000180 24 cc c7 bd ea bd f7 3c 7f 5e 9e bd e1 c4 e6 bc
       -0.097557336 0.030241925 -0.077328674 -0.028170051
000190 e0 1d 37 bc 08 ef 60 3d 1d 86 9b 3d 54 49 cf bd
       -0.011176556 0.054915458 0.075939395 -0.10121408
0001a0 38 13 de 3c 5f 30 f7 3c 4b 30 43 bc af 84 3e bd
       0.027108774 0.030174432 -0.011913369 -0.046513256
0001b0 c8 b2 71 bd ac 9f b4 bd 40 f9 fb bd 83 60 64 bd
       -0.05900839 -0.088195175 -0.123034 -0.055756103
0001c0 88 8b 45 bd 16 d7 b6 3c c0 73 58 bd b6 a3 d4 3d
       -0.04822877 0.022319358 -0.052844763 0.10382788
0001d0 5c 9f b4 bd c4 d6 b3 3d 65 6d 90 bd de 3e a9 bc
       -0.08819458 0.08781198 -0.07052115 -0.02065986
0001e0 a8 c0 3b bd 7c cc 57 3d 97 45 54 3d a1 41 47 3d
       -0.04583803 0.052685246 0.05182418 0.048646573
0001f0 0c 4e b1 bd 85 3f 26 3d 19 5e 8f 3d f8 12 d2 bd
       -0.086574644 0.04058792 0.070003696 -0.10257524

network.2.weight f4 [128, 128]
000000 e6 55 12 3d cc fc 8b 3c 84 98 a5 3c 0f 9a 9e 3d
       0.03572645 0.017088316 0.020214327 0.07744228
000010 6b ff 49 ba ee e9 76 bd cf 2c 23 bd d8 04 3b 3c
       -0.0007705602 -0.060281686 -0.039837655 0.011414729
000020 a8 f2 5e bc cd a5 81 bd 00 92 21 3b 5a 4d 4f 3d
       -0.013607658 -0.06330452 0.0024653673 0.050610878
000030 40 0a 40 3b 58 d8 60 3d cb 59 59 bd 2b f7 8d 3d
       0.0029302984 0.05489382 -0.05306415 0.06931909
000040 34 8d 06 3b fd e6 0d bd b6 73 ce 3c c1 ef 26 3d
       0.002053094 -0.034644116 0.02520166 0.04075599
000050 95 3a 1b bd 82 40 68 bd 4e 7b 08 3d 5e 87 9f bd
       -0.037897665 -0.056702144 0.033320718 -0.07789491
000060 d8 0d ba 3c df 4a 67 3c da c8 76 bd 08 89 32 bc
       0.02271168 0.014116972 -0.06025014 -0.010896929
000070 a9 2e 0f 3c 56 d7 7b 3d ed 5f 84 3d 4c f5 ba bd
       0.008739152 0.061484657 0.06463609 -0.09128818
000080 95 79 b8 bd 1e 2f 3a 3d c1 97 b2 3d 29 bc 92 3d
       -0.09007565 0.04545509 0.08720351 0.07164795
000090 59 b9 91 3c 31 a3 ab 3d a4 35 26 bd 3b 72 20 bc
       0.017788576 0.08380736 -0.0405785 -0.00979286
0000a0 c5 9c 99 bd 18 6e b3 bd 0c d7 74 bd 0a 35 a4 bd
       -0.075006045 -0.08761233 -0.059775397 -0.08017929
0000b0 1f 64 35 3c 3e 1f 90 3c 0c 78 67 3c 8c dc 26 3d
       0.011071234 0.017593022 0.0141277425 0.040737674
0000c0 68 2f 90 bd fc fa d0 bc cd 70 8e 3d 29 33 a0 bd
       -0.07040292 -0.025510304 0.06955109 -0.07822258
0000d0 76 74 7e 3d fc f9 de 3c 1e f5 92 bd ac 36 9c 3c
       0.062122785 0.027218811 -0.07175659 0.019069038
0000e0 3b c5 01 bd a1 64 40 bc f9 1a 10 bd 46 e2 23 3d
       -0.031682234 -0.011742742 -0.035181973 0.040010713
0000f0 37 c8 8c 3d ea e4 4a 3d 78 fd 0a bc 98 e6 b6 bd
       0.068741255 0.049534716 -0.008483283 -0.08930701
000100 55 5f 7b 3d 95 4f 0b bc f1 6a 93 3d 8a aa b7 3c
       0.061370213 -0.008502861 0.07198132 0.022420187
000110 00 73 be 3a f4 e5 f4 3c 3e 35 1b 3d 33 b7 ce 39
       0.0014530122 0.029894806 0.037892573 0.00039427876
000120 d6 39 8c 3b a0 29 6b bb ca 10 78 3d 8f db c9 3c
       0.0042793555 -0.0035882965 0.060562886 0.024640827
000130 f7 79 25 bd 09 b1 a8 3d e3 75 ad 3d db 62 72 3d
       -0.040399518 0.08236892 0.08469751 0.059176307
000140 44 bd 81 3c 10 25 b1 3b db 01 a8 bd 6b f6 83 3d
       0.01583732 0.0054060295 -0.08203479 0.06443485
000150 51 10 82 bd 00 5e aa bd 5f 85 5d 3c fb 40 f2 bd
       -0.06350768 -0.0831871 0.013520568 -0.118288
000160 e5 1a 16 3b fa 5c 2e bd fb ed 2e ba 3c 7b 0b bd
       0.0022904214 -0.042569138 -0.0006673035 -0.034053072
000170 a5 60 92 3d 04 37 ae bd 08 04 85 3c ff 05 04 bc
       0.0714734 -0.08506587 0.016237274 -0.00805807
000180 13 3f ac bd d8 25 5c 3d 8b 26 02 bc 8b f9 d1 bd
       -0.08410468 0.053747028 -0.00794376 -0.10252675
000190 cf 1a b5 bd 88 56 33 3c 9f f7 81 3d d4 00 a5 bc
       -0.08843004 0.010945924 0.06346058 -0.020141996
0001a0 1a e7 d5 bc 2a 1a b6 bd 6c 59 3d 3d aa df 23 bd
       -0.026111174 -0.08891709 0.046227857 -0.040008225
0001b0 14 68 26 bd 48 c1 09 3d f7 4f 9e 3d e8 d5 e4 3c
       -0.0406266 0.033631593 0.07730096 0.02793403
0001c0 c0 d7 d0 3c 25 07 9b 3d 00 5e 76 3b f8 05 60 3c
       0.025493503 0.07569722 0.003759265 0.013673298
0001d0 c0 9f d3 bb b5 ea 8c bd 33 f1 8f bc 55 af 7b bd
       -0.0064582527 -0.06880704 -0.017571067 -0.061446507
0001e0 2a 83 51 3d b3 b9 79 bd 96 c3 c6 bd a6 fa f2 bc
       0.05115048 -0.060968112 -0.09705274 -0.029660534
0001f0 23 79 86 3d 9c bb a5 bd 6a eb 2c bd 30 eb dd bb
       0.06566074 -0.08092424 -0.042216696 -0.0067724213
000200 22 54 1e bd 9e 08 2b 3d af 1f 9e 3d 12 f4 43 3d
       -0.038654454 0.041756265 0.07720887 0.047840185
000210 e4 b3 98 bc 70 1f 8e bd 7e 75 95 bd 14 63 ad bc
       -0.018640466 -0.0693959 -0.072978005 -0.021165408
000220 62 1a e4 bc 40 48 89 bd d8 10 b3 3c 0b 2f 09 bd
       -0.027844612 -0.06703234 0.021858618 -0.03349213
000230 d0 fa d1 3c 58 40 40 bd 90 7c 02 bc d2 e8 d9 bc
       0.025632292 -0.046936363 -0.007964268 -0.026600275
000240 a2 61 5e 3d 32 35 a5 bd a7 c3 0e bd a0 a0 9a 3c
       0.05429233 -0.08066787 -0.034854557 0.01887542
000250 14 ff cb bc 80 45 c6 ba 4e af 74 3d 70 4e 4f 3c
       -0.024901904 -0.0015126914 0.059737496 0.012652978
000260 60 85 32 3c 54 89 d3 3c 32 c8 42 bd 41 96 10 bd
       0.010896057 0.02582232 -0.047554202 -0.035299543
000270 4a 6c 2d 3d 78 ee 51 3c aa 2b 6c 3d 78 e3 38 bc
       0.0423396 0.012813203 0.05765883 -0.0112847015
000280 f7 0c aa 3d 86 35 58 3d 48 d8 ca bc 34 05 39 bd
       0.08303254 0.05278542 -0.024761334 -0.045170978
000290 78 38 92 3c e8 02 97 bd 00 cd 25 bd 2c d2 dd 3c
       0.017849192 -0.07373601 -0.040478706 0.027077757
0002a0 10 9e fc 3b c2 d7 23 3d 40 6f 17 bd 39 56 98 3d
       0.007709272 0.040000685 -0.03697133 0.07438321
0002b0 e4 15 47 bd 38 82 39 bd da 37 72 3d f8 b2 8b bc
       -0.04860486 -0.045290202 0.059135295 -0.017053112
0002c0 f4 23 cf 3c 08 a1 80 bc ca 05 80 bd 20 b7 67 bb
       0.025285698 -0.015701786 -0.06251104 -0.0035356954
0002d0 ae 3f 24 3d d6 fd 73 3d f9 15 8a 3d 20 fb 4b bb
       0.040099792 0.05956825 0.06742472 -0.0031125024
0002e0 b1 1c 83 3d 6c 40 cc 3c a0 5d 56 3b 00 de da 3a
       0.06401957 0.024933062 0.0032709613 0.0016698241
0002f0 90 2e 0a bc 98 c9 ce 3c a0 a1 95 bb 72 d4 68 3d
       -0.008433953 0.025242612 -0.0045663863 0.05684323
000300 00 92 5c bc be 0a 49 bd 24 6d d2 3c f6 dc 4a bd
       -0.0134625435 -0.04908251 0.025686808 -0.04952713
000310 66 d5 60 3d 1d d7 93 3d 28 7a 68 3c 5c 40 91 bc
       0.054891013 0.07218764 0.014189281 -0.017730884
000320 b0 c9 82 bb 3e 8e 29 3d a4 48 8a bd 28 d1 c1 bc
       -0.003991328 0.04139542 -0.06752136 -0.023659304
000330 94 93 5c bd 51 bb a3 bd 12 85 81 bd c5 9d 68 bd
       -0.05385168 -0.07994712 -0.06324209 -0.056791086
000340 e1 d4 89 3d ba 49 5d 3d 7e c8 75 bd 36 da 8e bd
       0.067300566 0.05402539 -0.060005657 -0.06975214
000350 07 1c a2 3d dc de ab 3c f6 b7 26 3d 08 27 62 3c
       0.07915502 0.020980291 0.040702783 0.013803251
000360 50 46 07 bd 16 98 43 bd ea c8 42 3d 0f d2 b2 bd
       -0.03302604 -0.047752462 0.047554888 -0.08731472
000370 3f a1 96 bd 58 a8 da 3c 64 e2 bd bc d0 80 8a 3c
       -0.07354974 0.0266916 -0.02317924 0.016907126
000380 72 17 41 3d 4e 0d 50 bd a7 cb 4b bd ea ac 5e bd
       0.0471415 -0.05079394 -0.049754765 -0.054364122
000390 2d 62 9e bd 20 0d c4 bb 2d b7 99 3d 60 06 b1 bb
       -0.07733569 -0.00598301 0.07505641 -0.0054023713
0003a0 5e 8d 46 3d 78 0c 34 bd 20 af 0f 3c 41 ed 87 bd
       0.048474662 -0.043957204 0.00876978 -0.066370495
0003b0 00 73 bf bb f8 e5 9e 3c 63 e7 1a bd 3b 32 a6 3d
       -0.0058425665 0.019396767 -0.037818324 0.081150495
0003c0 1c 6f cc 3c f2 15 35 3d b7 27 b4 3d 4e 78 19 3d
       0.024955325 0.04421038 0.087966375 0.037468247
0003d0 90 8a e3 bb c2 e8 2c 3d 27 62 b2 3d 2e 46 ae bd
       -0.006944008 0.042214163 0.08710127 -0.085094795
0003e0 0c 84 88 bc b6 ce 2f 3d 84 7f af bc f4 45 93 bd
       -0.016664527 0.042921744 -0.021423109 -0.07191077
0003f0 f5 2a 52 bd b1 2b 3c bd 8e 18 16 3d ba 7e 66 3d
       -0.0513105 -0.045940105 0.03664451 0.0562732

network.2.bias f4 [128]
000000 2c a4 d2 bb a3 c2 a3 bd 70 7e 3a 3d 68 12 f3 bb
       -0.006428262 -0.079961084 0.045530736 -0.0074179657
000010 cb 97 14 3d 4e 86 78 bd 8c 46 74 bd df 82 a0 3d
       0.036277574 -0.060674958 -0.05963759 0.07837462
000020 99 00 f3 bb 57 b2 1d 3d e4 8f a2 bd fa 43 14 bd
       -0.0074158427 0.038500156 -0.07937601 -0.03619764
000030 ad 13 5d bd 71 7a 65 bd e9 0f 6b 3d e4 d0 4e bc
       -0.053973842 -0.056024972 0.05738822 -0.012623046
000040 74 aa d0 bc 9d 3d 2c 3d 1a 5c ef bc 3e 32 8d bb
       -0.025471903 0.042050947 -0.029218722 -0.004308968
000050 97 bd 99 bd 2b b9 0c bd 12 d4 6c 3d 7f 5a 31 3d
       -0.075068645 -0.034356277 0.057819434 0.043299194
000060 db 25 98 3d 6c 2c 24 bd ef 5b 98 bd 82 c1 7f 3d
       0.07429095 -0.040081427 -0.0743941 0.062440403
000070 86 73 2f 3d 91 56 8e bc d1 66 9e 3d 47 7e 19 3d
       0.04283478 -0.017375262 0.077344544 0.037473943
000080 66 db 98 bd 7e e0 7a 3d 4a eb 43 bd d2 fe e4 bc
       -0.07463722 0.06124925 -0.04783181 -0.027953539
000090 70 fb 90 3d 62 fb 9d bc dd 51 13 bb 98 36 2a 3d
       0.07079208 -0.019284908 -0.0022479214 0.04155597
0000a0 20 3c 5e 3d 14 c3 9c bc 62 8b 6e 3d 48 b8 18 bd
       0.05425656 -0.01913599 0.058238395 -0.03728512
0000b0 18 08 b8 bc 65 18 67 bc 5d c0 5e bd 67 e9 0e bd
       -0.022464797 -0.014104937 -0.05438267 -0.03489056
0000c0 94 78 c4 bc 48 41 18 bd 91 15 2f 3d ef 0b 24 bc
       -0.023983277 -0.037171632 0.042745177 -0.010012611
0000d0 22 bc bb 3d 55 f7 8e 3d 25 23 12 3d 61 e8 1d 3d
       0.09166743 0.069807686 0.035678048 0.038551692
0000e0 14 b8 8b bd f2 6b 11 bc 40 12 16 3d 4c 4b 05 bd
       -0.068222195 -0.008875834 0.0366385 -0.03254251
0000f0 fb 31 6e bd f4 29 3a 3d b0 ac f9 bc a0 9b 66 bd
       -0.058153134 0.045450166 -0.030477852 -0.05630076
000100 68 18 82 3d e6 28 30 3d fe 69 fd bb 6d 2c a7 bd
       0.063523114 0.043007754 -0.0077335825 -0.081627704
000110 4b d6 78 bc 94 89 20 3d 19 06 81 bb c7 7e 5c 3d
       -0.01518781 0.039193705 -0.0039374945 0.05383184
000120 b0 89 ad bc b1 d4 29 bb 2a b3 a6 bb 40 6d 56 bc
       -0.021183819 -0.0025914127 -0.005087276 -0.013087571
000130 10 f8 58 3d dd ab 66 bc 2d e3 93 bb 4e 5f 2b 3d
       0.052970946 -0.014079061 -0.0045131654 0.041838937
000140 7d e0 7f 3d 42 38 85 39 1e 6a a4 bd 2c e0 43 3d
       0.062469948 0.00025409652 -0.08028053 0.04782121
000150 6c 6a 81 3d 41 c4 71 3d 9f 5d 60 bd 46 b2 4c 3d
       0.063191265 0.059025053 -0.054776784 0.049974702
000160 d1 9d 39 3d f9 1f c5 bc cf f7 b3 bd 97 67 23 3d
       0.04531652 -0.024063097 -0.087875 0.039893713
000170 b7 c2 92 bd b5 1f 33 3d e7 b5 7f 3d d3 f2 2e bb
       -0.07166045 0.04373141 0.062429335 -0.0026695027
000180 dc b3 95 bc 4a 31 88 bc af 90 65 bd 11 b0 67 bd
       -0.01827424 -0.016625065 -0.056046184 -0.056564394
000190 5b 7e 23 bd 07 33 2e 3d 69 b8 12 3d 40 f8 ea bc
       -0.039915424 0.042529132 0.0358204 -0.028682828
0001a0 c5 80 3a 3d 1f b4 10 bc 51 25 df bc 47 a1 17 3d
       0.04553296 -0.008832007 -0.027239474 0.03701904
0001b0 f2 50 7c bd 8c 4f 14 bc ed 23 44 3d a3 b0 b8 3c
       -0.061600633 -0.009052169 0.047885824 0.022545164
0001c0 20 32 1e bc 7e b1 2c 3d 9d 49 46 3d 61 69 87 bc
       -0.009655505 0.042161457 0.048410047 -0.01652974
0001d0 17 a7 a1 3d 57 00 18 3d 48 86 0b bd 3a b3 80 bd
       0.07893198 0.0371097 -0.034063607 -0.06284185
0001e0 69 9a ca 3c d8 bc 04 bc 0d 0b 5a 3d b3 dc 34 3d
       0.024731832 -0.0081016645 0.053233195 0.044155788
0001f0 f8 cd 0d 3d b1 39 24 3d ee 71 6a 3d 98 b4 ec bc
       0.034620255 0.04009408 0.057237558 -0.028894708
