models/dqn_step_2000.pt (torch, 413473 bytes, 24 tensors)

network.0.weight f4 [128, 64]
000000 cc b8 c3 3d 66 7b d4 3d 20 e5 ef bc 1c 2a eb 3d
       0.095567316 0.10375099 -0.02928406 0.11482641
000010 b0 5c e0 bc 38 a2 ce 3c 10 45 79 bd 28 58 96 3d
       -0.027387947 0.025223836 -0.06085688 0.07341033
000020 cc ac e1 3d 0e cf bb bd a4 83 de 3d b0 a6 bf 3c
       0.110192865 -0.09170352 0.10864952 0.023394912
000030 94 22 bd 3d 50 ae 8a 3c 5c e1 76 3d 60 94 90 bc
       0.09235111 0.016928822 0.060273513 -0.017648876
000040 c6 58 c5 3d 38 5b 97 3c a4 05 6f bd 08 82 02 3d
       0.09636073 0.018476114 -0.05835499 0.03186229
000050 ac e5 6b bd c0 2c 70 bc fc f3 4f bd ae d2 a9 3d
       -0.05759208 -0.014659107 -0.05076979 0.08292137
000060 2a 14 ca bd 8c 09 6c bd 6c 93 10 bd fe ec 99 bd
       -0.09867127 -0.057626292 -0.035296842 -0.07515906
000070 f0 4b 41 3c 8a d8 fc bd 28 32 e7 3d c0 76 d9 bd
       0.01179789 -0.12345989 0.112888634 -0.10618353
000080 96 a3 c5 3d c8 69 aa 3c ac 3f 26 bd f8 31 9e 3d
       0.09650342 0.020802394 -0.040588066 0.077243745
000090 58 97 9f 3c b0 d6 ce 3d 00 e3 5f 3c 98 78 21 bd
       0.019481346 0.10099542 0.013664961 -0.039421648
0000a0 e8 90 09 3d 08 d8 0a bd a4 7a 57 3d fe 8f e4 3d
       0.03358546 -0.03389743 0.052607194 0.11160277
0000b0 b6 fb 93 3d 14 d5 5f bd 9e c7 93 3d 70 38 b7 3c
       0.072257444 -0.054646567 0.07215808 0.022365779
0000c0 7a 01 82 3d 86 08 9c bd a4 6a fd bd 0c d1 45 bd
       0.06347938 -0.07618813 -0.12373856 -0.048295066
0000d0 9c 5b c4 bd d6 0e d2 3d d8 78 13 3d cc 13 54 3d
       -0.095877856 0.10256736 0.036003917 0.051776692
0000e0 fc ec 21 3d 00 82 0e bb 04 59 c8 3d 38 e4 b5 bd
       0.039532647 -0.0021744967 0.097826034 -0.0888142
0000f0 20 f3 00 3c f4 ba ae bd 50 e0 1d 3d e0 52 30 bd
       0.0078704655 -0.08531752 0.038544 -0.043047786
000100 98 e2 1c 3d 78 57 d5 bc 06 53 d4 3d 50 bb 97 bd
       0.038302034 -0.026042685 0.10367398 -0.07408774
000110 8a ad 98 bd e6 af 98 bd e2 41 e6 3d e4 9f 2a 3d
       -0.07454975 -0.07455425 0.11243035 0.04165639
000120 10 56 f6 3d 4e 45 d3 bd 98 eb fd bd fe 48 c8 bd
       0.12028134 -0.10315953 -0.123984516 -0.09779547
000130 5a 35 ac bd 6c 61 4f 3d b8 55 37 3d 76 b7 d4 3d
       -0.084086135 0.050630018 0.044759482 0.10386555
000140 74 34 84 bd aa 84 ae bd f8 d3 87 3d e4 f3 4e bd
       -0.06455317 -0.085213974 0.06632227 -0.05052556
000150 5c 5f 9b 3d f0 fe f2 bc 9a 71 92 3d 60 e7 c6 bd
       0.07586548 -0.02966258 0.07150574 -0.097121
000160 ba 30 81 bd c4 18 1c 3d 38 7b d8 3c f4 89 02 bd
       -0.06308122 0.038109556 0.026425943 -0.031869844
000170 02 98 98 3d fa 07 ae 3d f6 a4 b9 bd 96 ab 88 bd
       0.07450868 0.08497615 -0.09064667 -0.066733524
000180 d2 68 ea 3d f4 c3 2c bd 2c 83 35 bd 48 b4 f7 bd
       0.11445774 -0.042179063 -0.04431455 -0.12094933
000190 84 9a 92 bd 88 cc ff 3c 38 29 87 bc aa d3 b9 bd
       -0.07158378 0.031225458 -0.016499147 -0.09073575
0001a0 40 28 40 3b 6e de ae bd 86 30 d9 bd 3a f8 8c bd
       0.0029320866 -0.08538519 -0.10604958 -0.06883283
0001b0 e6 0d e0 bd 44 01 a3 bd 5e e6 ff 3d 70 68 c1 3c
       -0.10940151 -0.07959226 0.12495111 0.02360937
0001c0 1c c7 1d 3d 66 c4 ee bd 54 22 a8 bd 14 6c 2a bd
       0.038519964 -0.11658554 -0.082096726 -0.041606978
0001d0 c0 1f a0 3c 86 42 e1 bd 64 9b 5c bd 58 42 99 bd
       0.01954639 -0.109990165 -0.05385913 -0.07483357
0001e0 00 9e b5 39 50 84 3e bd f0 ea 0d bc 24 79 ad bd
       0.0003464073 -0.0465129 -0.0086619705 -0.08470371
0001f0 98 b7 af bd d2 59 95 bd 9c 41 2f bd 50 0e ca bd
       -0.085799396 -0.072925225 -0.04278718 -0.09866011
000200 c5 91 aa bf 00 d9 bb bf 7a f9 85 3f 76 f3 7c 3f
       -1.3325735 -1.4675598 1.0466759 0.9880899
000210 c6 cd f5 3e 46 e9 77 3d fb 4f d5 bf 21 79 91 bd
       0.48008555 0.0605252 -1.6665033 -0.07103182
000220 20 9c fd 3e 0c e8 94 3e 8e 1a 17 3f f3 70 92 3f
       0.49533176 0.29083288 0.59024894 1.1440719
000230 0c 76 c2 3e 99 27 9d bf 12 f4 bf 3f 90 56 dc 3e
       0.37980688 -1.2277709 1.4996359 0.43034792
000240 cf 9b 6f bf c9 86 bd 3d 3a 4e 06 3e 60 0d 7d be
       -0.9359712 0.09254224 0.13115779 -0.24712133
000250 c2 bf 8b be 66 72 84 bf e5 1c 79 3f dd 79 a2 3f
       -0.27294737 -1.0347412 0.97309715 1.269344
000260 a1 ac 41 bf c6 03 08 ba ac e1 2a 3f ba ec 9a bf
       -0.75654036 -0.00051885506 0.667506 -1.2103493
000270 9f c4 3a 3f 53 d1 d1 be ed b2 90 bf af 5e ea 3e
       0.7295627 -0.40980014 -1.1304604 0.45775363
000280 7f ad 74 3f 23 5b 82 3f 03 42 bb 3e 24 6b ee bd
       0.95577234 1.0184063 0.365738 -0.11641529
000290 c7 7a 80 3f 85 20 f3 be 16 7c 49 bf 3d 04 ce 3e
       1.0037469 -0.47485748 -0.78704965 0.4023761
0002a0 18 31 64 3f aa 87 75 bf 53 96 f1 3e f1 24 f6 bd
       0.8913741 -0.9591013 0.47185 -0.12018765
0002b0 4a dc 16 bd f4 26 19 3b 57 42 a0 be b5 b8 74 3f
       -0.036831178 0.0023369165 -0.31300613 0.9559434
0002c0 93 2a ac bd b4 31 e3 be f8 1d a8 be 79 54 b1 bf
       -0.08406558 -0.44373858 -0.32835364 -1.3853904
0002d0 42 b3 95 be 68 eb e0 be 01 7f 64 bf 77 ad 91 be
       -0.29238325 -0.439296 -0.8925629 -0.28452656
0002e0 8c 0e 6f 3e ec f0 c7 bd 35 6d 40 bf 39 27 69 bf
       0.23345393 -0.09762749 -0.75166637 -0.91075474
0002f0 f7 e9 5f bd b8 46 06 bc d0 e4 b4 bc 8c b8 70 bd
       -0.054666486 -0.008195572 -0.022081763 -0.058769748
000300 10 a3 a3 3d 9c 01 dc 3d 20 bf 4a bc 38 45 e5 bc
       0.07990086 0.107424945 -0.012374669 -0.027987108
000310 80 14 ef 3a a0 90 f4 bb 60 2e f6 3c c8 7a 0f 3d
       0.0018240362 -0.0074635297 0.03005141 0.035029203
000320 84 83 e8 bd 84 f2 3c bd cc 95 d7 3d c0 73 47 3d
       -0.113532096 -0.04612972 0.10526618 0.048694372
000330 a0 b9 cb bb 08 58 9a bd 42 9f 9c bd fa 50 e5 bd
       -0.0062171966 -0.07536322 -0.076475635 -0.11197086
000340 8c e4 26 bd 90 e7 2c 3d 2c 3b a3 3d 98 63 6c 3d
       -0.040745303 0.042213023 0.079702705 0.057712168
000350 28 4a e2 bd e4 f2 99 bd b0 9a a1 bc 38 a4 f7 3d
       -0.110493004 -0.07517031 -0.019727081 0.12091869
000360 18 21 94 3c d0 97 04 bd 7c d2 53 3d e8 02 43 bd
       0.018082187 -0.032371342 0.051714405 -0.047610193
000370 8c b2 a5 bd e4 d9 ba 3d ac ce 68 bd 28 47 cd bc
       -0.08090696 0.091235906 -0.056837723 -0.025058344
000380 7e ab fe bd 52 55 ab 3d 58 f4 c1 3d f4 98 3a 3d
       -0.12435053 0.08365883 0.09470433 0.045556024
000390 90 80 b2 bd 18 a8 fc bd f6 ea cf bd 36 e6 be 3d
       -0.087159276 -0.12336749 -0.10152237 0.09321253
0003a0 6c d0 75 3d d6 6c d7 3d 56 1c 86 3d 4c 95 01 3d
       0.06001322 0.10518806 0.065483734 0.03163652
0003b0 80 71 a0 ba 86 b0 c2 bd 6c 55 db bd 02 73 ef bd
       -0.0012240857 -0.095063254 -0.10709652 -0.11691858
0003c0 e4 97 51 3d 28 60 7b bd 28 15 ce bc 50 54 93 bd
       0.051170245 -0.061371 -0.025156572 -0.07193816
0003d0 d0 98 ba bc 86 2e b4 bd 40 46 a7 bd 00 d6 29 3d
       -0.022777945 -0.08797936 -0.08167696 0.041463852
0003e0 20 2a 18 bd 34 0a 9e 3d 0c 41 24 bd 10 cb bb bd
       -0.03714955 0.0771679 -0.040101096 -0.091695905
0003f0 68 ac b4 bc d0 30 78 bd 60 a4 1c bd fc b5 f3 bd
       -0.022054866 -0.060593426 -0.038242698 -0.11899945

network.0.bias f4 [128]
000000 00 c8 30 3a b8 ef a4 bc af 22 9b 3d 00 3f f5 3b
       0.00067436695 -0.020133838 0.07574975 0.007484317
000010 a6 4b b5 bd b0 3c 6c bc da 59 bd bd 30 e1 98 3c
       -0.088523194 -0.014418766 -0.092456535 0.018662065
000020 bc 8a c0 3c 7e 5b f1 bd 80 1d af bd 9c 94 80 bd
       0.023503654 -0.11785029 -0.085505486 -0.06278345
000030 14 06 33 bd 7f 95 07 bd 5e ad 31 3d 16 10 ca bd
       -0.04370697 -0.033101555 0.043378226 -0.098663494
000040 69 b0 25 ba da 84 d3 bd 42 84 9b 39 50 f2 a5 bd
       -0.00063205377 -0.10328074 0.00029662444 -0.08102858
000050 66 d7 c3 bd 82 d0 9d 3d 0b 90 f9 3c c8 77 2d bd
       -0.09562568 0.07705785 0.030464193 -0.04235056
000060 a8 e7 33 3d 03 0e c3 bb 6c f2 39 3d a0 55 f0 bb
       0.043922096 -0.005952598 0.045397207 -0.007334426
000070 0b 09 cc bd 68 32 39 bd d2 7d db bd e0 98 32 3d
       -0.09962662 -0.045214087 -0.10717358 0.043602824
000080 89 6e 47 3d 4d bf ce 3d 66 a9 fb bd 94 9d e6 3d
       0.0486894 0.100950815 -0.122881696 0.112605244
000090 ce 2b 42 bc 5c 9b 0b 3d cc c1 5b bd 1a 09 40 3d
       -0.011851264 0.03408371 -0.053651616 0.04688368
0000a0 7e 82 66 3d a1 72 93 3d 6a 5d d3 bd a8 a4 9b 3c
       0.05627679 0.07199598 -0.10320552 0.018999413
0000b0 d6 80 86 3c 49 85 10 be e2 e9 4e 3d aa f2 71 3c
       0.016418856 -0.14113344 0.050516017 0.014767328
0000c0 ba 94 cd bd d6 c7 db bd a0 19 a7 3b fc 54 cd 3d
       -0.10038133 -0.10731475 0.0050994903 0.10025975
0000d0 3c ad 14 3d e0 fd 8f 3c d0 a9 04 bc 92 5c fe bd
       0.03629802 0.017577112 -0.008097127 -0.1242
0000e0 ec b1 26 3d e0 b6 3f 3d 2d 12 cf bd a0 a2 bc bc
       0.040697023 0.046805263 -0.10110889 -0.023026764
0000f0 46 e1 f8 3d be f4 8e bd de c3 af bd 72 af f1 3c
       0.121523425 -0.069802746 -0.085822806 0.029502604
000100 a2 fa c4 3c f8 cd b3 3d 2e 4e a8 bd 9a 20 7d bb
       0.024045292 0.0877952 -0.082180366 -0.0038624168
000110 d0 83 f6 3c 4a 65 a1 3d 57 0d 02 3d 18 1a c4 3c
       0.03009215 0.078806475 0.031751003 0.023938224
000120 35 b1 0d bd 60 ab b6 bc 32 27 8a bd ab 63 5d 3b
       -0.034592826 -0.022298515 -0.06745757 0.003378133
000130 bf 0c 37 3d 34 22 82 bd 44 f0 ae bd bb f1 8c 3c
       0.04468989 -0.0635418 -0.08541921 0.01720511
000140 28 96 89 3c d4 59 71 bd 61 b9 82 3d 60 95 d0 bd
       0.016795233 -0.058923557 0.063830145 -0.10184741
000150 50 90 7b bd 2e bc 6f bd 70 e2 58 bd 77 75 7b bb
       -0.061416924 -0.05852907 -0.052950323 -0.0038369575
000160 75 63 b2 3c 4c c7 32 bd 48 f2 8a bc e4 83 85 bd
       0.02177594 -0.043647096 -0.016961232 -0.06519297
000170 aa 53 a8 bd 11 a3 92 3c 50 c5 bc 3d c6 c6 ad 3d
       -0.08219083 0.017900022 0.09217322 0.08485179
000180 24 cc c7 bd 6c b7 04 3d 21 c1 98 bd e0 b5 d0 bc
       -0.097557336 0.032401487 -0.074587114 -0.02547735
000190 e0 1d 37 bc 07 53 81 3d d4 2c 8d 3d 54 49 cf bd
       -0.011176556 0.06314664 0.06893316 -0.10121408
0001a0 38 13 de 3c f5 54 0a 3d 96 1a 6a 3a af 84 3e bd
       0.027108774 0.033772428 0.0008930353 -0.046513256
0001b0 c8 b2 71 bd ac 9f b4 bd 40 f9 fb bd 84 ba 2f bd
       -0.05900839 -0.088195175 -0.123034 -0.042902485
0001c0 88 8b 45 bd 16 d7 b6 3c c0 73 58 bd b6 a3 d4 3d
       -0.04822877 0.022319358 -0.052844763 0.10382788
0001d0 5c 9f b4 bd c4 d6 b3 3d 4c 98 88 bd de 3e a9 bc
       -0.08819458 0.08781198 -0.06669673 -0.02065986
0001e0 a8 c0 3b bd 7c cc 57 3d c9 1d 63 3d a1 41 47 3d
       -0.04583803 0.052685246 0.055448327 0.048646573
0001f0 0c 4e b1 bd fd b4 2f 3d 46 26 92 3d f8 12 d2 bd
       -0.086574644 0.042897213 0.07136206 -0.10257524

network.2.weight f4 [128, 128]
000000 e6 55 12 3d cc fc 8b 3c db 9f 13 3d 0f 9a 9e 3d
       0.03572645 0.017088316 0.036041122 0.07744228
000010 6b ff 49 ba 58 37 38 bd cf 2c 23 bd d8 04 3b 3c
       -0.0007705602 -0.044974655 -0.039837655 0.011414729
000020 a8 f2 5e bc cd a5 81 bd 00 92 21 3b 5a 4d 4f 3d
       -0.013607658 -0.06330452 0.0024653673 0.050610878
000030 40 0a 40 3b 58 d8 60 3d f2 7f 57 bd 2b f7 8d 3d
       0.0029302984 0.05489382 -0.052612253 0.06931909
000040 df 8b 40 3c fd e6 0d bd 8f 1f d8 3c c1 ef 26 3d
       0.011752098 -0.034644116 0.026382236 0.04075599
000050 95 3a 1b bd be 48 cf bc 4f 42 02 3d 5e 87 9f bd
       -0.037897665 -0.02530324 0.031801518 -0.07789491
000060 a2 c9 a4 3c df 4a 67 3c da c8 76 bd 08 89 32 bc
       0.020115677 0.014116972 -0.06025014 -0.010896929
000070 a9 2e 0f 3c 56 d7 7b 3d ed 5f 84 3d 38 fb 96 bd
       0.008739152 0.061484657 0.06463609 -0.07372135
000080 9c af 88 bd 1e 2f 3a 3d c1 97 b2 3d 29 bc 92 3d
       -0.0667412 0.04545509 0.08720351 0.07164795
000090 aa 18 9a 3c 31 a3 ab 3d a4 35 26 bd 42 51 96 bc
       0.018810589 0.08380736 -0.0405785 -0.018349294
0000a0 c5 9c 99 bd 60 96 8f bd 0c d7 74 bd 0a 35 a4 bd
       -0.075006045 -0.07011104 -0.059775397 -0.08017929
0000b0 58 c8 02 3c 3e 1f 90 3c 71 f8 b6 3c 54 51 2f 3d
       0.007982336 0.017593022 0.022335263 0.04280217
0000c0 68 2f 90 bd fc fa d0 bc cd 70 8e 3d 29 33 a0 bd
       -0.07040292 -0.025510304 0.06955109 -0.07822258
0000d0 76 74 7e 3d fc f9 de 3c 1e f5 92 bd ac 36 9c 3c
       0.062122785 0.027218811 -0.07175659 0.019069038
0000e0 14 fe 4c bc 08 46 94 ba 6f 0e 35 bd 46 e2 23 3d
       -0.012511749 -0.0011312375 -0.044203218 0.040010713
0000f0 37 c8 8c 3d 19 e5 38 3d 78 fd 0a bc 98 e6 b6 bd
       0.068741255 0.04514036 -0.008483283 -0.08930701
000100 51 8e 9e 3d 0d bb 66 3c f1 6a 93 3d bf 12 9b 3c
       0.077419885 0.014082682 0.07198132 0.018929837
000110 00 73 be 3a f4 e5 f4 3c a0 7d 10 3d 33 b7 ce 39
       0.0014530122 0.029894806 0.035276055 0.00039427876
000120 6c 3a 76 bb a0 29 6b bb ca 10 78 3d 8f db c9 3c
       -0.0037571443 -0.0035882965 0.060562886 0.024640827
000130 eb 0b f4 bc 09 b1 a8 3d e3 75 ad 3d db 62 72 3d
       -0.02979084 0.08236892 0.08469751 0.059176307
000140 44 bd 81 3c 10 25 b1 3b c0 62 69 bd 6b f6 83 3d
       0.01583732 0.0054060295 -0.05697894 0.06443485
000150 51 10 82 bd 00 5e aa bd 5b dc 4d 3c 8d d9 c9 bd
       -0.06350768 -0.0831871 0.012564744 -0.09855948
000160 cd 16 6c 3c fa 5c 2e bd fb ed 2e ba 3c 7b 0b bd
       0.014409733 -0.042569138 -0.0006673035 -0.034053072
000170 a5 60 92 3d 29 8c ac bd 08 04 85 3c ff 05 04 bc
       0.0714734 -0.08425171 0.016237274 -0.00805807
000180 13 3f ac bd 9f 1f 61 3d cc ea a9 3b c5 88 aa bd
       -0.08410468 0.054961797 0.0051854607 -0.08326868
000190 cf 1a b5 bd a9 ca c6 3c 9c 70 7d 3d d4 00 a5 bc
       -0.08843004 0.024266558 0.06187497 -0.020141996
0001a0 1a e7 d5 bc b5 87 b7 bd 83 e7 2b 3d aa df 23 bd
       -0.026111174 -0.08961431 0.041968834 -0.040008225
0001b0 14 68 26 bd 48 c1 09 3d f7 4f 9e 3d 3f 75 d9 3c
       -0.0406266 0.033631593 0.07730096 0.026545165
0001c0 c0 d7 d0 3c 25 07 9b 3d 00 5e 76 3b f8 05 60 3c
       0.025493503 0.07569722 0.003759265 0.013673298
0001d0 c0 9f d3 bb b5 ea 8c bd 83 6e 66 3b 55 af 7b bd
       -0.0064582527 -0.06880704 0.0035161085 -0.061446507
0001e0 2a 83 51 3d b3 b9 79 bd 02 6e ad bd a6 fa f2 bc
       0.05115048 -0.060968112 -0.08468248 -0.029660534
0001f0 23 79 86 3d b9 fe a9 bd 5f ef 3b bd 30 eb dd bb
       0.06566074 -0.083005376 -0.04588258 -0.0067724213
000200 22 54 1e bd 9e 08 2b 3d af 1f 9e 3d 12 f4 43 3d
       -0.038654454 0.041756265 0.07720887 0.047840185
000210 e4 b3 98 bc 70 1f 8e bd 7e 75 95 bd 14 63 ad bc
       -0.018640466 -0.0693959 -0.072978005 -0.021165408
000220 62 1a e4 bc 40 48 89 bd d8 10 b3 3c 0b 2f 09 bd
       -0.027844612 -0.06703234 0.021858618 -0.03349213
000230 d0 fa d1 3c 58 40 40 bd 90 7c 02 bc d2 e8 d9 bc
       0.025632292 -0.046936363 -0.007964268 -0.026600275
000240 a2 61 5e 3d 32 35 a5 bd a7 c3 0e bd a0 a0 9a 3c
       0.05429233 -0.08066787 -0.034854557 0.01887542
000250 14 ff cb bc 80 45 c6 ba 4e af 74 3d 70 4e 4f 3c
       -0.024901904 -0.0015126914 0.059737496 0.012652978
000260 60 85 32 3c 54 89 d3 3c 32 c8 42 bd 41 96 10 bd
       0.010896057 0.02582232 -0.047554202 -0.035299543
000270 4a 6c 2d 3d 78 ee 51 3c aa 2b 6c 3d 78 e3 38 bc
       0.0423396 0.012813203 0.05765883 -0.0112847015
000280 f7 0c aa 3d 86 35 58 3d 48 d8 ca bc 34 05 39 bd
       0.08303254 0.05278542 -0.024761334 -0.045170978
000290 78 38 92 3c e8 02 97 bd 00 cd 25 bd 2c d2 dd 3c
       0.017849192 -0.07373601 -0.040478706 0.027077757
0002a0 10 9e fc 3b c2 d7 23 3d 40 6f 17 bd 39 56 98 3d
       0.007709272 0.040000685 -0.03697133 0.07438321
0002b0 e4 15 47 bd 38 82 39 bd da 37 72 3d f8 b2 8b bc
       -0.04860486 -0.045290202 0.059135295 -0.017053112
0002c0 f4 23 cf 3c 08 a1 80 bc ca 05 80 bd 20 b7 67 bb
       0.025285698 -0.015701786 -0.06251104 -0.0035356954
0002d0 ae 3f 24 3d d6 fd 73 3d f9 15 8a 3d 20 fb 4b bb
       0.040099792 0.05956825 0.06742472 -0.0031125024
0002e0 b1 1c 83 3d 6c 40 cc 3c a0 5d 56 3b 00 de da 3a
       0.06401957 0.024933062 0.0032709613 0.0016698241
0002f0 90 2e 0a bc 98 c9 ce 3c a0 a1 95 bb 72 d4 68 3d
       -0.008433953 0.025242612 -0.0045663863 0.05684323
000300 00 92 5c bc be 0a 49 bd 24 6d d2 3c f6 dc 4a bd
       -0.0134625435 -0.04908251 0.025686808 -0.04952713
000310 66 d5 60 3d 1d d7 93 3d 28 7a 68 3c 5c 40 91 bc
       0.054891013 0.07218764 0.014189281 -0.017730884
000320 b0 c9 82 bb 3e 8e 29 3d a4 48 8a bd 28 d1 c1 bc
       -0.003991328 0.04139542 -0.06752136 -0.023659304
000330 94 93 5c bd 51 bb a3 bd 12 85 81 bd c5 9d 68 bd
       -0.05385168 -0.07994712 -0.06324209 -0.056791086
000340 e1 d4 89 3d ba 49 5d 3d 7e c8 75 bd 36 da 8e bd
       0.067300566 0.05402539 -0.060005657 -0.06975214
000350 07 1c a2 3d dc de ab 3c f6 b7 26 3d 08 27 62 3c
       0.07915502 0.020980291 0.040702783 0.013803251
000360 50 46 07 bd 16 98 43 bd ea c8 42 3d 0f d2 b2 bd
       -0.03302604 -0.047752462 0.047554888 -0.08731472
000370 3f a1 96 bd 58 a8 da 3c 64 e2 bd bc d0 80 8a 3c
       -0.07354974 0.0266916 -0.02317924 0.016907126
000380 72 17 41 3d 4e 0d 50 bd a7 cb 4b bd ea ac 5e bd
       0.0471415 -0.05079394 -0.049754765 -0.054364122
000390 2d 62 9e bd 20 0d c4 bb 2d b7 99 3d 60 06 b1 bb
       -0.07733569 -0.00598301 0.07505641 -0.0054023713
0003a0 5e 8d 46 3d 78 0c 34 bd 20 af 0f 3c 41 ed 87 bd
       0.048474662 -0.043957204 0.00876978 -0.066370495
0003b0 00 73 bf bb f8 e5 9e 3c 63 e7 1a bd 3b 32 a6 3d
       -0.0058425665 0.019396767 -0.037818324 0.081150495
0003c0 1c 6f cc 3c f2 15 35 3d b7 27 b4 3d 4e 78 19 3d
       0.024955325 0.04421038 0.087966375 0.037468247
0003d0 90 8a e3 bb c2 e8 2c 3d 27 62 b2 3d 2e 46 ae bd
       -0.006944008 0.042214163 0.08710127 -0.085094795
0003e0 0c 84 88 bc b6 ce 2f 3d 84 7f af bc f4 45 93 bd
       -0.016664527 0.042921744 -0.021423109 -0.07191077
0003f0 f5 2a 52 bd b1 2b 3c bd 8e 18 16 3d ba 7e 66 3d
       -0.0513105 -0.045940105 0.03664451 0.0562732

network.2.bias f4 [128]
000000 57 d1 70 3c a3 c2 a3 bd 91 9c 47 3d 68 12 f3 bb
       0.014698348 -0.079961084 0.048733298 -0.0074179657
000010 a4 2e 8f 3c 4e 86 78 bd 8c 46 74 bd 7e 94 11 3d
       0.017478295 -0.060674958 -0.05963759 0.035542004
000020 83 00 f3 bb 6d fa 3b 3d e4 8f a2 bd fa 43 14 bd
       -0.0074158325 0.04589312 -0.07937601 -0.03619764
000030 ad 13 5d bd 71 7a 65 bd 54 9a 1b 3d 50 d8 25 bb
       -0.053973842 -0.056024972 0.037988976 -0.0025305934
000040 74 aa d0 bc 3e 2d 29 3d 1a 5c ef bc 3e 32 8d bb
       -0.025471903 0.041302912 -0.029218722 -0.004308968
000050 97 bd 99 bd e1 3d c9 bb 0e a0 5d 3d b8 59 83 3d
       -0.075068645 -0.0061414097 0.05410772 0.06413597
000060 34 96 86 3d 6c 2c 24 bd ef 5b 98 bd f8 a7 8c 3d
       0.06571618 -0.040081427 -0.0743941 0.06867975
000070 9b bf 1d 3c e0 16 b3 3c 41 c3 93 3d 81 ec d1 3c
       0.009628202 0.021861494 0.07214976 0.02562547
000080 66 db 98 bd 6e 3b 9d 3d 4a eb 43 bd d2 fe e4 bc
       -0.07463722 0.07677351 -0.04783181 -0.027953539
000090 5e c6 82 3d 62 fb 9d bc dd 51 13 bb b7 a3 a4 3c
       0.06385492 -0.019284908 -0.0022479214 0.020097597
0000a0 4f cd 42 3d 14 c3 9c bc 49 a7 68 3d 48 b8 18 bd
       0.04755908 -0.01913599 0.05680016 -0.03728512
0000b0 18 08 b8 bc 65 18 67 bc 5d c0 5e bd 67 e9 0e bd
       -0.022464797 -0.014104937 -0.05438267 -0.03489056
0000c0 94 78 c4 bc 48 41 18 bd 5d 43 9b 3d ef 0b 24 bc
       -0.023983277 -0.037171632 0.07581208 -0.010012611
0000d0 9a c0 87 3d b5 d3 1a 3d dd 3f 9d 3c 6d 42 5c 3d
       0.06628533 0.037799556 0.019195491 0.053774286
0000e0 14 b8 8b bd f2 6b 11 bc 05 f5 9e 3d 80 14 42 bc
       -0.068222195 -0.008875834 0.077615775 -0.011845708
0000f0 fb 31 6e bd 02 37 1d 3b b0 ac f9 bc a0 9b 66 bd
       -0.058153134 0.0023989086 -0.030477852 -0.05630076
000100 23 70 3c 3d 50 ea 26 3d fe 69 fd bb 6d 2c a7 bd
       0.04600538 0.0407508 -0.0077335825 -0.081627704
000110 7d 45 64 bc a6 40 8b 3d 19 06 81 bb 83 13 88 3d
       -0.013932583 0.0679944 -0.0039374945 0.066443466
000120 b0 89 ad bc e6 c2 ea 3a 4d 24 ac 3c 40 6d 56 bc
       -0.021183819 0.0017910867 0.021013403 -0.013087571
000130 f7 e8 42 3d c3 e0 d7 3c cd d0 b5 3c 2d 30 6a 3d
       0.047585454 0.026352292 0.02219429 0.05717485
000140 e1 71 82 3d 6c 06 db 3c 1e 6a a4 bd dd f5 5a 3d
       0.06369377 0.02673646 -0.08028053 0.05345713
000150 63 06 84 3d fa af 2a 3d 9f 5d 60 bd b2 f0 57 3d
       0.06446531 0.04167173 -0.054776784 0.05271978
000160 53 4a 2c 3d 7f 87 19 3c cf f7 b3 bd 75 7b a0 3d
       0.04206307 0.009370684 -0.087875 0.078360476
000170 b7 c2 92 bd 27 9e 16 3d 34 01 a4 3d a0 68 87 3c
       -0.07166045 0.03677192 0.08008042 0.016529381
000180 dc b3 95 bc 4a 31 88 bc af 90 65 bd 11 b0 67 bd
       -0.01827424 -0.016625065 -0.056046184 -0.056564394
000190 5b 7e 23 bd c7 d6 4a 3d 66 4a 4d 3d 40 f8 ea bc
       -0.039915424 0.049521234 0.05011978 -0.028682828
0001a0 ab 1b 0e 3d 6d fb db 3b 51 25 df bc 02 19 63 3d
       0.034694355 0.006713322 -0.027239474 0.05544377
0001b0 f2 50 7c bd 65 69 92 ba 11 8a d5 3c 22 f4 c2 3c
       -0.061600633 -0.0011170326 0.026066812 0.023798052
0001c0 20 32 1e bc 90 62 0e 3d 46 35 a3 3c 61 69 87 bc
       -0.009655505 0.034761965 0.019922864 -0.01652974
0001d0 9d f3 d8 3c 60 45 89 3d 48 86 0b bd 3a b3 80 bd
       0.026483351 0.06702685 -0.034063607 -0.06284185
0001e0 c0 96 1f 3d d8 bc 04 bc ba 33 54 3d 35 7f 88 3c
       0.038962126 -0.0081016645 0.051807143 0.01666222
0001f0 a3 85 c6 3c 6c 72 33 3d eb f0 72 3d 98 b4 ec bc
       0.024233645 0.043810293 0.05931179 -0.028894708

network.4.weight f4 [3, 128]
000000 cd 65 2a 3d b4 e0 86 bc 32 6a 30 3d 72 e0 ab bd
       0.04160099 -0.016464569 0.043070026 -0.08392419
000010 e9 c1 a3 3d 42 33 49 3d 8d cb 84 3d bd 8a 99 3d
       0.0799597 0.04912115 0.06484137 0.07497165
000020 b2 15 46 bd e2 a4 15 bc 64 db 50 bd d0 d5 d1 3b
       -0.048360534 -0.009133549 -0.050990477 0.0064036623
000030 a0 cc 2b 3b 68 7e 7d bc 9f 23 99 bc a5 33 83 3d
       0.0026214495 -0.015472032 -0.018693743 0.06406335
000040 92 7d 71 3d 86 52 49 bd 89 c2 a2 bd f3 42 29 bd
       0.058957644 -0.049150966 -0.07947261 -0.041323613
000050 40 38 20 bc 68 7e 06 bc d2 3c b5 3d e2 cd 04 3c
       -0.009779036 -0.008208849 0.08849491 0.008105727
000060 64 b3 ad b7 fb 32 83 3d a0 84 d2 bc 60 ea 90 3d
       -2.0706742e-05 0.06406208 -0.025698006 0.070759535
000070 c7 fe 55 bc a9 38 3e bd 1c 86 7c 3c a7 35 5a bd
       -0.013061232 -0.046440754 0.015412834 -0.053273823
000080 81 96 a3 3d 7d 57 e6 3c 03 55 a6 3d e7 af b3 3d
       0.07987691 0.02811789 0.081216834 0.08773785
000090 9e 99 a1 ba e1 ea 5b ba 7a 28 62 bb 26 d5 26 bd
       -0.0012329107 -0.00083891867 -0.003450899 -0.040730618
0000a0 89 99 1a 3d fa e1 7c bd 55 b9 97 3d c2 27 02 3d
       0.03774408 -0.061738946 0.07408396 0.031776197
0000b0 39 43 64 bb fd a5 55 3d db 17 21 3c 5a ad 8b 3d
       -0.0034830107 0.052160252 0.009832348 0.068201736
0000c0 29 73 52 bd 72 06 89 bd 88 07 92 bc 8c 4c 67 3d
       -0.051379357 -0.066906825 -0.017825857 0.056469485
0000d0 65 4c 64 3d a2 45 f6 bb 91 89 72 bc fa d2 bf 3c
       0.055736918 -0.007515625 -0.014803306 0.023416031
0000e0 61 dd b0 bd 94 bf 2a 3d d6 3a 72 3c 4c e6 b9 3c
       -0.08635975 0.04168661 0.014784535 0.022692822
0000f0 95 a9 b0 bd 06 78 80 3b 30 d2 40 3c 7d db 8b 3d
       -0.08626095 0.003920558 0.011768863 0.068289734
000100 85 be 92 3d 0c 34 d9 bc c8 3a 9b 3d 44 b0 aa bd
       0.07165245 -0.026514076 0.07579571 -0.08334401
000110 15 47 72 bb 48 fc 01 3c 39 30 a2 bd 4a 14 04 3d
       -0.0036968638 0.007933684 -0.07919354 0.03224591
000120 53 92 a1 3d 53 0f fd bc b2 e5 83 bd 38 6e 90 3c
       0.07889237 -0.030891096 -0.06440295 0.017630681
000130 7b 76 a2 3d df fa 28 bd 66 41 cf bc 1d 9b 39 3d
       0.079327546 -0.041254874 -0.02529974 0.045313943
000140 25 61 a7 3d 65 45 2d 3d bd 3e a5 3d 51 4e 82 3d
       0.08172826 0.042302508 0.08068607 0.06362594
000150 4d ad 2a 3d d0 7f 91 bd e1 c7 a4 3d 31 f9 b2 bc
       0.04166918 -0.071044564 0.080459364 -0.02184734
000160 c0 87 86 bd 49 4b 52 bd 20 90 85 bd e4 64 61 bd
       -0.06568861 -0.05134133 -0.0652163 -0.055027857
000170 c0 c1 b8 bb fe 66 4c 3d 00 17 6f bd 20 1e 9c bd
       -0.005638331 0.04990291 -0.058371544 -0.076229334
000180 66 29 3c 3d 2d 7a c6 3c 00 c5 f7 3c 7c 56 17 bd
       0.045937918 0.02422818 0.030245304 -0.036947712
000190 ee 14 21 3d d1 11 d4 bc 11 e8 ac 3d ac 34 c7 3c
       0.0393266 -0.025887402 0.08442701 0.024317108
0001a0 a6 b4 79 bd 53 67 22 3d 03 a2 aa 3d cf 85 31 bd
       -0.060963295 0.03964932 0.083316825 -0.0433405
0001b0 78 63 9d 3c af 33 15 bd b0 24 83 bd 6b d5 69 3d
       0.01921247 -0.036426242 -0.06403482 0.057088297
0001c0 5a 40 74 3d 50 09 8f 3d 58 dc a2 3c 40 02 9c bb
       0.059631683 0.06984198 0.019880459 -0.0047610104
0001d0 d0 c2 84 38 bc f7 2a 3d 40 d7 ef bb 04 33 cb 3c
       6.330537e-05 0.041740164 -0.007319361 0.0248046
0001e0 ae 3e 15 bc e3 98 18 bd 4c af 83 3d c9 2f 3d 3d
       -0.009109182 -0.03725518 0.064299196 0.04618815
0001f0 80 58 06 3d 6b 2b 62 b9 be 46 c0 3c 24 9c c5 3c
       0.032799244 -0.00021569214 0.023471233 0.024122305
000200 69 d9 39 ba be 18 fe bc 78 2b 1a be 47 72 46 bd
       -0.00070895866 -0.031017657 -0.15055645 -0.048448827
000210 19 39 3d be 01 88 ac bd d0 93 6c 3c 06 4e f0 bd
       -0.18478812 -0.08424378 0.014439538 -0.11733632
000220 12 cc ea bc 68 25 3b 3e 12 77 7c bd af 98 b1 bd
       -0.028661761 0.18275988 -0.06163699 -0.086717
000230 b2 ec 1e 3d fe 46 2b 3d 87 4f 99 bd 1a 89 9a bd
       0.03879995 0.04181575 -0.07485872 -0.07545681
000240 1b df 99 3d 59 ef 46 3e c5 db ae 3d 2a d2 10 3d
       0.07513257 0.19427241 0.085380115 0.035356678
000250 45 0b 9a 3d ac b4 79 bd 0c 0e 2c be 08 af 0e be
       0.07521681 -0.060963318 -0.16802233 -0.13933957
000260 21 83 81 3e 40 ab 83 bd 20 73 c3 bc 18 ea 47 3e
       0.25295356 -0.06429148 -0.023858607 0.19522893
000270 b9 6f b6 3d 97 c0 cf 3b 51 e5 22 3e e4 53 b8 bd
       0.08908028 0.006340097 0.1590779 -0.09000376
000280 52 6e 70 3d 79 12 65 be 43 ec e3 3c 8c 88 2d bd
       0.05869896 -0.22370328 0.02782262 -0.04236655
000290 66 8d 8c 3e 20 24 9f bd c6 aa 79 bd 54 4d 1d 3e
       0.27451628 -0.07770562 -0.060953878 0.1536153
0002a0 80 75 1d be 38 d2 ab 3c ac 91 ef bd 3a c2 a6 bc
       -0.15376854 0.020974264 -0.116977066 -0.020356286
0002b0 80 3c 53 3d 2a 31 86 3d 3f c6 d8 3c ec 34 85 3b
       0.05157137 0.06552346 0.026461719 0.0040651467
0002c0 91 48 5d bd b7 93 87 3d 1f 16 24 be 0c e9 85 bb
       -0.054024283 0.06619971 -0.16024064 -0.0040866192
0002d0 9b 56 db bd b5 b1 14 3d d8 a2 18 3e f8 ac 1d be
       -0.10709878 0.036302287 0.1490587 -0.15398014
0002e0 30 9c 4b 3c f7 67 39 bb 16 96 c5 bd 86 a9 45 bd
       0.012427375 -0.0028290728 -0.09647767 -0.048257373
0002f0 d3 8c 0e bd 91 bc df 3d a2 39 f8 bc e7 ad 42 bd
       -0.03480227 0.10924638 -0.030300919 -0.047529127
000300 75 48 0c be f6 e5 7f be fe a3 47 bd 23 da 29 bd
       -0.13699515 -0.24990067 -0.04874038 -0.041467797
000310 9b a2 84 3d 8e 36 19 be e0 dd 06 3d 24 f6 0b 3e
       0.06476327 -0.14962217 0.03292644 0.13668114
000320 2a 99 6e 3d 44 6a cb bc fa db 41 bb 1f e0 5b bc
       0.058251537 -0.024830945 -0.002958058 -0.013420134
000330 24 b5 33 3e a6 74 6d bd 0d 7a ce 3c e2 9f 81 3e
       0.17549568 -0.057972573 0.025204683 0.25317293
000340 22 cc 69 3e e8 74 97 3a c0 2f 99 3c 1c 29 29 3e
       0.22831777 0.0011555227 0.018699527 0.16519588
000350 4b 54 78 3e 74 72 e1 3d 08 37 4d bc e8 c0 08 3e
       0.24250905 0.11008158 -0.0125253275 0.13354838
000360 b3 bc 72 be a1 de c4 bb 80 e5 bd bb 6a 65 09 be
       -0.23704796 -0.0060079847 -0.005795181 -0.13417593
000370 b3 f7 3b bd 3a 99 42 be 57 55 2d be 5f 72 5c bd
       -0.04589052 -0.19003764 -0.16927086 -0.05382001
000380 76 30 20 3d 01 f5 b3 bc 5c a8 a1 bc bc a9 80 3c
       0.039108716 -0.021967413 -0.0197336 0.015705936
000390 83 69 88 bd 3a 91 1c be 72 46 1e be 70 e1 28 bd
       -0.0666075 -0.15289775 -0.1545656 -0.04123062
0003a0 d1 13 3b 3e e7 60 01 3c e0 a4 2a bd 8b 51 19 be
       0.18269278 0.0078966385 -0.041661143 -0.14972512
0003b0 69 b6 31 bd f2 b1 5d bc 87 70 f6 3d c0 02 36 3e
       -0.04338685 -0.013531195 0.12033182 0.17774487
0003c0 30 39 7f bc 77 4a 61 3d 03 ac 7c 3d 22 88 59 bb
       -0.015577599 0.055002656 0.06168748 -0.0033192714
0003d0 e4 7c a5 bd b9 3c 80 3e b6 ee 7b 3d 7c a6 cd 3c
       -0.080804616 0.25046328 0.06150695 0.0251038
0003e0 29 a1 10 be 8c 2d c9 bc 24 e8 25 be 94 26 01 3e
       -0.14123978 -0.024557851 -0.16201836 0.12612373
0003f0 bc 5c 3c be 1d 84 43 be 85 bf 2f 3e ee dc 79 3d
       -0.1839475 -0.19093366 0.17162903 0.06100171

network.4.bias f4 [3]
000000 76 35 59 3d 2d 5c aa 3d 02 b0 ae 3d
       0.0530295 0.083183624 0.085296646

network.0.weight f4 [128, 64]
000000 cc b8 c3 3d 66 7b d4 3d 20 e5 ef bc 1c 2a eb 3d
       0.095567316 0.10375099 -0.02928406 0.11482641
000010 b0 5c e0 bc 38 a2 ce 3c 10 45 79 bd 28 58 96 3d
       -0.027387947 0.025223836 -0.06085688 0.07341033
000020 cc ac e1 3d 0e cf bb bd a4 83 de 3d b0 a6 bf 3c
       0.110192865 -0.09170352 0.10864952 0.023394912
000030 94 22 bd 3d 50 ae 8a 3c 5c e1 76 3d 60 94 90 bc
       0.09235111 0.016928822 0.060273513 -0.017648876
000040 c6 58 c5 3d 38 5b 97 3c a4 05 6f bd 08 82 02 3d
       0.09636073 0.018476114 -0.05835499 0.03186229
000050 ac e5 6b bd c0 2c 70 bc fc f3 4f bd ae d2 a9 3d
       -0.05759208 -0.014659107 -0.05076979 0.08292137
000060 2a 14 ca bd 8c 09 6c bd 6c 93 10 bd fe ec 99 bd
       -0.09867127 -0.057626292 -0.035296842 -0.07515906
000070 f0 4b 41 3c 8a d8 fc bd 28 32 e7 3d c0 76 d9 bd
       0.01179789 -0.12345989 0.112888634 -0.10618353
000080 96 a3 c5 3d c8 69 aa 3c ac 3f 26 bd f8 31 9e 3d
       0.09650342 0.020802394 -0.040588066 0.077243745
000090 58 97 9f 3c b0 d6 ce 3d 00 e3 5f 3c 98 78 21 bd
       0.019481346 0.10099542 0.013664961 -0.039421648
0000a0 e8 90 09 3d 08 d8 0a bd a4 7a 57 3d fe 8f e4 3d
       0.03358546 -0.03389743 0.052607194 0.11160277
0000b0 b6 fb 93 3d 14 d5 5f bd 9e c7 93 3d 70 38 b7 3c
       0.072257444 -0.054646567 0.07215808 0.022365779
0000c0 7a 01 82 3d 86 08 9c bd a4 6a fd bd 0c d1 45 bd
       0.06347938 -0.07618813 -0.12373856 -0.048295066
0000d0 9c 5b c4 bd d6 0e d2 3d d8 78 13 3d cc 13 54 3d
       -0.095877856 0.10256736 0.036003917 0.051776692
0000e0 fc ec 21 3d 00 82 0e bb 04 59 c8 3d 38 e4 b5 bd
       0.039532647 -0.0021744967 0.097826034 -0.0888142
0000f0 20 f3 00 3c f4 ba ae bd 50 e0 1d 3d e0 52 30 bd
       0.0078704655 -0.08531752 0.038544 -0.043047786
000100 98 e2 1c 3d 78 57 d5 bc 06 53 d4 3d 50 bb 97 bd
       0.038302034 -0.026042685 0.10367398 -0.07408774
000110 8a ad 98 bd e6 af 98 bd e2 41 e6 3d e4 9f 2a 3d
       -0.07454975 -0.07455425 0.11243035 0.04165639
000120 10 56 f6 3d 4e 45 d3 bd 98 eb fd bd fe 48 c8 bd
       0.12028134 -0.10315953 -0.123984516 -0.09779547
000130 5a 35 ac bd 6c 61 4f 3d b8 55 37 3d 76 b7 d4 3d
       -0.084086135 0.050630018 0.044759482 0.10386555
000140 74 34 84 bd aa 84 ae bd f8 d3 87 3d e4 f3 4e bd
       -0.06455317 -0.085213974 0.06632227 -0.05052556
000150 5c 5f 9b 3d f0 fe f2 bc 9a 71 92 3d 60 e7 c6 bd
       0.07586548 -0.02966258 0.07150574 -0.097121
000160 ba 30 81 bd c4 18 1c 3d 38 7b d8 3c f4 89 02 bd
       -0.06308122 0.038109556 0.026425943 -0.031869844
000170 02 98 98 3d fa 07 ae 3d f6 a4 b9 bd 96 ab 88 bd
       0.07450868 0.08497615 -0.09064667 -0.066733524
000180 d2 68 ea 3d f4 c3 2c bd 2c 83 35 bd 48 b4 f7 bd
       0.11445774 -0.042179063 -0.04431455 -0.12094933
000190 84 9a 92 bd 88 cc ff 3c 38 29 87 bc aa d3 b9 bd
       -0.07158378 0.031225458 -0.016499147 -0.09073575
0001a0 40 28 40 3b 6e de ae bd 86 30 d9 bd 3a f8 8c bd
       0.0029320866 -0.08538519 -0.10604958 -0.06883283
0001b0 e6 0d e0 bd 44 01 a3 bd 5e e6 ff 3d 70 68 c1 3c
       -0.10940151 -0.07959226 0.12495111 0.02360937
0001c0 1c c7 1d 3d 66 c4 ee bd 54 22 a8 bd 14 6c 2a bd
       0.038519964 -0.11658554 -0.082096726 -0.041606978
0001d0 c0 1f a0 3c 86 42 e1 bd 64 9b 5c bd 58 42 99 bd
       0.01954639 -0.109990165 -0.05385913 -0.07483357
0001e0 00 9e b5 39 50 84 3e bd f0 ea 0d bc 24 79 ad bd
       0.0003464073 -0.0465129 -0.0086619705 -0.08470371
0001f0 98 b7 af bd d2 59 95 bd 9c 41 2f bd 50 0e ca bd
       -0.085799396 -0.072925225 -0.04278718 -0.09866011
000200 c5 91 aa bf 00 d9 bb bf 7a f9 85 3f 76 f3 7c 3f
       -1.3325735 -1.4675598 1.0466759 0.9880899
000210 c6 cd f5 3e 46 e9 77 3d fb 4f d5 bf 21 79 91 bd
       0.48008555 0.0605252 -1.6665033 -0.07103182
000220 20 9c fd 3e 0c e8 94 3e 8e 1a 17 3f f3 70 92 3f
       0.49533176 0.29083288 0.59024894 1.1440719
000230 0c 76 c2 3e 99 27 9d bf 12 f4 bf 3f 90 56 dc 3e
       0.37980688 -1.2277709 1.4996359 0.43034792
000240 cf 9b 6f bf c9 86 bd 3d 3a 4e 06 3e 60 0d 7d be
       -0.9359712 0.09254224 0.13115779 -0.24712133
000250 c2 bf 8b be 66 72 84 bf e5 1c 79 3f dd 79 a2 3f
       -0.27294737 -1.0347412 0.97309715 1.269344
000260 a1 ac 41 bf c6 03 08 ba ac e1 2a 3f ba ec 9a bf
       -0.75654036 -0.00051885506 0.667506 -1.2103493
000270 9f c4 3a 3f 53 d1 d1 be ed b2 90 bf af 5e ea 3e
       0.7295627 -0.40980014 -1.1304604 0.45775363
000280 7f ad 74 3f 23 5b 82 3f 03 42 bb 3e 24 6b ee bd
       0.95577234 1.0184063 0.365738 -0.11641529
000290 c7 7a 80 3f 85 20 f3 be 16 7c 49 bf 3d 04 ce 3e
       1.0037469 -0.47485748 -0.78704965 0.4023761
0002a0 18 31 64 3f aa 87 75 bf 53 96 f1 3e f1 24 f6 bd
       0.8913741 -0.9591013 0.47185 -0.12018765
0002b0 4a dc 16 bd f4 26 19 3b 57 42 a0 be b5 b8 74 3f
       -0.036831178 0.0023369165 -0.31300613 0.9559434
0002c0 93 2a ac bd b4 31 e3 be f8 1d a8 be 79 54 b1 bf
       -0.08406558 -0.44373858 -0.32835364 -1.3853904
0002d0 42 b3 95 be 68 eb e0 be 01 7f 64 bf 77 ad 91 be
       -0.29238325 -0.439296 -0.8925629 -0.28452656
0002e0 8c 0e 6f 3e ec f0 c7 bd 35 6d 40 bf 39 27 69 bf
       0.23345393 -0.09762749 -0.75166637 -0.91075474
0002f0 f7 e9 5f bd b8 46 06 bc d0 e4 b4 bc 8c b8 70 bd
       -0.054666486 -0.008195572 -0.022081763 -0.058769748
000300 10 a3 a3 3d 9c 01 dc 3d 20 bf 4a bc 38 45 e5 bc
       0.07990086 0.107424945 -0.012374669 -0.027987108
000310 80 14 ef 3a a0 90 f4 bb 60 2e f6 3c c8 7a 0f 3d
       0.0018240362 -0.0074635297 0.03005141 0.035029203
000320 84 83 e8 bd 84 f2 3c bd cc 95 d7 3d c0 73 47 3d
       -0.113532096 -0.04612972 0.10526618 0.048694372
000330 a0 b9 cb bb 08 58 9a bd 42 9f 9c bd fa 50 e5 bd
       -0.0062171966 -0.07536322 -0.076475635 -0.11197086
000340 8c e4 26 bd 90 e7 2c 3d 2c 3b a3 3d 98 63 6c 3d
       -0.040745303 0.042213023 0.079702705 0.057712168
000350 28 4a e2 bd e4 f2 99 bd b0 9a a1 bc 38 a4 f7 3d
       -0.110493004 -0.07517031 -0.019727081 0.12091869
000360 18 21 94 3c d0 97 04 bd 7c d2 53 3d e8 02 43 bd
       0.018082187 -0.032371342 0.051714405 -0.047610193
000370 8c b2 a5 bd e4 d9 ba 3d ac ce 68 bd 28 47 cd bc
       -0.08090696 0.091235906 -0.056837723 -0.025058344
000380 7e ab fe bd 52 55 ab 3d 58 f4 c1 3d f4 98 3a 3d
       -0.12435053 0.08365883 0.09470433 0.045556024
000390 90 80 b2 bd 18 a8 fc bd f6 ea cf bd 36 e6 be 3d
       -0.087159276 -0.12336749 -0.10152237 0.09321253
0003a0 6c d0 75 3d d6 6c d7 3d 56 1c 86 3d 4c 95 01 3d
       0.06001322 0.10518806 0.065483734 0.03163652
0003b0 80 71 a0 ba 86 b0 c2 bd 6c 55 db bd 02 73 ef bd
       -0.0012240857 -0.095063254 -0.10709652 -0.11691858
0003c0 e4 97 51 3d 28 60 7b bd 28 15 ce bc 50 54 93 bd
       0.051170245 -0.061371 -0.025156572 -0.07193816
0003d0 d0 98 ba bc 86 2e b4 bd 40 46 a7 bd 00 d6 29 3d
       -0.022777945 -0.08797936 -0.08167696 0.041463852
0003e0 20 2a 18 bd 34 0a 9e 3d 0c 41 24 bd 10 cb bb bd
       -0.03714955 0.0771679 -0.040101096 -0.091695905
0003f0 68 ac b4 bc d0 30 78 bd 60 a4 1c bd fc b5 f3 bd
       -0.022054866 -0.060593426 -0.038242698 -0.11899945

network.0.bias f4 [128]
000000 00 c8 30 3a b8 ef a4 bc af 22 9b 3d 00 3f f5 3b
       0.00067436695 -0.020133838 0.07574975 0.007484317
000010 a6 4b b5 bd b0 3c 6c bc da 59 bd bd 30 e1 98 3c
       -0.088523194 -0.014418766 -0.092456535 0.018662065
000020 bc 8a c0 3c 7e 5b f1 bd 80 1d af bd 9c 94 80 bd
       0.023503654 -0.11785029 -0.085505486 -0.06278345
000030 14 06 33 bd 7f 95 07 bd 5e ad 31 3d 16 10 ca bd
       -0.04370697 -0.033101555 0.043378226 -0.098663494
000040 69 b0 25 ba da 84 d3 bd 42 84 9b 39 50 f2 a5 bd
       -0.00063205377 -0.10328074 0.00029662444 -0.08102858
000050 66 d7 c3 bd 82 d0 9d 3d 0b 90 f9 3c c8 77 2d bd
       -0.09562568 0.07705785 0.030464193 -0.04235056
000060 a8 e7 33 3d 03 0e c3 bb 6c f2 39 3d a0 55 f0 bb
       0.043922096 -0.005952598 0.045397207 -0.007334426
000070 0b 09 cc bd 68 32 39 bd d2 7d db bd e0 98 32 3d
       -0.09962662 -0.045214087 -0.10717358 0.043602824
000080 89 6e 47 3d 4d bf ce 3d 66 a9 fb bd 94 9d e6 3d
       0.0486894 0.100950815 -0.122881696 0.112605244
000090 ce 2b 42 bc 5c 9b 0b 3d cc c1 5b bd 1a 09 40 3d
       -0.011851264 0.03408371 -0.053651616 0.04688368
0000a0 7e 82 66 3d a1 72 93 3d 6a 5d d3 bd a8 a4 9b 3c
       0.05627679 0.07199598 -0.10320552 0.018999413
0000b0 d6 80 86 3c 49 85 10 be e2 e9 4e 3d aa f2 71 3c
       0.016418856 -0.14113344 0.050516017 0.014767328
0000c0 ba 94 cd bd d6 c7 db bd a0 19 a7 3b fc 54 cd 3d
       -0.10038133 -0.10731475 0.0050994903 0.10025975
0000d0 3c ad 14 3d e0 fd 8f 3c d0 a9 04 bc 92 5c fe bd
       0.03629802 0.017577112 -0.008097127 -0.1242
0000e0 ec b1 26 3d e0 b6 3f 3d 2d 12 cf bd a0 a2 bc bc
       0.040697023 0.046805263 -0.10110889 -0.023026764
0000f0 46 e1 f8 3d be f4 8e bd de c3 af bd 72 af f1 3c
       0.121523425 -0.069802746 -0.085822806 0.029502604
000100 a2 fa c4 3c f8 cd b3 3d 2e 4e a8 bd 9a 20 7d bb
       0.024045292 0.0877952 -0.082180366 -0.0038624168
000110 d0 83 f6 3c 4a 65 a1 3d 57 0d 02 3d 18 1a c4 3c
       0.03009215 0.078806475 0.031751003 0.023938224
000120 35 b1 0d bd 60 ab b6 bc 32 27 8a bd ab 63 5d 3b
       -0.034592826 -0.022298515 -0.06745757 0.003378133
000130 bf 0c 37 3d 34 22 82 bd 44 f0 ae bd bb f1 8c 3c
       0.04468989 -0.0635418 -0.08541921 0.01720511
000140 28 96 89 3c d4 59 71 bd 61 b9 82 3d 60 95 d0 bd
       0.016795233 -0.058923557 0.063830145 -0.10184741
000150 50 90 7b bd 2e bc 6f bd 70 e2 58 bd 77 75 7b bb
       -0.061416924 -0.05852907 -0.052950323 -0.0038369575
000160 75 63 b2 3c 4c c7 32 bd 48 f2 8a bc e4 83 85 bd
       0.02177594 -0.043647096 -0.016961232 -0.06519297
000170 aa 53 a8 bd 11 a3 92 3c 50 c5 bc 3d c6 c6 ad 3d
       -0.08219083 0.017900022 0.09217322 0.08485179
000180 24 cc c7 bd 6c b7 04 3d 21 c1 98 bd e0 b5 d0 bc
       -0.097557336 0.032401487 -0.074587114 -0.02547735
000190 e0 1d 37 bc 07 53 81 3d d4 2c 8d 3d 54 49 cf bd
       -0.011176556 0.06314664 0.06893316 -0.10121408
0001a0 38 13 de 3c f5 54 0a 3d 96 1a 6a 3a af 84 3e bd
       0.027108774 0.033772428 0.0008930353 -0.046513256
0001b0 c8 b2 71 bd ac 9f b4 bd 40 f9 fb bd 84 ba 2f bd
       -0.05900839 -0.088195175 -0.123034 -0.042902485
0001c0 88 8b 45 bd 16 d7 b6 3c c0 73 58 bd b6 a3 d4 3d
       -0.04822877 0.022319358 -0.052844763 0.10382788
0001d0 5c 9f b4 bd c4 d6 b3 3d 4c 98 88 bd de 3e a9 bc
       -0.08819458 0.08781198 -0.06669673 -0.02065986
0001e0 a8 c0 3b bd 7c cc 57 3d c9 1d 63 3d a1 41 47 3d
       -0.04583803 0.052685246 0.055448327 0.048646573
0001f0 0c 4e b1 bd fd b4 2f 3d 46 26 92 3d f8 12 d2 bd
       -0.086574644 0.042897213 0.07136206 -0.10257524

network.2.weight f4 [128, 128]
000000 e6 55 12 3d cc fc 8b 3c db 9f 13 3d 0f 9a 9e 3d
       0.03572645 0.017088316 0.036041122 0.07744228
000010 6b ff 49 ba 58 37 38 bd cf 2c 23 bd d8 04 3b 3c
       -0.0007705602 -0.044974655 -0.039837655 0.011414729
000020 a8 f2 5e bc cd a5 81 bd 00 92 21 3b 5a 4d 4f 3d
       -0.013607658 -0.06330452 0.0024653673 0.050610878
000030 40 0a 40 3b 58 d8 60 3d f2 7f 57 bd 2b f7 8d 3d
       0.0029302984 0.05489382 -0.052612253 0.06931909
000040 df 8b 40 3c fd e6 0d bd 8f 1f d8 3c c1 ef 26 3d
       0.011752098 -0.034644116 0.026382236 0.04075599
000050 95 3a 1b bd be 48 cf bc 4f 42 02 3d 5e 87 9f bd
       -0.037897665 -0.02530324 0.031801518 -0.07789491
000060 a2 c9 a4 3c df 4a 67 3c da c8 76 bd 08 89 32 bc
       0.020115677 0.014116972 -0.06025014 -0.010896929
000070 a9 2e 0f 3c 56 d7 7b 3d ed 5f 84 3d 38 fb 96 bd
       0.008739152 0.061484657 0.06463609 -0.07372135
000080 9c af 88 bd 1e 2f 3a 3d c1 97 b2 3d 29 bc 92 3d
       -0.0667412 0.04545509 0.08720351 0.07164795
000090 aa 18 9a 3c 31 a3 ab 3d a4 35 26 bd 42 51 96 bc
       0.018810589 0.08380736 -0.0405785 -0.018349294
0000a0 c5 9c 99 bd 60 96 8f bd 0c d7 74 bd 0a 35 a4 bd
       -0.075006045 -0.07011104 -0.059775397 -0.08017929
0000b0 58 c8 02 3c 3e 1f 90 3c 71 f8 b6 3c 54 51 2f 3d
       0.007982336 0.017593022 0.022335263 0.04280217
0000c0 68 2f 90 bd fc fa d0 bc cd 70 8e 3d 29 33 a0 bd
       -0.07040292 -0.025510304 0.06955109 -0.07822258
0000d0 76 74 7e 3d fc f9 de 3c 1e f5 92 bd ac 36 9c 3c
       0.062122785 0.027218811 -0.07175659 0.019069038
0000e0 14 fe 4c bc 08 46 94 ba 6f 0e 35 bd 46 e2 23 3d
       -0.012511749 -0.0011312375 -0.044203218 0.040010713
0000f0 37 c8 8c 3d 19 e5 38 3d 78 fd 0a bc 98 e6 b6 bd
       0.068741255 0.04514036 -0.008483283 -0.08930701
000100 51 8e 9e 3d 0d bb 66 3c f1 6a 93 3d bf 12 9b 3c
       0.077419885 0.014082682 0.07198132 0.018929837
000110 00 73 be 3a f4 e5 f4 3c a0 7d 10 3d 33 b7 ce 39
       0.0014530122 0.029894806 0.035276055 0.00039427876
000120 6c 3a 76 bb a0 29 6b bb ca 10 78 3d 8f db c9 3c
       -0.0037571443 -0.0035882965 0.060562886 0.024640827
000130 eb 0b f4 bc 09 b1 a8 3d e3 75 ad 3d db 62 72 3d
       -0.02979084 0.08236892 0.08469751 0.059176307
000140 44 bd 81 3c 10 25 b1 3b c0 62 69 bd 6b f6 83 3d
       0.01583732 0.0054060295 -0.05697894 0.06443485
000150 51 10 82 bd 00 5e aa bd 5b dc 4d 3c 8d d9 c9 bd
       -0.06350768 -0.0831871 0.012564744 -0.09855948
000160 cd 16 6c 3c fa 5c 2e bd fb ed 2e ba 3c 7b 0b bd
       0.014409733 -0.042569138 -0.0006673035 -0.034053072
000170 a5 60 92 3d 29 8c ac bd 08 04 85 3c ff 05 04 bc
       0.0714734 -0.08425171 0.016237274 -0.00805807
000180 13 3f ac bd 9f 1f 61 3d cc ea a9 3b c5 88 aa bd
       -0.08410468 0.054961797 0.0051854607 -0.08326868
000190 cf 1a b5 bd a9 ca c6 3c 9c 70 7d 3d d4 00 a5 bc
       -0.08843004 0.024266558 0.06187497 -0.020141996
0001a0 1a e7 d5 bc b5 87 b7 bd 83 e7 2b 3d aa df 23 bd
       -0.026111174 -0.08961431 0.041968834 -0.040008225
0001b0 14 68 26 bd 48 c1 09 3d f7 4f 9e 3d 3f 75 d9 3c
       -0.0406266 0.033631593 0.07730096 0.026545165
0001c0 c0 d7 d0 3c 25 07 9b 3d 00 5e 76 3b f8 05 60 3c
       0.025493503 0.07569722 0.003759265 0.013673298
0001d0 c0 9f d3 bb b5 ea 8c bd 83 6e 66 3b 55 af 7b bd
       -0.0064582527 -0.06880704 0.0035161085 -0.061446507
0001e0 2a 83 51 3d b3 b9 79 bd 02 6e ad bd a6 fa f2 bc
       0.05115048 -0.060968112 -0.08468248 -0.029660534
0001f0 23 79 86 3d b9 fe a9 bd 5f ef 3b bd 30 eb dd bb
       0.06566074 -0.083005376 -0.04588258 -0.0067724213
000200 22 54 1e bd 9e 08 2b 3d af 1f 9e 3d 12 f4 43 3d
       -0.038654454 0.041756265 0.07720887 0.047840185
000210 e4 b3 98 bc 70 1f 8e bd 7e 75 95 bd 14 63 ad bc
       -0.018640466 -0.0693959 -0.072978005 -0.021165408
000220 62 1a e4 bc 40 48 89 bd d8 10 b3 3c 0b 2f 09 bd
       -0.027844612 -0.06703234 0.021858618 -0.03349213
000230 d0 fa d1 3c 58 40 40 bd 90 7c 02 bc d2 e8 d9 bc
       0.025632292 -0.046936363 -0.007964268 -0.026600275
000240 a2 61 5e 3d 32 35 a5 bd a7 c3 0e bd a0 a0 9a 3c
       0.05429233 -0.08066787 -0.034854557 0.01887542
000250 14 ff cb bc 80 45 c6 ba 4e af 74 3d 70 4e 4f 3c
       -0.024901904 -0.0015126914 0.059737496 0.012652978
000260 60 85 32 3c 54 89 d3 3c 32 c8 42 bd 41 96 10 bd
       0.010896057 0.02582232 -0.047554202 -0.035299543
000270 4a 6c 2d 3d 78 ee 51 3c aa 2b 6c 3d 78 e3 38 bc
       0.0423396 0.012813203 0.05765883 -0.0112847015
000280 f7 0c aa 3d 86 35 58 3d 48 d8 ca bc 34 05 39 bd
       0.08303254 0.05278542 -0.024761334 -0.045170978
000290 78 38 92 3c e8 02 97 bd 00 cd 25 bd 2c d2 dd 3c
       0.017849192 -0.07373601 -0.040478706 0.027077757
0002a0 10 9e fc 3b c2 d7 23 3d 40 6f 17 bd 39 56 98 3d
       0.007709272 0.040000685 -0.03697133 0.07438321
0002b0 e4 15 47 bd 38 82 39 bd da 37 72 3d f8 b2 8b bc
       -0.04860486 -0.045290202 0.059135295 -0.017053112
0002c0 f4 23 cf 3c 08 a1 80 bc ca 05 80 bd 20 b7 67 bb
       0.025285698 -0.015701786 -0.06251104 -0.0035356954
0002d0 ae 3f 24 3d d6 fd 73 3d f9 15 8a 3d 20 fb 4b bb
       0.040099792 0.05956825 0.06742472 -0.0031125024
0002e0 b1 1c 83 3d 6c 40 cc 3c a0 5d 56 3b 00 de da 3a
       0.06401957 0.024933062 0.0032709613 0.0016698241
0002f0 90 2e 0a bc 98 c9 ce 3c a0 a1 95 bb 72 d4 68 3d
       -0.008433953 0.025242612 -0.0045663863 0.05684323
000300 00 92 5c bc be 0a 49 bd 24 6d d2 3c f6 dc 4a bd
       -0.0134625435 -0.04908251 0.025686808 -0.04952713
000310 66 d5 60 3d 1d d7 93 3d 28 7a 68 3c 5c 40 91 bc
       0.054891013 0.07218764 0.014189281 -0.017730884
000320 b0 c9 82 bb 3e 8e 29 3d a4 48 8a bd 28 d1 c1 bc
       -0.003991328 0.04139542 -0.06752136 -0.023659304
000330 94 93 5c bd 51 bb a3 bd 12 85 81 bd c5 9d 68 bd
       -0.05385168 -0.07994712 -0.06324209 -0.056791086
000340 e1 d4 89 3d ba 49 5d 3d 7e c8 75 bd 36 da 8e bd
       0.067300566 0.05402539 -0.060005657 -0.06975214
000350 07 1c a2 3d dc de ab 3c f6 b7 26 3d 08 27 62 3c
       0.07915502 0.020980291 0.040702783 0.013803251
000360 50 46 07 bd 16 98 43 bd ea c8 42 3d 0f d2 b2 bd
       -0.03302604 -0.047752462 0.047554888 -0.08731472
000370 3f a1 96 bd 58 a8 da 3c 64 e2 bd bc d0 80 8a 3c
       -0.07354974 0.0266916 -0.02317924 0.016907126
000380 72 17 41 3d 4e 0d 50 bd a7 cb 4b bd ea ac 5e bd
       0.0471415 -0.05079394 -0.049754765 -0.054364122
000390 2d 62 9e bd 20 0d c4 bb 2d b7 99 3d 60 06 b1 bb
       -0.07733569 -0.00598301 0.07505641 -0.0054023713
0003a0 5e 8d 46 3d 78 0c 34 bd 20 af 0f 3c 41 ed 87 bd
       0.048474662 -0.043957204 0.00876978 -0.066370495
0003b0 00 73 bf bb f8 e5 9e 3c 63 e7 1a bd 3b 32 a6 3d
       -0.0058425665 0.019396767 -0.037818324 0.081150495
0003c0 1c 6f cc 3c f2 15 35 3d b7 27 b4 3d 4e 78 19 3d
       0.024955325 0.04421038 0.087966375 0.037468247
0003d0 90 8a e3 bb c2 e8 2c 3d 27 62 b2 3d 2e 46 ae bd
       -0.006944008 0.042214163 0.08710127 -0.085094795
0003e0 0c 84 88 bc b6 ce 2f 3d 84 7f af bc f4 45 93 bd
       -0.016664527 0.042921744 -0.021423109 -0.07191077
0003f0 f5 2a 52 bd b1 2b 3c bd 8e 18 16 3d ba 7e 66 3d
       -0.0513105 -0.045940105 0.03664451 0.0562732

network.2.bias f4 [128]
000000 57 d1 70 3c a3 c2 a3 bd 91 9c 47 3d 68 12 f3 bb
       0.014698348 -0.079961084 0.048733298 -0.0074179657
000010 a4 2e 8f 3c 4e 86 78 bd 8c 46 74 bd 7e 94 11 3d
       0.017478295 -0.060674958 -0.05963759 0.035542004
000020 83 00 f3 bb 6d fa 3b 3d e4 8f a2 bd fa 43 14 bd
       -0.0074158325 0.04589312 -0.07937601 -0.03619764
000030 ad 13 5d bd 71 7a 65 bd 54 9a 1b 3d 50 d8 25 bb
       -0.053973842 -0.056024972 0.037988976 -0.0025305934
000040 74 aa d0 bc 3e 2d 29 3d 1a 5c ef bc 3e 32 8d bb
       -0.025471903 0.041302912 -0.029218722 -0.004308968
000050 97 bd 99 bd e1 3d c9 bb 0e a0 5d 3d b8 59 83 3d
       -0.075068645 -0.0061414097 0.05410772 0.06413597
000060 34 96 86 3d 6c 2c 24 bd ef 5b 98 bd f8 a7 8c 3d
       0.06571618 -0.040081427 -0.0743941 0.06867975
000070 9b bf 1d 3c e0 16 b3 3c 41 c3 93 3d 81 ec d1 3c
       0.009628202 0.021861494 0.07214976 0.02562547
000080 66 db 98 bd 6e 3b 9d 3d 4a eb 43 bd d2 fe e4 bc
       -0.07463722 0.07677351 -0.04783181 -0.027953539
000090 5e c6 82 3d 62 fb 9d bc dd 51 13 bb b7 a3 a4 3c
       0.06385492 -0.019284908 -0.0022479214 0.020097597
0000a0 4f cd 42 3d 14 c3 9c bc 49 a7 68 3d 48 b8 18 bd
       0.04755908 -0.01913599 0.05680016 -0.03728512
0000b0 18 08 b8 bc 65 18 67 bc 5d c0 5e bd 67 e9 0e bd
       -0.022464797 -0.014104937 -0.05438267 -0.03489056
0000c0 94 78 c4 bc 48 41 18 bd 5d 43 9b 3d ef 0b 24 bc
       -0.023983277 -0.037171632 0.07581208 -0.010012611
0000d0 9a c0 87 3d b5 d3 1a 3d dd 3f 9d 3c 6d 42 5c 3d
       0.06628533 0.037799556 0.019195491 0.053774286
0000e0 14 b8 8b bd f2 6b 11 bc 05 f5 9e 3d 80 14 42 bc
       -0.068222195 -0.008875834 0.077615775 -0.011845708
0000f0 fb 31 6e bd 02 37 1d 3b b0 ac f9 bc a0 9b 66 bd
       -0.058153134 0.0023989086 -0.030477852 -0.05630076
000100 23 70 3c 3d 50 ea 26 3d fe 69 fd bb 6d 2c a7 bd
       0.04600538 0.0407508 -0.0077335825 -0.081627704
000110 7d 45 64 bc a6 40 8b 3d 19 06 81 bb 83 13 88 3d
       -0.013932583 0.0679944 -0.0039374945 0.066443466
000120 b0 89 ad bc e6 c2 ea 3a 4d 24 ac 3c 40 6d 56 bc
       -0.021183819 0.0017910867 0.021013403 -0.013087571
000130 f7 e8 42 3d c3 e0 d7 3c cd d0 b5 3c 2d 30 6a 3d
       0.047585454 0.026352292 0.02219429 0.05717485
000140 e1 71 82 3d 6c 06 db 3c 1e 6a a4 bd dd f5 5a 3d
       0.06369377 0.02673646 -0.08028053 0.05345713
000150 63 06 84 3d fa af 2a 3d 9f 5d 60 bd b2 f0 57 3d
       0.06446531 0.04167173 -0.054776784 0.05271978
000160 53 4a 2c 3d 7f 87 19 3c cf f7 b3 bd 75 7b a0 3d
       0.04206307 0.009370684 -0.087875 0.078360476
000170 b7 c2 92 bd 27 9e 16 3d 34 01 a4 3d a0 68 87 3c
       -0.07166045 0.03677192 0.08008042 0.016529381
000180 dc b3 95 bc 4a 31 88 bc af 90 65 bd 11 b0 67 bd
       -0.01827424 -0.016625065 -0.056046184 -0.056564394
000190 5b 7e 23 bd c7 d6 4a 3d 66 4a 4d 3d 40 f8 ea bc
       -0.039915424 0.049521234 0.05011978 -0.028682828
0001a0 ab 1b 0e 3d 6d fb db 3b 51 25 df bc 02 19 63 3d
       0.034694355 0.006713322 -0.027239474 0.05544377
0001b0 f2 50 7c bd 65 69 92 ba 11 8a d5 3c 22 f4 c2 3c
       -0.061600633 -0.0011170326 0.026066812 0.023798052
0001c0 20 32 1e bc 90 62 0e 3d 46 35 a3 3c 61 69 87 bc
       -0.009655505 0.034761965 0.019922864 -0.01652974
0001d0 9d f3 d8 3c 60 45 89 3d 48 86 0b bd 3a b3 80 bd
       0.026483351 0.06702685 -0.034063607 -0.06284185
0001e0 c0 96 1f 3d d8 bc 04 bc ba 33 54 3d 35 7f 88 3c
       0.038962126 -0.0081016645 0.051807143 0.01666222
0001f0 a3 85 c6 3c 6c 72 33 3d eb f0 72 3d 98 b4 ec bc
       0.024233645 0.043810293 0.05931179 -0.028894708
