models/dqn_step_13000.pt (torch, 413509 bytes, 24 tensors)

network.0.weight f4 [128, 64]
0.095567316 0.10375099 -0.02928406 0.11482641 -0.027387947 0.025223836 -0.06085688 0.07341033
0.110192865 -0.09170352 0.10864952 0.023394912 0.09235111 0.016928822 0.060273513 -0.017648876
0.09636073 0.018476114 -0.05835499 0.03186229 -0.05759208 -0.014659107 -0.05076979 0.08292137
-0.09867127 -0.057626292 -0.035296842 -0.07515906 0.01179789 -0.12345989 0.112888634 -0.10618353
0.09650342 0.020802394 -0.040588066 0.077243745 0.019481346 0.10099542 0.013664961 -0.039421648
0.03358546 -0.03389743 0.052607194 0.11160277 0.072257444 -0.054646567 0.07215808 0.022365779
0.06347938 -0.07618813 -0.12373856 -0.048295066 -0.095877856 0.10256736 0.036003917 0.051776692
0.039532647 -0.0021744967 0.097826034 -0.0888142 0.0078704655 -0.08531752 0.038544 -0.043047786
0.038302034 -0.026042685 0.10367398 -0.07408774 -0.07454975 -0.07455425 0.11243035 0.04165639
0.12028134 -0.10315953 -0.123984516 -0.09779547 -0.084086135 0.050630018 0.044759482 0.10386555
-0.06455317 -0.085213974 0.06632227 -0.05052556 0.07586548 -0.02966258 0.07150574 -0.097121
-0.06308122 0.038109556 0.026425943 -0.031869844 0.07450868 0.08497615 -0.09064667 -0.066733524
0.11445774 -0.042179063 -0.04431455 -0.12094933 -0.07158378 0.031225458 -0.016499147 -0.09073575
0.0029320866 -0.08538519 -0.10604958 -0.06883283 -0.10940151 -0.07959226 0.12495111 0.02360937
0.038519964 -0.11658554 -0.082096726 -0.041606978 0.01954639 -0.109990165 -0.05385913 -0.07483357
0.0003464073 -0.0465129 -0.0086619705 -0.08470371 -0.085799396 -0.072925225 -0.04278718 -0.09866011
-5.7007627 -5.9241276 -0.06368951 2.7474182 2.7806184 -1.0554978 -5.668202 0.93311334
-1.3261697 -0.56610227 0.56944275 0.7456233 -0.12644403 -1.4342588 4.356176 0.4988848
-0.672479 -0.50377494 0.24326456 1.5714269 -1.9791555 -1.5092813 0.82731855 3.5290434
0.48254827 -0.3926331 0.64139605 -1.6241685 0.53918636 -0.11834202 -2.0883527 1.8374237
-0.32244822 0.5040314 0.7591941 -1.630973 -0.05847539 -1.3198993 0.049864724 1.5303555
1.9658971 -1.8218422 0.69457245 0.48720697 -0.6565931 1.209017 0.13349345 -0.118075654
0.44109604 -0.13076448 -0.59448206 -1.6244832 -1.0900214 -0.10655525 0.55635446 -0.9404325
-0.1378527 -0.05228218 -0.955412 -1.5116987 -0.059342727 -0.012871828 -0.022081763 -0.063112244
0.07990086 0.107424945 -0.012374669 -0.027987108 0.0018240362 -0.0074635297 0.03005141 0.035029203
-0.113532096 -0.04612972 0.10526618 0.048694372 -0.0062171966 -0.07536322 -0.076475635 -0.11197086
-0.040745303 0.042213023 0.079702705 0.057712168 -0.110493004 -0.07517031 -0.019727081 0.12091869
0.018082187 -0.032371342 0.051714405 -0.047610193 -0.08090696 0.091235906 -0.056837723 -0.025058344
-0.12435053 0.08365883 0.09470433 0.045556024 -0.087159276 -0.12336749 -0.10152237 0.09321253
0.06001322 0.10518806 0.065483734 0.03163652 -0.0012240857 -0.095063254 -0.10709652 -0.11691858
0.051170245 -0.061371 -0.025156572 -0.07193816 -0.022777945 -0.08797936 -0.08167696 0.041463852
-0.03714955 0.0771679 -0.040101096 -0.091695905 -0.022054866 -0.060593426 -0.038242698 -0.11899945
00000000: ccb8 c33d 667b d43d 20e5 efbc 1c2a eb3d
00000010: b05c e0bc 38a2 ce3c 1045 79bd 2858 963d
00000020: ccac e13d 0ecf bbbd a483 de3d b0a6 bf3c
00000030: 9422 bd3d 50ae 8a3c 5ce1 763d 6094 90bc
00000040: c658 c53d 385b 973c a405 6fbd 0882 023d
00000050: ace5 6bbd c02c 70bc fcf3 4fbd aed2 a93d
00000060: 2a14 cabd 8c09 6cbd 6c93 10bd feec 99bd
00000070: f04b 413c 8ad8 fcbd 2832 e73d c076 d9bd
00000080: 96a3 c53d c869 aa3c ac3f 26bd f831 9e3d
00000090: 5897 9f3c b0d6 ce3d 00e3 5f3c 9878 21bd
000000a0: e890 093d 08d8 0abd a47a 573d fe8f e43d
000000b0: b6fb 933d 14d5 5fbd 9ec7 933d 7038 b73c
000000c0: 7a01 823d 8608 9cbd a46a fdbd 0cd1 45bd
000000d0: 9c5b c4bd d60e d23d d878 133d cc13 543d
000000e0: fcec 213d 0082 0ebb 0459 c83d 38e4 b5bd
000000f0: 20f3 003c f4ba aebd 50e0 1d3d e052 30bd
00000100: 98e2 1c3d 7857 d5bc 0653 d43d 50bb 97bd
00000110: 8aad 98bd e6af 98bd e241 e63d e49f 2a3d
00000120: 1056 f63d 4e45 d3bd 98eb fdbd fe48 c8bd
00000130: 5a35 acbd 6c61 4f3d b855 373d 76b7 d43d
00000140: 7434 84bd aa84 aebd f8d3 873d e4f3 4ebd
00000150: 5c5f 9b3d f0fe f2bc 9a71 923d 60e7 c6bd
00000160: ba30 81bd c418 1c3d 387b d83c f489 02bd
00000170: 0298 983d fa07 ae3d f6a4 b9bd 96ab 88bd
00000180: d268 ea3d f4c3 2cbd 2c83 35bd 48b4 f7bd
00000190: 849a 92bd 88cc ff3c 3829 87bc aad3 b9bd
000001a0: 4028 403b 6ede aebd 8630 d9bd 3af8 8cbd
000001b0: e60d e0bd 4401 a3bd 5ee6 ff3d 7068 c13c
000001c0: 1cc7 1d3d 66c4 eebd 5422 a8bd 146c 2abd
000001d0: c01f a03c 8642 e1bd 649b 5cbd 5842 99bd
000001e0: 009e b539 5084 3ebd f0ea 0dbc 2479 adbd
000001f0: 98b7 afbd d259 95bd 9c41 2fbd 500e cabd
00000200: a66c b6c0 7492 bdc0 a56f 82bd b3d5 2f40
00000210: a7f5 3140 8d1a 87bf e961 b5c0 84e0 6e3f
00000220: eebf a9bf 14ec 10bf 00c7 113f 2be1 3e3f
00000230: 8b7a 01be cb95 b7bf cb65 8b40 d46d ff3e
00000240: 9527 2cbf 65f7 00bf 581a 793e 8424 c93f
00000250: f854 fdbf 2130 c1bf 26cb 533f d9db 6140
00000260: 9110 f73e 3507 c9be 8832 243f c1e4 cfbf
00000270: 1e08 0a3f 4d5d f2bd 92a7 05c0 b330 eb3f
00000280: ef17 a5be 3408 013f 8b5a 423f b9c3 d0bf
00000290: e483 6fbd 76f2 a8bf f43e 4c3d b0e2 c33f
000002a0: 84a2 fb3f 2032 e9bf 80cf 313f 3173 f93e
000002b0: 7c16 28bf 12c1 9a3f 82b2 083e a6d1 f1bd
000002c0: 57d7 e13e 20e7 05be fa2f 18bf 11ef cfbf
000002d0: d285 8bbf a439 dabd 3f6d 0e3f 2fc0 70bf
000002e0: 4229 0dbe d725 56bd e195 74bf 587f c1bf
000002f0: 5c11 73bd 5ce4 52bc d0e4 b4bc fe40 81bd
00000300: 10a3 a33d 9c01 dc3d 20bf 4abc 3845 e5bc
00000310: 8014 ef3a a090 f4bb 602e f63c c87a 0f3d
00000320: 8483 e8bd 84f2 3cbd cc95 d73d c073 473d
00000330: a0b9 cbbb 0858 9abd 429f 9cbd fa50 e5bd
00000340: 8ce4 26bd 90e7 2c3d 2c3b a33d 9863 6c3d
00000350: 284a e2bd e4f2 99bd b09a a1bc 38a4 f73d
00000360: 1821 943c d097 04bd 7cd2 533d e802 43bd
00000370: 8cb2 a5bd e4d9 ba3d acce 68bd 2847 cdbc
00000380: 7eab febd 5255 ab3d 58f4 c13d f498 3a3d
00000390: 9080 b2bd 18a8 fcbd f6ea cfbd 36e6 be3d
000003a0: 6cd0 753d d66c d73d 561c 863d 4c95 013d
000003b0: 8071 a0ba 86b0 c2bd 6c55 dbbd 0273 efbd
000003c0: e497 513d 2860 7bbd 2815 cebc 5054 93bd
000003d0: d098 babc 862e b4bd 4046 a7bd 00d6 293d
000003e0: 202a 18bd 340a 9e3d 0c41 24bd 10cb bbbd
000003f0: 68ac b4bc d030 78bd 60a4 1cbd fcb5 f3bd

network.0.bias f4 [128]
0.00067436695 -0.020133838 0.07107346 0.007484317 -0.088523194 -0.01509765 -0.092456535 0.018662065
0.023503654 -0.11785029 -0.085505486 -0.06278345 -0.04370697 -0.033101555 0.04221669 -0.098663494
-0.0041523175 -0.10328074 -0.004639982 -0.08102858 -0.09562568 0.073742345 0.030763214 -0.04235056
0.048514243 -0.005952598 0.045397207 -0.007334426 -0.09962662 -0.045214087 -0.10717358 0.024181632
0.046823416 0.100950815 -0.122881696 0.112605244 -0.013667626 0.03408371 -0.053651616 0.0360457
0.05627679 0.06170364 -0.10320552 0.018999413 0.015521608 -0.14113344 0.042198025 0.015311908
-0.10038133 -0.10731475 0.0050994903 0.10025975 0.03629802 0.017577112 -0.008097127 -0.1242
0.012349321 0.0372493 -0.10577278 -0.023026764 0.121523425 -0.07028559 -0.085822806 0.029502604
0.021988984 0.08492281 -0.082180366 -0.0047067865 0.03009215 0.078806475 0.02979594 0.023938224
-0.035488248 -0.022298515 -0.06745757 0.003378133 0.03360726 -0.0635418 -0.08541921 0.01720511
0.016795233 -0.058923557 0.054117173 -0.10184741 -0.061416924 -0.05852907 -0.064763755 -0.026483739
0.019292124 -0.043647096 -0.016961232 -0.06519297 -0.08219083 0.015488483 0.09217322 0.08485179
-0.097557336 0.029514331 -0.0775079 -0.03681928 -0.011176556 0.05402129 0.06777368 -0.10121408
0.027108774 0.031900838 -0.011913369 -0.046513256 -0.05900839 -0.088195175 -0.123034 -0.055756103
-0.04822877 0.022319358 -0.052844763 0.10382788 -0.08819458 0.08781198 -0.06975572 -0.02065986
-0.04583803 0.052685246 0.050144196 0.048646573 -0.086574644 0.030161714 0.06884555 -0.10257524
00000000: 00c8 303a b8ef a4bc f68e 913d 003f f53b
00000010: a64b b5bd 225c 77bc da59 bdbd 30e1 983c
00000020: bc8a c03c 7e5b f1bd 801d afbd 9c94 80bd
00000030: 1406 33bd 7f95 07bd 68eb 2c3d 1610 cabd
00000040: 2a10 88bb da84 d3bd fd0a 98bb 50f2 a5bd
00000050: 66d7 c3bd 3a06 973d 2303 fc3c c877 2dbd
00000060: dfb6 463d 030e c3bb 6cf2 393d a055 f0bb
00000070: 0b09 ccbd 6832 39bd d27d dbbd 8f18 c63c
00000080: e9c9 3f3d 4dbf ce3d 66a9 fbbd 949d e63d
00000090: 2eee 5fbc 5c9b 0b3d ccc1 5bbd a8a4 133d
000000a0: 7e82 663d f5bc 7c3d 6a5d d3bd a8a4 9b3c
000000b0: 584e 7e3c 4985 10be d6d7 2c3d ccde 7a3c
000000c0: ba94 cdbd d6c7 dbbd a019 a73b fc54 cd3d
000000d0: 3cad 143d e0fd 8f3c d0a9 04bc 925c febd
000000e0: ce54 4a3c b992 183d 669f d8bd a0a2 bcbc
000000f0: 46e1 f83d e4f1 8fbd dec3 afbd 72af f13c
00000100: 3e22 b43c 03ec ad3d 2e4e a8bd 633b 9abb
00000110: d083 f63c 4a65 a13d 9d16 f43c 181a c43c
00000120: 205c 11bd 60ab b6bc 3227 8abd ab63 5d3b
00000130: c4a7 093d 3422 82bd 44f0 aebd bbf1 8c3c
00000140: 2896 893c d459 71bd f8a9 5d3d 6095 d0bd
00000150: 5090 7bbd 2ebc 6fbd dca2 84bd 6df4 d8bc
00000160: 840a 9e3c 4cc7 32bd 48f2 8abc e483 85bd
00000170: aa53 a8bd 68c3 7d3c 50c5 bc3d c6c6 ad3d
00000180: 24cc c7bd 0ac8 f13c 76bc 9ebd d0cf 16bd
00000190: e01d 37bc 6e45 5d3d edcc 8a3d 5449 cfbd
000001a0: 3813 de3c 74aa 023d 4b30 43bc af84 3ebd
000001b0: c8b2 71bd ac9f b4bd 40f9 fbbd 8360 64bd
000001c0: 888b 45bd 16d7 b63c c073 58bd b6a3 d43d
000001d0: 5c9f b4bd c4d6 b33d 16dc 8ebd de3e a9bc
000001e0: a8c0 3bbd 7ccc 573d 0064 4d3d a141 473d
000001f0: 0c4e b1bd b315 f73c e5fe 8c3d f812 d2bd

network.2.weight f4 [128, 128]
0.03572645 0.017088316 0.020214327 0.07744228 -0.0007705602 -0.060281686 -0.039837655 0.011414729
-0.013607658 -0.06330452 0.0024653673 0.050610878 0.0029302984 0.05489382 -0.05306415 0.06931909
0.002053094 -0.034644116 0.02520166 0.04075599 -0.037897665 -0.056702144 0.033320718 -0.07789491
0.02271168 0.014116972 -0.06025014 -0.010896929 0.008739152 0.061484657 0.06463609 -0.09128818
-0.09007565 0.04545509 0.08720351 0.07164795 0.017788576 0.08380736 -0.0405785 -0.00979286
-0.075006045 -0.08761233 -0.059775397 -0.08017929 0.011071234 0.017593022 0.0141277425 0.040737674
-0.07040292 -0.025510304 0.06955109 -0.07822258 0.062122785 0.027218811 -0.07175659 0.019069038
-0.031682234 -0.011742742 -0.035181973 0.040010713 0.068741255 0.049534716 -0.008483283 -0.08930701
0.061370213 -0.008502861 0.07198132 0.022420187 0.0014530122 0.029894806 0.037892573 0.00039427876
0.0042793555 -0.0035882965 0.060562886 0.024640827 -0.040399518 0.08236892 0.08469751 0.059176307
0.01583732 0.0054060295 -0.08203479 0.06443485 -0.06350768 -0.0831871 0.013520568 -0.118288
0.0022904214 -0.042569138 -0.0006673035 -0.034053072 0.0714734 -0.08506587 0.016237274 -0.00805807
-0.08410468 0.053747028 -0.00794376 -0.10252675 -0.08843004 0.010945924 0.06346058 -0.020141996
-0.026111174 -0.08891709 0.046227857 -0.040008225 -0.0406266 0.033631593 0.07730096 0.02793403
0.025493503 0.07569722 0.003759265 0.013673298 -0.0064582527 -0.06880704 -0.017571067 -0.061446507
0.05115048 -0.060968112 -0.09705274 -0.029660534 0.06566074 -0.08092424 -0.042216696 -0.0067724213
-0.038654454 0.041756265 0.07720887 0.047840185 -0.018640466 -0.0693959 -0.072978005 -0.021165408
-0.027844612 -0.06703234 0.021858618 -0.03349213 0.025632292 -0.046936363 -0.007964268 -0.026600275
0.05429233 -0.08066787 -0.034854557 0.01887542 -0.024901904 -0.0015126914 0.059737496 0.012652978
0.010896057 0.02582232 -0.047554202 -0.035299543 0.0423396 0.012813203 0.05765883 -0.0112847015
0.08303254 0.05278542 -0.024761334 -0.045170978 0.017849192 -0.07373601 -0.040478706 0.027077757
0.007709272 0.040000685 -0.03697133 0.07438321 -0.04860486 -0.045290202 0.059135295 -0.017053112
0.025285698 -0.015701786 -0.06251104 -0.0035356954 0.040099792 0.05956825 0.06742472 -0.0031125024
0.06401957 0.024933062 0.0032709613 0.0016698241 -0.008433953 0.025242612 -0.0045663863 0.05684323
-0.0134625435 -0.04908251 0.025686808 -0.04952713 0.054891013 0.07218764 0.014189281 -0.017730884
-0.003991328 0.04139542 -0.06752136 -0.023659304 -0.05385168 -0.07994712 -0.06324209 -0.056791086
0.067300566 0.05402539 -0.060005657 -0.06975214 0.07915502 0.020980291 0.040702783 0.013803251
-0.03302604 -0.047752462 0.047554888 -0.08731472 -0.07354974 0.0266916 -0.02317924 0.016907126
0.0471415 -0.05079394 -0.049754765 -0.054364122 -0.07733569 -0.00598301 0.07505641 -0.0054023713
0.048474662 -0.043957204 0.00876978 -0.066370495 -0.0058425665 0.019396767 -0.037818324 0.081150495
0.024955325 0.04421038 0.087966375 0.037468247 -0.006944008 0.042214163 0.08710127 -0.085094795
-0.016664527 0.042921744 -0.021423109 -0.07191077 -0.0513105 -0.045940105 0.03664451 0.0562732
00000000: e655 123d ccfc 8b3c 8498 a53c 0f9a 9e3d
00000010: 6bff 49ba eee9 76bd cf2c 23bd d804 3b3c
00000020: a8f2 5ebc cda5 81bd 0092 213b 5a4d 4f3d
00000030: 400a 403b 58d8 603d cb59 59bd 2bf7 8d3d
00000040: 348d 063b fde6 0dbd b673 ce3c c1ef 263d
00000050: 953a 1bbd 8240 68bd 4e7b 083d 5e87 9fbd
00000060: d80d ba3c df4a 673c dac8 76bd 0889 32bc
00000070: a92e 0f3c 56d7 7b3d ed5f 843d 4cf5 babd
00000080: 9579 b8bd 1e2f 3a3d c197 b23d 29bc 923d
00000090: 59b9 913c 31a3 ab3d a435 26bd 3b72 20bc
000000a0: c59c 99bd 186e b3bd 0cd7 74bd 0a35 a4bd
000000b0: 1f64 353c 3e1f 903c 0c78 673c 8cdc 263d
000000c0: 682f 90bd fcfa d0bc cd70 8e3d 2933 a0bd
000000d0: 7674 7e3d fcf9 de3c 1ef5 92bd ac36 9c3c
000000e0: 3bc5 01bd a164 40bc f91a 10bd 46e2 233d
000000f0: 37c8 8c3d eae4 4a3d 78fd 0abc 98e6 b6bd
00000100: 555f 7b3d 954f 0bbc f16a 933d 8aaa b73c
00000110: 0073 be3a f4e5 f43c 3e35 1b3d 33b7 ce39
00000120: d639 8c3b a029 6bbb ca10 783d 8fdb c93c
00000130: f779 25bd 09b1 a83d e375 ad3d db62 723d
00000140: 44bd 813c 1025 b13b db01 a8bd 6bf6 833d
00000150: 5110 82bd 005e aabd 5f85 5d3c fb40 f2bd
00000160: e51a 163b fa5c 2ebd fbed 2eba 3c7b 0bbd
00000170: a560 923d 0437 aebd 0804 853c ff05 04bc
00000180: 133f acbd d825 5c3d 8b26 02bc 8bf9 d1bd
00000190: cf1a b5bd 8856 333c 9ff7 813d d400 a5bc
000001a0: 1ae7 d5bc 2a1a b6bd 6c59 3d3d aadf 23bd
000001b0: 1468 26bd 48c1 093d f74f 9e3d e8d5 e43c
000001c0: c0d7 d03c 2507 9b3d 005e 763b f805 603c
000001d0: c09f d3bb b5ea 8cbd 33f1 8fbc 55af 7bbd
000001e0: 2a83 513d b3b9 79bd 96c3 c6bd a6fa f2bc
000001f0: 2379 863d 9cbb a5bd 6aeb 2cbd 30eb ddbb
00000200: 2254 1ebd 9e08 2b3d af1f 9e3d 12f4 433d
00000210: e4b3 98bc 701f 8ebd 7e75 95bd 1463 adbc
00000220: 621a e4bc 4048 89bd d810 b33c 0b2f 09bd
00000230: d0fa d13c 5840 40bd 907c 02bc d2e8 d9bc
00000240: a261 5e3d 3235 a5bd a7c3 0ebd a0a0 9a3c
00000250: 14ff cbbc 8045 c6ba 4eaf 743d 704e 4f3c
00000260: 6085 323c 5489 d33c 32c8 42bd 4196 10bd
00000270: 4a6c 2d3d 78ee 513c aa2b 6c3d 78e3 38bc
00000280: f70c aa3d 8635 583d 48d8 cabc 3405 39bd
00000290: 7838 923c e802 97bd 00cd 25bd 2cd2 dd3c
000002a0: 109e fc3b c2d7 233d 406f 17bd 3956 983d
000002b0: e415 47bd 3882 39bd da37 723d f8b2 8bbc
000002c0: f423 cf3c 08a1 80bc ca05 80bd 20b7 67bb
000002d0: ae3f 243d d6fd 733d f915 8a3d 20fb 4bbb
000002e0: b11c 833d 6c40 cc3c a05d 563b 00de da3a
000002f0: 902e 0abc 98c9 ce3c a0a1 95bb 72d4 683d
00000300: 0092 5cbc be0a 49bd 246d d23c f6dc 4abd
00000310: 66d5 603d 1dd7 933d 287a 683c 5c40 91bc
00000320: b0c9 82bb 3e8e 293d a448 8abd 28d1 c1bc
00000330: 9493 5cbd 51bb a3bd 1285 81bd c59d 68bd
00000340: e1d4 893d ba49 5d3d 7ec8 75bd 36da 8ebd
00000350: 071c a23d dcde ab3c f6b7 263d 0827 623c
00000360: 5046 07bd 1698 43bd eac8 423d 0fd2 b2bd
00000370: 3fa1 96bd 58a8 da3c 64e2 bdbc d080 8a3c
00000380: 7217 413d 4e0d 50bd a7cb 4bbd eaac 5ebd
00000390: 2d62 9ebd 200d c4bb 2db7 993d 6006 b1bb
000003a0: 5e8d 463d 780c 34bd 20af 0f3c 41ed 87bd
000003b0: 0073 bfbb f8e5 9e3c 63e7 1abd 3b32 a63d
000003c0: 1c6f cc3c f215 353d b727 b43d 4e78 193d
000003d0: 908a e3bb c2e8 2c3d 2762 b23d 2e46 aebd
000003e0: 0c84 88bc b6ce 2f3d 847f afbc f445 93bd
000003f0: f52a 52bd b12b 3cbd 8e18 163d ba7e 663d

network.2.bias f4 [128]
-0.006428262 -0.079961084 0.03245582 -0.0074179657 0.050514303 -0.060674958 -0.05963759 0.028800298
-0.0074158427 0.0865859 -0.07937601 -0.03619764 -0.053973842 -0.056024972 0.02143016 -0.012623046
-0.025471903 0.029953478 -0.029218722 -0.004308968 -0.075068645 -0.034356277 0.016096506 0.0378763
0.039129306 -0.040081427 -0.0743941 0.04323692 0.05390027 -0.017375262 0.059294604 0.069716364
-0.07463722 0.06077077 -0.04783181 -0.027953539 0.024420694 -0.019284908 -0.0022479214 0.06902823
0.060588486 -0.01913599 0.018277422 -0.03728512 -0.022464797 -0.014104937 -0.05438267 -0.03489056
-0.023983277 -0.037171632 0.053185657 -0.040326748 0.03445727 0.07225752 0.056508128 0.046749327
-0.068222195 -0.008875834 0.038012702 -0.03254251 -0.058153134 0.07024271 -0.030477852 -0.05630076
0.015745398 0.0661527 -0.0077335825 -0.081627704 -0.01518781 0.055465218 -0.0039374945 0.09082881
-0.021183819 -0.0044994787 -0.005087276 -0.013087571 0.03883184 -0.014079061 -0.0045131654 0.08720108
0.03423383 0.00025409652 -0.08028053 0.040089283 0.03672089 0.08964707 -0.054776784 0.049598414
0.08196799 -0.024063097 -0.087875 0.054326214 -0.07166045 0.020786433 0.087912895 -0.0026695027
-0.01827424 -0.016625065 -0.056046184 -0.056564394 -0.039915424 0.053922344 0.06071913 -0.028682828
0.09876704 -0.008832007 -0.027239474 0.060728014 -0.061600633 -0.009610639 0.07618314 0.061285995
-0.009655505 0.03919554 0.045326434 -0.01652974 0.028512338 0.07921543 -0.034063607 -0.06284185
0.047436513 -0.0081016645 0.018684153 0.0596078 0.054465175 0.0516623 0.029294 -0.028894708
00000000: 2ca4 d2bb a3c2 a3bd 65f0 043d 6812 f3bb
00000010: 16e8 4e3d 4e86 78bd 8c46 74bd 9aee eb3c
00000020: 9900 f3bb f353 b13d e48f a2bd fa43 14bd
00000030: ad13 5dbd 717a 65bd 4e8e af3c e4d0 4ebc
00000040: 74aa d0bc ff60 f53c 1a5c efbc 3e32 8dbb
00000050: 97bd 99bd 2bb9 0cbd d2dc 833c 2e24 1b3d
00000060: 0d46 203d 6c2c 24bd ef5b 98bd 3219 313d
00000070: 88c6 5c3d 9156 8ebc e6de 723d 74c7 8e3d
00000080: 66db 98bd c5ea 783d 4aeb 43bd d2fe e4bc
00000090: e80d c83c 62fb 9dbc dd51 13bb ac5e 8d3d
000000a0: a22b 783d 14c3 9cbc 88ba 953c 48b8 18bd
000000b0: 1808 b8bc 6518 67bc 5dc0 5ebd 67e9 0ebd
000000c0: 9478 c4bc 4841 18bd 34d9 593d a92d 25bd
000000d0: 1123 0d3d c0fb 933d 1175 673d 397c 3f3d
000000e0: 14b8 8bbd f26b 11bc 35b3 1b3d 4c4b 05bd
000000f0: fb31 6ebd 69db 8f3d b0ac f9bc a09b 66bd
00000100: 7efc 803c 117b 873d fe69 fdbb 6d2c a7bd
00000110: 4bd6 78bc 7f2f 633d 1906 81bb 7504 ba3d
00000120: b089 adbc 5d70 93bb 2ab3 a6bb 406d 56bc
00000130: 230e 1f3d ddab 66bc 2de3 93bb 7b96 b23d
00000140: c638 0c3d 4238 8539 1e6a a4bd a934 243d
00000150: a568 163d e298 b73d 9f5d 60bd b527 4b3d
00000160: d5de a73d f91f c5bc cff7 b3bd 2a85 5e3d
00000170: b7c2 92bd 4f48 aa3c ad0b b43d d3f2 2ebb
00000180: dcb3 95bc 4a31 88bc af90 65bd 11b0 67bd
00000190: 5b7e 23bd addd 5c3d 9fb4 783d 40f8 eabc
000001a0: 6046 ca3d 1fb4 10bc 5125 dfbc f0bd 783d
000001b0: f250 7cbd f175 1dbc e805 9c3d 0607 7b3d
000001c0: 2032 1ebc 818b 203d 36a8 393d 6169 87bc
000001d0: b592 e93c b33b a23d 4886 0bbd 3ab3 80bd
000001e0: ca4c 423d d8bc 04bc 820f 993c 4f27 743d
000001f0: e016 5f3d d99b 533d f8f9 ef3c 98b4 ecbc

network.4.weight f4 [3, 128]
0.041466154 -0.016464569 1.0413096 -0.08392419 1.2121661 0.04912115 0.06484137 1.1299837
-0.048360534 0.7508194 -0.050990477 0.0064036623 0.0026214495 -0.015472032 1.106908 0.03249538
0.058957644 0.12613896 -0.07947261 -0.041323613 -0.009779036 -0.038572382 1.2613153 1.1676246
0.112472676 0.06406208 -0.025698006 0.40778667 1.7002532 -0.016984496 0.060479894 0.0002941195
0.07987691 1.0334179 0.081216834 0.08773785 0.1687657 -0.00083891867 -0.003450899 1.1405243
1.1139407 -0.061738946 1.2473445 0.031776197 -0.0034830107 0.052160252 0.009832348 0.068201736
-0.051379357 -0.066906825 0.91888475 0.056298524 1.0264202 1.5992707 1.4296534 1.0922385
-0.08635975 0.04168661 1.134805 0.0086835185 -0.08626095 1.2122332 0.011768863 0.068289734
1.188119 0.048757084 0.07579571 -0.08334401 -0.0036968638 1.0774908 -0.07919354 1.0056533
0.07889237 -0.030905062 -0.06405436 0.017630681 0.47712332 0.017536893 -0.045363516 0.8606715
0.35814568 0.046094462 0.08068607 0.37649646 0.31288075 1.0155126 0.080459364 0.35721108
-0.20612346 -0.018632516 -0.0652163 1.0331353 -0.005638331 1.1849517 0.08193286 -0.15091282
0.045937918 0.02422818 0.030245304 -0.036947712 0.0393266 1.0777138 1.1355689 0.024317108
0.5993952 0.04139867 0.083316825 0.98107094 0.01921247 -0.046919014 1.0697006 1.0565588
0.059631683 1.7352093 1.6937213 -0.0047610104 0.9694482 0.90199137 -0.007319361 0.0248046
0.9796708 -0.03725518 1.2010458 1.6088634 1.1516831 1.1031326 0.1960256 0.024122305
0.0016650138 -0.031017657 0.9716786 -0.048448827 0.5853336 -0.08424378 0.014439538 0.59729457
-0.028661754 1.3446563 -0.06163699 -0.086717 0.03879995 0.04181575 1.2334131 -0.054373916
0.07513257 0.47495902 0.085380115 0.035356678 0.07521681 -0.031401902 0.7901887 1.0386456
0.5410942 -0.06429148 -0.023858607 0.5419569 1.3822633 0.045077153 0.46959734 -0.9451412
0.05869896 0.15065078 0.02782262 -0.04236655 0.58447504 -0.07770562 -0.060953878 1.4671558
0.7226901 0.020974264 0.9857684 -0.020356286 0.05157137 0.06552346 0.026461719 0.0040651467
-0.054024283 0.06619971 0.8619457 -0.0040866192 0.5181224 1.4904702 1.3007138 1.0476906
0.012427375 -0.0028290728 1.3810788 -0.07193892 -0.03480227 1.483855 -0.030300919 -0.047529127
0.77469486 -0.9686578 -0.04874038 -0.041467797 0.064748436 1.0035905 0.03292644 1.4015765
0.058251537 -0.02481295 -0.0029089814 -0.013420134 0.5884695 -0.02374998 0.023649082 1.4817927
0.5793467 -0.0026005425 0.018699527 0.5480274 0.57650304 1.5189866 -0.0125253275 0.5931782
-0.9196845 0.03469642 -0.005795181 1.0051835 -0.04589052 0.7043995 -0.7416596 -0.04680663
0.039108716 -0.021967413 -0.0197336 0.015705936 -0.0666075 0.9803508 1.0184207 -0.04123062
1.5434475 0.0076348907 -0.041661143 0.8406557 -0.04338685 0.022983566 1.4520373 1.2103206
-0.015577599 1.1004891 1.2153168 -0.0033192714 0.7214604 1.3597449 0.06150695 0.0251038
1.1079161 -0.024557851 0.837884 1.3818908 0.77933824 0.31426615 0.5272595 0.06100171
00000000: 6ad8 293d b4e0 86bc a249 853f 72e0 abbd
00000010: 4228 9b3f 4233 493d 8dcb 843d 4ea3 903f
00000020: b215 46bd b335 403f 64db 50bd d0d5 d13b
00000030: a0cc 2b3b 687e 7dbc 29af 8d3f e019 053d
00000040: 927d 713d 922a 013e 89c2 a2bd f342 29bd
00000050: 4038 20bc 13fe 1dbd c872 a13f b974 953f
00000060: 1358 e63d fb32 833d a084 d2bc 6ac9 d03e
00000070: e6a1 d93f 1223 8bbc c4b9 773d 0d34 9a39
00000080: 8196 a33d 0a47 843f 0355 a63d e7af b33d
00000090: ead0 2c3e e1ea 5bba 7a28 62bb b3fc 913f
000000a0: 9c95 8e3f fae1 7cbd fca8 9f3f c227 023d
000000b0: 3943 64bb fda5 553d db17 213c 5aad 8b3d
000000c0: 2973 52bd 7206 89bd 083c 6b3f 4899 663d
000000d0: bd61 833f e7b4 cc3f e2fe b63f 79ce 8b3f
000000e0: 61dd b0bd 94bf 2a3d 4a41 913f 5145 0e3c
000000f0: 95a9 b0bd 752a 9b3f 30d2 403c 7ddb 8b3d
00000100: 4914 983f 82b5 473d c83a 9b3d 44b0 aabd
00000110: 1547 72bb 38eb 893f 3930 a2bd 3fb9 803f
00000120: 5392 a13d 9d2c fdbc ef2e 83bd 386e 903c
00000130: 8249 f43e 88a9 8f3c 18cf 39bd f854 5c3f
00000140: df5e b73e 8ccd 3c3d bd3e a53d 25c4 c03e
00000150: e831 a03e 51fc 813f e1c7 a43d 5fe4 b63e
00000160: 0712 53be 38a3 98bc 2090 85bd c73d 843f
00000170: c0c1 b8bb 7fac 973f 6acc a73d e488 1abe
00000180: 6629 3c3d 2d7a c63c 00c5 f73c 7c56 17bd
00000190: ee14 213d 87f2 893f 525a 913f ac34 c73c
000001a0: f771 193f a791 293d 03a2 aa3d 7727 7b3f
000001b0: 7863 9d3c 272e 40bd f3eb 883f 523d 873f
000001c0: 5a40 743d 571b de3f dccb d83f 4002 9cbb
000001d0: c22d 783f e8e8 663f 40d7 efbb 0433 cb3c
000001e0: b5cb 7a3f e398 18bd debb 993f 3cef cd3f
000001f0: 5a6a 933f 7333 8d3f efba 483e 249c c53c
00000200: 983c da3a be18 febc eebf 783f 4772 46bd
00000210: 6cd8 153f 0188 acbd d093 6c3c 4ce8 183f
00000220: 0ecc eabc b31d ac3f 1277 7cbd af98 b1bd
00000230: b2ec 1e3d fe46 2b3d 7be0 9d3f 2fb7 5ebd
00000240: 1bdf 993d d42d f33e c5db ae3d 2ad2 103d
00000250: 450b 9a3d 489f 00bd cf49 4a3f 57f2 843f
00000260: 2685 0a3f 40ab 83bd 2073 c3bc b0bd 0a3f
00000270: 01ee b03f d2a2 383d 106f f03e c6f4 71bf
00000280: 526e 703d 3344 1a3e 43ec e33c 8c88 2dbd
00000290: 28a0 153f 2024 9fbd c6aa 79bd c3cb bb3f
000002a0: 3802 393f 38d2 ab3c 515b 7c3f 3ac2 a6bc
000002b0: 803c 533d 2a31 863d 3fc6 d83c ec34 853b
000002c0: 9148 5dbd b793 873d 79a8 5c3f 0ce9 85bb
000002d0: aba3 043f bac7 be3f ca7d a63f ba1a 863f
000002e0: 309c 4b3c f767 39bb 31c7 b03f b654 93bd
000002f0: d38c 0ebd f6ee bd3f a239 f8bc e7ad 42bd
00000300: 6752 463f f5f9 77bf fea3 47bd 23da 29bd
00000310: d49a 843d a775 803f e0dd 063d dc66 b33f
00000320: 2a99 6e3d 8744 cbbc 9ca4 3ebb 1fe0 5bbc
00000330: f0a5 163f 518f c2bc b8bb c13c 62ab bd3f
00000340: 1150 143f dd6d 2abb c02f 993c 864b 0c3f
00000350: b495 133f 276e c23f 0837 4dbc 87da 173f
00000360: 7270 6bbf d51d 0e3d 80e5 bdbb daa9 803f
00000370: b3f7 3bbd 8753 343f 67dd 3dbf 4fb8 3fbd
00000380: 7630 203d 01f5 b3bc 5ca8 a1bc bca9 803c
00000390: 8369 88bd 45f8 7a3f 9c5b 823f 70e1 28bd
000003a0: b08f c53f 1b2e fa3b e0a4 2abd 3635 573f
000003b0: 69b6 31bd 0848 bc3c 5cdc b93f c9eb 9a3f
000003c0: 3039 7fbc d4dc 8c3f 808f 9b3f 2288 59bb
000003d0: a1b1 383f 1f0c ae3f b6ee 7b3d 7ca6 cd3c
000003e0: 32d0 8d3f 8c2d c9bc 917f 563f cce1 b03f
000003f0: b682 473f 7ee7 a03e 7bfa 063f eedc 793d

network.4.bias f4 [3]
-0.11380869 0.0010654933 -0.105176345
00000000: 8814 e9bd 06a8 8b3a b266 d7bd

network.0.weight f4 [128, 64]
0.095567316 0.10375099 -0.02928406 0.11482641 -0.027387947 0.025223836 -0.06085688 0.07341033
0.110192865 -0.09170352 0.10864952 0.023394912 0.09235111 0.016928822 0.060273513 -0.017648876
0.09636073 0.018476114 -0.05835499 0.03186229 -0.05759208 -0.014659107 -0.05076979 0.08292137
-0.09867127 -0.057626292 -0.035296842 -0.07515906 0.01179789 -0.12345989 0.112888634 -0.10618353
0.09650342 0.020802394 -0.040588066 0.077243745 0.019481346 0.10099542 0.013664961 -0.039421648
0.03358546 -0.03389743 0.052607194 0.11160277 0.072257444 -0.054646567 0.07215808 0.022365779
0.06347938 -0.07618813 -0.12373856 -0.048295066 -0.095877856 0.10256736 0.036003917 0.051776692
0.039532647 -0.0021744967 0.097826034 -0.0888142 0.0078704655 -0.08531752 0.038544 -0.043047786
0.038302034 -0.026042685 0.10367398 -0.07408774 -0.07454975 -0.07455425 0.11243035 0.04165639
0.12028134 -0.10315953 -0.123984516 -0.09779547 -0.084086135 0.050630018 0.044759482 0.10386555
-0.06455317 -0.085213974 0.06632227 -0.05052556 0.07586548 -0.02966258 0.07150574 -0.097121
-0.06308122 0.038109556 0.026425943 -0.031869844 0.07450868 0.08497615 -0.09064667 -0.066733524
0.11445774 -0.042179063 -0.04431455 -0.12094933 -0.07158378 0.031225458 -0.016499147 -0.09073575
0.0029320866 -0.08538519 -0.10604958 -0.06883283 -0.10940151 -0.07959226 0.12495111 0.02360937
0.038519964 -0.11658554 -0.082096726 -0.041606978 0.01954639 -0.109990165 -0.05385913 -0.07483357
0.0003464073 -0.0465129 -0.0086619705 -0.08470371 -0.085799396 -0.072925225 -0.04278718 -0.09866011
-5.7007627 -5.9241276 -0.06368951 2.7474182 2.7806184 -1.0554978 -5.668202 0.93311334
-1.3261697 -0.56610227 0.56944275 0.7456233 -0.12644403 -1.4342588 4.356176 0.4988848
-0.672479 -0.50377494 0.24326456 1.5714269 -1.9791555 -1.5092813 0.82731855 3.5290434
0.48254827 -0.3926331 0.64139605 -1.6241685 0.53918636 -0.11834202 -2.0883527 1.8374237
-0.32244822 0.5040314 0.7591941 -1.630973 -0.05847539 -1.3198993 0.049864724 1.5303555
1.9658971 -1.8218422 0.69457245 0.48720697 -0.6565931 1.209017 0.13349345 -0.118075654
0.44109604 -0.13076448 -0.59448206 -1.6244832 -1.0900214 -0.10655525 0.55635446 -0.9404325
-0.1378527 -0.05228218 -0.955412 -1.5116987 -0.059342727 -0.012871828 -0.022081763 -0.063112244
0.07990086 0.107424945 -0.012374669 -0.027987108 0.0018240362 -0.0074635297 0.03005141 0.035029203
-0.113532096 -0.04612972 0.10526618 0.048694372 -0.0062171966 -0.07536322 -0.076475635 -0.11197086
-0.040745303 0.042213023 0.079702705 0.057712168 -0.110493004 -0.07517031 -0.019727081 0.12091869
0.018082187 -0.032371342 0.051714405 -0.047610193 -0.08090696 0.091235906 -0.056837723 -0.025058344
-0.12435053 0.08365883 0.09470433 0.045556024 -0.087159276 -0.12336749 -0.10152237 0.09321253
0.06001322 0.10518806 0.065483734 0.03163652 -0.0012240857 -0.095063254 -0.10709652 -0.11691858
0.051170245 -0.061371 -0.025156572 -0.07193816 -0.022777945 -0.08797936 -0.08167696 0.041463852
-0.03714955 0.0771679 -0.040101096 -0.091695905 -0.022054866 -0.060593426 -0.038242698 -0.11899945
00000000: ccb8 c33d 667b d43d 20e5 efbc 1c2a eb3d
00000010: b05c e0bc 38a2 ce3c 1045 79bd 2858 963d
00000020: ccac e13d 0ecf bbbd a483 de3d b0a6 bf3c
00000030: 9422 bd3d 50ae 8a3c 5ce1 763d 6094 90bc
00000040: c658 c53d 385b 973c a405 6fbd 0882 023d
00000050: ace5 6bbd c02c 70bc fcf3 4fbd aed2 a93d
00000060: 2a14 cabd 8c09 6cbd 6c93 10bd feec 99bd
00000070: f04b 413c 8ad8 fcbd 2832 e73d c076 d9bd
00000080: 96a3 c53d c869 aa3c ac3f 26bd f831 9e3d
00000090: 5897 9f3c b0d6 ce3d 00e3 5f3c 9878 21bd
000000a0: e890 093d 08d8 0abd a47a 573d fe8f e43d
000000b0: b6fb 933d 14d5 5fbd 9ec7 933d 7038 b73c
000000c0: 7a01 823d 8608 9cbd a46a fdbd 0cd1 45bd
000000d0: 9c5b c4bd d60e d23d d878 133d cc13 543d
000000e0: fcec 213d 0082 0ebb 0459 c83d 38e4 b5bd
000000f0: 20f3 003c f4ba aebd 50e0 1d3d e052 30bd
00000100: 98e2 1c3d 7857 d5bc 0653 d43d 50bb 97bd
00000110: 8aad 98bd e6af 98bd e241 e63d e49f 2a3d
00000120: 1056 f63d 4e45 d3bd 98eb fdbd fe48 c8bd
00000130: 5a35 acbd 6c61 4f3d b855 373d 76b7 d43d
00000140: 7434 84bd aa84 aebd f8d3 873d e4f3 4ebd
00000150: 5c5f 9b3d f0fe f2bc 9a71 923d 60e7 c6bd
00000160: ba30 81bd c418 1c3d 387b d83c f489 02bd
00000170: 0298 983d fa07 ae3d f6a4 b9bd 96ab 88bd
00000180: d268 ea3d f4c3 2cbd 2c83 35bd 48b4 f7bd
00000190: 849a 92bd 88cc ff3c 3829 87bc aad3 b9bd
000001a0: 4028 403b 6ede aebd 8630 d9bd 3af8 8cbd
000001b0: e60d e0bd 4401 a3bd 5ee6 ff3d 7068 c13c
000001c0: 1cc7 1d3d 66c4 eebd 5422 a8bd 146c 2abd
000001d0: c01f a03c 8642 e1bd 649b 5cbd 5842 99bd
000001e0: 009e b539 5084 3ebd f0ea 0dbc 2479 adbd
000001f0: 98b7 afbd d259 95bd 9c41 2fbd 500e cabd
00000200: a66c b6c0 7492 bdc0 a56f 82bd b3d5 2f40
00000210: a7f5 3140 8d1a 87bf e961 b5c0 84e0 6e3f
00000220: eebf a9bf 14ec 10bf 00c7 113f 2be1 3e3f
00000230: 8b7a 01be cb95 b7bf cb65 8b40 d46d ff3e
00000240: 9527 2cbf 65f7 00bf 581a 793e 8424 c93f
00000250: f854 fdbf 2130 c1bf 26cb 533f d9db 6140
00000260: 9110 f73e 3507 c9be 8832 243f c1e4 cfbf
00000270: 1e08 0a3f 4d5d f2bd 92a7 05c0 b330 eb3f
00000280: ef17 a5be 3408 013f 8b5a 423f b9c3 d0bf
00000290: e483 6fbd 76f2 a8bf f43e 4c3d b0e2 c33f
000002a0: 84a2 fb3f 2032 e9bf 80cf 313f 3173 f93e
000002b0: 7c16 28bf 12c1 9a3f 82b2 083e a6d1 f1bd
000002c0: 57d7 e13e 20e7 05be fa2f 18bf 11ef cfbf
000002d0: d285 8bbf a439 dabd 3f6d 0e3f 2fc0 70bf
000002e0: 4229 0dbe d725 56bd e195 74bf 587f c1bf
000002f0: 5c11 73bd 5ce4 52bc d0e4 b4bc fe40 81bd
00000300: 10a3 a33d 9c01 dc3d 20bf 4abc 3845 e5bc
00000310: 8014 ef3a a090 f4bb 602e f63c c87a 0f3d
00000320: 8483 e8bd 84f2 3cbd cc95 d73d c073 473d
00000330: a0b9 cbbb 0858 9abd 429f 9cbd fa50 e5bd
00000340: 8ce4 26bd 90e7 2c3d 2c3b a33d 9863 6c3d
00000350: 284a e2bd e4f2 99bd b09a a1bc 38a4 f73d
00000360: 1821 943c d097 04bd 7cd2 533d e802 43bd
00000370: 8cb2 a5bd e4d9 ba3d acce 68bd 2847 cdbc
00000380: 7eab febd 5255 ab3d 58f4 c13d f498 3a3d
00000390: 9080 b2bd 18a8 fcbd f6ea cfbd 36e6 be3d
000003a0: 6cd0 753d d66c d73d 561c 863d 4c95 013d
000003b0: 8071 a0ba 86b0 c2bd 6c55 dbbd 0273 efbd
000003c0: e497 513d 2860 7bbd 2815 cebc 5054 93bd
000003d0: d098 babc 862e b4bd 4046 a7bd 00d6 293d
000003e0: 202a 18bd 340a 9e3d 0c41 24bd 10cb bbbd
000003f0: 68ac b4bc d030 78bd 60a4 1cbd fcb5 f3bd

network.0.bias f4 [128]
0.00067436695 -0.020133838 0.07107346 0.007484317 -0.088523194 -0.01509765 -0.092456535 0.018662065
0.023503654 -0.11785029 -0.085505486 -0.06278345 -0.04370697 -0.033101555 0.04221669 -0.098663494
-0.0041523175 -0.10328074 -0.004639982 -0.08102858 -0.09562568 0.073742345 0.030763214 -0.04235056
0.048514243 -0.005952598 0.045397207 -0.007334426 -0.09962662 -0.045214087 -0.10717358 0.024181632
0.046823416 0.100950815 -0.122881696 0.112605244 -0.013667626 0.03408371 -0.053651616 0.0360457
0.05627679 0.06170364 -0.10320552 0.018999413 0.015521608 -0.14113344 0.042198025 0.015311908
-0.10038133 -0.10731475 0.0050994903 0.10025975 0.03629802 0.017577112 -0.008097127 -0.1242
0.012349321 0.0372493 -0.10577278 -0.023026764 0.121523425 -0.07028559 -0.085822806 0.029502604
0.021988984 0.08492281 -0.082180366 -0.0047067865 0.03009215 0.078806475 0.02979594 0.023938224
-0.035488248 -0.022298515 -0.06745757 0.003378133 0.03360726 -0.0635418 -0.08541921 0.01720511
0.016795233 -0.058923557 0.054117173 -0.10184741 -0.061416924 -0.05852907 -0.064763755 -0.026483739
0.019292124 -0.043647096 -0.016961232 -0.06519297 -0.08219083 0.015488483 0.09217322 0.08485179
-0.097557336 0.029514331 -0.0775079 -0.03681928 -0.011176556 0.05402129 0.06777368 -0.10121408
0.027108774 0.031900838 -0.011913369 -0.046513256 -0.05900839 -0.088195175 -0.123034 -0.055756103
-0.04822877 0.022319358 -0.052844763 0.10382788 -0.08819458 0.08781198 -0.06975572 -0.02065986
-0.04583803 0.052685246 0.050144196 0.048646573 -0.086574644 0.030161714 0.06884555 -0.10257524
00000000: 00c8 303a b8ef a4bc f68e 913d 003f f53b
00000010: a64b b5bd 225c 77bc da59 bdbd 30e1 983c
00000020: bc8a c03c 7e5b f1bd 801d afbd 9c94 80bd
00000030: 1406 33bd 7f95 07bd 68eb 2c3d 1610 cabd
00000040: 2a10 88bb da84 d3bd fd0a 98bb 50f2 a5bd
00000050: 66d7 c3bd 3a06 973d 2303 fc3c c877 2dbd
00000060: dfb6 463d 030e c3bb 6cf2 393d a055 f0bb
00000070: 0b09 ccbd 6832 39bd d27d dbbd 8f18 c63c
00000080: e9c9 3f3d 4dbf ce3d 66a9 fbbd 949d e63d
00000090: 2eee 5fbc 5c9b 0b3d ccc1 5bbd a8a4 133d
000000a0: 7e82 663d f5bc 7c3d 6a5d d3bd a8a4 9b3c
000000b0: 584e 7e3c 4985 10be d6d7 2c3d ccde 7a3c
000000c0: ba94 cdbd d6c7 dbbd a019 a73b fc54 cd3d
000000d0: 3cad 143d e0fd 8f3c d0a9 04bc 925c febd
000000e0: ce54 4a3c b992 183d 669f d8bd a0a2 bcbc
000000f0: 46e1 f83d e4f1 8fbd dec3 afbd 72af f13c
00000100: 3e22 b43c 03ec ad3d 2e4e a8bd 633b 9abb
00000110: d083 f63c 4a65 a13d 9d16 f43c 181a c43c
00000120: 205c 11bd 60ab b6bc 3227 8abd ab63 5d3b
00000130: c4a7 093d 3422 82bd 44f0 aebd bbf1 8c3c
00000140: 2896 893c d459 71bd f8a9 5d3d 6095 d0bd
00000150: 5090 7bbd 2ebc 6fbd dca2 84bd 6df4 d8bc
00000160: 840a 9e3c 4cc7 32bd 48f2 8abc e483 85bd
00000170: aa53 a8bd 68c3 7d3c 50c5 bc3d c6c6 ad3d
00000180: 24cc c7bd 0ac8 f13c 76bc 9ebd d0cf 16bd
00000190: e01d 37bc 6e45 5d3d edcc 8a3d 5449 cfbd
000001a0: 3813 de3c 74aa 023d 4b30 43bc af84 3ebd
000001b0: c8b2 71bd ac9f b4bd 40f9 fbbd 8360 64bd
000001c0: 888b 45bd 16d7 b63c c073 58bd b6a3 d43d
000001d0: 5c9f b4bd c4d6 b33d 16dc 8ebd de3e a9bc
000001e0: a8c0 3bbd 7ccc 573d 0064 4d3d a141 473d
000001f0: 0c4e b1bd b315 f73c e5fe 8c3d f812 d2bd

network.2.weight f4 [128, 128]
0.03572645 0.017088316 0.020214327 0.07744228 -0.0007705602 -0.060281686 -0.039837655 0.011414729
-0.013607658 -0.06330452 0.0024653673 0.050610878 0.0029302984 0.05489382 -0.05306415 0.06931909
0.002053094 -0.034644116 0.02520166 0.04075599 -0.037897665 -0.056702144 0.033320718 -0.07789491
0.02271168 0.014116972 -0.06025014 -0.010896929 0.008739152 0.061484657 0.06463609 -0.09128818
-0.09007565 0.04545509 0.08720351 0.07164795 0.017788576 0.08380736 -0.0405785 -0.00979286
-0.075006045 -0.08761233 -0.059775397 -0.08017929 0.011071234 0.017593022 0.0141277425 0.040737674
-0.07040292 -0.025510304 0.06955109 -0.07822258 0.062122785 0.027218811 -0.07175659 0.019069038
-0.031682234 -0.011742742 -0.035181973 0.040010713 0.068741255 0.049534716 -0.008483283 -0.08930701
0.061370213 -0.008502861 0.07198132 0.022420187 0.0014530122 0.029894806 0.037892573 0.00039427876
0.0042793555 -0.0035882965 0.060562886 0.024640827 -0.040399518 0.08236892 0.08469751 0.059176307
0.01583732 0.0054060295 -0.08203479 0.06443485 -0.06350768 -0.0831871 0.013520568 -0.118288
0.0022904214 -0.042569138 -0.0006673035 -0.034053072 0.0714734 -0.08506587 0.016237274 -0.00805807
-0.08410468 0.053747028 -0.00794376 -0.10252675 -0.08843004 0.010945924 0.06346058 -0.020141996
-0.026111174 -0.08891709 0.046227857 -0.040008225 -0.0406266 0.033631593 0.07730096 0.02793403
0.025493503 0.07569722 0.003759265 0.013673298 -0.0064582527 -0.06880704 -0.017571067 -0.061446507
0.05115048 -0.060968112 -0.09705274 -0.029660534 0.06566074 -0.08092424 -0.042216696 -0.0067724213
-0.038654454 0.041756265 0.07720887 0.047840185 -0.018640466 -0.0693959 -0.072978005 -0.021165408
-0.027844612 -0.06703234 0.021858618 -0.03349213 0.025632292 -0.046936363 -0.007964268 -0.026600275
0.05429233 -0.08066787 -0.034854557 0.01887542 -0.024901904 -0.0015126914 0.059737496 0.012652978
0.010896057 0.02582232 -0.047554202 -0.035299543 0.0423396 0.012813203 0.05765883 -0.0112847015
0.08303254 0.05278542 -0.024761334 -0.045170978 0.017849192 -0.07373601 -0.040478706 0.027077757
0.007709272 0.040000685 -0.03697133 0.07438321 -0.04860486 -0.045290202 0.059135295 -0.017053112
0.025285698 -0.015701786 -0.06251104 -0.0035356954 0.040099792 0.05956825 0.06742472 -0.0031125024
0.06401957 0.024933062 0.0032709613 0.0016698241 -0.008433953 0.025242612 -0.0045663863 0.05684323
-0.0134625435 -0.04908251 0.025686808 -0.04952713 0.054891013 0.07218764 0.014189281 -0.017730884
-0.003991328 0.04139542 -0.06752136 -0.023659304 -0.05385168 -0.07994712 -0.06324209 -0.056791086
0.067300566 0.05402539 -0.060005657 -0.06975214 0.07915502 0.020980291 0.040702783 0.013803251
-0.03302604 -0.047752462 0.047554888 -0.08731472 -0.07354974 0.0266916 -0.02317924 0.016907126
0.0471415 -0.05079394 -0.049754765 -0.054364122 -0.07733569 -0.00598301 0.07505641 -0.0054023713
0.048474662 -0.043957204 0.00876978 -0.066370495 -0.0058425665 0.019396767 -0.037818324 0.081150495
0.024955325 0.04421038 0.087966375 0.037468247 -0.006944008 0.042214163 0.08710127 -0.085094795
-0.016664527 0.042921744 -0.021423109 -0.07191077 -0.0513105 -0.045940105 0.03664451 0.0562732
00000000: e655 123d ccfc 8b3c 8498 a53c 0f9a 9e3d
00000010: 6bff 49ba eee9 76bd cf2c 23bd d804 3b3c
00000020: a8f2 5ebc cda5 81bd 0092 213b 5a4d 4f3d
00000030: 400a 403b 58d8 603d cb59 59bd 2bf7 8d3d
00000040: 348d 063b fde6 0dbd b673 ce3c c1ef 263d
00000050: 953a 1bbd 8240 68bd 4e7b 083d 5e87 9fbd
00000060: d80d ba3c df4a 673c dac8 76bd 0889 32bc
00000070: a92e 0f3c 56d7 7b3d ed5f 843d 4cf5 babd
00000080: 9579 b8bd 1e2f 3a3d c197 b23d 29bc 923d
00000090: 59b9 913c 31a3 ab3d a435 26bd 3b72 20bc
000000a0: c59c 99bd 186e b3bd 0cd7 74bd 0a35 a4bd
000000b0: 1f64 353c 3e1f 903c 0c78 673c 8cdc 263d
000000c0: 682f 90bd fcfa d0bc cd70 8e3d 2933 a0bd
000000d0: 7674 7e3d fcf9 de3c 1ef5 92bd ac36 9c3c
000000e0: 3bc5 01bd a164 40bc f91a 10bd 46e2 233d
000000f0: 37c8 8c3d eae4 4a3d 78fd 0abc 98e6 b6bd
00000100: 555f 7b3d 954f 0bbc f16a 933d 8aaa b73c
00000110: 0073 be3a f4e5 f43c 3e35 1b3d 33b7 ce39
00000120: d639 8c3b a029 6bbb ca10 783d 8fdb c93c
00000130: f779 25bd 09b1 a83d e375 ad3d db62 723d
00000140: 44bd 813c 1025 b13b db01 a8bd 6bf6 833d
00000150: 5110 82bd 005e aabd 5f85 5d3c fb40 f2bd
00000160: e51a 163b fa5c 2ebd fbed 2eba 3c7b 0bbd
00000170: a560 923d 0437 aebd 0804 853c ff05 04bc
00000180: 133f acbd d825 5c3d 8b26 02bc 8bf9 d1bd
00000190: cf1a b5bd 8856 333c 9ff7 813d d400 a5bc
000001a0: 1ae7 d5bc 2a1a b6bd 6c59 3d3d aadf 23bd
000001b0: 1468 26bd 48c1 093d f74f 9e3d e8d5 e43c
000001c0: c0d7 d03c 2507 9b3d 005e 763b f805 603c
000001d0: c09f d3bb b5ea 8cbd 33f1 8fbc 55af 7bbd
000001e0: 2a83 513d b3b9 79bd 96c3 c6bd a6fa f2bc
000001f0: 2379 863d 9cbb a5bd 6aeb 2cbd 30eb ddbb
00000200: 2254 1ebd 9e08 2b3d af1f 9e3d 12f4 433d
00000210: e4b3 98bc 701f 8ebd 7e75 95bd 1463 adbc
00000220: 621a e4bc 4048 89bd d810 b33c 0b2f 09bd
00000230: d0fa d13c 5840 40bd 907c 02bc d2e8 d9bc
00000240: a261 5e3d 3235 a5bd a7c3 0ebd a0a0 9a3c
00000250: 14ff cbbc 8045 c6ba 4eaf 743d 704e 4f3c
00000260: 6085 323c 5489 d33c 32c8 42bd 4196 10bd
00000270: 4a6c 2d3d 78ee 513c aa2b 6c3d 78e3 38bc
00000280: f70c aa3d 8635 583d 48d8 cabc 3405 39bd
00000290: 7838 923c e802 97bd 00cd 25bd 2cd2 dd3c
000002a0: 109e fc3b c2d7 233d 406f 17bd 3956 983d
000002b0: e415 47bd 3882 39bd da37 723d f8b2 8bbc
000002c0: f423 cf3c 08a1 80bc ca05 80bd 20b7 67bb
000002d0: ae3f 243d d6fd 733d f915 8a3d 20fb 4bbb
000002e0: b11c 833d 6c40 cc3c a05d 563b 00de da3a
000002f0: 902e 0abc 98c9 ce3c a0a1 95bb 72d4 683d
00000300: 0092 5cbc be0a 49bd 246d d23c f6dc 4abd
00000310: 66d5 603d 1dd7 933d 287a 683c 5c40 91bc
00000320: b0c9 82bb 3e8e 293d a448 8abd 28d1 c1bc
00000330: 9493 5cbd 51bb a3bd 1285 81bd c59d 68bd
00000340: e1d4 893d ba49 5d3d 7ec8 75bd 36da 8ebd
00000350: 071c a23d dcde ab3c f6b7 263d 0827 623c
00000360: 5046 07bd 1698 43bd eac8 423d 0fd2 b2bd
00000370: 3fa1 96bd 58a8 da3c 64e2 bdbc d080 8a3c
00000380: 7217 413d 4e0d 50bd a7cb 4bbd eaac 5ebd
00000390: 2d62 9ebd 200d c4bb 2db7 993d 6006 b1bb
000003a0: 5e8d 463d 780c 34bd 20af 0f3c 41ed 87bd
000003b0: 0073 bfbb f8e5 9e3c 63e7 1abd 3b32 a63d
000003c0: 1c6f cc3c f215 353d b727 b43d 4e78 193d
000003d0: 908a e3bb c2e8 2c3d 2762 b23d 2e46 aebd
000003e0: 0c84 88bc b6ce 2f3d 847f afbc f445 93bd
000003f0: f52a 52bd b12b 3cbd 8e18 163d ba7e 663d

network.2.bias f4 [128]
-0.006428262 -0.079961084 0.03245582 -0.0074179657 0.050514303 -0.060674958 -0.05963759 0.028800298
-0.0074158427 0.0865859 -0.07937601 -0.03619764 -0.053973842 -0.056024972 0.02143016 -0.012623046
-0.025471903 0.029953478 -0.029218722 -0.004308968 -0.075068645 -0.034356277 0.016096506 0.0378763
0.039129306 -0.040081427 -0.0743941 0.04323692 0.05390027 -0.017375262 0.059294604 0.069716364
-0.07463722 0.06077077 -0.04783181 -0.027953539 0.024420694 -0.019284908 -0.0022479214 0.06902823
0.060588486 -0.01913599 0.018277422 -0.03728512 -0.022464797 -0.014104937 -0.05438267 -0.03489056
-0.023983277 -0.037171632 0.053185657 -0.040326748 0.03445727 0.07225752 0.056508128 0.046749327
-0.068222195 -0.008875834 0.038012702 -0.03254251 -0.058153134 0.07024271 -0.030477852 -0.05630076
0.015745398 0.0661527 -0.0077335825 -0.081627704 -0.01518781 0.055465218 -0.0039374945 0.09082881
-0.021183819 -0.0044994787 -0.005087276 -0.013087571 0.03883184 -0.014079061 -0.0045131654 0.08720108
0.03423383 0.00025409652 -0.08028053 0.040089283 0.03672089 0.08964707 -0.054776784 0.049598414
0.08196799 -0.024063097 -0.087875 0.054326214 -0.07166045 0.020786433 0.087912895 -0.0026695027
-0.01827424 -0.016625065 -0.056046184 -0.056564394 -0.039915424 0.053922344 0.06071913 -0.028682828
0.09876704 -0.008832007 -0.027239474 0.060728014 -0.061600633 -0.009610639 0.07618314 0.061285995
-0.009655505 0.03919554 0.045326434 -0.01652974 0.028512338 0.07921543 -0.034063607 -0.06284185
0.047436513 -0.0081016645 0.018684153 0.0596078 0.054465175 0.0516623 0.029294 -0.028894708
00000000: 2ca4 d2bb a3c2 a3bd 65f0 043d 6812 f3bb
00000010: 16e8 4e3d 4e86 78bd 8c46 74bd 9aee eb3c
00000020: 9900 f3bb f353 b13d e48f a2bd fa43 14bd
00000030: ad13 5dbd 717a 65bd 4e8e af3c e4d0 4ebc
00000040: 74aa d0bc ff60 f53c 1a5c efbc 3e32 8dbb
00000050: 97bd 99bd 2bb9 0cbd d2dc 833c 2e24 1b3d
00000060: 0d46 203d 6c2c 24bd ef5b 98bd 3219 313d
00000070: 88c6 5c3d 9156 8ebc e6de 723d 74c7 8e3d
00000080: 66db 98bd c5ea 783d 4aeb 43bd d2fe e4bc
00000090: e80d c83c 62fb 9dbc dd51 13bb ac5e 8d3d
000000a0: a22b 783d 14c3 9cbc 88ba 953c 48b8 18bd
000000b0: 1808 b8bc 6518 67bc 5dc0 5ebd 67e9 0ebd
000000c0: 9478 c4bc 4841 18bd 34d9 593d a92d 25bd
000000d0: 1123 0d3d c0fb 933d 1175 673d 397c 3f3d
000000e0: 14b8 8bbd f26b 11bc 35b3 1b3d 4c4b 05bd
000000f0: fb31 6ebd 69db 8f3d b0ac f9bc a09b 66bd
00000100: 7efc 803c 117b 873d fe69 fdbb 6d2c a7bd
00000110: 4bd6 78bc 7f2f 633d 1906 81bb 7504 ba3d
00000120: b089 adbc 5d70 93bb 2ab3 a6bb 406d 56bc
00000130: 230e 1f3d ddab 66bc 2de3 93bb 7b96 b23d
00000140: c638 0c3d 4238 8539 1e6a a4bd a934 243d
00000150: a568 163d e298 b73d 9f5d 60bd b527 4b3d
00000160: d5de a73d f91f c5bc cff7 b3bd 2a85 5e3d
00000170: b7c2 92bd 4f48 aa3c ad0b b43d d3f2 2ebb
00000180: dcb3 95bc 4a31 88bc af90 65bd 11b0 67bd
00000190: 5b7e 23bd addd 5c3d 9fb4 783d 40f8 eabc
000001a0: 6046 ca3d 1fb4 10bc 5125 dfbc f0bd 783d
000001b0: f250 7cbd f175 1dbc e805 9c3d 0607 7b3d
000001c0: 2032 1ebc 818b 203d 36a8 393d 6169 87bc
000001d0: b592 e93c b33b a23d 4886 0bbd 3ab3 80bd
000001e0: ca4c 423d d8bc 04bc 820f 993c 4f27 743d
000001f0: e016 5f3d d99b 533d f8f9 ef3c 98b4 ecbc

network.4.weight f4 [3, 128]
0.041466154 -0.016464569 1.0413096 -0.08392419 1.2121661 0.04912115 0.06484137 1.1299837
-0.048360534 0.7508194 -0.050990477 0.0064036623 0.0026214495 -0.015472032 1.106908 0.03249538
0.058957644 0.12613896 -0.07947261 -0.041323613 -0.009779036 -0.038572382 1.2613153 1.1676246
0.112472676 0.06406208 -0.025698006 0.40778667 1.7002532 -0.016984496 0.060479894 0.0002941195
0.07987691 1.0334179 0.081216834 0.08773785 0.1687657 -0.00083891867 -0.003450899 1.1405243
1.1139407 -0.061738946 1.2473445 0.031776197 -0.0034830107 0.052160252 0.009832348 0.068201736
-0.051379357 -0.066906825 0.91888475 0.056298524 1.0264202 1.5992707 1.4296534 1.0922385
-0.08635975 0.04168661 1.134805 0.0086835185 -0.08626095 1.2122332 0.011768863 0.068289734
1.188119 0.048757084 0.07579571 -0.08334401 -0.0036968638 1.0774908 -0.07919354 1.0056533
0.07889237 -0.030905062 -0.06405436 0.017630681 0.47712332 0.017536893 -0.045363516 0.8606715
0.35814568 0.046094462 0.08068607 0.37649646 0.31288075 1.0155126 0.080459364 0.35721108
-0.20612346 -0.018632516 -0.0652163 1.0331353 -0.005638331 1.1849517 0.08193286 -0.15091282
0.045937918 0.02422818 0.030245304 -0.036947712 0.0393266 1.0777138 1.1355689 0.024317108
0.5993952 0.04139867 0.083316825 0.98107094 0.01921247 -0.046919014 1.0697006 1.0565588
0.059631683 1.7352093 1.6937213 -0.0047610104 0.9694482 0.90199137 -0.007319361 0.0248046
0.9796708 -0.03725518 1.2010458 1.6088634 1.1516831 1.1031326 0.1960256 0.024122305
0.0016650138 -0.031017657 0.9716786 -0.048448827 0.5853336 -0.08424378 0.014439538 0.59729457
-0.028661754 1.3446563 -0.06163699 -0.086717 0.03879995 0.04181575 1.2334131 -0.054373916
0.07513257 0.47495902 0.085380115 0.035356678 0.07521681 -0.031401902 0.7901887 1.0386456
0.5410942 -0.06429148 -0.023858607 0.5419569 1.3822633 0.045077153 0.46959734 -0.9451412
0.05869896 0.15065078 0.02782262 -0.04236655 0.58447504 -0.07770562 -0.060953878 1.4671558
0.7226901 0.020974264 0.9857684 -0.020356286 0.05157137 0.06552346 0.026461719 0.0040651467
-0.054024283 0.06619971 0.8619457 -0.0040866192 0.5181224 1.4904702 1.3007138 1.0476906
0.012427375 -0.0028290728 1.3810788 -0.07193892 -0.03480227 1.483855 -0.030300919 -0.047529127
0.77469486 -0.9686578 -0.04874038 -0.041467797 0.064748436 1.0035905 0.03292644 1.4015765
0.058251537 -0.02481295 -0.0029089814 -0.013420134 0.5884695 -0.02374998 0.023649082 1.4817927
0.5793467 -0.0026005425 0.018699527 0.5480274 0.57650304 1.5189866 -0.0125253275 0.5931782
-0.9196845 0.03469642 -0.005795181 1.0051835 -0.04589052 0.7043995 -0.7416596 -0.04680663
0.039108716 -0.021967413 -0.0197336 0.015705936 -0.0666075 0.9803508 1.0184207 -0.04123062
1.5434475 0.0076348907 -0.041661143 0.8406557 -0.04338685 0.022983566 1.4520373 1.2103206
-0.015577599 1.1004891 1.2153168 -0.0033192714 0.7214604 1.3597449 0.06150695 0.0251038
1.1079161 -0.024557851 0.837884 1.3818908 0.77933824 0.31426615 0.5272595 0.06100171
00000000: 6ad8 293d b4e0 86bc a249 853f 72e0 abbd
00000010: 4228 9b3f 4233 493d 8dcb 843d 4ea3 903f
00000020: b215 46bd b335 403f 64db 50bd d0d5 d13b
00000030: a0cc 2b3b 687e 7dbc 29af 8d3f e019 053d
00000040: 927d 713d 922a 013e 89c2 a2bd f342 29bd
00000050: 4038 20bc 13fe 1dbd c872 a13f b974 953f
00000060: 1358 e63d fb32 833d a084 d2bc 6ac9 d03e
00000070: e6a1 d93f 1223 8bbc c4b9 773d 0d34 9a39
00000080: 8196 a33d 0a47 843f 0355 a63d e7af b33d
00000090: ead0 2c3e e1ea 5bba 7a28 62bb b3fc 913f
000000a0: 9c95 8e3f fae1 7cbd fca8 9f3f c227 023d
000000b0: 3943 64bb fda5 553d db17 213c 5aad 8b3d
000000c0: 2973 52bd 7206 89bd 083c 6b3f 4899 663d
000000d0: bd61 833f e7b4 cc3f e2fe b63f 79ce 8b3f
000000e0: 61dd b0bd 94bf 2a3d 4a41 913f 5145 0e3c
000000f0: 95a9 b0bd 752a 9b3f 30d2 403c 7ddb 8b3d
00000100: 4914 983f 82b5 473d c83a 9b3d 44b0 aabd
00000110: 1547 72bb 38eb 893f 3930 a2bd 3fb9 803f
00000120: 5392 a13d 9d2c fdbc ef2e 83bd 386e 903c
00000130: 8249 f43e 88a9 8f3c 18cf 39bd f854 5c3f
00000140: df5e b73e 8ccd 3c3d bd3e a53d 25c4 c03e
00000150: e831 a03e 51fc 813f e1c7 a43d 5fe4 b63e
00000160: 0712 53be 38a3 98bc 2090 85bd c73d 843f
00000170: c0c1 b8bb 7fac 973f 6acc a73d e488 1abe
00000180: 6629 3c3d 2d7a c63c 00c5 f73c 7c56 17bd
00000190: ee14 213d 87f2 893f 525a 913f ac34 c73c
000001a0: f771 193f a791 293d 03a2 aa3d 7727 7b3f
000001b0: 7863 9d3c 272e 40bd f3eb 883f 523d 873f
000001c0: 5a40 743d 571b de3f dccb d83f 4002 9cbb
000001d0: c22d 783f e8e8 663f 40d7 efbb 0433 cb3c
000001e0: b5cb 7a3f e398 18bd debb 993f 3cef cd3f
000001f0: 5a6a 933f 7333 8d3f efba 483e 249c c53c
00000200: 983c da3a be18 febc eebf 783f 4772 46bd
00000210: 6cd8 153f 0188 acbd d093 6c3c 4ce8 183f
00000220: 0ecc eabc b31d ac3f 1277 7cbd af98 b1bd
00000230: b2ec 1e3d fe46 2b3d 7be0 9d3f 2fb7 5ebd
00000240: 1bdf 993d d42d f33e c5db ae3d 2ad2 103d
00000250: 450b 9a3d 489f 00bd cf49 4a3f 57f2 843f
00000260: 2685 0a3f 40ab 83bd 2073 c3bc b0bd 0a3f
00000270: 01ee b03f d2a2 383d 106f f03e c6f4 71bf
00000280: 526e 703d 3344 1a3e 43ec e33c 8c88 2dbd
00000290: 28a0 153f 2024 9fbd c6aa 79bd c3cb bb3f
000002a0: 3802 393f 38d2 ab3c 515b 7c3f 3ac2 a6bc
000002b0: 803c 533d 2a31 863d 3fc6 d83c ec34 853b
000002c0: 9148 5dbd b793 873d 79a8 5c3f 0ce9 85bb
000002d0: aba3 043f bac7 be3f ca7d a63f ba1a 863f
000002e0: 309c 4b3c f767 39bb 31c7 b03f b654 93bd
000002f0: d38c 0ebd f6ee bd3f a239 f8bc e7ad 42bd
00000300: 6752 463f f5f9 77bf fea3 47bd 23da 29bd
00000310: d49a 843d a775 803f e0dd 063d dc66 b33f
00000320: 2a99 6e3d 8744 cbbc 9ca4 3ebb 1fe0 5bbc
00000330: f0a5 163f 518f c2bc b8bb c13c 62ab bd3f
00000340: 1150 143f dd6d 2abb c02f 993c 864b 0c3f
00000350: b495 133f 276e c23f 0837 4dbc 87da 173f
00000360: 7270 6bbf d51d 0e3d 80e5 bdbb daa9 803f
00000370: b3f7 3bbd 8753 343f 67dd 3dbf 4fb8 3fbd
00000380: 7630 203d 01f5 b3bc 5ca8 a1bc bca9 803c
00000390: 8369 88bd 45f8 7a3f 9c5b 823f 70e1 28bd
000003a0: b08f c53f 1b2e fa3b e0a4 2abd 3635 573f
000003b0: 69b6 31bd 0848 bc3c 5cdc b93f c9eb 9a3f
000003c0: 3039 7fbc d4dc 8c3f 808f 9b3f 2288 59bb
000003d0: a1b1 383f 1f0c ae3f b6ee 7b3d 7ca6 cd3c
000003e0: 32d0 8d3f 8c2d c9bc 917f 563f cce1 b03f
000003f0: b682 473f 7ee7 a03e 7bfa 063f eedc 793d
