models/dqn_step_9000.pt (torch, 413473 bytes, 24 tensors)

network.0.weight f4 [128, 64]
0	0x3dc3b8cc	0.095567316
1	0x3dd47b66	0.10375099
2	0xbcefe520	-0.02928406
3	0x3deb2a1c	0.11482641
4	0xbce05cb0	-0.027387947
5	0x3ccea238	0.025223836
6	0xbd794510	-0.06085688
7	0x3d965828	0.07341033
8	0x3de1accc	0.110192865
9	0xbdbbcf0e	-0.09170352
10	0x3dde83a4	0.10864952
11	0x3cbfa6b0	0.023394912
12	0x3dbd2294	0.09235111
13	0x3c8aae50	0.016928822
14	0x3d76e15c	0.060273513
15	0xbc909460	-0.017648876
16	0x3dc558c6	0.09636073
17	0x3c975b38	0.018476114
18	0xbd6f05a4	-0.05835499
19	0x3d028208	0.03186229
20	0xbd6be5ac	-0.05759208
21	0xbc702cc0	-0.014659107
22	0xbd4ff3fc	-0.05076979
23	0x3da9d2ae	0.08292137
24	0xbdca142a	-0.09867127
25	0xbd6c098c	-0.057626292
26	0xbd10936c	-0.035296842
27	0xbd99ecfe	-0.07515906
28	0x3c414bf0	0.01179789
29	0xbdfcd88a	-0.12345989
30	0x3de73228	0.112888634
31	0xbdd976c0	-0.10618353
32	0x3dc5a396	0.09650342
33	0x3caa69c8	0.020802394
34	0xbd263fac	-0.040588066
35	0x3d9e31f8	0.077243745
36	0x3c9f9758	0.019481346
37	0x3dced6b0	0.10099542
38	0x3c5fe300	0.013664961
39	0xbd217898	-0.039421648
40	0x3d0990e8	0.03358546
41	0xbd0ad808	-0.03389743
42	0x3d577aa4	0.052607194
43	0x3de48ffe	0.11160277
44	0x3d93fbb6	0.072257444
45	0xbd5fd514	-0.054646567
46	0x3d93c79e	0.07215808
47	0x3cb73870	0.022365779
48	0x3d82017a	0.06347938
49	0xbd9c0886	-0.07618813
50	0xbdfd6aa4	-0.12373856
51	0xbd45d10c	-0.048295066
52	0xbdc45b9c	-0.095877856
53	0x3dd20ed6	0.10256736
54	0x3d1378d8	0.036003917
55	0x3d5413cc	0.051776692
56	0x3d21ecfc	0.039532647
57	0xbb0e8200	-0.0021744967
58	0x3dc85904	0.097826034
59	0xbdb5e438	-0.0888142
60	0x3c00f320	0.0078704655
61	0xbdaebaf4	-0.08531752
62	0x3d1de050	0.038544
63	0xbd3052e0	-0.043047786
64	0x3d1ce298	0.038302034
65	0xbcd55778	-0.026042685
66	0x3dd45306	0.10367398
67	0xbd97bb50	-0.07408774
68	0xbd98ad8a	-0.07454975
69	0xbd98afe6	-0.07455425
70	0x3de641e2	0.11243035
71	0x3d2a9fe4	0.04165639
72	0x3df65610	0.12028134
73	0xbdd3454e	-0.10315953
74	0xbdfdeb98	-0.123984516
75	0xbdc848fe	-0.09779547
76	0xbdac355a	-0.084086135
77	0x3d4f616c	0.050630018
78	0x3d3755b8	0.044759482
79	0x3dd4b776	0.10386555
80	0xbd843474	-0.06455317
81	0xbdae84aa	-0.085213974
82	0x3d87d3f8	0.06632227
83	0xbd4ef3e4	-0.05052556
84	0x3d9b5f5c	0.07586548
85	0xbcf2fef0	-0.02966258
86	0x3d92719a	0.07150574
87	0xbdc6e760	-0.097121
88	0xbd8130ba	-0.06308122
89	0x3d1c18c4	0.038109556
90	0x3cd87b38	0.026425943
91	0xbd0289f4	-0.031869844
92	0x3d989802	0.07450868
93	0x3dae07fa	0.08497615
94	0xbdb9a4f6	-0.09064667
95	0xbd88ab96	-0.066733524
96	0x3dea68d2	0.11445774
97	0xbd2cc3f4	-0.042179063
98	0xbd35832c	-0.04431455
99	0xbdf7b448	-0.12094933
100	0xbd929a84	-0.07158378
101	0x3cffcc88	0.031225458
102	0xbc872938	-0.016499147
103	0xbdb9d3aa	-0.09073575
104	0x3b402840	0.0029320866
105	0xbdaede6e	-0.08538519
106	0xbdd93086	-0.10604958
107	0xbd8cf83a	-0.06883283
108	0xbde00de6	-0.10940151
109	0xbda30144	-0.07959226
110	0x3dffe65e	0.12495111
111	0x3cc16870	0.02360937
112	0x3d1dc71c	0.038519964
113	0xbdeec466	-0.11658554
114	0xbda82254	-0.082096726
115	0xbd2a6c14	-0.041606978
116	0x3ca01fc0	0.01954639
117	0xbde14286	-0.109990165
118	0xbd5c9b64	-0.05385913
119	0xbd994258	-0.07483357
120	0x39b59e00	0.0003464073
121	0xbd3e8450	-0.0465129
122	0xbc0deaf0	-0.0086619705
123	0xbdad7924	-0.08470371
124	0xbdafb798	-0.085799396
125	0xbd9559d2	-0.072925225
126	0xbd2f419c	-0.04278718
127	0xbdca0e50	-0.09866011
128	0xc0abb416	-5.365733
129	0xc0b35505	-5.6041284
130	0x3effb9d0	0.4994645
131	0x402daf6c	2.713832
132	0x40430918	3.04743
133	0xbe88e10e	-0.26734203
134	0xc092c9ca	-4.5871325
135	0x3faed2cc	1.365808
136	0xbdbb193d	-0.09135673
137	0xbea3ad4c	-0.31968153
138	0x3ef195ce	0.47184604
139	0x3fbf8330	1.496191
140	0x3ecfa4ca	0.40555412
141	0xbff06005	-1.8779303
142	0x40475e72	3.1151395
143	0x3e259738	0.16170967
144	0xbf0e467a	-0.5557629
145	0xbe144099	-0.14477767
146	0x3d6b7e58	0.057493538
147	0x3f6096ea	0.87730277
148	0xbfdf96e0	-1.7467918
149	0xbf723db8	-0.94625425
150	0x3e0faa68	0.14029849
151	0x40312f95	2.7685292
152	0x3f239de9	0.63912827
153	0xbc6f50fe	-0.014606712
154	0x3f69bd8a	0.9130484
155	0xbfc17d16	-1.5116298
156	0x3fa83c07	1.3143319
157	0xbcf48051	-0.029846342
158	0xbfeaac1d	-1.8333775
159	0x3fc98e31	1.5746518
160	0xbb00c5d3	-0.0019649162
161	0x3d82fc08	0.063957274
162	0x3f27f4e7	0.65608066
163	0xbf72a744	-0.9478648
164	0x3e759341	0.23981954
165	0xbf1418c7	-0.5785031
166	0xbe92205f	-0.28540322
167	0x3fb61de5	1.4227873
168	0x3f86606c	1.0498176
169	0xc0039f0b	-2.0565822
170	0x3f865e1d	1.0497471
171	0x3f2b7d57	0.6698813
172	0xbf947ab2	-1.1599944
173	0x3fa1d442	1.2642901
174	0x3ed085ef	0.40727183
175	0xbe0cc476	-0.13746819
176	0x3f1b9913	0.6078045
177	0x3ecd5da2	0.401105
178	0xbfa5af51	-1.2944127
179	0xbfd8ef6d	-1.6948067
180	0xbeec6a9a	-0.4617508
181	0x3ef6825d	0.48146334
182	0x3f43d578	0.764976
183	0xbf9d824f	-1.2305392
184	0x3e149635	0.14510424
185	0xbe170b13	-0.14750318
186	0xbf2843ff	-0.65728754
187	0xbf6421fa	-0.89114344
188	0xbd763c14	-0.06011589
189	0xbc5f8f44	-0.013644997
190	0xbcb4e4d0	-0.022081763
191	0xbd831a38	-0.06401485
192	0x3da3a310	0.07990086
193	0x3ddc019c	0.107424945
194	0xbc4abf20	-0.012374669
195	0xbce54538	-0.027987108
196	0x3aef1480	0.0018240362
197	0xbbf490a0	-0.0074635297
198	0x3cf62e60	0.03005141
199	0x3d0f7ac8	0.035029203
200	0xbde88384	-0.113532096
201	0xbd3cf284	-0.04612972
202	0x3dd795cc	0.10526618
203	0x3d4773c0	0.048694372
204	0xbbcbb9a0	-0.0062171966
205	0xbd9a5808	-0.07536322
206	0xbd9c9f42	-0.076475635
207	0xbde550fa	-0.11197086
208	0xbd26e48c	-0.040745303
209	0x3d2ce790	0.042213023
210	0x3da33b2c	0.079702705
211	0x3d6c6398	0.057712168
212	0xbde24a28	-0.110493004
213	0xbd99f2e4	-0.07517031
214	0xbca19ab0	-0.019727081
215	0x3df7a438	0.12091869
216	0x3c942118	0.018082187
217	0xbd0497d0	-0.032371342
218	0x3d53d27c	0.051714405
219	0xbd4302e8	-0.047610193
220	0xbda5b28c	-0.08090696
221	0x3dbad9e4	0.091235906
222	0xbd68ceac	-0.056837723
223	0xbccd4728	-0.025058344
224	0xbdfeab7e	-0.12435053
225	0x3dab5552	0.08365883
226	0x3dc1f458	0.09470433
227	0x3d3a98f4	0.045556024
228	0xbdb28090	-0.087159276
229	0xbdfca818	-0.12336749
230	0xbdcfeaf6	-0.10152237
231	0x3dbee636	0.09321253
232	0x3d75d06c	0.06001322
233	0x3dd76cd6	0.10518806
234	0x3d861c56	0.065483734
235	0x3d01954c	0.03163652
236	0xbaa07180	-0.0012240857
237	0xbdc2b086	-0.095063254
238	0xbddb556c	-0.10709652
239	0xbdef7302	-0.11691858
240	0x3d5197e4	0.051170245
241	0xbd7b6028	-0.061371
242	0xbcce1528	-0.025156572
243	0xbd935450	-0.07193816
244	0xbcba98d0	-0.022777945
245	0xbdb42e86	-0.08797936
246	0xbda74640	-0.08167696
247	0x3d29d600	0.041463852
248	0xbd182a20	-0.03714955
249	0x3d9e0a34	0.0771679
250	0xbd24410c	-0.040101096
251	0xbdbbcb10	-0.091695905
252	0xbcb4ac68	-0.022054866
253	0xbd7830d0	-0.060593426
254	0xbd1ca460	-0.038242698
255	0xbdf3b5fc	-0.11899945

network.0.bias f4 [128]
0	0x3a30c800	0.00067436695
1	0xbca4efb8	-0.020133838
2	0x3d8ff987	0.070300154
3	0x3bf53f00	0.007484317
4	0xbdb54ba6	-0.088523194
5	0xbc6a1ced	-0.014289123
6	0xbdbd59da	-0.092456535
7	0x3c98e130	0.018662065
8	0x3cc08abc	0.023503654
9	0xbdf15b7e	-0.11785029
10	0xbdaf1d80	-0.085505486
11	0xbd80949c	-0.06278345
12	0xbd330614	-0.04370697
13	0xbd07957f	-0.033101555
14	0x3d23c1cb	0.039979737
15	0xbdca1016	-0.098663494
16	0xbb4d5d6c	-0.0031336201
17	0xbdd384da	-0.10328074
18	0xbb980afd	-0.004639982
19	0xbda5f250	-0.08102858
20	0xbdc3d766	-0.09562568
21	0x3d978181	0.07397748
22	0x3cfa7efa	0.030578125
23	0xbd2d77c8	-0.04235056
24	0x3d5e7140	0.054307222
25	0xbbc30e03	-0.005952598
26	0x3d39f26c	0.045397207
27	0xbbf055a0	-0.007334426
28	0xbdcc090b	-0.09962662
29	0xbd393268	-0.045214087
30	0xbddb7dd2	-0.10717358
31	0x3cac3ef0	0.021026105
32	0x3d435b23	0.047694337
33	0x3dcebf4d	0.100950815
34	0xbdfba966	-0.122881696
35	0x3de69d94	0.112605244
36	0xbc8b4402	-0.017000202
37	0x3d0b9b5c	0.03408371
38	0xbd5bc1cc	-0.053651616
39	0x3d13a4a8	0.0360457
40	0x3d66827e	0.05627679
41	0x3d7079d4	0.058709934
42	0xbdd35d6a	-0.10320552
43	0x3c9ba4a8	0.018999413
44	0x3c76bc09	0.0150594795
45	0xbe108549	-0.14113344
46	0x3d2f5a53	0.04281075
47	0x3c798346	0.015229052
48	0xbdcd94ba	-0.10038133
49	0xbddbc7d6	-0.10731475
50	0x3ba719a0	0.0050994903
51	0x3dcd54fc	0.10025975
52	0x3d14ad3c	0.03629802
53	0x3c8ffde0	0.017577112
54	0xbc04a9d0	-0.008097127
55	0xbdfe5c92	-0.1242
56	0x3c5c1e42	0.013434948
57	0x3d232d34	0.03983803
58	0xbdd554ae	-0.10416542
59	0xbcbca2a0	-0.023026764
60	0x3df8e146	0.121523425
61	0xbd94d751	-0.07267631
62	0xbdafc3de	-0.085822806
63	0x3cf1af72	0.029502604
64	0x3cafe2a8	0.021470383
65	0x3dac30da	0.08407755
66	0xbda84e2e	-0.082180366
67	0xbb88fe80	-0.0041807294
68	0x3cf683d0	0.03009215
69	0x3da1654a	0.078806475
70	0x3cf82fcd	0.03029623
71	0x3cc41a18	0.023938224
72	0xbd18b38c	-0.037280604
73	0xbcb6ab60	-0.022298515
74	0xbd8a2732	-0.06745757
75	0x3b5d63ab	0.003378133
76	0x3d0b48db	0.034005027
77	0xbd822234	-0.0635418
78	0xbdaef044	-0.08541921
79	0x3c8cf1bb	0.01720511
80	0x3c899628	0.016795233
81	0xbd7159d4	-0.058923557
82	0x3d5da9f8	0.054117173
83	0xbdd09560	-0.10184741
84	0xbd7b9050	-0.061416924
85	0xbd6fbc2e	-0.05852907
86	0xbd84a2dc	-0.064763755
87	0xbce433d4	-0.027856745
88	0x3c939cac	0.018019043
89	0xbd32c74c	-0.043647096
90	0xbc8af248	-0.016961232
91	0xbd8583e4	-0.06519297
92	0xbda853aa	-0.08219083
93	0x3c69bb40	0.014265835
94	0x3dbcc550	0.09217322
95	0x3dadc6c6	0.08485179
96	0xbdc7cc24	-0.097557336
97	0x3ce9c66f	0.028537003
98	0xbd9df760	-0.07713199
99	0xbceb2917	-0.028706117
100	0xbc371de0	-0.011176556
101	0x3d63ce22	0.055616505
102	0x3d8a4d06	0.06752972
103	0xbdcf4954	-0.10121408
104	0x3cde1338	0.027108774
105	0x3cfa46f3	0.03055141
106	0xbc43304b	-0.011913369
107	0xbd3e84af	-0.046513256
108	0xbd71b2c8	-0.05900839
109	0xbdb49fac	-0.088195175
110	0xbdfbf940	-0.123034
111	0xbd646083	-0.055756103
112	0xbd458b88	-0.04822877
113	0x3cb6d716	0.022319358
114	0xbd5873c0	-0.052844763
115	0x3dd4a3b6	0.10382788
116	0xbdb49f5c	-0.08819458
117	0x3db3d6c4	0.08781198
118	0xbd90fc7c	-0.070794076
119	0xbca93ede	-0.02065986
120	0xbd3bc0a8	-0.04583803
121	0x3d57cc7c	0.052685246
122	0x3d5460d2	0.051850148
123	0x3d4741a1	0.048646573
124	0xbdb14e0c	-0.086574644
125	0x3d15eaf8	0.036601037
126	0x3d8e75cd	0.069560625
127	0xbdd212f8	-0.10257524

network.2.weight f4 [128, 128]
0	0x3d1255e6	0.03572645
1	0x3c8bfccc	0.017088316
2	0x3ca59884	0.020214327
3	0x3d9e9a0f	0.07744228
4	0xba49ff6b	-0.0007705602
5	0xbd76e9ee	-0.060281686
6	0xbd232ccf	-0.039837655
7	0x3c3b04d8	0.011414729
8	0xbc5ef2a8	-0.013607658
9	0xbd81a5cd	-0.06330452
10	0x3b219200	0.0024653673
11	0x3d4f4d5a	0.050610878
12	0x3b400a40	0.0029302984
13	0x3d60d858	0.05489382
14	0xbd5959cb	-0.05306415
15	0x3d8df72b	0.06931909
16	0x3b068d34	0.002053094
17	0xbd0de6fd	-0.034644116
18	0x3cce73b6	0.02520166
19	0x3d26efc1	0.04075599
20	0xbd1b3a95	-0.037897665
21	0xbd684082	-0.056702144
22	0x3d087b4e	0.033320718
23	0xbd9f875e	-0.07789491
24	0x3cba0dd8	0.02271168
25	0x3c674adf	0.014116972
26	0xbd76c8da	-0.06025014
27	0xbc328908	-0.010896929
28	0x3c0f2ea9	0.008739152
29	0x3d7bd756	0.061484657
30	0x3d845fed	0.06463609
31	0xbdbaf54c	-0.09128818
32	0xbdb87995	-0.09007565
33	0x3d3a2f1e	0.04545509
34	0x3db297c1	0.08720351
35	0x3d92bc29	0.07164795
36	0x3c91b959	0.017788576
37	0x3daba331	0.08380736
38	0xbd2635a4	-0.0405785
39	0xbc20723b	-0.00979286
40	0xbd999cc5	-0.075006045
41	0xbdb36e18	-0.08761233
42	0xbd74d70c	-0.059775397
43	0xbda4350a	-0.08017929
44	0x3c35641f	0.011071234
45	0x3c901f3e	0.017593022
46	0x3c67780c	0.0141277425
47	0x3d26dc8c	0.040737674
48	0xbd902f68	-0.07040292
49	0xbcd0fafc	-0.025510304
50	0x3d8e70cd	0.06955109
51	0xbda03329	-0.07822258
52	0x3d7e7476	0.062122785
53	0x3cdef9fc	0.027218811
54	0xbd92f51e	-0.07175659
55	0x3c9c36ac	0.019069038
56	0xbd01c53b	-0.031682234
57	0xbc4064a1	-0.011742742
58	0xbd101af9	-0.035181973
59	0x3d23e246	0.040010713
60	0x3d8cc837	0.068741255
61	0x3d4ae4ea	0.049534716
62	0xbc0afd78	-0.008483283
63	0xbdb6e698	-0.08930701
64	0x3d7b5f55	0.061370213
65	0xbc0b4f95	-0.008502861
66	0x3d936af1	0.07198132
67	0x3cb7aa8a	0.022420187
68	0x3abe7300	0.0014530122
69	0x3cf4e5f4	0.029894806
70	0x3d1b353e	0.037892573
71	0x39ceb733	0.00039427876
72	0x3b8c39d6	0.0042793555
73	0xbb6b29a0	-0.0035882965
74	0x3d7810ca	0.060562886
75	0x3cc9db8f	0.024640827
76	0xbd2579f7	-0.040399518
77	0x3da8b109	0.08236892
78	0x3dad75e3	0.08469751
79	0x3d7262db	0.059176307
80	0x3c81bd44	0.01583732
81	0x3bb12510	0.0054060295
82	0xbda801db	-0.08203479
83	0x3d83f66b	0.06443485
84	0xbd821051	-0.06350768
85	0xbdaa5e00	-0.0831871
86	0x3c5d855f	0.013520568
87	0xbdf240fb	-0.118288
88	0x3b161ae5	0.0022904214
89	0xbd2e5cfa	-0.042569138
90	0xba2eedfb	-0.0006673035
91	0xbd0b7b3c	-0.034053072
92	0x3d9260a5	0.0714734
93	0xbdae3704	-0.08506587
94	0x3c850408	0.016237274
95	0xbc0405ff	-0.00805807
96	0xbdac3f13	-0.08410468
97	0x3d5c25d8	0.053747028
98	0xbc02268b	-0.00794376
99	0xbdd1f98b	-0.10252675
100	0xbdb51acf	-0.08843004
101	0x3c335688	0.010945924
102	0x3d81f79f	0.06346058
103	0xbca500d4	-0.020141996
104	0xbcd5e71a	-0.026111174
105	0xbdb61a2a	-0.08891709
106	0x3d3d596c	0.046227857
107	0xbd23dfaa	-0.040008225
108	0xbd266814	-0.0406266
109	0x3d09c148	0.033631593
110	0x3d9e4ff7	0.07730096
111	0x3ce4d5e8	0.02793403
112	0x3cd0d7c0	0.025493503
113	0x3d9b0725	0.07569722
114	0x3b765e00	0.003759265
115	0x3c6005f8	0.013673298
116	0xbbd39fc0	-0.0064582527
117	0xbd8ceab5	-0.06880704
118	0xbc8ff133	-0.017571067
119	0xbd7baf55	-0.061446507
120	0x3d51832a	0.05115048
121	0xbd79b9b3	-0.060968112
122	0xbdc6c396	-0.09705274
123	0xbcf2faa6	-0.029660534
124	0x3d867923	0.06566074
125	0xbda5bb9c	-0.08092424
126	0xbd2ceb6a	-0.042216696
127	0xbbddeb30	-0.0067724213
128	0xbd1e5422	-0.038654454
129	0x3d2b089e	0.041756265
130	0x3d9e1faf	0.07720887
131	0x3d43f412	0.047840185
132	0xbc98b3e4	-0.018640466
133	0xbd8e1f70	-0.0693959
134	0xbd95757e	-0.072978005
135	0xbcad6314	-0.021165408
136	0xbce41a62	-0.027844612
137	0xbd894840	-0.06703234
138	0x3cb310d8	0.021858618
139	0xbd092f0b	-0.03349213
140	0x3cd1fad0	0.025632292
141	0xbd404058	-0.046936363
142	0xbc027c90	-0.007964268
143	0xbcd9e8d2	-0.026600275
144	0x3d5e61a2	0.05429233
145	0xbda53532	-0.08066787
146	0xbd0ec3a7	-0.034854557
147	0x3c9aa0a0	0.01887542
148	0xbccbff14	-0.024901904
149	0xbac64580	-0.0015126914
150	0x3d74af4e	0.059737496
151	0x3c4f4e70	0.012652978
152	0x3c328560	0.010896057
153	0x3cd38954	0.02582232
154	0xbd42c832	-0.047554202
155	0xbd109641	-0.035299543
156	0x3d2d6c4a	0.0423396
157	0x3c51ee78	0.012813203
158	0x3d6c2baa	0.05765883
159	0xbc38e378	-0.0112847015
160	0x3daa0cf7	0.08303254
161	0x3d583586	0.05278542
162	0xbccad848	-0.024761334
163	0xbd390534	-0.045170978
164	0x3c923878	0.017849192
165	0xbd9702e8	-0.07373601
166	0xbd25cd00	-0.040478706
167	0x3cddd22c	0.027077757
168	0x3bfc9e10	0.007709272
169	0x3d23d7c2	0.040000685
170	0xbd176f40	-0.03697133
171	0x3d985639	0.07438321
172	0xbd4715e4	-0.04860486
173	0xbd398238	-0.045290202
174	0x3d7237da	0.059135295
175	0xbc8bb2f8	-0.017053112
176	0x3ccf23f4	0.025285698
177	0xbc80a108	-0.015701786
178	0xbd8005ca	-0.06251104
179	0xbb67b720	-0.0035356954
180	0x3d243fae	0.040099792
181	0x3d73fdd6	0.05956825
182	0x3d8a15f9	0.06742472
183	0xbb4bfb20	-0.0031125024
184	0x3d831cb1	0.06401957
185	0x3ccc406c	0.024933062
186	0x3b565da0	0.0032709613
187	0x3adade00	0.0016698241
188	0xbc0a2e90	-0.008433953
189	0x3ccec998	0.025242612
190	0xbb95a1a0	-0.0045663863
191	0x3d68d472	0.05684323
192	0xbc5c9200	-0.0134625435
193	0xbd490abe	-0.04908251
194	0x3cd26d24	0.025686808
195	0xbd4adcf6	-0.04952713
196	0x3d60d566	0.054891013
197	0x3d93d71d	0.07218764
198	0x3c687a28	0.014189281
199	0xbc91405c	-0.017730884
200	0xbb82c9b0	-0.003991328
201	0x3d298e3e	0.04139542
202	0xbd8a48a4	-0.06752136
203	0xbcc1d128	-0.023659304
204	0xbd5c9394	-0.05385168
205	0xbda3bb51	-0.07994712
206	0xbd818512	-0.06324209
207	0xbd689dc5	-0.056791086
208	0x3d89d4e1	0.067300566
209	0x3d5d49ba	0.05402539
210	0xbd75c87e	-0.060005657
211	0xbd8eda36	-0.06975214
212	0x3da21c07	0.07915502
213	0x3cabdedc	0.020980291
214	0x3d26b7f6	0.040702783
215	0x3c622708	0.013803251
216	0xbd074650	-0.03302604
217	0xbd439816	-0.047752462
218	0x3d42c8ea	0.047554888
219	0xbdb2d20f	-0.08731472
220	0xbd96a13f	-0.07354974
221	0x3cdaa858	0.0266916
222	0xbcbde264	-0.02317924
223	0x3c8a80d0	0.016907126
224	0x3d411772	0.0471415
225	0xbd500d4e	-0.05079394
226	0xbd4bcba7	-0.049754765
227	0xbd5eacea	-0.054364122
228	0xbd9e622d	-0.07733569
229	0xbbc40d20	-0.00598301
230	0x3d99b72d	0.07505641
231	0xbbb10660	-0.0054023713
232	0x3d468d5e	0.048474662
233	0xbd340c78	-0.043957204
234	0x3c0faf20	0.00876978
235	0xbd87ed41	-0.066370495
236	0xbbbf7300	-0.0058425665
237	0x3c9ee5f8	0.019396767
238	0xbd1ae763	-0.037818324
239	0x3da6323b	0.081150495
240	0x3ccc6f1c	0.024955325
241	0x3d3515f2	0.04421038
242	0x3db427b7	0.087966375
243	0x3d19784e	0.037468247
244	0xbbe38a90	-0.006944008
245	0x3d2ce8c2	0.042214163
246	0x3db26227	0.08710127
247	0xbdae462e	-0.085094795
248	0xbc88840c	-0.016664527
249	0x3d2fceb6	0.042921744
250	0xbcaf7f84	-0.021423109
251	0xbd9345f4	-0.07191077
252	0xbd522af5	-0.0513105
253	0xbd3c2bb1	-0.045940105
254	0x3d16188e	0.03664451
255	0x3d667eba	0.0562732

network.2.bias f4 [128]
0	0xbbd2a42c	-0.006428262
1	0xbda3c2a3	-0.079961084
2	0x3d24eb00	0.040263176
3	0xbbf31268	-0.0074179657
4	0x3cfa1430	0.030527204
5	0xbd78864e	-0.060674958
6	0xbd74468c	-0.05963759
7	0x3da0ae3f	0.07845735
8	0xbbf30099	-0.0074158427
9	0x3d6b7069	0.05748025
10	0xbda28fe4	-0.07937601
11	0xbd1443fa	-0.03619764
12	0xbd5d13ad	-0.053973842
13	0xbd657a71	-0.056024972
14	0x3d26381c	0.040580854
15	0xbc4ed0e4	-0.012623046
16	0xbcd0aa74	-0.025471903
17	0x3cf2c6de	0.029635843
18	0xbcef5c1a	-0.029218722
19	0xbb8d323e	-0.004308968
20	0xbd99bd97	-0.075068645
21	0xbd0cb92b	-0.034356277
22	0x3d25b673	0.0404572
23	0x3d240f43	0.040053617
24	0x3d367409	0.044544253
25	0xbd242c6c	-0.040081427
26	0xbd985bef	-0.0743941
27	0x3d7d53ca	0.061847486
28	0x3d616659	0.055029247
29	0xbc8e5691	-0.017375262
30	0x3d36d10c	0.044632956
31	0x3d6f68ee	0.058449678
32	0xbd98db66	-0.07463722
33	0x3d56566c	0.052328512
34	0xbd43eb4a	-0.04783181
35	0xbce4fed2	-0.027953539
36	0x3d366516	0.044529997
37	0xbc9dfb62	-0.019284908
38	0xbb1351dd	-0.0022479214
39	0x3d5e5490	0.054279864
40	0x3d21663c	0.03940414
41	0xbc9cc314	-0.01913599
42	0x3d1c66be	0.03818392
43	0xbd18b848	-0.03728512
44	0xbcb80818	-0.022464797
45	0xbc671865	-0.014104937
46	0xbd5ec05d	-0.05438267
47	0xbd0ee967	-0.03489056
48	0xbcc47894	-0.023983277
49	0xbd184148	-0.037171632
50	0x3d4077df	0.046989318
51	0xbc240bef	-0.010012611
52	0x3daf9bc4	0.08574632
53	0x3da26b23	0.07930591
54	0x3d4939f8	0.04912755
55	0x3d3e453c	0.046452746
56	0xbd8bb814	-0.068222195
57	0xbc116bf2	-0.008875834
58	0x3d2b7470	0.04185909
59	0xbd054b4c	-0.03254251
60	0xbd6e31fb	-0.058153134
61	0x3d6e9be6	0.058254145
62	0xbcf9acb0	-0.030477852
63	0xbd669ba0	-0.05630076
64	0x3d0db920	0.034600377
65	0x3d703808	0.058647186
66	0xbbfd69fe	-0.0077335825
67	0xbda72c6d	-0.081627704
68	0xbc78d64b	-0.01518781
69	0x3d2ac5c6	0.041692518
70	0xbb810619	-0.0039374945
71	0x3d8d811a	0.0690939
72	0xbcad89b0	-0.021183819
73	0xbb93705d	-0.0044994787
74	0xbba6b32a	-0.005087276
75	0xbc566d40	-0.013087571
76	0x3d703f7b	0.05865429
77	0xbc66abdd	-0.014079061
78	0xbb93e32d	-0.0045131654
79	0x3d6e1e7b	0.058134537
80	0x3d580638	0.052740306
81	0x39853842	0.00025409652
82	0xbda46a1e	-0.08028053
83	0x3d55a22e	0.05215662
84	0x3d530e42	0.05152727
85	0x3d94f165	0.07272605
86	0xbd605d9f	-0.054776784
87	0x3d6ed5d3	0.058309387
88	0x3d89d0fe	0.06729315
89	0xbcc51ff9	-0.024063097
90	0xbdb3f7cf	-0.087875
91	0x3d22bfcf	0.039733704
92	0xbd92c2b7	-0.07166045
93	0x3d0bc962	0.0341276
94	0x3d8e6071	0.069519885
95	0xbb2ef2d3	-0.0026695027
96	0xbc95b3dc	-0.01827424
97	0xbc88314a	-0.016625065
98	0xbd6590af	-0.056046184
99	0xbd67b011	-0.056564394
100	0xbd237e5b	-0.039915424
101	0x3d30d6fe	0.043173783
102	0x3d29082e	0.041267566
103	0xbceaf840	-0.028682828
104	0x3d847448	0.064674914
105	0xbc10b41f	-0.008832007
106	0xbcdf2551	-0.027239474
107	0x3d27fdf2	0.041013665
108	0xbd7c50f2	-0.061600633
109	0xbc144f8c	-0.009052169
110	0x3d77e8fd	0.06052493
111	0x3d1f60e6	0.03891077
112	0xbc1e3220	-0.009655505
113	0x3d4e41c2	0.05035568
114	0x3d601f99	0.054717634
115	0xbc876961	-0.01652974
116	0x3dac3cac	0.0841001
117	0x3d553f79	0.052062485
118	0xbd0b8648	-0.034063607
119	0xbd80b33a	-0.06284185
120	0x3d127a5b	0.03576122
121	0xbc04bcd8	-0.0081016645
122	0x3d226299	0.03964481
123	0x3d5a7122	0.053330548
124	0x3d092394	0.033481196
125	0x3d1d48ff	0.038399693
126	0x3d3a5168	0.04548779
127	0xbcecb498	-0.028894708

network.4.weight f4 [3, 128]
0	0x3d29d86a	0.041466154
1	0xbc86e0b4	-0.016464569
2	0x3f2433b8	0.64141417
3	0xbdabe072	-0.08392419
4	0x3f355aa9	0.7084146
5	0x3d493342	0.04912115
6	0x3d84cb8d	0.06484137
7	0x3f53a871	0.82678896
8	0xbd4615b2	-0.048360534
9	0x3f00366f	0.5008306
10	0xbd50db64	-0.050990477
11	0x3bd1d5d0	0.0064036623
12	0x3b2bcca0	0.0026214495
13	0xbc7d7e68	-0.015472032
14	0x3f36c4a2	0.7139379
15	0x3d0519e0	0.03249538
16	0x3d717d92	0.058957644
17	0x3d9b29ac	0.07576308
18	0xbda2c289	-0.07947261
19	0xbd2942f3	-0.041323613
20	0xbc203840	-0.009779036
21	0xbd1dfe13	-0.038572382
22	0x3f4c2124	0.7973807
23	0x3f3a1bc8	0.7269864
24	0x3d95de57	0.073177986
25	0x3d8332fb	0.06406208
26	0xbcd284a0	-0.025698006
27	0x3e887a5f	0.26655862
28	0x3f84132b	1.031835
29	0xbc8b2312	-0.016984496
30	0x3db80a1c	0.08986303
31	0x3dab70a4	0.08371094
32	0x3da39681	0.07987691
33	0x3f027376	0.5095743
34	0x3da65503	0.081216834
35	0x3db3afe7	0.08773785
36	0x3dd78b64	0.105246335
37	0xba5beae1	-0.00083891867
38	0xbb62287a	-0.003450899
39	0x3f41270f	0.75450224
40	0x3f2e15f0	0.68002224
41	0xbd7ce1fa	-0.061738946
42	0x3f557c43	0.83392733
43	0x3d0227c2	0.031776197
44	0xbb644339	-0.0034830107
45	0x3d55a5fd	0.052160252
46	0x3c2117db	0.009832348
47	0x3d8bad5a	0.068201736
48	0xbd527329	-0.051379357
49	0xbd890672	-0.066906825
50	0x3ef1e357	0.4724376
51	0x3d674c8c	0.056469485
52	0x3f3b0d3b	0.73067063
53	0x3f850f11	1.0395223
54	0x3f5aa807	0.8541264
55	0x3f234663	0.63779277
56	0xbdb0dd61	-0.08635975
57	0x3d2abf94	0.04168661
58	0x3f38c670	0.7217779
59	0x3c0e4551	0.0086835185
60	0xbdb0a995	-0.08626095
61	0x3f4eaf56	0.8073629
62	0x3c40d230	0.011768863
63	0x3d8bdb7d	0.068289734
64	0x3f4ae902	0.7926179
65	0x3e06d9ae	0.13168976
66	0x3d9b3ac8	0.07579571
67	0xbdaab044	-0.08334401
68	0xbb724715	-0.0036968638
69	0x3f21eec0	0.6325493
70	0xbda23039	-0.07919354
71	0x3f2cd954	0.67519116
72	0x3da19253	0.07889237
73	0xbcfd2c9d	-0.030905062
74	0xbd832eef	-0.06405436
75	0x3c906e38	0.017630681
76	0x3ea5768d	0.3231701
77	0x3c8fa988	0.017536893
78	0xbd39cf18	-0.045363516
79	0x3f194177	0.59865516
80	0x3e76bfb7	0.24096571
81	0x3d3ccd8c	0.046094462
82	0x3da53ebd	0.08068607
83	0x3e746d3c	0.23869795
84	0x3e4f3ae2	0.20237306
85	0x3f2fd53b	0.6868474
86	0x3da4c7e1	0.080459364
87	0x3e5005cb	0.2031471
88	0xbba0dfbe	-0.0049094846
89	0xbc98a338	-0.018632516
90	0xbd859020	-0.0652163
91	0x3f14b959	0.5809532
92	0xbbb8c1c0	-0.005638331
93	0x3f2fbbf3	0.6864616
94	0x3ddbc97e	0.10731791
95	0xbe1a88e4	-0.15091282
96	0x3d3c2966	0.045937918
97	0x3cc67a2d	0.02422818
98	0x3cf7c500	0.030245304
99	0xbd17567c	-0.036947712
100	0x3d2114ee	0.0393266
101	0x3f2280fa	0.6347805
102	0x3f2c6101	0.67335516
103	0x3cc734ac	0.024317108
104	0x3ed18f74	0.4092976
105	0x3d2991a7	0.04139867
106	0x3daaa203	0.083316825
107	0x3f000c4b	0.5001876
108	0x3c9d6378	0.01921247
109	0xbd400c5e	-0.046886794
110	0x3f355627	0.70834583
111	0x3f2d9156	0.6779989
112	0x3d74405a	0.059631683
113	0x3f89b459	1.0758163
114	0x3f855724	1.0417218
115	0xbb9c0240	-0.0047610104
116	0x3f35860a	0.7090765
117	0x3f1a9b1b	0.6039292
118	0xbbefd740	-0.007319361
119	0x3ccb3304	0.0248046
120	0x3efac379	0.4897726
121	0xbd1898e3	-0.03725518
122	0x3f40a6ba	0.75254405
123	0x3f7ef3b5	0.9959062
124	0x3f2a1e02	0.6645204
125	0x3ef4d353	0.47817478
126	0x3e01df18	0.1268276
127	0x3cc59c24	0.024122305
128	0x3ada3c98	0.0016650138
129	0xbcfe18be	-0.031017657
130	0x3eda46d2	0.42632157
131	0xbd467247	-0.048448827
132	0x3e8caba7	0.2747471
133	0xbdac8801	-0.08424378
134	0x3c6c93d0	0.014439538
135	0x3ef2b429	0.47403076
136	0xbceacc0e	-0.028661754
137	0x3f6b2d26	0.91865766
138	0xbd7c7712	-0.06163699
139	0xbdb198af	-0.086717
140	0x3d1eecb2	0.03879995
141	0x3d2b46fe	0.04181575
142	0x3f238a89	0.6388326
143	0xbd5eb72f	-0.054373916
144	0x3d99df1b	0.07513257
145	0x3ea51d44	0.3224889
146	0x3daedbc5	0.085380115
147	0x3d10d22a	0.035356678
148	0x3d9a0b45	0.07521681
149	0xbd009f48	-0.031401902
150	0x3ec3dfc4	0.38256657
151	0x3f00ab7a	0.5026165
152	0x3ebe818f	0.3720822
153	0xbd83ab40	-0.06429148
154	0xbcc37320	-0.023858607
155	0x3ed620b1	0.41821817
156	0x3f86cd97	1.0531491
157	0x3d38a2d2	0.045077153
158	0x3e967ff0	0.29394484
159	0xbeda3ee3	-0.42626104
160	0x3d706e52	0.05869896
161	0x3ce48cef	0.027899234
162	0x3ce3ec43	0.02782262
163	0xbd2d888c	-0.04236655
164	0x3ed4e1c1	0.41578487
165	0xbd9f2420	-0.07770562
166	0xbd79aac6	-0.060953878
167	0x3f859f06	1.0439155
168	0x3eb4b139	0.3529146
169	0x3cabd238	0.020974264
170	0x3f03440c	0.51275706
171	0xbca6c23a	-0.020356286
172	0x3d533c80	0.05157137
173	0x3d86312a	0.06552346
174	0x3cd8c63f	0.026461719
175	0x3b8534ec	0.0040651467
176	0xbd5d4891	-0.054024283
177	0x3d8793b7	0.06619971
178	0x3ea30353	0.31838474
179	0xbb85e90c	-0.0040866192
180	0x3ecc3771	0.39886048
181	0x3f93185b	1.1491808
182	0x3f75b28b	0.9597556
183	0x3eef5606	0.46745318
184	0x3c4b9c30	0.012427375
185	0xbb3967f7	-0.0028290728
186	0x3f28b02c	0.65893817
187	0xbd9354b6	-0.07193892
188	0xbd0e8cd3	-0.03480227
189	0x3f894265	1.0723387
190	0xbcf839a2	-0.030300919
191	0xbd42ade7	-0.047529127
192	0x3eccc59e	0.3999452
193	0xbf09882f	-0.53723425
194	0xbd47a3fe	-0.04874038
195	0xbd29da23	-0.041467797
196	0x3d849ad4	0.064748436
197	0x3ee64a39	0.44978502
198	0x3d06dde0	0.03292644
199	0x3f754501	0.95808417
200	0x3d6e992a	0.058251537
201	0xbccb4487	-0.02481295
202	0xbb3ea49c	-0.0029089814
203	0xbc5be01f	-0.013420134
204	0x3eec04dc	0.46097457
205	0xbcc28f51	-0.02374998
206	0x3cc1bbb8	0.023649082
207	0x3f8408ed	1.0315224
208	0x3edb67be	0.42852587
209	0xbb2a6ddd	-0.0026005425
210	0x3c992fc0	0.018699527
211	0x3ecd7e34	0.40135348
212	0x3edb36c1	0.4281521
213	0x3f8a328f	1.0796679
214	0xbc4d3708	-0.0125253275
215	0x3ed52eaf	0.4163718
216	0xbf04d9ea	-0.5189501
217	0x3d0e1dd5	0.03469642
218	0xbbbde580	-0.005795181
219	0x3ee7f075	0.45300642
220	0xbd3bf7b3	-0.04589052
221	0x3e9ef362	0.3104506
222	0xbec02697	-0.37529442
223	0xbd3fb84f	-0.04680663
224	0x3d203076	0.039108716
225	0xbcb3f501	-0.021967413
226	0xbca1a85c	-0.0197336
227	0x3c80a9bc	0.015705936
228	0xbd886983	-0.0666075
229	0x3ee53fbc	0.44775188
230	0x3edf1117	0.43567726
231	0xbd28e170	-0.04123062
232	0x3f860646	1.0470665
233	0x3bfa2e1b	0.0076348907
234	0xbd2aa4e0	-0.041661143
235	0x3eb62472	0.3557468
236	0xbd31b669	-0.04338685
237	0x3cbcf514	0.023066081
238	0x3f85e5a0	1.0460701
239	0x3f5d67ba	0.864864
240	0xbc7f3930	-0.015577599
241	0x3f59ff31	0.85155016
242	0x3f72bb24	0.94816804
243	0xbb598822	-0.0033192714
244	0x3f142c91	0.578805
245	0x3f7407d4	0.95324445
246	0x3d7beeb6	0.06150695
247	0x3ccda67c	0.0251038
248	0x3eca4923	0.39508924
249	0xbcc92d8c	-0.024557851
250	0x3eccf944	0.40033925
251	0x3f85a300	1.0440369
252	0x3ebfb75e	0.37444586
253	0x3dc87c5b	0.09789344
254	0x3eadc29b	0.33937535
255	0x3d79dcee	0.06100171

network.4.bias f4 [3]
0	0x3d8fae5c	0.07015678
1	0x3d72a941	0.059243444
2	0x3d843a83	0.06456473

network.0.weight f4 [128, 64]
0	0x3dc3b8cc	0.095567316
1	0x3dd47b66	0.10375099
2	0xbcefe520	-0.02928406
3	0x3deb2a1c	0.11482641
4	0xbce05cb0	-0.027387947
5	0x3ccea238	0.025223836
6	0xbd794510	-0.06085688
7	0x3d965828	0.07341033
8	0x3de1accc	0.110192865
9	0xbdbbcf0e	-0.09170352
10	0x3dde83a4	0.10864952
11	0x3cbfa6b0	0.023394912
12	0x3dbd2294	0.09235111
13	0x3c8aae50	0.016928822
14	0x3d76e15c	0.060273513
15	0xbc909460	-0.017648876
16	0x3dc558c6	0.09636073
17	0x3c975b38	0.018476114
18	0xbd6f05a4	-0.05835499
19	0x3d028208	0.03186229
20	0xbd6be5ac	-0.05759208
21	0xbc702cc0	-0.014659107
22	0xbd4ff3fc	-0.05076979
23	0x3da9d2ae	0.08292137
24	0xbdca142a	-0.09867127
25	0xbd6c098c	-0.057626292
26	0xbd10936c	-0.035296842
27	0xbd99ecfe	-0.07515906
28	0x3c414bf0	0.01179789
29	0xbdfcd88a	-0.12345989
30	0x3de73228	0.112888634
31	0xbdd976c0	-0.10618353
32	0x3dc5a396	0.09650342
33	0x3caa69c8	0.020802394
34	0xbd263fac	-0.040588066
35	0x3d9e31f8	0.077243745
36	0x3c9f9758	0.019481346
37	0x3dced6b0	0.10099542
38	0x3c5fe300	0.013664961
39	0xbd217898	-0.039421648
40	0x3d0990e8	0.03358546
41	0xbd0ad808	-0.03389743
42	0x3d577aa4	0.052607194
43	0x3de48ffe	0.11160277
44	0x3d93fbb6	0.072257444
45	0xbd5fd514	-0.054646567
46	0x3d93c79e	0.07215808
47	0x3cb73870	0.022365779
48	0x3d82017a	0.06347938
49	0xbd9c0886	-0.07618813
50	0xbdfd6aa4	-0.12373856
51	0xbd45d10c	-0.048295066
52	0xbdc45b9c	-0.095877856
53	0x3dd20ed6	0.10256736
54	0x3d1378d8	0.036003917
55	0x3d5413cc	0.051776692
56	0x3d21ecfc	0.039532647
57	0xbb0e8200	-0.0021744967
58	0x3dc85904	0.097826034
59	0xbdb5e438	-0.0888142
60	0x3c00f320	0.0078704655
61	0xbdaebaf4	-0.08531752
62	0x3d1de050	0.038544
63	0xbd3052e0	-0.043047786
64	0x3d1ce298	0.038302034
65	0xbcd55778	-0.026042685
66	0x3dd45306	0.10367398
67	0xbd97bb50	-0.07408774
68	0xbd98ad8a	-0.07454975
69	0xbd98afe6	-0.07455425
70	0x3de641e2	0.11243035
71	0x3d2a9fe4	0.04165639
72	0x3df65610	0.12028134
73	0xbdd3454e	-0.10315953
74	0xbdfdeb98	-0.123984516
75	0xbdc848fe	-0.09779547
76	0xbdac355a	-0.084086135
77	0x3d4f616c	0.050630018
78	0x3d3755b8	0.044759482
79	0x3dd4b776	0.10386555
80	0xbd843474	-0.06455317
81	0xbdae84aa	-0.085213974
82	0x3d87d3f8	0.06632227
83	0xbd4ef3e4	-0.05052556
84	0x3d9b5f5c	0.07586548
85	0xbcf2fef0	-0.02966258
86	0x3d92719a	0.07150574
87	0xbdc6e760	-0.097121
88	0xbd8130ba	-0.06308122
89	0x3d1c18c4	0.038109556
90	0x3cd87b38	0.026425943
91	0xbd0289f4	-0.031869844
92	0x3d989802	0.07450868
93	0x3dae07fa	0.08497615
94	0xbdb9a4f6	-0.09064667
95	0xbd88ab96	-0.066733524
96	0x3dea68d2	0.11445774
97	0xbd2cc3f4	-0.042179063
98	0xbd35832c	-0.04431455
99	0xbdf7b448	-0.12094933
100	0xbd929a84	-0.07158378
101	0x3cffcc88	0.031225458
102	0xbc872938	-0.016499147
103	0xbdb9d3aa	-0.09073575
104	0x3b402840	0.0029320866
105	0xbdaede6e	-0.08538519
106	0xbdd93086	-0.10604958
107	0xbd8cf83a	-0.06883283
108	0xbde00de6	-0.10940151
109	0xbda30144	-0.07959226
110	0x3dffe65e	0.12495111
111	0x3cc16870	0.02360937
112	0x3d1dc71c	0.038519964
113	0xbdeec466	-0.11658554
114	0xbda82254	-0.082096726
115	0xbd2a6c14	-0.041606978
116	0x3ca01fc0	0.01954639
117	0xbde14286	-0.109990165
118	0xbd5c9b64	-0.05385913
119	0xbd994258	-0.07483357
120	0x39b59e00	0.0003464073
121	0xbd3e8450	-0.0465129
122	0xbc0deaf0	-0.0086619705
123	0xbdad7924	-0.08470371
124	0xbdafb798	-0.085799396
125	0xbd9559d2	-0.072925225
126	0xbd2f419c	-0.04278718
127	0xbdca0e50	-0.09866011
128	0xc0abb416	-5.365733
129	0xc0b35505	-5.6041284
130	0x3effb9d0	0.4994645
131	0x402daf6c	2.713832
132	0x40430918	3.04743
133	0xbe88e10e	-0.26734203
134	0xc092c9ca	-4.5871325
135	0x3faed2cc	1.365808
136	0xbdbb193d	-0.09135673
137	0xbea3ad4c	-0.31968153
138	0x3ef195ce	0.47184604
139	0x3fbf8330	1.496191
140	0x3ecfa4ca	0.40555412
141	0xbff06005	-1.8779303
142	0x40475e72	3.1151395
143	0x3e259738	0.16170967
144	0xbf0e467a	-0.5557629
145	0xbe144099	-0.14477767
146	0x3d6b7e58	0.057493538
147	0x3f6096ea	0.87730277
148	0xbfdf96e0	-1.7467918
149	0xbf723db8	-0.94625425
150	0x3e0faa68	0.14029849
151	0x40312f95	2.7685292
152	0x3f239de9	0.63912827
153	0xbc6f50fe	-0.014606712
154	0x3f69bd8a	0.9130484
155	0xbfc17d16	-1.5116298
156	0x3fa83c07	1.3143319
157	0xbcf48051	-0.029846342
158	0xbfeaac1d	-1.8333775
159	0x3fc98e31	1.5746518
160	0xbb00c5d3	-0.0019649162
161	0x3d82fc08	0.063957274
162	0x3f27f4e7	0.65608066
163	0xbf72a744	-0.9478648
164	0x3e759341	0.23981954
165	0xbf1418c7	-0.5785031
166	0xbe92205f	-0.28540322
167	0x3fb61de5	1.4227873
168	0x3f86606c	1.0498176
169	0xc0039f0b	-2.0565822
170	0x3f865e1d	1.0497471
171	0x3f2b7d57	0.6698813
172	0xbf947ab2	-1.1599944
173	0x3fa1d442	1.2642901
174	0x3ed085ef	0.40727183
175	0xbe0cc476	-0.13746819
176	0x3f1b9913	0.6078045
177	0x3ecd5da2	0.401105
178	0xbfa5af51	-1.2944127
179	0xbfd8ef6d	-1.6948067
180	0xbeec6a9a	-0.4617508
181	0x3ef6825d	0.48146334
182	0x3f43d578	0.764976
183	0xbf9d824f	-1.2305392
184	0x3e149635	0.14510424
185	0xbe170b13	-0.14750318
186	0xbf2843ff	-0.65728754
187	0xbf6421fa	-0.89114344
188	0xbd763c14	-0.06011589
189	0xbc5f8f44	-0.013644997
190	0xbcb4e4d0	-0.022081763
191	0xbd831a38	-0.06401485
192	0x3da3a310	0.07990086
193	0x3ddc019c	0.107424945
194	0xbc4abf20	-0.012374669
195	0xbce54538	-0.027987108
196	0x3aef1480	0.0018240362
197	0xbbf490a0	-0.0074635297
198	0x3cf62e60	0.03005141
199	0x3d0f7ac8	0.035029203
200	0xbde88384	-0.113532096
201	0xbd3cf284	-0.04612972
202	0x3dd795cc	0.10526618
203	0x3d4773c0	0.048694372
204	0xbbcbb9a0	-0.0062171966
205	0xbd9a5808	-0.07536322
206	0xbd9c9f42	-0.076475635
207	0xbde550fa	-0.11197086
208	0xbd26e48c	-0.040745303
209	0x3d2ce790	0.042213023
210	0x3da33b2c	0.079702705
211	0x3d6c6398	0.057712168
212	0xbde24a28	-0.110493004
213	0xbd99f2e4	-0.07517031
214	0xbca19ab0	-0.019727081
215	0x3df7a438	0.12091869
216	0x3c942118	0.018082187
217	0xbd0497d0	-0.032371342
218	0x3d53d27c	0.051714405
219	0xbd4302e8	-0.047610193
220	0xbda5b28c	-0.08090696
221	0x3dbad9e4	0.091235906
222	0xbd68ceac	-0.056837723
223	0xbccd4728	-0.025058344
224	0xbdfeab7e	-0.12435053
225	0x3dab5552	0.08365883
226	0x3dc1f458	0.09470433
227	0x3d3a98f4	0.045556024
228	0xbdb28090	-0.087159276
229	0xbdfca818	-0.12336749
230	0xbdcfeaf6	-0.10152237
231	0x3dbee636	0.09321253
232	0x3d75d06c	0.06001322
233	0x3dd76cd6	0.10518806
234	0x3d861c56	0.065483734
235	0x3d01954c	0.03163652
236	0xbaa07180	-0.0012240857
237	0xbdc2b086	-0.095063254
238	0xbddb556c	-0.10709652
239	0xbdef7302	-0.11691858
240	0x3d5197e4	0.051170245
241	0xbd7b6028	-0.061371
242	0xbcce1528	-0.025156572
243	0xbd935450	-0.07193816
244	0xbcba98d0	-0.022777945
245	0xbdb42e86	-0.08797936
246	0xbda74640	-0.08167696
247	0x3d29d600	0.041463852
248	0xbd182a20	-0.03714955
249	0x3d9e0a34	0.0771679
250	0xbd24410c	-0.040101096
251	0xbdbbcb10	-0.091695905
252	0xbcb4ac68	-0.022054866
253	0xbd7830d0	-0.060593426
254	0xbd1ca460	-0.038242698
255	0xbdf3b5fc	-0.11899945

network.0.bias f4 [128]
0	0x3a30c800	0.00067436695
1	0xbca4efb8	-0.020133838
2	0x3d8ff987	0.070300154
3	0x3bf53f00	0.007484317
4	0xbdb54ba6	-0.088523194
5	0xbc6a1ced	-0.014289123
6	0xbdbd59da	-0.092456535
7	0x3c98e130	0.018662065
8	0x3cc08abc	0.023503654
9	0xbdf15b7e	-0.11785029
10	0xbdaf1d80	-0.085505486
11	0xbd80949c	-0.06278345
12	0xbd330614	-0.04370697
13	0xbd07957f	-0.033101555
14	0x3d23c1cb	0.039979737
15	0xbdca1016	-0.098663494
16	0xbb4d5d6c	-0.0031336201
17	0xbdd384da	-0.10328074
18	0xbb980afd	-0.004639982
19	0xbda5f250	-0.08102858
20	0xbdc3d766	-0.09562568
21	0x3d978181	0.07397748
22	0x3cfa7efa	0.030578125
23	0xbd2d77c8	-0.04235056
24	0x3d5e7140	0.054307222
25	0xbbc30e03	-0.005952598
26	0x3d39f26c	0.045397207
27	0xbbf055a0	-0.007334426
28	0xbdcc090b	-0.09962662
29	0xbd393268	-0.045214087
30	0xbddb7dd2	-0.10717358
31	0x3cac3ef0	0.021026105
32	0x3d435b23	0.047694337
33	0x3dcebf4d	0.100950815
34	0xbdfba966	-0.122881696
35	0x3de69d94	0.112605244
36	0xbc8b4402	-0.017000202
37	0x3d0b9b5c	0.03408371
38	0xbd5bc1cc	-0.053651616
39	0x3d13a4a8	0.0360457
40	0x3d66827e	0.05627679
41	0x3d7079d4	0.058709934
42	0xbdd35d6a	-0.10320552
43	0x3c9ba4a8	0.018999413
44	0x3c76bc09	0.0150594795
45	0xbe108549	-0.14113344
46	0x3d2f5a53	0.04281075
47	0x3c798346	0.015229052
48	0xbdcd94ba	-0.10038133
49	0xbddbc7d6	-0.10731475
50	0x3ba719a0	0.0050994903
51	0x3dcd54fc	0.10025975
52	0x3d14ad3c	0.03629802
53	0x3c8ffde0	0.017577112
54	0xbc04a9d0	-0.008097127
55	0xbdfe5c92	-0.1242
56	0x3c5c1e42	0.013434948
57	0x3d232d34	0.03983803
58	0xbdd554ae	-0.10416542
59	0xbcbca2a0	-0.023026764
60	0x3df8e146	0.121523425
61	0xbd94d751	-0.07267631
62	0xbdafc3de	-0.085822806
63	0x3cf1af72	0.029502604
64	0x3cafe2a8	0.021470383
65	0x3dac30da	0.08407755
66	0xbda84e2e	-0.082180366
67	0xbb88fe80	-0.0041807294
68	0x3cf683d0	0.03009215
69	0x3da1654a	0.078806475
70	0x3cf82fcd	0.03029623
71	0x3cc41a18	0.023938224
72	0xbd18b38c	-0.037280604
73	0xbcb6ab60	-0.022298515
74	0xbd8a2732	-0.06745757
75	0x3b5d63ab	0.003378133
76	0x3d0b48db	0.034005027
77	0xbd822234	-0.0635418
78	0xbdaef044	-0.08541921
79	0x3c8cf1bb	0.01720511
80	0x3c899628	0.016795233
81	0xbd7159d4	-0.058923557
82	0x3d5da9f8	0.054117173
83	0xbdd09560	-0.10184741
84	0xbd7b9050	-0.061416924
85	0xbd6fbc2e	-0.05852907
86	0xbd84a2dc	-0.064763755
87	0xbce433d4	-0.027856745
88	0x3c939cac	0.018019043
89	0xbd32c74c	-0.043647096
90	0xbc8af248	-0.016961232
91	0xbd8583e4	-0.06519297
92	0xbda853aa	-0.08219083
93	0x3c69bb40	0.014265835
94	0x3dbcc550	0.09217322
95	0x3dadc6c6	0.08485179
96	0xbdc7cc24	-0.097557336
97	0x3ce9c66f	0.028537003
98	0xbd9df760	-0.07713199
99	0xbceb2917	-0.028706117
100	0xbc371de0	-0.011176556
101	0x3d63ce22	0.055616505
102	0x3d8a4d06	0.06752972
103	0xbdcf4954	-0.10121408
104	0x3cde1338	0.027108774
105	0x3cfa46f3	0.03055141
106	0xbc43304b	-0.011913369
107	0xbd3e84af	-0.046513256
108	0xbd71b2c8	-0.05900839
109	0xbdb49fac	-0.088195175
110	0xbdfbf940	-0.123034
111	0xbd646083	-0.055756103
112	0xbd458b88	-0.04822877
113	0x3cb6d716	0.022319358
114	0xbd5873c0	-0.052844763
115	0x3dd4a3b6	0.10382788
116	0xbdb49f5c	-0.08819458
117	0x3db3d6c4	0.08781198
118	0xbd90fc7c	-0.070794076
119	0xbca93ede	-0.02065986
120	0xbd3bc0a8	-0.04583803
121	0x3d57cc7c	0.052685246
122	0x3d5460d2	0.051850148
123	0x3d4741a1	0.048646573
124	0xbdb14e0c	-0.086574644
125	0x3d15eaf8	0.036601037
126	0x3d8e75cd	0.069560625
127	0xbdd212f8	-0.10257524

network.2.weight f4 [128, 128]
0	0x3d1255e6	0.03572645
1	0x3c8bfccc	0.017088316
2	0x3ca59884	0.020214327
3	0x3d9e9a0f	0.07744228
4	0xba49ff6b	-0.0007705602
5	0xbd76e9ee	-0.060281686
6	0xbd232ccf	-0.039837655
7	0x3c3b04d8	0.011414729
8	0xbc5ef2a8	-0.013607658
9	0xbd81a5cd	-0.06330452
10	0x3b219200	0.0024653673
11	0x3d4f4d5a	0.050610878
12	0x3b400a40	0.0029302984
13	0x3d60d858	0.05489382
14	0xbd5959cb	-0.05306415
15	0x3d8df72b	0.06931909
16	0x3b068d34	0.002053094
17	0xbd0de6fd	-0.034644116
18	0x3cce73b6	0.02520166
19	0x3d26efc1	0.04075599
20	0xbd1b3a95	-0.037897665
21	0xbd684082	-0.056702144
22	0x3d087b4e	0.033320718
23	0xbd9f875e	-0.07789491
24	0x3cba0dd8	0.02271168
25	0x3c674adf	0.014116972
26	0xbd76c8da	-0.06025014
27	0xbc328908	-0.010896929
28	0x3c0f2ea9	0.008739152
29	0x3d7bd756	0.061484657
30	0x3d845fed	0.06463609
31	0xbdbaf54c	-0.09128818
32	0xbdb87995	-0.09007565
33	0x3d3a2f1e	0.04545509
34	0x3db297c1	0.08720351
35	0x3d92bc29	0.07164795
36	0x3c91b959	0.017788576
37	0x3daba331	0.08380736
38	0xbd2635a4	-0.0405785
39	0xbc20723b	-0.00979286
40	0xbd999cc5	-0.075006045
41	0xbdb36e18	-0.08761233
42	0xbd74d70c	-0.059775397
43	0xbda4350a	-0.08017929
44	0x3c35641f	0.011071234
45	0x3c901f3e	0.017593022
46	0x3c67780c	0.0141277425
47	0x3d26dc8c	0.040737674
48	0xbd902f68	-0.07040292
49	0xbcd0fafc	-0.025510304
50	0x3d8e70cd	0.06955109
51	0xbda03329	-0.07822258
52	0x3d7e7476	0.062122785
53	0x3cdef9fc	0.027218811
54	0xbd92f51e	-0.07175659
55	0x3c9c36ac	0.019069038
56	0xbd01c53b	-0.031682234
57	0xbc4064a1	-0.011742742
58	0xbd101af9	-0.035181973
59	0x3d23e246	0.040010713
60	0x3d8cc837	0.068741255
61	0x3d4ae4ea	0.049534716
62	0xbc0afd78	-0.008483283
63	0xbdb6e698	-0.08930701
64	0x3d7b5f55	0.061370213
65	0xbc0b4f95	-0.008502861
66	0x3d936af1	0.07198132
67	0x3cb7aa8a	0.022420187
68	0x3abe7300	0.0014530122
69	0x3cf4e5f4	0.029894806
70	0x3d1b353e	0.037892573
71	0x39ceb733	0.00039427876
72	0x3b8c39d6	0.0042793555
73	0xbb6b29a0	-0.0035882965
74	0x3d7810ca	0.060562886
75	0x3cc9db8f	0.024640827
76	0xbd2579f7	-0.040399518
77	0x3da8b109	0.08236892
78	0x3dad75e3	0.08469751
79	0x3d7262db	0.059176307
80	0x3c81bd44	0.01583732
81	0x3bb12510	0.0054060295
82	0xbda801db	-0.08203479
83	0x3d83f66b	0.06443485
84	0xbd821051	-0.06350768
85	0xbdaa5e00	-0.0831871
86	0x3c5d855f	0.013520568
87	0xbdf240fb	-0.118288
88	0x3b161ae5	0.0022904214
89	0xbd2e5cfa	-0.042569138
90	0xba2eedfb	-0.0006673035
91	0xbd0b7b3c	-0.034053072
92	0x3d9260a5	0.0714734
93	0xbdae3704	-0.08506587
94	0x3c850408	0.016237274
95	0xbc0405ff	-0.00805807
96	0xbdac3f13	-0.08410468
97	0x3d5c25d8	0.053747028
98	0xbc02268b	-0.00794376
99	0xbdd1f98b	-0.10252675
100	0xbdb51acf	-0.08843004
101	0x3c335688	0.010945924
102	0x3d81f79f	0.06346058
103	0xbca500d4	-0.020141996
104	0xbcd5e71a	-0.026111174
105	0xbdb61a2a	-0.08891709
106	0x3d3d596c	0.046227857
107	0xbd23dfaa	-0.040008225
108	0xbd266814	-0.0406266
109	0x3d09c148	0.033631593
110	0x3d9e4ff7	0.07730096
111	0x3ce4d5e8	0.02793403
112	0x3cd0d7c0	0.025493503
113	0x3d9b0725	0.07569722
114	0x3b765e00	0.003759265
115	0x3c6005f8	0.013673298
116	0xbbd39fc0	-0.0064582527
117	0xbd8ceab5	-0.06880704
118	0xbc8ff133	-0.017571067
119	0xbd7baf55	-0.061446507
120	0x3d51832a	0.05115048
121	0xbd79b9b3	-0.060968112
122	0xbdc6c396	-0.09705274
123	0xbcf2faa6	-0.029660534
124	0x3d867923	0.06566074
125	0xbda5bb9c	-0.08092424
126	0xbd2ceb6a	-0.042216696
127	0xbbddeb30	-0.0067724213
128	0xbd1e5422	-0.038654454
129	0x3d2b089e	0.041756265
130	0x3d9e1faf	0.07720887
131	0x3d43f412	0.047840185
132	0xbc98b3e4	-0.018640466
133	0xbd8e1f70	-0.0693959
134	0xbd95757e	-0.072978005
135	0xbcad6314	-0.021165408
136	0xbce41a62	-0.027844612
137	0xbd894840	-0.06703234
138	0x3cb310d8	0.021858618
139	0xbd092f0b	-0.03349213
140	0x3cd1fad0	0.025632292
141	0xbd404058	-0.046936363
142	0xbc027c90	-0.007964268
143	0xbcd9e8d2	-0.026600275
144	0x3d5e61a2	0.05429233
145	0xbda53532	-0.08066787
146	0xbd0ec3a7	-0.034854557
147	0x3c9aa0a0	0.01887542
148	0xbccbff14	-0.024901904
149	0xbac64580	-0.0015126914
150	0x3d74af4e	0.059737496
151	0x3c4f4e70	0.012652978
152	0x3c328560	0.010896057
153	0x3cd38954	0.02582232
154	0xbd42c832	-0.047554202
155	0xbd109641	-0.035299543
156	0x3d2d6c4a	0.0423396
157	0x3c51ee78	0.012813203
158	0x3d6c2baa	0.05765883
159	0xbc38e378	-0.0112847015
160	0x3daa0cf7	0.08303254
161	0x3d583586	0.05278542
162	0xbccad848	-0.024761334
163	0xbd390534	-0.045170978
164	0x3c923878	0.017849192
165	0xbd9702e8	-0.07373601
166	0xbd25cd00	-0.040478706
167	0x3cddd22c	0.027077757
168	0x3bfc9e10	0.007709272
169	0x3d23d7c2	0.040000685
170	0xbd176f40	-0.03697133
171	0x3d985639	0.07438321
172	0xbd4715e4	-0.04860486
173	0xbd398238	-0.045290202
174	0x3d7237da	0.059135295
175	0xbc8bb2f8	-0.017053112
176	0x3ccf23f4	0.025285698
177	0xbc80a108	-0.015701786
178	0xbd8005ca	-0.06251104
179	0xbb67b720	-0.0035356954
180	0x3d243fae	0.040099792
181	0x3d73fdd6	0.05956825
182	0x3d8a15f9	0.06742472
183	0xbb4bfb20	-0.0031125024
184	0x3d831cb1	0.06401957
185	0x3ccc406c	0.024933062
186	0x3b565da0	0.0032709613
187	0x3adade00	0.0016698241
188	0xbc0a2e90	-0.008433953
189	0x3ccec998	0.025242612
190	0xbb95a1a0	-0.0045663863
191	0x3d68d472	0.05684323
192	0xbc5c9200	-0.0134625435
193	0xbd490abe	-0.04908251
194	0x3cd26d24	0.025686808
195	0xbd4adcf6	-0.04952713
196	0x3d60d566	0.054891013
197	0x3d93d71d	0.07218764
198	0x3c687a28	0.014189281
199	0xbc91405c	-0.017730884
200	0xbb82c9b0	-0.003991328
201	0x3d298e3e	0.04139542
202	0xbd8a48a4	-0.06752136
203	0xbcc1d128	-0.023659304
204	0xbd5c9394	-0.05385168
205	0xbda3bb51	-0.07994712
206	0xbd818512	-0.06324209
207	0xbd689dc5	-0.056791086
208	0x3d89d4e1	0.067300566
209	0x3d5d49ba	0.05402539
210	0xbd75c87e	-0.060005657
211	0xbd8eda36	-0.06975214
212	0x3da21c07	0.07915502
213	0x3cabdedc	0.020980291
214	0x3d26b7f6	0.040702783
215	0x3c622708	0.013803251
216	0xbd074650	-0.03302604
217	0xbd439816	-0.047752462
218	0x3d42c8ea	0.047554888
219	0xbdb2d20f	-0.08731472
220	0xbd96a13f	-0.07354974
221	0x3cdaa858	0.0266916
222	0xbcbde264	-0.02317924
223	0x3c8a80d0	0.016907126
224	0x3d411772	0.0471415
225	0xbd500d4e	-0.05079394
226	0xbd4bcba7	-0.049754765
227	0xbd5eacea	-0.054364122
228	0xbd9e622d	-0.07733569
229	0xbbc40d20	-0.00598301
230	0x3d99b72d	0.07505641
231	0xbbb10660	-0.0054023713
232	0x3d468d5e	0.048474662
233	0xbd340c78	-0.043957204
234	0x3c0faf20	0.00876978
235	0xbd87ed41	-0.066370495
236	0xbbbf7300	-0.0058425665
237	0x3c9ee5f8	0.019396767
238	0xbd1ae763	-0.037818324
239	0x3da6323b	0.081150495
240	0x3ccc6f1c	0.024955325
241	0x3d3515f2	0.04421038
242	0x3db427b7	0.087966375
243	0x3d19784e	0.037468247
244	0xbbe38a90	-0.006944008
245	0x3d2ce8c2	0.042214163
246	0x3db26227	0.08710127
247	0xbdae462e	-0.085094795
248	0xbc88840c	-0.016664527
249	0x3d2fceb6	0.042921744
250	0xbcaf7f84	-0.021423109
251	0xbd9345f4	-0.07191077
252	0xbd522af5	-0.0513105
253	0xbd3c2bb1	-0.045940105
254	0x3d16188e	0.03664451
255	0x3d667eba	0.0562732

network.2.bias f4 [128]
0	0xbbd2a42c	-0.006428262
1	0xbda3c2a3	-0.079961084
2	0x3d24eb00	0.040263176
3	0xbbf31268	-0.0074179657
4	0x3cfa1430	0.030527204
5	0xbd78864e	-0.060674958
6	0xbd74468c	-0.05963759
7	0x3da0ae3f	0.07845735
8	0xbbf30099	-0.0074158427
9	0x3d6b7069	0.05748025
10	0xbda28fe4	-0.07937601
11	0xbd1443fa	-0.03619764
12	0xbd5d13ad	-0.053973842
13	0xbd657a71	-0.056024972
14	0x3d26381c	0.040580854
15	0xbc4ed0e4	-0.012623046
16	0xbcd0aa74	-0.025471903
17	0x3cf2c6de	0.029635843
18	0xbcef5c1a	-0.029218722
19	0xbb8d323e	-0.004308968
20	0xbd99bd97	-0.075068645
21	0xbd0cb92b	-0.034356277
22	0x3d25b673	0.0404572
23	0x3d240f43	0.040053617
24	0x3d367409	0.044544253
25	0xbd242c6c	-0.040081427
26	0xbd985bef	-0.0743941
27	0x3d7d53ca	0.061847486
28	0x3d616659	0.055029247
29	0xbc8e5691	-0.017375262
30	0x3d36d10c	0.044632956
31	0x3d6f68ee	0.058449678
32	0xbd98db66	-0.07463722
33	0x3d56566c	0.052328512
34	0xbd43eb4a	-0.04783181
35	0xbce4fed2	-0.027953539
36	0x3d366516	0.044529997
37	0xbc9dfb62	-0.019284908
38	0xbb1351dd	-0.0022479214
39	0x3d5e5490	0.054279864
40	0x3d21663c	0.03940414
41	0xbc9cc314	-0.01913599
42	0x3d1c66be	0.03818392
43	0xbd18b848	-0.03728512
44	0xbcb80818	-0.022464797
45	0xbc671865	-0.014104937
46	0xbd5ec05d	-0.05438267
47	0xbd0ee967	-0.03489056
48	0xbcc47894	-0.023983277
49	0xbd184148	-0.037171632
50	0x3d4077df	0.046989318
51	0xbc240bef	-0.010012611
52	0x3daf9bc4	0.08574632
53	0x3da26b23	0.07930591
54	0x3d4939f8	0.04912755
55	0x3d3e453c	0.046452746
56	0xbd8bb814	-0.068222195
57	0xbc116bf2	-0.008875834
58	0x3d2b7470	0.04185909
59	0xbd054b4c	-0.03254251
60	0xbd6e31fb	-0.058153134
61	0x3d6e9be6	0.058254145
62	0xbcf9acb0	-0.030477852
63	0xbd669ba0	-0.05630076
64	0x3d0db920	0.034600377
65	0x3d703808	0.058647186
66	0xbbfd69fe	-0.0077335825
67	0xbda72c6d	-0.081627704
68	0xbc78d64b	-0.01518781
69	0x3d2ac5c6	0.041692518
70	0xbb810619	-0.0039374945
71	0x3d8d811a	0.0690939
72	0xbcad89b0	-0.021183819
73	0xbb93705d	-0.0044994787
74	0xbba6b32a	-0.005087276
75	0xbc566d40	-0.013087571
76	0x3d703f7b	0.05865429
77	0xbc66abdd	-0.014079061
78	0xbb93e32d	-0.0045131654
79	0x3d6e1e7b	0.058134537
80	0x3d580638	0.052740306
81	0x39853842	0.00025409652
82	0xbda46a1e	-0.08028053
83	0x3d55a22e	0.05215662
84	0x3d530e42	0.05152727
85	0x3d94f165	0.07272605
86	0xbd605d9f	-0.054776784
87	0x3d6ed5d3	0.058309387
88	0x3d89d0fe	0.06729315
89	0xbcc51ff9	-0.024063097
90	0xbdb3f7cf	-0.087875
91	0x3d22bfcf	0.039733704
92	0xbd92c2b7	-0.07166045
93	0x3d0bc962	0.0341276
94	0x3d8e6071	0.069519885
95	0xbb2ef2d3	-0.0026695027
96	0xbc95b3dc	-0.01827424
97	0xbc88314a	-0.016625065
98	0xbd6590af	-0.056046184
99	0xbd67b011	-0.056564394
100	0xbd237e5b	-0.039915424
101	0x3d30d6fe	0.043173783
102	0x3d29082e	0.041267566
103	0xbceaf840	-0.028682828
104	0x3d847448	0.064674914
105	0xbc10b41f	-0.008832007
106	0xbcdf2551	-0.027239474
107	0x3d27fdf2	0.041013665
108	0xbd7c50f2	-0.061600633
109	0xbc144f8c	-0.009052169
110	0x3d77e8fd	0.06052493
111	0x3d1f60e6	0.03891077
112	0xbc1e3220	-0.009655505
113	0x3d4e41c2	0.05035568
114	0x3d601f99	0.054717634
115	0xbc876961	-0.01652974
116	0x3dac3cac	0.0841001
117	0x3d553f79	0.052062485
118	0xbd0b8648	-0.034063607
119	0xbd80b33a	-0.06284185
120	0x3d127a5b	0.03576122
121	0xbc04bcd8	-0.0081016645
122	0x3d226299	0.03964481
123	0x3d5a7122	0.053330548
124	0x3d092394	0.033481196
125	0x3d1d48ff	0.038399693
126	0x3d3a5168	0.04548779
127	0xbcecb498	-0.028894708
