models/dqn_step_18000.pt (torch, 413509 bytes, 24 tensors)

network.0.weight f4 [128, 64]
00000000: ccb8 c33d 667b d43d 20e5 efbc 1c2a eb3d
00000010: b05c e0bc 38a2 ce3c 1045 79bd 2858 963d
00000020: ccac e13d 0ecf bbbd a483 de3d b0a6 bf3c
00000030: 9422 bd3d 50ae 8a3c 5ce1 763d 6094 90bc
00000040: c658 c53d 385b 973c a405 6fbd 0882 023d
00000050: ace5 6bbd c02c 70bc fcf3 4fbd aed2 a93d
00000060: 2a14 cabd 8c09 6cbd 6c93 10bd feec 99bd
00000070: f04b 413c 8ad8 fcbd 2832 e73d c076 d9bd
00000080: 96a3 c53d c869 aa3c ac3f 26bd f831 9e3d
00000090: 5897 9f3c b0d6 ce3d 00e3 5f3c 9878 21bd
000000a0: e890 093d 08d8 0abd a47a 573d fe8f e43d
000000b0: b6fb 933d 14d5 5fbd 9ec7 933d 7038 b73c
000000c0: 7a01 823d 8608 9cbd a46a fdbd 0cd1 45bd
000000d0: 9c5b c4bd d60e d23d d878 133d cc13 543d
000000e0: fcec 213d 0082 0ebb 0459 c83d 38e4 b5bd
000000f0: 20f3 003c f4ba aebd 50e0 1d3d e052 30bd
00000100: 98e2 1c3d 7857 d5bc 0653 d43d 50bb 97bd
00000110: 8aad 98bd e6af 98bd e241 e63d e49f 2a3d
00000120: 1056 f63d 4e45 d3bd 98eb fdbd fe48 c8bd
00000130: 5a35 acbd 6c61 4f3d b855 373d 76b7 d43d
00000140: 7434 84bd aa84 aebd f8d3 873d e4f3 4ebd
00000150: 5c5f 9b3d f0fe f2bc 9a71 923d 60e7 c6bd
00000160: ba30 81bd c418 1c3d 387b d83c f489 02bd
00000170: 0298 983d fa07 ae3d f6a4 b9bd 96ab 88bd
00000180: d268 ea3d f4c3 2cbd 2c83 35bd 48b4 f7bd
00000190: 849a 92bd 88cc ff3c 3829 87bc aad3 b9bd
000001a0: 4028 403b 6ede aebd 8630 d9bd 3af8 8cbd
000001b0: e60d e0bd 4401 a3bd 5ee6 ff3d 7068 c13c
000001c0: 1cc7 1d3d 66c4 eebd 5422 a8bd 146c 2abd
000001d0: c01f a03c 8642 e1bd 649b 5cbd 5842 99bd
000001e0: 009e b539 5084 3ebd f0ea 0dbc 2479 adbd
000001f0: 98b7 afbd d259 95bd 9c41 2fbd 500e cabd
00000200: 7409 bec0 4c17 cbc0 e455 93be 01fb 1f40
00000210: 5862 4a40 b193 85bf e312 afc0 8c5d 9c3e
00000220: 9094 06c0 b1d1 2ebf 585b 433f 4c0f 3b3f
00000230: 7dfb bb3c 58c6 66bf 7bf1 9240 38f4 0f3f
00000240: 7ce2 f9be dc98 b8bd 9d4c 1fbf a050 0140
00000250: 4c35 0ac0 80bd a2bf 4888 7a3f 12cc 7940
00000260: 9b33 d53e ae05 09bf 0f35 353f 6ae6 c7bf
00000270: 4b62 183f 3647 9dbc 9f92 23c0 cc73 b93f
00000280: c536 80bf 76c9 853f 5d26 273e df7f f1bf
00000290: 4d36 8abe 7c91 a5bf a350 cb3e 2d71 de3f
000002a0: c18d 0340 9287 ebbf bc9d 123f f024 953e
000002b0: 4efe e6be 7d54 b03f 418b 0d3f 67c5 8c3d
000002c0: 0777 633f ccd5 72be 6aa9 71bd af91 f7bf
000002d0: 613f 0abf 3ee4 87be 6280 2c3e 231f c5bf
000002e0: cd6c 67bd ca6d a13e 044a 7dbf 1ffb f2bf
000002f0: 8846 7cbd 35b9 77bc d0e4 b4bc 79c9 85bd
00000300: 10a3 a33d 9c01 dc3d 20bf 4abc 3845 e5bc
00000310: 8014 ef3a a090 f4bb 602e f63c c87a 0f3d
00000320: 8483 e8bd 84f2 3cbd cc95 d73d c073 473d
00000330: a0b9 cbbb 0858 9abd 429f 9cbd fa50 e5bd
00000340: 8ce4 26bd 90e7 2c3d 2c3b a33d 9863 6c3d
00000350: 284a e2bd e4f2 99bd b09a a1bc 38a4 f73d
00000360: 1821 943c d097 04bd 7cd2 533d e802 43bd
00000370: 8cb2 a5bd e4d9 ba3d acce 68bd 2847 cdbc
00000380: 7eab febd 5255 ab3d 58f4 c13d f498 3a3d
00000390: 9080 b2bd 18a8 fcbd f6ea cfbd 36e6 be3d
000003a0: 6cd0 753d d66c d73d 561c 863d 4c95 013d
000003b0: 8071 a0ba 86b0 c2bd 6c55 dbbd 0273 efbd
000003c0: e497 513d 2860 7bbd 2815 cebc 5054 93bd
000003d0: d098 babc 862e b4bd 4046 a7bd 00d6 293d
000003e0: 202a 18bd 340a 9e3d 0c41 24bd 10cb bbbd
000003f0: 68ac b4bc d030 78bd 60a4 1cbd fcb5 f3bd
0.095567316 0.10375099 -0.02928406 0.11482641 -0.027387947 0.025223836 -0.06085688 0.07341033
0.110192865 -0.09170352 0.10864952 0.023394912 0.09235111 0.016928822 0.060273513 -0.017648876
0.09636073 0.018476114 -0.05835499 0.03186229 -0.05759208 -0.014659107 -0.05076979 0.08292137
-0.09867127 -0.057626292 -0.035296842 -0.07515906 0.01179789 -0.12345989 0.112888634 -0.10618353
0.09650342 0.020802394 -0.040588066 0.077243745 0.019481346 0.10099542 0.013664961 -0.039421648
0.03358546 -0.03389743 0.052607194 0.11160277 0.072257444 -0.054646567 0.07215808 0.022365779
0.06347938 -0.07618813 -0.12373856 -0.048295066 -0.095877856 0.10256736 0.036003917 0.051776692
0.039532647 -0.0021744967 0.097826034 -0.0888142 0.0078704655 -0.08531752 0.038544 -0.043047786
0.038302034 -0.026042685 0.10367398 -0.07408774 -0.07454975 -0.07455425 0.11243035 0.04165639
0.12028134 -0.10315953 -0.123984516 -0.09779547 -0.084086135 0.050630018 0.044759482 0.10386555
-0.06455317 -0.085213974 0.06632227 -0.05052556 0.07586548 -0.02966258 0.07150574 -0.097121
-0.06308122 0.038109556 0.026425943 -0.031869844 0.07450868 0.08497615 -0.09064667 -0.066733524
0.11445774 -0.042179063 -0.04431455 -0.12094933 -0.07158378 0.031225458 -0.016499147 -0.09073575
0.0029320866 -0.08538519 -0.10604958 -0.06883283 -0.10940151 -0.07959226 0.12495111 0.02360937
0.038519964 -0.11658554 -0.082096726 -0.041606978 0.01954639 -0.109990165 -0.05385913 -0.07483357
0.0003464073 -0.0465129 -0.0086619705 -0.08470371 -0.085799396 -0.072925225 -0.04278718 -0.09866011
-5.938654 -6.346594 -0.28776467 2.499695 3.1622524 -1.0435697 -5.4710555 0.3054012
-2.1028175 -0.68288714 0.76311255 0.73070216 0.022947067 -0.901464 4.5919776 0.56232023
-0.48805606 -0.090135306 -0.6222628 2.020546 -2.159503 -1.2714081 0.978642 3.9030805
0.41640934 -0.5352429 0.70784086 -1.5617192 0.59524983 -0.019198995 -2.555824 1.4488463
-1.0016714 1.0452106 0.16323228 -1.8867148 -0.26994553 -1.2935023 0.39709958 1.7378289
2.055527 -1.8400748 0.57271934 0.29129744 -0.45115894 1.3775784 0.5529061 0.06873589
0.88853496 -0.2371437 -0.058999456 -1.9341334 -0.5400296 -0.26541322 0.16845849 -1.5400127
-0.056500245 0.31529075 -0.98941064 -1.8982886 -0.0615907 -0.01511984 -0.022081763 -0.065325685
0.07990086 0.107424945 -0.012374669 -0.027987108 0.0018240362 -0.0074635297 0.03005141 0.035029203
-0.113532096 -0.04612972 0.10526618 0.048694372 -0.0062171966 -0.07536322 -0.076475635 -0.11197086
-0.040745303 0.042213023 0.079702705 0.057712168 -0.110493004 -0.07517031 -0.019727081 0.12091869
0.018082187 -0.032371342 0.051714405 -0.047610193 -0.08090696 0.091235906 -0.056837723 -0.025058344
-0.12435053 0.08365883 0.09470433 0.045556024 -0.087159276 -0.12336749 -0.10152237 0.09321253
0.06001322 0.10518806 0.065483734 0.03163652 -0.0012240857 -0.095063254 -0.10709652 -0.11691858
0.051170245 -0.061371 -0.025156572 -0.07193816 -0.022777945 -0.08797936 -0.08167696 0.041463852
-0.03714955 0.0771679 -0.040101096 -0.091695905 -0.022054866 -0.060593426 -0.038242698 -0.11899945

network.0.bias f4 [128]
00000000: 00c8 303a b8ef a4bc 63f4 8c3d 003f f53b
00000010: a64b b5bd d248 69bc da59 bdbd 30e1 983c
00000020: bc8a c03c 7e5b f1bd 801d afbd 9c94 80bd
00000030: 1406 33bd 7f95 07bd ae75 2c3d 1610 cabd
00000040: 70b6 8dbb da84 d3bd fd0a 98bb 50f2 a5bd
00000050: 66d7 c3bd 2436 963d 3352 ee3c c877 2dbd
00000060: 5776 403d 030e c3bb 6cf2 393d a055 f0bb
00000070: 0b09 ccbd 6832 39bd d27d dbbd c1dd 823c
00000080: add0 1e3d 4dbf ce3d 66a9 fbbd 949d e63d
00000090: 5c37 89bc 5c9b 0b3d ccc1 5bbd a8a4 133d
000000a0: 7e82 663d 4107 513d 6a5d d3bd a8a4 9b3c
000000b0: 77b5 933c 4985 10be 9d8f 293d c470 883c
000000c0: ba94 cdbd d6c7 dbbd a019 a73b fc54 cd3d
000000d0: 3cad 143d e0fd 8f3c d0a9 04bc 925c febd
000000e0: fa7b 443c 78de a63c 350c dfbd a0a2 bcbc
000000f0: 46e1 f83d 7056 81bd dec3 afbd 72af f13c
00000100: 5b0e cf3c 4be3 aa3d 2e4e a8bd 4e52 a5bb
00000110: d083 f63c 4a65 a13d c5e2 f13c 181a c43c
00000120: 3af8 fdbc 60ab b6bc 3227 8abd ab63 5d3b
00000130: b207 063d 3422 82bd 44f0 aebd bbf1 8c3c
00000140: 2896 893c d459 71bd f8a9 5d3d 6095 d0bd
00000150: 5090 7bbd 2ebc 6fbd dca2 84bd 237f cdbc
00000160: 7e67 9b3c 4cc7 32bd 48f2 8abc e483 85bd
00000170: aa53 a8bd 0916 803c 50c5 bc3d c6c6 ad3d
00000180: 24cc c7bd 256c d53c 7945 a1bd d0cf 16bd
00000190: e01d 37bc c6f8 683d d0ef 823d 5449 cfbd
000001a0: 3813 de3c a45f e63c 4b30 43bc af84 3ebd
000001b0: c8b2 71bd ac9f b4bd 40f9 fbbd 8360 64bd
000001c0: 888b 45bd 16d7 b63c c073 58bd b6a3 d43d
000001d0: 5c9f b4bd c4d6 b33d 4239 90bd de3e a9bc
000001e0: a8c0 3bbd 7ccc 573d 89ff 563d a141 473d
000001f0: 0c4e b1bd b315 f73c 5bca 8c3d f812 d2bd
0.00067436695 -0.020133838 0.068825506 0.007484317 -0.088523194 -0.014238553 -0.092456535 0.018662065
0.023503654 -0.11785029 -0.085505486 -0.06278345 -0.04370697 -0.033101555 0.042104416 -0.098663494
-0.0043247268 -0.10328074 -0.004639982 -0.08102858 -0.09562568 0.07334545 0.02909193 -0.04235056
0.046987858 -0.005952598 0.045397207 -0.007334426 -0.09962662 -0.045214087 -0.10717358 0.015974881
0.038773227 0.100950815 -0.122881696 0.112605244 -0.01675003 0.03408371 -0.053651616 0.0360457
0.05627679 0.05103231 -0.10320552 0.018999413 0.018030865 -0.14113344 0.041396726 0.016655333
-0.10038133 -0.10731475 0.0050994903 0.10025975 0.03629802 0.017577112 -0.008097127 -0.1242
0.011992449 0.020369753 -0.10891 -0.023026764 0.121523425 -0.06315315 -0.085822806 0.029502604
0.0252754 0.08344134 -0.082180366 -0.005045212 0.03009215 0.078806475 0.029527077 0.023938224
-0.031002153 -0.022298515 -0.06745757 0.003378133 0.032722183 -0.0635418 -0.08541921 0.01720511
0.016795233 -0.058923557 0.054117173 -0.10184741 -0.061416924 -0.05852907 -0.064763755 -0.025085038
0.018970247 -0.043647096 -0.016961232 -0.06519297 -0.08219083 0.015635507 0.09217322 0.08485179
-0.097557336 0.026052544 -0.07874579 -0.03681928 -0.011176556 0.056877874 0.06393397 -0.10121408
0.027108774 0.028121777 -0.011913369 -0.046513256 -0.05900839 -0.088195175 -0.123034 -0.055756103
-0.04822877 0.022319358 -0.052844763 0.10382788 -0.08819458 0.08781198 -0.07042171 -0.02065986
-0.04583803 0.052685246 0.05248979 0.048646573 -0.086574644 0.030161714 0.06874534 -0.10257524

network.2.weight f4 [128, 128]
00000000: e655 123d ccfc 8b3c 8498 a53c 0f9a 9e3d
00000010: 6bff 49ba eee9 76bd cf2c 23bd d804 3b3c
00000020: a8f2 5ebc cda5 81bd 0092 213b 5a4d 4f3d
00000030: 400a 403b 58d8 603d cb59 59bd 2bf7 8d3d
00000040: 348d 063b fde6 0dbd b673 ce3c c1ef 263d
00000050: 953a 1bbd 8240 68bd 4e7b 083d 5e87 9fbd
00000060: d80d ba3c df4a 673c dac8 76bd 0889 32bc
00000070: a92e 0f3c 56d7 7b3d ed5f 843d 4cf5 babd
00000080: 9579 b8bd 1e2f 3a3d c197 b23d 29bc 923d
00000090: 59b9 913c 31a3 ab3d a435 26bd 3b72 20bc
000000a0: c59c 99bd 186e b3bd 0cd7 74bd 0a35 a4bd
000000b0: 1f64 353c 3e1f 903c 0c78 673c 8cdc 263d
000000c0: 682f 90bd fcfa d0bc cd70 8e3d 2933 a0bd
000000d0: 7674 7e3d fcf9 de3c 1ef5 92bd ac36 9c3c
000000e0: 3bc5 01bd a164 40bc f91a 10bd 46e2 233d
000000f0: 37c8 8c3d eae4 4a3d 78fd 0abc 98e6 b6bd
00000100: 555f 7b3d 954f 0bbc f16a 933d 8aaa b73c
00000110: 0073 be3a f4e5 f43c 3e35 1b3d 33b7 ce39
00000120: d639 8c3b a029 6bbb ca10 783d 8fdb c93c
00000130: f779 25bd 09b1 a83d e375 ad3d db62 723d
00000140: 44bd 813c 1025 b13b db01 a8bd 6bf6 833d
00000150: 5110 82bd 005e aabd 5f85 5d3c fb40 f2bd
00000160: e51a 163b fa5c 2ebd fbed 2eba 3c7b 0bbd
00000170: a560 923d 0437 aebd 0804 853c ff05 04bc
00000180: 133f acbd d825 5c3d 8b26 02bc 8bf9 d1bd
00000190: cf1a b5bd 8856 333c 9ff7 813d d400 a5bc
000001a0: 1ae7 d5bc 2a1a b6bd 6c59 3d3d aadf 23bd
000001b0: 1468 26bd 48c1 093d f74f 9e3d e8d5 e43c
000001c0: c0d7 d03c 2507 9b3d 005e 763b f805 603c
000001d0: c09f d3bb b5ea 8cbd 33f1 8fbc 55af 7bbd
000001e0: 2a83 513d b3b9 79bd 96c3 c6bd a6fa f2bc
000001f0: 2379 863d 9cbb a5bd 6aeb 2cbd 30eb ddbb
00000200: 2254 1ebd 9e08 2b3d af1f 9e3d 12f4 433d
00000210: e4b3 98bc 701f 8ebd 7e75 95bd 1463 adbc
00000220: 621a e4bc 4048 89bd d810 b33c 0b2f 09bd
00000230: d0fa d13c 5840 40bd 907c 02bc d2e8 d9bc
00000240: a261 5e3d 3235 a5bd a7c3 0ebd a0a0 9a3c
00000250: 14ff cbbc 8045 c6ba 4eaf 743d 704e 4f3c
00000260: 6085 323c 5489 d33c 32c8 42bd 4196 10bd
00000270: 4a6c 2d3d 78ee 513c aa2b 6c3d 78e3 38bc
00000280: f70c aa3d 8635 583d 48d8 cabc 3405 39bd
00000290: 7838 923c e802 97bd 00cd 25bd 2cd2 dd3c
000002a0: 109e fc3b c2d7 233d 406f 17bd 3956 983d
000002b0: e415 47bd 3882 39bd da37 723d f8b2 8bbc
000002c0: f423 cf3c 08a1 80bc ca05 80bd 20b7 67bb
000002d0: ae3f 243d d6fd 733d f915 8a3d 20fb 4bbb
000002e0: b11c 833d 6c40 cc3c a05d 563b 00de da3a
000002f0: 902e 0abc 98c9 ce3c a0a1 95bb 72d4 683d
00000300: 0092 5cbc be0a 49bd 246d d23c f6dc 4abd
00000310: 66d5 603d 1dd7 933d 287a 683c 5c40 91bc
00000320: b0c9 82bb 3e8e 293d a448 8abd 28d1 c1bc
00000330: 9493 5cbd 51bb a3bd 1285 81bd c59d 68bd
00000340: e1d4 893d ba49 5d3d 7ec8 75bd 36da 8ebd
00000350: 071c a23d dcde ab3c f6b7 263d 0827 623c
00000360: 5046 07bd 1698 43bd eac8 423d 0fd2 b2bd
00000370: 3fa1 96bd 58a8 da3c 64e2 bdbc d080 8a3c
00000380: 7217 413d 4e0d 50bd a7cb 4bbd eaac 5ebd
00000390: 2d62 9ebd 200d c4bb 2db7 993d 6006 b1bb
000003a0: 5e8d 463d 780c 34bd 20af 0f3c 41ed 87bd
000003b0: 0073 bfbb f8e5 9e3c 63e7 1abd 3b32 a63d
000003c0: 1c6f cc3c f215 353d b727 b43d 4e78 193d
000003d0: 908a e3bb c2e8 2c3d 2762 b23d 2e46 aebd
000003e0: 0c84 88bc b6ce 2f3d 847f afbc f445 93bd
000003f0: f52a 52bd b12b 3cbd 8e18 163d ba7e 663d
0.03572645 0.017088316 0.020214327 0.07744228 -0.0007705602 -0.060281686 -0.039837655 0.011414729
-0.013607658 -0.06330452 0.0024653673 0.050610878 0.0029302984 0.05489382 -0.05306415 0.06931909
0.002053094 -0.034644116 0.02520166 0.04075599 -0.037897665 -0.056702144 0.033320718 -0.07789491
0.02271168 0.014116972 -0.06025014 -0.010896929 0.008739152 0.061484657 0.06463609 -0.09128818
-0.09007565 0.04545509 0.08720351 0.07164795 0.017788576 0.08380736 -0.0405785 -0.00979286
-0.075006045 -0.08761233 -0.059775397 -0.08017929 0.011071234 0.017593022 0.0141277425 0.040737674
-0.07040292 -0.025510304 0.06955109 -0.07822258 0.062122785 0.027218811 -0.07175659 0.019069038
-0.031682234 -0.011742742 -0.035181973 0.040010713 0.068741255 0.049534716 -0.008483283 -0.08930701
0.061370213 -0.008502861 0.07198132 0.022420187 0.0014530122 0.029894806 0.037892573 0.00039427876
0.0042793555 -0.0035882965 0.060562886 0.024640827 -0.040399518 0.08236892 0.08469751 0.059176307
0.01583732 0.0054060295 -0.08203479 0.06443485 -0.06350768 -0.0831871 0.013520568 -0.118288
0.0022904214 -0.042569138 -0.0006673035 -0.034053072 0.0714734 -0.08506587 0.016237274 -0.00805807
-0.08410468 0.053747028 -0.00794376 -0.10252675 -0.08843004 0.010945924 0.06346058 -0.020141996
-0.026111174 -0.08891709 0.046227857 -0.040008225 -0.0406266 0.033631593 0.07730096 0.02793403
0.025493503 0.07569722 0.003759265 0.013673298 -0.0064582527 -0.06880704 -0.017571067 -0.061446507
0.05115048 -0.060968112 -0.09705274 -0.029660534 0.06566074 -0.08092424 -0.042216696 -0.0067724213
-0.038654454 0.041756265 0.07720887 0.047840185 -0.018640466 -0.0693959 -0.072978005 -0.021165408
-0.027844612 -0.06703234 0.021858618 -0.03349213 0.025632292 -0.046936363 -0.007964268 -0.026600275
0.05429233 -0.08066787 -0.034854557 0.01887542 -0.024901904 -0.0015126914 0.059737496 0.012652978
0.010896057 0.02582232 -0.047554202 -0.035299543 0.0423396 0.012813203 0.05765883 -0.0112847015
0.08303254 0.05278542 -0.024761334 -0.045170978 0.017849192 -0.07373601 -0.040478706 0.027077757
0.007709272 0.040000685 -0.03697133 0.07438321 -0.04860486 -0.045290202 0.059135295 -0.017053112
0.025285698 -0.015701786 -0.06251104 -0.0035356954 0.040099792 0.05956825 0.06742472 -0.0031125024
0.06401957 0.024933062 0.0032709613 0.0016698241 -0.008433953 0.025242612 -0.0045663863 0.05684323
-0.0134625435 -0.04908251 0.025686808 -0.04952713 0.054891013 0.07218764 0.014189281 -0.017730884
-0.003991328 0.04139542 -0.06752136 -0.023659304 -0.05385168 -0.07994712 -0.06324209 -0.056791086
0.067300566 0.05402539 -0.060005657 -0.06975214 0.07915502 0.020980291 0.040702783 0.013803251
-0.03302604 -0.047752462 0.047554888 -0.08731472 -0.07354974 0.0266916 -0.02317924 0.016907126
0.0471415 -0.05079394 -0.049754765 -0.054364122 -0.07733569 -0.00598301 0.07505641 -0.0054023713
0.048474662 -0.043957204 0.00876978 -0.066370495 -0.0058425665 0.019396767 -0.037818324 0.081150495
0.024955325 0.04421038 0.087966375 0.037468247 -0.006944008 0.042214163 0.08710127 -0.085094795
-0.016664527 0.042921744 -0.021423109 -0.07191077 -0.0513105 -0.045940105 0.03664451 0.0562732

network.2.bias f4 [128]
00000000: 2ca4 d2bb a3c2 a3bd f85d dc3c 6812 f3bb
00000010: 7b2c 883d 4e86 78bd 8c46 74bd d783 1b3d
00000020: 9900 f3bb b69f bb3d e48f a2bd fa43 14bd
00000030: ad13 5dbd 717a 65bd ec69 bd3c e4d0 4ebc
00000040: 74aa d0bc 526e eb3c 1a5c efbc 3e32 8dbb
00000050: 97bd 99bd 2bb9 0cbd cdc0 1fbb 217c e33c
00000060: f870 3c3d 6c2c 24bd ef5b 98bd 6506 c83c
00000070: 0731 883d 9156 8ebc d9c2 5a3d 3e91 9c3d
00000080: 66db 98bd 7efe 423d 4aeb 43bd d2fe e4bc
00000090: a6d1 243d 62fb 9dbc f1ea 4ebc d601 7e3d
000000a0: caa2 553d 14c3 9cbc a839 ba3c 48b8 18bd
000000b0: 1808 b8bc 6518 67bc 5dc0 5ebd 67e9 0ebd
000000c0: 9478 c4bc 4841 18bd fcca 163d a92d 25bd
000000d0: d1e6 263d 4daa 983d c4bb 4f3d e3fb f73c
000000e0: 14b8 8bbd f26b 11bc c51f 203d 4c4b 05bd
000000f0: fb31 6ebd ebc3 713d b0ac f9bc a09b 66bd
00000100: 24b9 343d 1a0f e03c fe69 fdbb 6d2c a7bd
00000110: 4bd6 78bc f880 7d3d 1906 81bb 2076 b73d
00000120: b089 adbc 5d70 93bb 2ab3 a6bb 406d 56bc
00000130: 2533 943c ddab 66bc 2de3 93bb 3bd7 bf3d
00000140: 7640 da3c 4238 8539 1e6a a4bd d6f1 ba3c
00000150: 92dd e83c 9346 b23d 9f5d 60bd cfbf dc3c
00000160: f916 903d f91f c5bc cff7 b3bd c512 6b3d
00000170: b7c2 92bd 9344 1c3d 3a9e 4e3d d3f2 2ebb
00000180: dcb3 95bc 4a31 88bc af90 65bd 11b0 67bd
00000190: 5b7e 23bd e1cb e43c dc98 813d 40f8 eabc
000001a0: a6a7 db3d 1fb4 10bc 5125 dfbc 8e16 943d
000001b0: f250 7cbd f175 1dbc 08d7 843d af9b 533d
000001c0: 2032 1ebc 7afb 4c3d 00f7 613d 6169 87bc
000001d0: d650 303d 2bc0 a53d 4886 0bbd 3ab3 80bd
000001e0: 6868 153d d8bc 04bc 4c45 2a3b 5626 653d
000001f0: 2483 803d d58b 2e3d 2db2 293d 98b4 ecbc
-0.006428262 -0.079961084 0.026900277 -0.0074179657 0.06649109 -0.060674958 -0.05963759 0.03796753
-0.0074158427 0.09161322 -0.07937601 -0.03619764 -0.053973842 -0.056024972 0.023121797 -0.012623046
-0.025471903 0.028739128 -0.029218722 -0.004308968 -0.075068645 -0.034356277 -0.0024376393 0.02776915
0.046006173 -0.040081427 -0.0743941 0.024417112 0.06649976 -0.017375262 0.053408477 0.0764489
-0.07463722 0.047605984 -0.04783181 -0.027953539 0.040239 -0.019284908 -0.012629257 0.06201347
0.0521572 -0.01913599 0.02273257 -0.03728512 -0.022464797 -0.014104937 -0.05438267 -0.03489056
-0.023983277 -0.037171632 0.036814675 -0.040326748 0.040747467 0.07454357 0.050716177 0.030271476
-0.068222195 -0.008875834 0.039092798 -0.03254251 -0.058153134 0.059024733 -0.030477852 -0.05630076
0.044121876 0.027350951 -0.0077335825 -0.081627704 -0.01518781 0.061890572 -0.0039374945 0.089580774
-0.021183819 -0.0044994787 -0.005087276 -0.013087571 0.018090794 -0.014079061 -0.0045131654 0.09367224
0.026642065 0.00025409652 -0.08028053 0.022820394 0.028425965 0.08704867 -0.054776784 0.02694693
0.07035632 -0.024063097 -0.087875 0.057390947 -0.07166045 0.038151335 0.050443865 -0.0026695027
-0.01827424 -0.016625065 -0.056046184 -0.056564394 -0.039915424 0.027929248 0.06327984 -0.028682828
0.10725336 -0.008832007 -0.027239474 0.072308645 -0.061600633 -0.009610639 0.064863265 0.051662143
-0.009655505 0.050044514 0.0551672 -0.01652974 0.04304584 0.08093294 -0.034063607 -0.06284185
0.036476523 -0.0081016645 0.0025981246 0.055944763 0.06275013 0.042613823 0.041429687 -0.028894708

network.4.weight f4 [3, 128]
00000000: 6ad8 293d b4e0 86bc e626 9b3f 72e0 abbd
00000010: a990 ae3f 4233 493d 8dcb 843d 60eb a23f
00000020: b215 46bd 614d 233f 64db 50bd d0d5 d13b
00000030: a0cc 2b3b 687e 7dbc 7d61 a23f e019 053d
00000040: 927d 713d 715b 2a3d 89c2 a2bd f342 29bd
00000050: 4038 20bc 13fe 1dbd 176f d63f 8b77 a93f
00000060: 878b ab3b fb32 833d a084 d2bc 84b9 cd3e
00000070: 32f8 0240 1223 8bbc 4c22 9dbd 63a0 99bd
00000080: 8196 a33d 3df5 a23f 0355 a63d e7af b33d
00000090: fa9f ab3d e1ea 5bba 7a28 62bb 0612 ae3f
000000a0: b5ca a03f fae1 7cbd 8dfb b33f c227 023d
000000b0: 3943 64bb fda5 553d db17 213c 5aad 8b3d
000000c0: 2973 52bd 7206 89bd 2ea9 8d3f 4899 663d
000000d0: 0335 953f 5c65 f63f 51a3 e13f 9d13 a03f
000000e0: 61dd b0bd 94bf 2a3d 83ba a63f 5145 0e3c
000000f0: 95a9 b0bd abc8 b53f 30d2 403c 7ddb 8b3d
00000100: eafa ac3f 7c95 c23d c83a 9b3d 44b0 aabd
00000110: 1547 72bb 66a3 9c3f 3930 a2bd 2c0a 763f
00000120: 5392 a13d 9d2c fdbc ef2e 83bd 386e 903c
00000130: c877 ee3e 88a9 8f3c 18cf 39bd eabb 3a3f
00000140: 763f a53e 8ccd 3c3d bd3e a53d a62d aa3e
00000150: 135c 8c3e 872b 763f e1c7 a43d ee17 9d3e
00000160: bb75 84be 38a3 98bc 2090 85bd 6225 973f
00000170: c0c1 b8bb 95a9 c53f 813f 1a3e e488 1abe
00000180: 6629 3c3d 2d7a c63c 00c5 f73c 7c56 17bd
00000190: ee14 213d 688b 9e3f 3203 a63f ac34 c73c
000001a0: ac29 c73e a791 293d 03a2 aa3d 340b 913f
000001b0: 7863 9d3c 272e 40bd a5c2 9e3f bf84 a03f
000001c0: 5a40 743d 08f9 0540 9c94 0240 4002 9cbb
000001d0: 4b03 8a3f c6ed 573f 40d7 efbb 0433 cb3c
000001e0: 9a5b 953f e398 18bd 24fd cd3f 3bab f83f
000001f0: f7fb a43f c85a a73f 2769 cb3d 249c c53c
00000200: 983c da3a be18 febc 05dd b93f 4772 46bd
00000210: bba4 0e3f 0188 acbd d093 6c3c d31a 1c3f
00000220: 0ecc eabc 47da c73f 1277 7cbd af98 b1bd
00000230: b2ec 1e3d fe46 2b3d a6ff de3f 2fb7 5ebd
00000240: 1bdf 993d d874 493f c5db ae3d 2ad2 103d
00000250: 450b 9a3d 489f 00bd 7077 913f 5eb8 9c3f
00000260: 3598 763f 40ab 83bd 2073 c3bc b901 3b3f
00000270: afbb a53f d2a2 383d 6f2d 663f 0bcc 8dbf
00000280: 526e 703d 680b bbbc 43ec e33c 8c88 2dbd
00000290: a2dc 893f 2024 9fbd c6aa 79bd b85c bf3f
000002a0: 8b61 483f 38d2 ab3c f4d6 a73f 3ac2 a6bc
000002b0: 803c 533d 2a31 863d 3fc6 d83c ec34 853b
000002c0: 9148 5dbd b793 873d 7e55 a23f 0ce9 85bb
000002d0: 5d7b ff3e 4ea9 b63f 0b07 a13f 2c61 be3f
000002e0: 309c 4b3c f767 39bb 7934 f33f b654 93bd
000002f0: d38c 0ebd e923 c23f a239 f8bc e7ad 42bd
00000300: b914 5c3f 7dd1 a1bf fea3 47bd 23da 29bd
00000310: d49a 843d 5443 9e3f e0dd 063d 1035 ca3f
00000320: 2a99 6e3d 8744 cbbc 9ca4 3ebb 1fe0 5bbc
00000330: a4d6 413f 518f c2bc b8bb c13c 813b da3f
00000340: b621 6c3f dd6d 2abb c02f 993c ae15 4a3f
00000350: e370 663f e008 d93f 0837 4dbc 5b82 483f
00000360: 196a 86bf d51d 0e3d 80e5 bdbb 3c8b 9d3f
00000370: b3f7 3bbd 6750 403f 6708 85bf 4fb8 3fbd
00000380: 7630 203d 01f5 b3bc 5ca8 a1bc bca9 803c
00000390: 8369 88bd be26 943f d8a8 993f 70e1 28bd
000003a0: b426 e83f 1b2e fa3b e0a4 2abd 1c4c 6b3f
000003b0: 69b6 31bd 0848 bc3c 2d73 c13f 3f84 a23f
000003c0: 3039 7fbc 6ac2 773f 8a54 8d3f 2288 59bb
000003d0: 17e9 4e3f faed c53f b6ee 7b3d 7ca6 cd3c
000003e0: c185 cb3f 8c2d c9bc 0df5 953f aed7 a93f
000003f0: 2cbf 563f 824d 5f3e d882 833f eedc 793d
0.041466154 -0.016464569 1.2121246 -0.08392419 1.3637897 0.04912115 0.06484137 1.2728081
-0.048360534 0.63789946 -0.050990477 0.0064036623 0.0026214495 -0.015472032 1.2686001 0.03249538
0.058957644 0.04159111 -0.07947261 -0.041323613 -0.009779036 -0.038572382 1.6752652 1.3239607
0.005235139 0.06406208 -0.025698006 0.401806 2.0463986 -0.016984496 -0.07672557 -0.075012945
0.07987691 1.2731091 0.081216834 0.08773785 0.083801225 -0.00083891867 -0.003450899 1.359925
1.2561861 -0.061738946 1.4061142 0.031776197 -0.0034830107 0.052160252 0.009832348 0.068201736
-0.051379357 -0.066906825 1.1067255 0.056298524 1.1656803 1.9249682 1.7627965 1.2505985
-0.08635975 0.04168661 1.3025669 0.0086835185 -0.08626095 1.4201864 0.011768863 0.068289734
1.3514073 0.09501168 0.07579571 -0.08334401 -0.0036968638 1.2237365 -0.07919354 0.9610927
0.07889237 -0.030905062 -0.06405436 0.017630681 0.4657576 0.017536893 -0.045363516 0.72942984
0.3227498 0.046094462 0.08068607 0.33237952 0.27413997 0.9616017 0.080459364 0.3068232
-0.2587107 -0.018632516 -0.0652163 1.1808283 -0.005638331 1.5442377 0.15063287 -0.15091282
0.045937918 0.02422818 0.030245304 -0.036947712 0.0393266 1.2386293 1.2969725 0.024317108
0.3889898 0.04139867 0.083316825 1.1331544 0.01921247 -0.046919014 1.2403151 1.2540511
0.059631683 2.0933247 2.0403204 -0.0047610104 1.0782255 0.8434719 -0.007319361 0.0248046
1.166858 -0.03725518 1.6092877 1.9427255 1.2889394 1.3074579 0.099321656 0.024122305
0.0016650138 -0.031017657 1.4520575 -0.048448827 0.5572011 -0.08424378 0.014439538 0.6097843
-0.028661754 1.5613488 -0.06163699 -0.086717 0.03879995 0.04181575 1.7421768 -0.054373916
0.07513257 0.78693914 0.085380115 0.035356678 0.07521681 -0.031401902 1.1364574 1.2243764
0.96326 -0.06429148 -0.023858607 0.73049504 1.2947901 0.045077153 0.89913076 -1.1077894
0.05869896 -0.022832587 0.02782262 -0.04236655 1.0770457 -0.07770562 -0.060953878 1.495017
0.7827384 0.020974264 1.3112473 -0.020356286 0.05157137 0.06552346 0.026461719 0.0040651467
-0.054024283 0.06619971 1.268234 -0.0040866192 0.49898806 1.4270418 1.2580274 1.4873405
0.012427375 -0.0028290728 1.9000388 -0.07193892 -0.03480227 1.5167209 -0.030300919 -0.047529127
0.8596912 -1.2642056 -0.04874038 -0.041467797 0.064748436 1.2364297 0.03292644 1.5797443
0.058251537 -0.02481295 -0.0029089814 -0.013420134 0.7571814 -0.02374998 0.023649082 1.7049409
0.9223894 -0.0026005425 0.018699527 0.7893933 0.90016 1.6955833 -0.0125253275 0.78323907
-1.0501128 0.03469642 -0.005795181 1.2308116 -0.04589052 0.75122684 -1.0393189 -0.04680663
0.039108716 -0.021967413 -0.0197336 0.015705936 -0.0666075 1.1574323 1.2004652 -0.04123062
1.8136811 0.0076348907 -0.041661143 0.9191301 -0.04338685 0.022983566 1.5113274 1.2696608
-0.015577599 0.9678103 1.1041424 -0.0033192714 0.80824417 1.546325 0.06150695 0.0251038
1.5900193 -0.024557851 1.1715409 1.3268945 0.83885455 0.2180691 1.0274305 0.06100171

network.4.bias f4 [3]
00000000: 0475 31be 4dac f4bc d40a 1ebe
-0.17329794 -0.029867316 -0.15433818

network.0.weight f4 [128, 64]
00000000: ccb8 c33d 667b d43d 20e5 efbc 1c2a eb3d
00000010: b05c e0bc 38a2 ce3c 1045 79bd 2858 963d
00000020: ccac e13d 0ecf bbbd a483 de3d b0a6 bf3c
00000030: 9422 bd3d 50ae 8a3c 5ce1 763d 6094 90bc
00000040: c658 c53d 385b 973c a405 6fbd 0882 023d
00000050: ace5 6bbd c02c 70bc fcf3 4fbd aed2 a93d
00000060: 2a14 cabd 8c09 6cbd 6c93 10bd feec 99bd
00000070: f04b 413c 8ad8 fcbd 2832 e73d c076 d9bd
00000080: 96a3 c53d c869 aa3c ac3f 26bd f831 9e3d
00000090: 5897 9f3c b0d6 ce3d 00e3 5f3c 9878 21bd
000000a0: e890 093d 08d8 0abd a47a 573d fe8f e43d
000000b0: b6fb 933d 14d5 5fbd 9ec7 933d 7038 b73c
000000c0: 7a01 823d 8608 9cbd a46a fdbd 0cd1 45bd
000000d0: 9c5b c4bd d60e d23d d878 133d cc13 543d
000000e0: fcec 213d 0082 0ebb 0459 c83d 38e4 b5bd
000000f0: 20f3 003c f4ba aebd 50e0 1d3d e052 30bd
00000100: 98e2 1c3d 7857 d5bc 0653 d43d 50bb 97bd
00000110: 8aad 98bd e6af 98bd e241 e63d e49f 2a3d
00000120: 1056 f63d 4e45 d3bd 98eb fdbd fe48 c8bd
00000130: 5a35 acbd 6c61 4f3d b855 373d 76b7 d43d
00000140: 7434 84bd aa84 aebd f8d3 873d e4f3 4ebd
00000150: 5c5f 9b3d f0fe f2bc 9a71 923d 60e7 c6bd
00000160: ba30 81bd c418 1c3d 387b d83c f489 02bd
00000170: 0298 983d fa07 ae3d f6a4 b9bd 96ab 88bd
00000180: d268 ea3d f4c3 2cbd 2c83 35bd 48b4 f7bd
00000190: 849a 92bd 88cc ff3c 3829 87bc aad3 b9bd
000001a0: 4028 403b 6ede aebd 8630 d9bd 3af8 8cbd
000001b0: e60d e0bd 4401 a3bd 5ee6 ff3d 7068 c13c
000001c0: 1cc7 1d3d 66c4 eebd 5422 a8bd 146c 2abd
000001d0: c01f a03c 8642 e1bd 649b 5cbd 5842 99bd
000001e0: 009e b539 5084 3ebd f0ea 0dbc 2479 adbd
000001f0: 98b7 afbd d259 95bd 9c41 2fbd 500e cabd
00000200: 7409 bec0 4c17 cbc0 e455 93be 01fb 1f40
00000210: 5862 4a40 b193 85bf e312 afc0 8c5d 9c3e
00000220: 9094 06c0 b1d1 2ebf 585b 433f 4c0f 3b3f
00000230: 7dfb bb3c 58c6 66bf 7bf1 9240 38f4 0f3f
00000240: 7ce2 f9be dc98 b8bd 9d4c 1fbf a050 0140
00000250: 4c35 0ac0 80bd a2bf 4888 7a3f 12cc 7940
00000260: 9b33 d53e ae05 09bf 0f35 353f 6ae6 c7bf
00000270: 4b62 183f 3647 9dbc 9f92 23c0 cc73 b93f
00000280: c536 80bf 76c9 853f 5d26 273e df7f f1bf
00000290: 4d36 8abe 7c91 a5bf a350 cb3e 2d71 de3f
000002a0: c18d 0340 9287 ebbf bc9d 123f f024 953e
000002b0: 4efe e6be 7d54 b03f 418b 0d3f 67c5 8c3d
000002c0: 0777 633f ccd5 72be 6aa9 71bd af91 f7bf
000002d0: 613f 0abf 3ee4 87be 6280 2c3e 231f c5bf
000002e0: cd6c 67bd ca6d a13e 044a 7dbf 1ffb f2bf
000002f0: 8846 7cbd 35b9 77bc d0e4 b4bc 79c9 85bd
00000300: 10a3 a33d 9c01 dc3d 20bf 4abc 3845 e5bc
00000310: 8014 ef3a a090 f4bb 602e f63c c87a 0f3d
00000320: 8483 e8bd 84f2 3cbd cc95 d73d c073 473d
00000330: a0b9 cbbb 0858 9abd 429f 9cbd fa50 e5bd
00000340: 8ce4 26bd 90e7 2c3d 2c3b a33d 9863 6c3d
00000350: 284a e2bd e4f2 99bd b09a a1bc 38a4 f73d
00000360: 1821 943c d097 04bd 7cd2 533d e802 43bd
00000370: 8cb2 a5bd e4d9 ba3d acce 68bd 2847 cdbc
00000380: 7eab febd 5255 ab3d 58f4 c13d f498 3a3d
00000390: 9080 b2bd 18a8 fcbd f6ea cfbd 36e6 be3d
000003a0: 6cd0 753d d66c d73d 561c 863d 4c95 013d
000003b0: 8071 a0ba 86b0 c2bd 6c55 dbbd 0273 efbd
000003c0: e497 513d 2860 7bbd 2815 cebc 5054 93bd
000003d0: d098 babc 862e b4bd 4046 a7bd 00d6 293d
000003e0: 202a 18bd 340a 9e3d 0c41 24bd 10cb bbbd
000003f0: 68ac b4bc d030 78bd 60a4 1cbd fcb5 f3bd
0.095567316 0.10375099 -0.02928406 0.11482641 -0.027387947 0.025223836 -0.06085688 0.07341033
0.110192865 -0.09170352 0.10864952 0.023394912 0.09235111 0.016928822 0.060273513 -0.017648876
0.09636073 0.018476114 -0.05835499 0.03186229 -0.05759208 -0.014659107 -0.05076979 0.08292137
-0.09867127 -0.057626292 -0.035296842 -0.07515906 0.01179789 -0.12345989 0.112888634 -0.10618353
0.09650342 0.020802394 -0.040588066 0.077243745 0.019481346 0.10099542 0.013664961 -0.039421648
0.03358546 -0.03389743 0.052607194 0.11160277 0.072257444 -0.054646567 0.07215808 0.022365779
0.06347938 -0.07618813 -0.12373856 -0.048295066 -0.095877856 0.10256736 0.036003917 0.051776692
0.039532647 -0.0021744967 0.097826034 -0.0888142 0.0078704655 -0.08531752 0.038544 -0.043047786
0.038302034 -0.026042685 0.10367398 -0.07408774 -0.07454975 -0.07455425 0.11243035 0.04165639
0.12028134 -0.10315953 -0.123984516 -0.09779547 -0.084086135 0.050630018 0.044759482 0.10386555
-0.06455317 -0.085213974 0.06632227 -0.05052556 0.07586548 -0.02966258 0.07150574 -0.097121
-0.06308122 0.038109556 0.026425943 -0.031869844 0.07450868 0.08497615 -0.09064667 -0.066733524
0.11445774 -0.042179063 -0.04431455 -0.12094933 -0.07158378 0.031225458 -0.016499147 -0.09073575
0.0029320866 -0.08538519 -0.10604958 -0.06883283 -0.10940151 -0.07959226 0.12495111 0.02360937
0.038519964 -0.11658554 -0.082096726 -0.041606978 0.01954639 -0.109990165 -0.05385913 -0.07483357
0.0003464073 -0.0465129 -0.0086619705 -0.08470371 -0.085799396 -0.072925225 -0.04278718 -0.09866011
-5.938654 -6.346594 -0.28776467 2.499695 3.1622524 -1.0435697 -5.4710555 0.3054012
-2.1028175 -0.68288714 0.76311255 0.73070216 0.022947067 -0.901464 4.5919776 0.56232023
-0.48805606 -0.090135306 -0.6222628 2.020546 -2.159503 -1.2714081 0.978642 3.9030805
0.41640934 -0.5352429 0.70784086 -1.5617192 0.59524983 -0.019198995 -2.555824 1.4488463
-1.0016714 1.0452106 0.16323228 -1.8867148 -0.26994553 -1.2935023 0.39709958 1.7378289
2.055527 -1.8400748 0.57271934 0.29129744 -0.45115894 1.3775784 0.5529061 0.06873589
0.88853496 -0.2371437 -0.058999456 -1.9341334 -0.5400296 -0.26541322 0.16845849 -1.5400127
-0.056500245 0.31529075 -0.98941064 -1.8982886 -0.0615907 -0.01511984 -0.022081763 -0.065325685
0.07990086 0.107424945 -0.012374669 -0.027987108 0.0018240362 -0.0074635297 0.03005141 0.035029203
-0.113532096 -0.04612972 0.10526618 0.048694372 -0.0062171966 -0.07536322 -0.076475635 -0.11197086
-0.040745303 0.042213023 0.079702705 0.057712168 -0.110493004 -0.07517031 -0.019727081 0.12091869
0.018082187 -0.032371342 0.051714405 -0.047610193 -0.08090696 0.091235906 -0.056837723 -0.025058344
-0.12435053 0.08365883 0.09470433 0.045556024 -0.087159276 -0.12336749 -0.10152237 0.09321253
0.06001322 0.10518806 0.065483734 0.03163652 -0.0012240857 -0.095063254 -0.10709652 -0.11691858
0.051170245 -0.061371 -0.025156572 -0.07193816 -0.022777945 -0.08797936 -0.08167696 0.041463852
-0.03714955 0.0771679 -0.040101096 -0.091695905 -0.022054866 -0.060593426 -0.038242698 -0.11899945

network.0.bias f4 [128]
00000000: 00c8 303a b8ef a4bc 63f4 8c3d 003f f53b
00000010: a64b b5bd d248 69bc da59 bdbd 30e1 983c
00000020: bc8a c03c 7e5b f1bd 801d afbd 9c94 80bd
00000030: 1406 33bd 7f95 07bd ae75 2c3d 1610 cabd
00000040: 70b6 8dbb da84 d3bd fd0a 98bb 50f2 a5bd
00000050: 66d7 c3bd 2436 963d 3352 ee3c c877 2dbd
00000060: 5776 403d 030e c3bb 6cf2 393d a055 f0bb
00000070: 0b09 ccbd 6832 39bd d27d dbbd c1dd 823c
00000080: add0 1e3d 4dbf ce3d 66a9 fbbd 949d e63d
00000090: 5c37 89bc 5c9b 0b3d ccc1 5bbd a8a4 133d
000000a0: 7e82 663d 4107 513d 6a5d d3bd a8a4 9b3c
000000b0: 77b5 933c 4985 10be 9d8f 293d c470 883c
000000c0: ba94 cdbd d6c7 dbbd a019 a73b fc54 cd3d
000000d0: 3cad 143d e0fd 8f3c d0a9 04bc 925c febd
000000e0: fa7b 443c 78de a63c 350c dfbd a0a2 bcbc
000000f0: 46e1 f83d 7056 81bd dec3 afbd 72af f13c
00000100: 5b0e cf3c 4be3 aa3d 2e4e a8bd 4e52 a5bb
00000110: d083 f63c 4a65 a13d c5e2 f13c 181a c43c
00000120: 3af8 fdbc 60ab b6bc 3227 8abd ab63 5d3b
00000130: b207 063d 3422 82bd 44f0 aebd bbf1 8c3c
00000140: 2896 893c d459 71bd f8a9 5d3d 6095 d0bd
00000150: 5090 7bbd 2ebc 6fbd dca2 84bd 237f cdbc
00000160: 7e67 9b3c 4cc7 32bd 48f2 8abc e483 85bd
00000170: aa53 a8bd 0916 803c 50c5 bc3d c6c6 ad3d
00000180: 24cc c7bd 256c d53c 7945 a1bd d0cf 16bd
00000190: e01d 37bc c6f8 683d d0ef 823d 5449 cfbd
000001a0: 3813 de3c a45f e63c 4b30 43bc af84 3ebd
000001b0: c8b2 71bd ac9f b4bd 40f9 fbbd 8360 64bd
000001c0: 888b 45bd 16d7 b63c c073 58bd b6a3 d43d
000001d0: 5c9f b4bd c4d6 b33d 4239 90bd de3e a9bc
000001e0: a8c0 3bbd 7ccc 573d 89ff 563d a141 473d
000001f0: 0c4e b1bd b315 f73c 5bca 8c3d f812 d2bd
0.00067436695 -0.020133838 0.068825506 0.007484317 -0.088523194 -0.014238553 -0.092456535 0.018662065
0.023503654 -0.11785029 -0.085505486 -0.06278345 -0.04370697 -0.033101555 0.042104416 -0.098663494
-0.0043247268 -0.10328074 -0.004639982 -0.08102858 -0.09562568 0.07334545 0.02909193 -0.04235056
0.046987858 -0.005952598 0.045397207 -0.007334426 -0.09962662 -0.045214087 -0.10717358 0.015974881
0.038773227 0.100950815 -0.122881696 0.112605244 -0.01675003 0.03408371 -0.053651616 0.0360457
0.05627679 0.05103231 -0.10320552 0.018999413 0.018030865 -0.14113344 0.041396726 0.016655333
-0.10038133 -0.10731475 0.0050994903 0.10025975 0.03629802 0.017577112 -0.008097127 -0.1242
0.011992449 0.020369753 -0.10891 -0.023026764 0.121523425 -0.06315315 -0.085822806 0.029502604
0.0252754 0.08344134 -0.082180366 -0.005045212 0.03009215 0.078806475 0.029527077 0.023938224
-0.031002153 -0.022298515 -0.06745757 0.003378133 0.032722183 -0.0635418 -0.08541921 0.01720511
0.016795233 -0.058923557 0.054117173 -0.10184741 -0.061416924 -0.05852907 -0.064763755 -0.025085038
0.018970247 -0.043647096 -0.016961232 -0.06519297 -0.08219083 0.015635507 0.09217322 0.08485179
-0.097557336 0.026052544 -0.07874579 -0.03681928 -0.011176556 0.056877874 0.06393397 -0.10121408
0.027108774 0.028121777 -0.011913369 -0.046513256 -0.05900839 -0.088195175 -0.123034 -0.055756103
-0.04822877 0.022319358 -0.052844763 0.10382788 -0.08819458 0.08781198 -0.07042171 -0.02065986
-0.04583803 0.052685246 0.05248979 0.048646573 -0.086574644 0.030161714 0.06874534 -0.10257524

network.2.weight f4 [128, 128]
00000000: e655 123d ccfc 8b3c 8498 a53c 0f9a 9e3d
00000010: 6bff 49ba eee9 76bd cf2c 23bd d804 3b3c
00000020: a8f2 5ebc cda5 81bd 0092 213b 5a4d 4f3d
00000030: 400a 403b 58d8 603d cb59 59bd 2bf7 8d3d
00000040: 348d 063b fde6 0dbd b673 ce3c c1ef 263d
00000050: 953a 1bbd 8240 68bd 4e7b 083d 5e87 9fbd
00000060: d80d ba3c df4a 673c dac8 76bd 0889 32bc
00000070: a92e 0f3c 56d7 7b3d ed5f 843d 4cf5 babd
00000080: 9579 b8bd 1e2f 3a3d c197 b23d 29bc 923d
00000090: 59b9 913c 31a3 ab3d a435 26bd 3b72 20bc
000000a0: c59c 99bd 186e b3bd 0cd7 74bd 0a35 a4bd
000000b0: 1f64 353c 3e1f 903c 0c78 673c 8cdc 263d
000000c0: 682f 90bd fcfa d0bc cd70 8e3d 2933 a0bd
000000d0: 7674 7e3d fcf9 de3c 1ef5 92bd ac36 9c3c
000000e0: 3bc5 01bd a164 40bc f91a 10bd 46e2 233d
000000f0: 37c8 8c3d eae4 4a3d 78fd 0abc 98e6 b6bd
00000100: 555f 7b3d 954f 0bbc f16a 933d 8aaa b73c
00000110: 0073 be3a f4e5 f43c 3e35 1b3d 33b7 ce39
00000120: d639 8c3b a029 6bbb ca10 783d 8fdb c93c
00000130: f779 25bd 09b1 a83d e375 ad3d db62 723d
00000140: 44bd 813c 1025 b13b db01 a8bd 6bf6 833d
00000150: 5110 82bd 005e aabd 5f85 5d3c fb40 f2bd
00000160: e51a 163b fa5c 2ebd fbed 2eba 3c7b 0bbd
00000170: a560 923d 0437 aebd 0804 853c ff05 04bc
00000180: 133f acbd d825 5c3d 8b26 02bc 8bf9 d1bd
00000190: cf1a b5bd 8856 333c 9ff7 813d d400 a5bc
000001a0: 1ae7 d5bc 2a1a b6bd 6c59 3d3d aadf 23bd
000001b0: 1468 26bd 48c1 093d f74f 9e3d e8d5 e43c
000001c0: c0d7 d03c 2507 9b3d 005e 763b f805 603c
000001d0: c09f d3bb b5ea 8cbd 33f1 8fbc 55af 7bbd
000001e0: 2a83 513d b3b9 79bd 96c3 c6bd a6fa f2bc
000001f0: 2379 863d 9cbb a5bd 6aeb 2cbd 30eb ddbb
00000200: 2254 1ebd 9e08 2b3d af1f 9e3d 12f4 433d
00000210: e4b3 98bc 701f 8ebd 7e75 95bd 1463 adbc
00000220: 621a e4bc 4048 89bd d810 b33c 0b2f 09bd
00000230: d0fa d13c 5840 40bd 907c 02bc d2e8 d9bc
00000240: a261 5e3d 3235 a5bd a7c3 0ebd a0a0 9a3c
00000250: 14ff cbbc 8045 c6ba 4eaf 743d 704e 4f3c
00000260: 6085 323c 5489 d33c 32c8 42bd 4196 10bd
00000270: 4a6c 2d3d 78ee 513c aa2b 6c3d 78e3 38bc
00000280: f70c aa3d 8635 583d 48d8 cabc 3405 39bd
00000290: 7838 923c e802 97bd 00cd 25bd 2cd2 dd3c
000002a0: 109e fc3b c2d7 233d 406f 17bd 3956 983d
000002b0: e415 47bd 3882 39bd da37 723d f8b2 8bbc
000002c0: f423 cf3c 08a1 80bc ca05 80bd 20b7 67bb
000002d0: ae3f 243d d6fd 733d f915 8a3d 20fb 4bbb
000002e0: b11c 833d 6c40 cc3c a05d 563b 00de da3a
000002f0: 902e 0abc 98c9 ce3c a0a1 95bb 72d4 683d
00000300: 0092 5cbc be0a 49bd 246d d23c f6dc 4abd
00000310: 66d5 603d 1dd7 933d 287a 683c 5c40 91bc
00000320: b0c9 82bb 3e8e 293d a448 8abd 28d1 c1bc
00000330: 9493 5cbd 51bb a3bd 1285 81bd c59d 68bd
00000340: e1d4 893d ba49 5d3d 7ec8 75bd 36da 8ebd
00000350: 071c a23d dcde ab3c f6b7 263d 0827 623c
00000360: 5046 07bd 1698 43bd eac8 423d 0fd2 b2bd
00000370: 3fa1 96bd 58a8 da3c 64e2 bdbc d080 8a3c
00000380: 7217 413d 4e0d 50bd a7cb 4bbd eaac 5ebd
00000390: 2d62 9ebd 200d c4bb 2db7 993d 6006 b1bb
000003a0: 5e8d 463d 780c 34bd 20af 0f3c 41ed 87bd
000003b0: 0073 bfbb f8e5 9e3c 63e7 1abd 3b32 a63d
000003c0: 1c6f cc3c f215 353d b727 b43d 4e78 193d
000003d0: 908a e3bb c2e8 2c3d 2762 b23d 2e46 aebd
000003e0: 0c84 88bc b6ce 2f3d 847f afbc f445 93bd
000003f0: f52a 52bd b12b 3cbd 8e18 163d ba7e 663d
0.03572645 0.017088316 0.020214327 0.07744228 -0.0007705602 -0.060281686 -0.039837655 0.011414729
-0.013607658 -0.06330452 0.0024653673 0.050610878 0.0029302984 0.05489382 -0.05306415 0.06931909
0.002053094 -0.034644116 0.02520166 0.04075599 -0.037897665 -0.056702144 0.033320718 -0.07789491
0.02271168 0.014116972 -0.06025014 -0.010896929 0.008739152 0.061484657 0.06463609 -0.09128818
-0.09007565 0.04545509 0.08720351 0.07164795 0.017788576 0.08380736 -0.0405785 -0.00979286
-0.075006045 -0.08761233 -0.059775397 -0.08017929 0.011071234 0.017593022 0.0141277425 0.040737674
-0.07040292 -0.025510304 0.06955109 -0.07822258 0.062122785 0.027218811 -0.07175659 0.019069038
-0.031682234 -0.011742742 -0.035181973 0.040010713 0.068741255 0.049534716 -0.008483283 -0.08930701
0.061370213 -0.008502861 0.07198132 0.022420187 0.0014530122 0.029894806 0.037892573 0.00039427876
0.0042793555 -0.0035882965 0.060562886 0.024640827 -0.040399518 0.08236892 0.08469751 0.059176307
0.01583732 0.0054060295 -0.08203479 0.06443485 -0.06350768 -0.0831871 0.013520568 -0.118288
0.0022904214 -0.042569138 -0.0006673035 -0.034053072 0.0714734 -0.08506587 0.016237274 -0.00805807
-0.08410468 0.053747028 -0.00794376 -0.10252675 -0.08843004 0.010945924 0.06346058 -0.020141996
-0.026111174 -0.08891709 0.046227857 -0.040008225 -0.0406266 0.033631593 0.07730096 0.02793403
0.025493503 0.07569722 0.003759265 0.013673298 -0.0064582527 -0.06880704 -0.017571067 -0.061446507
0.05115048 -0.060968112 -0.09705274 -0.029660534 0.06566074 -0.08092424 -0.042216696 -0.0067724213
-0.038654454 0.041756265 0.07720887 0.047840185 -0.018640466 -0.0693959 -0.072978005 -0.021165408
-0.027844612 -0.06703234 0.021858618 -0.03349213 0.025632292 -0.046936363 -0.007964268 -0.026600275
0.05429233 -0.08066787 -0.034854557 0.01887542 -0.024901904 -0.0015126914 0.059737496 0.012652978
0.010896057 0.02582232 -0.047554202 -0.035299543 0.0423396 0.012813203 0.05765883 -0.0112847015
0.08303254 0.05278542 -0.024761334 -0.045170978 0.017849192 -0.07373601 -0.040478706 0.027077757
0.007709272 0.040000685 -0.03697133 0.07438321 -0.04860486 -0.045290202 0.059135295 -0.017053112
0.025285698 -0.015701786 -0.06251104 -0.0035356954 0.040099792 0.05956825 0.06742472 -0.0031125024
0.06401957 0.024933062 0.0032709613 0.0016698241 -0.008433953 0.025242612 -0.0045663863 0.05684323
-0.0134625435 -0.04908251 0.025686808 -0.04952713 0.054891013 0.07218764 0.014189281 -0.017730884
-0.003991328 0.04139542 -0.06752136 -0.023659304 -0.05385168 -0.07994712 -0.06324209 -0.056791086
0.067300566 0.05402539 -0.060005657 -0.06975214 0.07915502 0.020980291 0.040702783 0.013803251
-0.03302604 -0.047752462 0.047554888 -0.08731472 -0.07354974 0.0266916 -0.02317924 0.016907126
0.0471415 -0.05079394 -0.049754765 -0.054364122 -0.07733569 -0.00598301 0.07505641 -0.0054023713
0.048474662 -0.043957204 0.00876978 -0.066370495 -0.0058425665 0.019396767 -0.037818324 0.081150495
0.024955325 0.04421038 0.087966375 0.037468247 -0.006944008 0.042214163 0.08710127 -0.085094795
-0.016664527 0.042921744 -0.021423109 -0.07191077 -0.0513105 -0.045940105 0.03664451 0.0562732

network.2.bias f4 [128]
00000000: 2ca4 d2bb a3c2 a3bd f85d dc3c 6812 f3bb
00000010: 7b2c 883d 4e86 78bd 8c46 74bd d783 1b3d
00000020: 9900 f3bb b69f bb3d e48f a2bd fa43 14bd
00000030: ad13 5dbd 717a 65bd ec69 bd3c e4d0 4ebc
00000040: 74aa d0bc 526e eb3c 1a5c efbc 3e32 8dbb
00000050: 97bd 99bd 2bb9 0cbd cdc0 1fbb 217c e33c
00000060: f870 3c3d 6c2c 24bd ef5b 98bd 6506 c83c
00000070: 0731 883d 9156 8ebc d9c2 5a3d 3e91 9c3d
00000080: 66db 98bd 7efe 423d 4aeb 43bd d2fe e4bc
00000090: a6d1 243d 62fb 9dbc f1ea 4ebc d601 7e3d
000000a0: caa2 553d 14c3 9cbc a839 ba3c 48b8 18bd
000000b0: 1808 b8bc 6518 67bc 5dc0 5ebd 67e9 0ebd
000000c0: 9478 c4bc 4841 18bd fcca 163d a92d 25bd
000000d0: d1e6 263d 4daa 983d c4bb 4f3d e3fb f73c
000000e0: 14b8 8bbd f26b 11bc c51f 203d 4c4b 05bd
000000f0: fb31 6ebd ebc3 713d b0ac f9bc a09b 66bd
00000100: 24b9 343d 1a0f e03c fe69 fdbb 6d2c a7bd
00000110: 4bd6 78bc f880 7d3d 1906 81bb 2076 b73d
00000120: b089 adbc 5d70 93bb 2ab3 a6bb 406d 56bc
00000130: 2533 943c ddab 66bc 2de3 93bb 3bd7 bf3d
00000140: 7640 da3c 4238 8539 1e6a a4bd d6f1 ba3c
00000150: 92dd e83c 9346 b23d 9f5d 60bd cfbf dc3c
00000160: f916 903d f91f c5bc cff7 b3bd c512 6b3d
00000170: b7c2 92bd 9344 1c3d 3a9e 4e3d d3f2 2ebb
00000180: dcb3 95bc 4a31 88bc af90 65bd 11b0 67bd
00000190: 5b7e 23bd e1cb e43c dc98 813d 40f8 eabc
000001a0: a6a7 db3d 1fb4 10bc 5125 dfbc 8e16 943d
000001b0: f250 7cbd f175 1dbc 08d7 843d af9b 533d
000001c0: 2032 1ebc 7afb 4c3d 00f7 613d 6169 87bc
000001d0: d650 303d 2bc0 a53d 4886 0bbd 3ab3 80bd
000001e0: 6868 153d d8bc 04bc 4c45 2a3b 5626 653d
000001f0: 2483 803d d58b 2e3d 2db2 293d 98b4 ecbc
-0.006428262 -0.079961084 0.026900277 -0.0074179657 0.06649109 -0.060674958 -0.05963759 0.03796753
-0.0074158427 0.09161322 -0.07937601 -0.03619764 -0.053973842 -0.056024972 0.023121797 -0.012623046
-0.025471903 0.028739128 -0.029218722 -0.004308968 -0.075068645 -0.034356277 -0.0024376393 0.02776915
0.046006173 -0.040081427 -0.0743941 0.024417112 0.06649976 -0.017375262 0.053408477 0.0764489
-0.07463722 0.047605984 -0.04783181 -0.027953539 0.040239 -0.019284908 -0.012629257 0.06201347
0.0521572 -0.01913599 0.02273257 -0.03728512 -0.022464797 -0.014104937 -0.05438267 -0.03489056
-0.023983277 -0.037171632 0.036814675 -0.040326748 0.040747467 0.07454357 0.050716177 0.030271476
-0.068222195 -0.008875834 0.039092798 -0.03254251 -0.058153134 0.059024733 -0.030477852 -0.05630076
0.044121876 0.027350951 -0.0077335825 -0.081627704 -0.01518781 0.061890572 -0.0039374945 0.089580774
-0.021183819 -0.0044994787 -0.005087276 -0.013087571 0.018090794 -0.014079061 -0.0045131654 0.09367224
0.026642065 0.00025409652 -0.08028053 0.022820394 0.028425965 0.08704867 -0.054776784 0.02694693
0.07035632 -0.024063097 -0.087875 0.057390947 -0.07166045 0.038151335 0.050443865 -0.0026695027
-0.01827424 -0.016625065 -0.056046184 -0.056564394 -0.039915424 0.027929248 0.06327984 -0.028682828
0.10725336 -0.008832007 -0.027239474 0.072308645 -0.061600633 -0.009610639 0.064863265 0.051662143
-0.009655505 0.050044514 0.0551672 -0.01652974 0.04304584 0.08093294 -0.034063607 -0.06284185
0.036476523 -0.0081016645 0.0025981246 0.055944763 0.06275013 0.042613823 0.041429687 -0.028894708

network.4.weight f4 [3, 128]
00000000: 6ad8 293d b4e0 86bc e626 9b3f 72e0 abbd
00000010: a990 ae3f 4233 493d 8dcb 843d 60eb a23f
00000020: b215 46bd 614d 233f 64db 50bd d0d5 d13b
00000030: a0cc 2b3b 687e 7dbc 7d61 a23f e019 053d
00000040: 927d 713d 715b 2a3d 89c2 a2bd f342 29bd
00000050: 4038 20bc 13fe 1dbd 176f d63f 8b77 a93f
00000060: 878b ab3b fb32 833d a084 d2bc 84b9 cd3e
00000070: 32f8 0240 1223 8bbc 4c22 9dbd 63a0 99bd
00000080: 8196 a33d 3df5 a23f 0355 a63d e7af b33d
00000090: fa9f ab3d e1ea 5bba 7a28 62bb 0612 ae3f
000000a0: b5ca a03f fae1 7cbd 8dfb b33f c227 023d
000000b0: 3943 64bb fda5 553d db17 213c 5aad 8b3d
000000c0: 2973 52bd 7206 89bd 2ea9 8d3f 4899 663d
000000d0: 0335 953f 5c65 f63f 51a3 e13f 9d13 a03f
000000e0: 61dd b0bd 94bf 2a3d 83ba a63f 5145 0e3c
000000f0: 95a9 b0bd abc8 b53f 30d2 403c 7ddb 8b3d
00000100: eafa ac3f 7c95 c23d c83a 9b3d 44b0 aabd
00000110: 1547 72bb 66a3 9c3f 3930 a2bd 2c0a 763f
00000120: 5392 a13d 9d2c fdbc ef2e 83bd 386e 903c
00000130: c877 ee3e 88a9 8f3c 18cf 39bd eabb 3a3f
00000140: 763f a53e 8ccd 3c3d bd3e a53d a62d aa3e
00000150: 135c 8c3e 872b 763f e1c7 a43d ee17 9d3e
00000160: bb75 84be 38a3 98bc 2090 85bd 6225 973f
00000170: c0c1 b8bb 95a9 c53f 813f 1a3e e488 1abe
00000180: 6629 3c3d 2d7a c63c 00c5 f73c 7c56 17bd
00000190: ee14 213d 688b 9e3f 3203 a63f ac34 c73c
000001a0: ac29 c73e a791 293d 03a2 aa3d 340b 913f
000001b0: 7863 9d3c 272e 40bd a5c2 9e3f bf84 a03f
000001c0: 5a40 743d 08f9 0540 9c94 0240 4002 9cbb
000001d0: 4b03 8a3f c6ed 573f 40d7 efbb 0433 cb3c
000001e0: 9a5b 953f e398 18bd 24fd cd3f 3bab f83f
000001f0: f7fb a43f c85a a73f 2769 cb3d 249c c53c
00000200: 983c da3a be18 febc 05dd b93f 4772 46bd
00000210: bba4 0e3f 0188 acbd d093 6c3c d31a 1c3f
00000220: 0ecc eabc 47da c73f 1277 7cbd af98 b1bd
00000230: b2ec 1e3d fe46 2b3d a6ff de3f 2fb7 5ebd
00000240: 1bdf 993d d874 493f c5db ae3d 2ad2 103d
00000250: 450b 9a3d 489f 00bd 7077 913f 5eb8 9c3f
00000260: 3598 763f 40ab 83bd 2073 c3bc b901 3b3f
00000270: afbb a53f d2a2 383d 6f2d 663f 0bcc 8dbf
00000280: 526e 703d 680b bbbc 43ec e33c 8c88 2dbd
00000290: a2dc 893f 2024 9fbd c6aa 79bd b85c bf3f
000002a0: 8b61 483f 38d2 ab3c f4d6 a73f 3ac2 a6bc
000002b0: 803c 533d 2a31 863d 3fc6 d83c ec34 853b
000002c0: 9148 5dbd b793 873d 7e55 a23f 0ce9 85bb
000002d0: 5d7b ff3e 4ea9 b63f 0b07 a13f 2c61 be3f
000002e0: 309c 4b3c f767 39bb 7934 f33f b654 93bd
000002f0: d38c 0ebd e923 c23f a239 f8bc e7ad 42bd
00000300: b914 5c3f 7dd1 a1bf fea3 47bd 23da 29bd
00000310: d49a 843d 5443 9e3f e0dd 063d 1035 ca3f
00000320: 2a99 6e3d 8744 cbbc 9ca4 3ebb 1fe0 5bbc
00000330: a4d6 413f 518f c2bc b8bb c13c 813b da3f
00000340: b621 6c3f dd6d 2abb c02f 993c ae15 4a3f
00000350: e370 663f e008 d93f 0837 4dbc 5b82 483f
00000360: 196a 86bf d51d 0e3d 80e5 bdbb 3c8b 9d3f
00000370: b3f7 3bbd 6750 403f 6708 85bf 4fb8 3fbd
00000380: 7630 203d 01f5 b3bc 5ca8 a1bc bca9 803c
00000390: 8369 88bd be26 943f d8a8 993f 70e1 28bd
000003a0: b426 e83f 1b2e fa3b e0a4 2abd 1c4c 6b3f
000003b0: 69b6 31bd 0848 bc3c 2d73 c13f 3f84 a23f
000003c0: 3039 7fbc 6ac2 773f 8a54 8d3f 2288 59bb
000003d0: 17e9 4e3f faed c53f b6ee 7b3d 7ca6 cd3c
000003e0: c185 cb3f 8c2d c9bc 0df5 953f aed7 a93f
000003f0: 2cbf 563f 824d 5f3e d882 833f eedc 793d
0.041466154 -0.016464569 1.2121246 -0.08392419 1.3637897 0.04912115 0.06484137 1.2728081
-0.048360534 0.63789946 -0.050990477 0.0064036623 0.0026214495 -0.015472032 1.2686001 0.03249538
0.058957644 0.04159111 -0.07947261 -0.041323613 -0.009779036 -0.038572382 1.6752652 1.3239607
0.005235139 0.06406208 -0.025698006 0.401806 2.0463986 -0.016984496 -0.07672557 -0.075012945
0.07987691 1.2731091 0.081216834 0.08773785 0.083801225 -0.00083891867 -0.003450899 1.359925
1.2561861 -0.061738946 1.4061142 0.031776197 -0.0034830107 0.052160252 0.009832348 0.068201736
-0.051379357 -0.066906825 1.1067255 0.056298524 1.1656803 1.9249682 1.7627965 1.2505985
-0.08635975 0.04168661 1.3025669 0.0086835185 -0.08626095 1.4201864 0.011768863 0.068289734
1.3514073 0.09501168 0.07579571 -0.08334401 -0.0036968638 1.2237365 -0.07919354 0.9610927
0.07889237 -0.030905062 -0.06405436 0.017630681 0.4657576 0.017536893 -0.045363516 0.72942984
0.3227498 0.046094462 0.08068607 0.33237952 0.27413997 0.9616017 0.080459364 0.3068232
-0.2587107 -0.018632516 -0.0652163 1.1808283 -0.005638331 1.5442377 0.15063287 -0.15091282
0.045937918 0.02422818 0.030245304 -0.036947712 0.0393266 1.2386293 1.2969725 0.024317108
0.3889898 0.04139867 0.083316825 1.1331544 0.01921247 -0.046919014 1.2403151 1.2540511
0.059631683 2.0933247 2.0403204 -0.0047610104 1.0782255 0.8434719 -0.007319361 0.0248046
1.166858 -0.03725518 1.6092877 1.9427255 1.2889394 1.3074579 0.099321656 0.024122305
0.0016650138 -0.031017657 1.4520575 -0.048448827 0.5572011 -0.08424378 0.014439538 0.6097843
-0.028661754 1.5613488 -0.06163699 -0.086717 0.03879995 0.04181575 1.7421768 -0.054373916
0.07513257 0.78693914 0.085380115 0.035356678 0.07521681 -0.031401902 1.1364574 1.2243764
0.96326 -0.06429148 -0.023858607 0.73049504 1.2947901 0.045077153 0.89913076 -1.1077894
0.05869896 -0.022832587 0.02782262 -0.04236655 1.0770457 -0.07770562 -0.060953878 1.495017
0.7827384 0.020974264 1.3112473 -0.020356286 0.05157137 0.06552346 0.026461719 0.0040651467
-0.054024283 0.06619971 1.268234 -0.0040866192 0.49898806 1.4270418 1.2580274 1.4873405
0.012427375 -0.0028290728 1.9000388 -0.07193892 -0.03480227 1.5167209 -0.030300919 -0.047529127
0.8596912 -1.2642056 -0.04874038 -0.041467797 0.064748436 1.2364297 0.03292644 1.5797443
0.058251537 -0.02481295 -0.0029089814 -0.013420134 0.7571814 -0.02374998 0.023649082 1.7049409
0.9223894 -0.0026005425 0.018699527 0.7893933 0.90016 1.6955833 -0.0125253275 0.78323907
-1.0501128 0.03469642 -0.005795181 1.2308116 -0.04589052 0.75122684 -1.0393189 -0.04680663
0.039108716 -0.021967413 -0.0197336 0.015705936 -0.0666075 1.1574323 1.2004652 -0.04123062
1.8136811 0.0076348907 -0.041661143 0.9191301 -0.04338685 0.022983566 1.5113274 1.2696608
-0.015577599 0.9678103 1.1041424 -0.0033192714 0.80824417 1.546325 0.06150695 0.0251038
1.5900193 -0.024557851 1.1715409 1.3268945 0.83885455 0.2180691 1.0274305 0.06100171
