models/dqn_last.pt (torch, 207057 bytes, 12 tensors)

network.0.weight f4 [128, 64]
0	0x3dc3b8cc	0.095567316
1	0x3dd47b66	0.10375099
2	0xbcefe520	-0.02928406
3	0x3deb2a1c	0.11482641
4	0xbce05cb0	-0.027387947
5	0x3ccea238	0.025223836
6	0xbd794510	-0.06085688
7	0x3d965828	0.07341033
8	0x3de1accc	0.110192865
9	0xbdbbcf0e	-0.09170352
10	0x3dde83a4	0.10864952
11	0x3cbfa6b0	0.023394912
12	0x3dbd2294	0.09235111
13	0x3c8aae50	0.016928822
14	0x3d76e15c	0.060273513
15	0xbc909460	-0.017648876
16	0x3dc558c6	0.09636073
17	0x3c975b38	0.018476114
18	0xbd6f05a4	-0.05835499
19	0x3d028208	0.03186229
20	0xbd6be5ac	-0.05759208
21	0xbc702cc0	-0.014659107
22	0xbd4ff3fc	-0.05076979
23	0x3da9d2ae	0.08292137
24	0xbdca142a	-0.09867127
25	0xbd6c098c	-0.057626292
26	0xbd10936c	-0.035296842
27	0xbd99ecfe	-0.07515906
28	0x3c414bf0	0.01179789
29	0xbdfcd88a	-0.12345989
30	0x3de73228	0.112888634
31	0xbdd976c0	-0.10618353
32	0x3dc5a396	0.09650342
33	0x3caa69c8	0.020802394
34	0xbd263fac	-0.040588066
35	0x3d9e31f8	0.077243745
36	0x3c9f9758	0.019481346
37	0x3dced6b0	0.10099542
38	0x3c5fe300	0.013664961
39	0xbd217898	-0.039421648
40	0x3d0990e8	0.03358546
41	0xbd0ad808	-0.03389743
42	0x3d577aa4	0.052607194
43	0x3de48ffe	0.11160277
44	0x3d93fbb6	0.072257444
45	0xbd5fd514	-0.054646567
46	0x3d93c79e	0.07215808
47	0x3cb73870	0.022365779
48	0x3d82017a	0.06347938
49	0xbd9c0886	-0.07618813
50	0xbdfd6aa4	-0.12373856
51	0xbd45d10c	-0.048295066
52	0xbdc45b9c	-0.095877856
53	0x3dd20ed6	0.10256736
54	0x3d1378d8	0.036003917
55	0x3d5413cc	0.051776692
56	0x3d21ecfc	0.039532647
57	0xbb0e8200	-0.0021744967
58	0x3dc85904	0.097826034
59	0xbdb5e438	-0.0888142
60	0x3c00f320	0.0078704655
61	0xbdaebaf4	-0.08531752
62	0x3d1de050	0.038544
63	0xbd3052e0	-0.043047786
64	0x3d1ce298	0.038302034
65	0xbcd55778	-0.026042685
66	0x3dd45306	0.10367398
67	0xbd97bb50	-0.07408774
68	0xbd98ad8a	-0.07454975
69	0xbd98afe6	-0.07455425
70	0x3de641e2	0.11243035
71	0x3d2a9fe4	0.04165639
72	0x3df65610	0.12028134
73	0xbdd3454e	-0.10315953
74	0xbdfdeb98	-0.123984516
75	0xbdc848fe	-0.09779547
76	0xbdac355a	-0.084086135
77	0x3d4f616c	0.050630018
78	0x3d3755b8	0.044759482
79	0x3dd4b776	0.10386555
80	0xbd843474	-0.06455317
81	0xbdae84aa	-0.085213974
82	0x3d87d3f8	0.06632227
83	0xbd4ef3e4	-0.05052556
84	0x3d9b5f5c	0.07586548
85	0xbcf2fef0	-0.02966258
86	0x3d92719a	0.07150574
87	0xbdc6e760	-0.097121
88	0xbd8130ba	-0.06308122
89	0x3d1c18c4	0.038109556
90	0x3cd87b38	0.026425943
91	0xbd0289f4	-0.031869844
92	0x3d989802	0.07450868
93	0x3dae07fa	0.08497615
94	0xbdb9a4f6	-0.09064667
95	0xbd88ab96	-0.066733524
96	0x3dea68d2	0.11445774
97	0xbd2cc3f4	-0.042179063
98	0xbd35832c	-0.04431455
99	0xbdf7b448	-0.12094933
100	0xbd929a84	-0.07158378
101	0x3cffcc88	0.031225458
102	0xbc872938	-0.016499147
103	0xbdb9d3aa	-0.09073575
104	0x3b402840	0.0029320866
105	0xbdaede6e	-0.08538519
106	0xbdd93086	-0.10604958
107	0xbd8cf83a	-0.06883283
108	0xbde00de6	-0.10940151
109	0xbda30144	-0.07959226
110	0x3dffe65e	0.12495111
111	0x3cc16870	0.02360937
112	0x3d1dc71c	0.038519964
113	0xbdeec466	-0.11658554
114	0xbda82254	-0.082096726
115	0xbd2a6c14	-0.041606978
116	0x3ca01fc0	0.01954639
117	0xbde14286	-0.109990165
118	0xbd5c9b64	-0.05385913
119	0xbd994258	-0.07483357
120	0x39b59e00	0.0003464073
121	0xbd3e8450	-0.0465129
122	0xbc0deaf0	-0.0086619705
123	0xbdad7924	-0.08470371
124	0xbdafb798	-0.085799396
125	0xbd9559d2	-0.072925225
126	0xbd2f419c	-0.04278718
127	0xbdca0e50	-0.09866011
128	0x3dd6a5f6	0.10480873
129	0xbccb3a28	-0.024808004
130	0x3ddc42f6	0.10754959
131	0x3d1f87b0	0.03894776
132	0xbdd8c7b0	-0.10584962
133	0x3db12938	0.0865044
134	0xbd0cdfc8	-0.034393102
135	0xbd444350	-0.047915757
136	0xbdd47f80	-0.10375881
137	0xbdfe8150	-0.12427008
138	0x3d127d18	0.03576383
139	0xbcdfafc0	-0.027305484
140	0x3d47555c	0.04866539
141	0xbdd21700	-0.10258293
142	0x3dbe0fd6	0.09280364
143	0xbdbbeaf2	-0.09175672
144	0xbcb0d148	-0.021584168
145	0x3cd5e1f0	0.026108712
146	0x3d842914	0.064531475
147	0x3dceabe4	0.10091379
148	0x3de934a0	0.113869905
149	0xbdcafcf2	-0.09911527
150	0x3d00da88	0.031458408
151	0xbd5c3978	-0.053765744
152	0xbc606e00	-0.013698101
153	0xbdbf9d0c	-0.09356126
154	0x3de92e08	0.11385733
155	0xbdbbe42e	-0.09174381
156	0x3d88d1cc	0.066806406
157	0x3d33efe4	0.04392995
158	0x3d2660a0	0.040619493
159	0xbd8a67ca	-0.067580774
160	0x3de8b10c	0.11361894
161	0x3ce10640	0.0274688
162	0x3c83ba38	0.016080007
163	0xbde199ea	-0.11015685
164	0x3d56ee84	0.05247356
165	0xbc999f00	-0.018752575
166	0xbd6a8f44	-0.057265535
167	0x3ddbe3ec	0.10736832
168	0x3ce44cb0	0.027868599
169	0xbd8da386	-0.06915955
170	0xbd819252	-0.063267365
171	0xbbc39b80	-0.005969465
172	0x3d8ef0c4	0.06979516
173	0xbd02d554	-0.031941727
174	0xbd921132	-0.07132186
175	0xbd2f54ac	-0.04280536
176	0xbdbf404c	-0.093384355
177	0x3d369888	0.04457906
178	0x3dc62780	0.09675503
179	0xbdf1023c	-0.11768004
180	0x3cedd320	0.029031336
181	0x3d843f5c	0.06457397
182	0x3cb9ae68	0.022666171
183	0xbd3655f8	-0.04451558
184	0x3d859e00	0.06524277
185	0x3d868808	0.06568915
186	0x3d3f7364	0.046740904
187	0xbcb3f050	-0.021965176
188	0xbd079408	-0.033100158
189	0x3c5b18d0	0.013372615
190	0xbcb4e4d0	-0.022081763
191	0xbd189398	-0.03725013
192	0x3da3a310	0.07990086
193	0x3ddc019c	0.107424945
194	0xbc4abf20	-0.012374669
195	0xbce54538	-0.027987108
196	0x3aef1480	0.0018240362
197	0xbbf490a0	-0.0074635297
198	0x3cf62e60	0.03005141
199	0x3d0f7ac8	0.035029203
200	0xbde88384	-0.113532096
201	0xbd3cf284	-0.04612972
202	0x3dd795cc	0.10526618
203	0x3d4773c0	0.048694372
204	0xbbcbb9a0	-0.0062171966
205	0xbd9a5808	-0.07536322
206	0xbd9c9f42	-0.076475635
207	0xbde550fa	-0.11197086
208	0xbd26e48c	-0.040745303
209	0x3d2ce790	0.042213023
210	0x3da33b2c	0.079702705
211	0x3d6c6398	0.057712168
212	0xbde24a28	-0.110493004
213	0xbd99f2e4	-0.07517031
214	0xbca19ab0	-0.019727081
215	0x3df7a438	0.12091869
216	0x3c942118	0.018082187
217	0xbd0497d0	-0.032371342
218	0x3d53d27c	0.051714405
219	0xbd4302e8	-0.047610193
220	0xbda5b28c	-0.08090696
221	0x3dbad9e4	0.091235906
222	0xbd68ceac	-0.056837723
223	0xbccd4728	-0.025058344
224	0xbdfeab7e	-0.12435053
225	0x3dab5552	0.08365883
226	0x3dc1f458	0.09470433
227	0x3d3a98f4	0.045556024
228	0xbdb28090	-0.087159276
229	0xbdfca818	-0.12336749
230	0xbdcfeaf6	-0.10152237
231	0x3dbee636	0.09321253
232	0x3d75d06c	0.06001322
233	0x3dd76cd6	0.10518806
234	0x3d861c56	0.065483734
235	0x3d01954c	0.03163652
236	0xbaa07180	-0.0012240857
237	0xbdc2b086	-0.095063254
238	0xbddb556c	-0.10709652
239	0xbdef7302	-0.11691858
240	0x3d5197e4	0.051170245
241	0xbd7b6028	-0.061371
242	0xbcce1528	-0.025156572
243	0xbd935450	-0.07193816
244	0xbcba98d0	-0.022777945
245	0xbdb42e86	-0.08797936
246	0xbda74640	-0.08167696
247	0x3d29d600	0.041463852
248	0xbd182a20	-0.03714955
249	0x3d9e0a34	0.0771679
250	0xbd24410c	-0.040101096
251	0xbdbbcb10	-0.091695905
252	0xbcb4ac68	-0.022054866
253	0xbd7830d0	-0.060593426
254	0xbd1ca460	-0.038242698
255	0xbdf3b5fc	-0.11899945

network.0.bias f4 [128]
0	0x3a30c800	0.00067436695
1	0xbca4efb8	-0.020133838
2	0x3dc74ebe	0.09731816
3	0x3bf53f00	0.007484317
4	0xbd99e23e	-0.075138554
5	0x3c656af0	0.014002547
6	0xbdbd59da	-0.092456535
7	0x3c98e130	0.018662065
8	0x3d0740ec	0.0330209
9	0xbdf15b7e	-0.11785029
10	0xbdaf1d80	-0.085505486
11	0xbd80949c	-0.06278345
12	0xbd330614	-0.04370697
13	0xbcba0ae8	-0.022710279
14	0x3d56b65c	0.052420005
15	0xbdca1016	-0.098663494
16	0x3d846734	0.06464997
17	0xbdb174fe	-0.086648926
18	0x3de0cd3c	0.10976645
19	0xbd921b90	-0.071341634
20	0xbdc3d766	-0.09562568
21	0x3db77982	0.08958723
22	0x3dd03a38	0.10167354
23	0xbd2d77c8	-0.04235056
24	0x3de07416	0.10959642
25	0x3c66a640	0.014077723
26	0x3d39f26c	0.045397207
27	0xbbf055a0	-0.007334426
28	0xbd0bde10	-0.034147322
29	0xbd393268	-0.045214087
30	0xbddb7dd2	-0.10717358
31	0x3dbad728	0.09123069
32	0x3d879f12	0.06622137
33	0x3de894da	0.11356516
34	0xbdfba966	-0.122881696
35	0x3dfceec8	0.123502314
36	0x3daabd22	0.083368555
37	0x3d0b9b5c	0.03408371
38	0xbd5bc1cc	-0.053651616
39	0x3db4a542	0.08820583
40	0x3da428fe	0.08015631
41	0x3ddc5272	0.10757913
42	0xbdd35d6a	-0.10320552
43	0x3c9ba4a8	0.018999413
44	0x3d385fdc	0.045013294
45	0xbdfbd476	-0.12296383
46	0x3defa046	0.117004916
47	0x3d9fcd58	0.07802838
48	0xbdcd94ba	-0.10038133
49	0xbddbc7d6	-0.10731475
50	0x3ba719a0	0.0050994903
51	0x3dcd54fc	0.10025975
52	0x3d14ad3c	0.03629802
53	0x3c8ffde0	0.017577112
54	0xbc04a9d0	-0.008097127
55	0xbdfe5c92	-0.1242
56	0x3d9a15b0	0.07523668
57	0x3da348be	0.07972859
58	0xbdb400c0	-0.087892056
59	0xbcbca2a0	-0.023026764
60	0x3df8e146	0.121523425
61	0xbd443db4	-0.047910407
62	0xbdafc3de	-0.085822806
63	0x3d92724a	0.07150705
64	0x3d6c8308	0.05774215
65	0x3ddc852c	0.10767588
66	0xbd5c7884	-0.05382587
67	0x3cf8fb60	0.030393302
68	0x3cf683d0	0.03009215
69	0x3dd04b1e	0.101705775
70	0x3d8f7574	0.07004824
71	0x3cf09e20	0.029372275
72	0xbc9011e8	-0.017586663
73	0xbcb6ab60	-0.022298515
74	0xbd8a2732	-0.06745757
75	0x3d575bc8	0.052577764
76	0x3dda2b9a	0.106528476
77	0xbd822234	-0.0635418
78	0xbdaef044	-0.08541921
79	0x3dbe9d9a	0.09307404
80	0x3c899628	0.016795233
81	0xbd7159d4	-0.058923557
82	0x3da5c71e	0.08094619
83	0xbdd09560	-0.10184741
84	0xbd7b9050	-0.061416924
85	0xbd2486a8	-0.04016748
86	0xbb826e60	-0.003980443
87	0x3cda49e0	0.026646554
88	0x3d74db18	0.059779257
89	0xbd32c74c	-0.043647096
90	0xbc468e10	-0.012118831
91	0xbd8583e4	-0.06519297
92	0xbda853aa	-0.08219083
93	0x3cdf6c80	0.027273417
94	0x3dbcc550	0.09217322
95	0x3ddcea6a	0.107868984
96	0xbdc7cc24	-0.097557336
97	0x3d7248ac	0.059151337
98	0xbd1df67c	-0.038565144
99	0xbbcc1f80	-0.006229341
100	0xbbaaf280	-0.0052168965
101	0x3ddd1e34	0.107967764
102	0x3dd682e6	0.10474186
103	0xbdcf4954	-0.10121408
104	0x3cde1338	0.027108774
105	0x3d95b5fe	0.07310103
106	0x3d095de8	0.03353682
107	0xbb3dccc0	-0.0028961152
108	0xbd71b2c8	-0.05900839
109	0xbdb49fac	-0.088195175
110	0xbdfbf940	-0.123034
111	0xbb1ec300	-0.0024225116
112	0xbd458b88	-0.04822877
113	0x3cf1ab10	0.029500514
114	0xbd5873c0	-0.052844763
115	0x3dd4a3b6	0.10382788
116	0xbdb49f5c	-0.08819458
117	0x3de328da	0.11091776
118	0xbd4b012c	-0.049561664
119	0x3c9e45e8	0.019320443
120	0xbd3bc0a8	-0.04583803
121	0x3d57cc7c	0.052685246
122	0x3dca074e	0.098646745
123	0x3def5f18	0.116880596
124	0xbdb14e0c	-0.086574644
125	0x3dafbda6	0.085810944
126	0x3da95244	0.08267644
127	0xbdd212f8	-0.10257524

network.2.weight f4 [128, 128]
0	0x3d1255e6	0.03572645
1	0x3c8bfccc	0.017088316
2	0x3d46b606	0.048513435
3	0x3d9e9a0f	0.07744228
4	0x3b0482c0	0.0020219535
5	0xbd0603c8	-0.03271845
6	0xbd232ccf	-0.039837655
7	0x3c3b04d8	0.011414729
8	0xbc548008	-0.012969978
9	0xbd81a5cd	-0.06330452
10	0x3b219200	0.0024653673
11	0x3d4f4d5a	0.050610878
12	0x3b400a40	0.0029302984
13	0x3d639a62	0.055567153
14	0xbd08c536	-0.0333912
15	0x3d8df72b	0.06931909
16	0x3cac8210	0.021058112
17	0xbcf35728	-0.029704645
18	0x3d2e8f46	0.042617105
19	0x3d320a52	0.043466873
20	0xbd1b3a95	-0.037897665
21	0xbc83b4d8	-0.016077444
22	0x3d3ada2a	0.045618214
23	0xbd9f875e	-0.07789491
24	0x3d09f1e0	0.033677936
25	0x3c9ebda4	0.019377537
26	0xbd76c8da	-0.06025014
27	0xbc328908	-0.010896929
28	0x3cd3ee08	0.025870338
29	0x3d7bd756	0.061484657
30	0x3d845fed	0.06463609
31	0xbd698b15	-0.057017405
32	0xbd6b65f8	-0.05747029
33	0x3d2b349e	0.041798227
34	0x3db297c1	0.08720351
35	0x3d9a96a3	0.07548263
36	0x3d0e92a8	0.03480783
37	0x3daba331	0.08380736
38	0xbd2635a4	-0.0405785
39	0xbb23f5e0	-0.002501838
40	0xbd93a812	-0.07209791
41	0xbd5e2d89	-0.054242644
42	0xbd74d70c	-0.059775397
43	0xbda4350a	-0.08017929
44	0x3ccc4b24	0.024938174
45	0x3cbb07c4	0.022830851
46	0x3d11c0ec	0.035584375
47	0x3d6fef5a	0.058577873
48	0xbd902f68	-0.07040292
49	0xbcd0fafc	-0.025510304
50	0x3d8e70cd	0.06955109
51	0xbda03329	-0.07822258
52	0x3d7e7476	0.062122785
53	0x3cdef9fc	0.027218811
54	0xbd92f51e	-0.07175659
55	0x3c9c36ac	0.019069038
56	0x3b3a1c00	0.0028398037
57	0x3c8bd93c	0.017071359
58	0xbccfbf5c	-0.025359802
59	0x3d23e246	0.040010713
60	0x3d8cc837	0.068741255
61	0x3d7c5572	0.061604924
62	0xbc0afd78	-0.008483283
63	0xbda684b7	-0.08130782
64	0x3db137e9	0.08653242
65	0x3cc98140	0.024597764
66	0x3da0ab8b	0.07845219
67	0x3d026a56	0.03183969
68	0x3abe7300	0.0014530122
69	0x3d42d0b6	0.047562324
70	0x3d4a9d3e	0.049466364
71	0xbbbb6c60	-0.0057197064
72	0x3c5db5d0	0.013532117
73	0xbb6b29a0	-0.0035882965
74	0x3d7810ca	0.060562886
75	0x3d24d212	0.0402394
76	0xbc7177d8	-0.014738046
77	0x3da8b109	0.08236892
78	0x3dad75e3	0.08469751
79	0x3d930d8b	0.071803175
80	0x3c81bd44	0.01583732
81	0x3bb12510	0.0054060295
82	0xbd3d0db9	-0.046155665
83	0x3d83f66b	0.06443485
84	0xbd821051	-0.06350768
85	0xbd9c05f3	-0.07618322
86	0x3cda7a38	0.026669607
87	0xbda95565	-0.08268241
88	0x3ce6d8c8	0.028179541
89	0xbd2e5cfa	-0.042569138
90	0xba91a140	-0.0011110678
91	0xbd0b7b3c	-0.034053072
92	0x3d9260a5	0.0714734
93	0xbd868c2a	-0.06569703
94	0x3c850408	0.016237274
95	0x3aa43c80	0.0012530237
96	0xbdac3f13	-0.08410468
97	0x3d8bf8f1	0.06834591
98	0x3c8f3510	0.017481357
99	0xbd914003	-0.070922874
100	0xbdb3a8d8	-0.08772439
101	0x3d20170a	0.03908447
102	0x3d9498fd	0.07255743
103	0xbca500d4	-0.020141996
104	0xbcd5e71a	-0.026111174
105	0xbd9a5c5d	-0.07537148
106	0x3d747ade	0.059687488
107	0xbd0864d2	-0.033299275
108	0xbd266814	-0.0406266
109	0x3d09c148	0.033631593
110	0x3d9e4ff7	0.07730096
111	0x3d27900a	0.04090885
112	0x3cd0d7c0	0.025493503
113	0x3da0378f	0.07823097
114	0x3b765e00	0.003759265
115	0x3c6005f8	0.013673298
116	0xbbd39fc0	-0.0064582527
117	0xbd62daa0	-0.05538428
118	0x3c85046c	0.01623746
119	0xbd3c0213	-0.045900416
120	0x3d51832a	0.05115048
121	0xbd79b9b3	-0.060968112
122	0xbd93f6c7	-0.072248034
123	0xbc8be65c	-0.017077617
124	0x3d867923	0.06566074
125	0xbd898922	-0.06715609
126	0xbce6c314	-0.028169192
127	0xbbddeb30	-0.0067724213
128	0xbd1e5422	-0.038654454
129	0x3d2b089e	0.041756265
130	0x3d9e1faf	0.07720887
131	0x3d43f412	0.047840185
132	0xbc98b3e4	-0.018640466
133	0xbd8e1f70	-0.0693959
134	0xbd95757e	-0.072978005
135	0xbcad6314	-0.021165408
136	0xbce41a62	-0.027844612
137	0xbd894840	-0.06703234
138	0x3cb310d8	0.021858618
139	0xbd092f0b	-0.03349213
140	0x3cd1fad0	0.025632292
141	0xbd404058	-0.046936363
142	0xbc027c90	-0.007964268
143	0xbcd9e8d2	-0.026600275
144	0x3d5e61a2	0.05429233
145	0xbda53532	-0.08066787
146	0xbd0ec3a7	-0.034854557
147	0x3c9aa0a0	0.01887542
148	0xbccbff14	-0.024901904
149	0xbac64580	-0.0015126914
150	0x3d74af4e	0.059737496
151	0x3c4f4e70	0.012652978
152	0x3c328560	0.010896057
153	0x3cd38954	0.02582232
154	0xbd42c832	-0.047554202
155	0xbd109641	-0.035299543
156	0x3d2d6c4a	0.0423396
157	0x3c51ee78	0.012813203
158	0x3d6c2baa	0.05765883
159	0xbc38e378	-0.0112847015
160	0x3daa0cf7	0.08303254
161	0x3d583586	0.05278542
162	0xbccad848	-0.024761334
163	0xbd390534	-0.045170978
164	0x3c923878	0.017849192
165	0xbd9702e8	-0.07373601
166	0xbd25cd00	-0.040478706
167	0x3cddd22c	0.027077757
168	0x3bfc9e10	0.007709272
169	0x3d23d7c2	0.040000685
170	0xbd176f40	-0.03697133
171	0x3d985639	0.07438321
172	0xbd4715e4	-0.04860486
173	0xbd398238	-0.045290202
174	0x3d7237da	0.059135295
175	0xbc8bb2f8	-0.017053112
176	0x3ccf23f4	0.025285698
177	0xbc80a108	-0.015701786
178	0xbd8005ca	-0.06251104
179	0xbb67b720	-0.0035356954
180	0x3d243fae	0.040099792
181	0x3d73fdd6	0.05956825
182	0x3d8a15f9	0.06742472
183	0xbb4bfb20	-0.0031125024
184	0x3d831cb1	0.06401957
185	0x3ccc406c	0.024933062
186	0x3b565da0	0.0032709613
187	0x3adade00	0.0016698241
188	0xbc0a2e90	-0.008433953
189	0x3ccec998	0.025242612
190	0xbb95a1a0	-0.0045663863
191	0x3d68d472	0.05684323
192	0xbc5c9200	-0.0134625435
193	0xbd490abe	-0.04908251
194	0x3cd26d24	0.025686808
195	0xbd4adcf6	-0.04952713
196	0x3d60d566	0.054891013
197	0x3d93d71d	0.07218764
198	0x3c687a28	0.014189281
199	0xbc91405c	-0.017730884
200	0xbb82c9b0	-0.003991328
201	0x3d298e3e	0.04139542
202	0xbd8a48a4	-0.06752136
203	0xbcc1d128	-0.023659304
204	0xbd5c9394	-0.05385168
205	0xbda3bb51	-0.07994712
206	0xbd818512	-0.06324209
207	0xbd689dc5	-0.056791086
208	0x3d89d4e1	0.067300566
209	0x3d5d49ba	0.05402539
210	0xbd75c87e	-0.060005657
211	0xbd8eda36	-0.06975214
212	0x3da21c07	0.07915502
213	0x3cabdedc	0.020980291
214	0x3d26b7f6	0.040702783
215	0x3c622708	0.013803251
216	0xbd074650	-0.03302604
217	0xbd439816	-0.047752462
218	0x3d42c8ea	0.047554888
219	0xbdb2d20f	-0.08731472
220	0xbd96a13f	-0.07354974
221	0x3cdaa858	0.0266916
222	0xbcbde264	-0.02317924
223	0x3c8a80d0	0.016907126
224	0x3d411772	0.0471415
225	0xbd500d4e	-0.05079394
226	0xbd4bcba7	-0.049754765
227	0xbd5eacea	-0.054364122
228	0xbd9e622d	-0.07733569
229	0xbbc40d20	-0.00598301
230	0x3d99b72d	0.07505641
231	0xbbb10660	-0.0054023713
232	0x3d468d5e	0.048474662
233	0xbd340c78	-0.043957204
234	0x3c0faf20	0.00876978
235	0xbd87ed41	-0.066370495
236	0xbbbf7300	-0.0058425665
237	0x3c9ee5f8	0.019396767
238	0xbd1ae763	-0.037818324
239	0x3da6323b	0.081150495
240	0x3ccc6f1c	0.024955325
241	0x3d3515f2	0.04421038
242	0x3db427b7	0.087966375
243	0x3d19784e	0.037468247
244	0xbbe38a90	-0.006944008
245	0x3d2ce8c2	0.042214163
246	0x3db26227	0.08710127
247	0xbdae462e	-0.085094795
248	0xbc88840c	-0.016664527
249	0x3d2fceb6	0.042921744
250	0xbcaf7f84	-0.021423109
251	0xbd9345f4	-0.07191077
252	0xbd522af5	-0.0513105
253	0xbd3c2bb1	-0.045940105
254	0x3d16188e	0.03664451
255	0x3d667eba	0.0562732

network.2.bias f4 [128]
0	0x3d06aade	0.032877795
1	0xbda3c2a3	-0.079961084
2	0x3d3d052e	0.046147518
3	0xbb13e520	-0.002256699
4	0x3a06e580	0.00051458925
5	0xbd78864e	-0.060674958
6	0xbd74468c	-0.05963759
7	0x3d394e62	0.045240767
8	0x3ce1eaa8	0.027577713
9	0x3d1942ee	0.037417345
10	0xbda28fe4	-0.07937601
11	0xbd1443fa	-0.03619764
12	0xbd5d13ad	-0.053973842
13	0xbd657a71	-0.056024972
14	0x3d2e135e	0.04249894
15	0x3b5d1ee0	0.0033740327
16	0xbcd0aa74	-0.025471903
17	0x3b288500	0.002571404
18	0xbcd00354	-0.025392212
19	0x3b1bd780	0.002377957
20	0xbd99bd97	-0.075068645
21	0x3c5f12c8	0.013615318
22	0x3d805d5d	0.06267808
23	0x3d99127d	0.074742295
24	0x3d6ad596	0.057332598
25	0xbcf6cd84	-0.030127294
26	0xbd985bef	-0.0743941
27	0x3d96c04d	0.07360897
28	0x3cbb4a98	0.022862718
29	0x3d39633e	0.04526066
30	0x3db33b51	0.08751548
31	0x3cf7e7b8	0.03026186
32	0xbd98db66	-0.07463722
33	0x3d769e02	0.06020928
34	0xbd284ae1	-0.041087035
35	0xbce4fed2	-0.027953539
36	0x3d73eb66	0.059550665
37	0xbbc2e520	-0.005947724
38	0x3bb88260	0.0056307763
39	0x3c585bc0	0.013205469
40	0x3d1ff412	0.039051123
41	0xbc9cc314	-0.01913599
42	0x3d94094d	0.072283365
43	0xbd001f56	-0.031279884
44	0xbc83a024	-0.016067572
45	0xbbdfcd50	-0.006829895
46	0xbd3df2b2	-0.04637403
47	0xbcebde20	-0.02879244
48	0xbcc47894	-0.023983277
49	0xbd184148	-0.037171632
50	0x3da6885d	0.08131478
51	0xbb7bf2a0	-0.0038444176
52	0x3db0e23b	0.086369
53	0x3dad4217	0.08459871
54	0x3cb0f02c	0.021598898
55	0x3d43018a	0.04760889
56	0xbd8bb814	-0.068222195
57	0x39aa9800	0.00032538176
58	0x3dafc27d	0.085820176
59	0xbc421480	-0.011845708
60	0xbd5e098a	-0.054208316
61	0xba2e4380	-0.00066476315
62	0xbcf9acb0	-0.030477852
63	0xbd669ba0	-0.05630076
64	0x3d3e6b7e	0.04648923
65	0x3ccfdf40	0.025375009
66	0x3ccc66f8	0.024951443
67	0xbda72c6d	-0.081627704
68	0xbbdda240	-0.0067637265
69	0x3d9f5c2b	0.077812515
70	0x3bf36e50	0.0074289218
71	0x3dab4295	0.08362309
72	0xbcad89b0	-0.021183819
73	0x3c2c4140	0.010513604
74	0x3d414c1e	0.04719173
75	0x3b1ae680	0.0023635924
76	0x3d4c7eee	0.049925737
77	0x3da2839d	0.079352595
78	0x3d6a4aae	0.057200126
79	0x3d172de6	0.036909007
80	0x3d7a0bd2	0.06104643
81	0x3d929da1	0.071589716
82	0xbda46a1e	-0.08028053
83	0x3d8272c1	0.06369544
84	0x3d72a81a	0.059242345
85	0x3d36a9aa	0.044595398
86	0xbd605d9f	-0.054776784
87	0x3d8b08fd	0.06788824
88	0x3cbec338	0.023286447
89	0x3d0ccbc8	0.03437403
90	0xbdb3f7cf	-0.087875
91	0x3da36547	0.079783015
92	0xbd92c2b7	-0.07166045
93	0x3d1a457a	0.037663914
94	0x3db0aef9	0.086271234
95	0x3d4a3c0e	0.04937368
96	0xbc95b3dc	-0.01827424
97	0xbc744500	-0.014909029
98	0xbd6590af	-0.056046184
99	0xbd41c94f	-0.047311123
100	0xbd237e5b	-0.039915424
101	0x3d4f7606	0.050649665
102	0x3d61f3fe	0.05516433
103	0xbcb45044	-0.02201093
104	0x3cf19180	0.029488325
105	0x3c7763f0	0.015099511
106	0xbccdca64	-0.025120921
107	0x3d75abb2	0.059978195
108	0xbd7c50f2	-0.061600633
109	0x3c915bb0	0.017743915
110	0x3caaba5c	0.020840816
111	0xbb5c5700	-0.0033621192
112	0x3c88ec34	0.016714193
113	0x3d696f6e	0.056991033
114	0x3d05eef2	0.03269858
115	0xbc3e88d0	-0.011629298
116	0x3ce9e064	0.02854938
117	0x3d1d7a7a	0.03844688
118	0xbd0b8648	-0.034063607
119	0xbd80b33a	-0.06284185
120	0x3d468b3a	0.04847262
121	0xbc04bcd8	-0.0081016645
122	0x3d78327a	0.060595013
123	0x3c84a7c0	0.01619327
124	0x3c194788	0.009355433
125	0x3d17b7ca	0.03704051
126	0x3d8c7d25	0.06859807
127	0xbcecb498	-0.028894708

network.4.weight f4 [3, 128]
0	0x3d23c096	0.039978586
1	0xbc86e0b4	-0.016464569
2	0x3d1fd6aa	0.03902308
3	0xbda65b19	-0.08122844
4	0x3d9b79e5	0.07591609
5	0x3d493342	0.04912115
6	0x3d84cb8d	0.06484137
7	0x3d92bd61	0.071650274
8	0xbce5b76c	-0.028041564
9	0xbc15ef58	-0.009151302
10	0xbd50db64	-0.050990477
11	0x3bd1d5d0	0.0064036623
12	0x3b2bcca0	0.0026214495
13	0xbc7d7e68	-0.015472032
14	0xbd19dfe7	-0.037567046
15	0x3d83908d	0.06424055
16	0x3d717d92	0.058957644
17	0xbd9e1384	-0.07718566
18	0xbda2fd7c	-0.079585046
19	0xbd3fd8b5	-0.046837527
20	0xbc203840	-0.009779036
21	0xbc2439f8	-0.010023586
22	0x3da7bfd5	0.08190886
23	0x3abfec00	0.0014642477
24	0xbc2d10c8	-0.010563083
25	0x3d7adfa6	0.061248444
26	0xbcd284a0	-0.025698006
27	0x3d82a209	0.06378562
28	0xbc840b70	-0.016118735
29	0xbd00c321	-0.03143609
30	0x3c272970	0.010202751
31	0xbd851f9c	-0.0650017
32	0x3da39681	0.07987691
33	0x3cc695e4	0.024241395
34	0x3da0dc89	0.07854564
35	0x3db3afe7	0.08773785
36	0x3bd7d0e0	0.006586179
37	0xbb37de20	-0.002805598
38	0xbc0bb360	-0.008526653
39	0xbd4f7374	-0.050647214
40	0x3d2cd6a6	0.042196892
41	0xbd7ce1fa	-0.061738946
42	0x3d956a19	0.07295627
43	0x3d1aaade	0.037760608
44	0xbbd40c80	-0.0064712167
45	0x3d583a66	0.052790068
46	0x3c6706a0	0.014100701
47	0x3d902d67	0.0703991
48	0xbd527329	-0.051379357
49	0xbd890672	-0.066906825
50	0xbd18cea3	-0.03730644
51	0x3d6671f2	0.05626101
52	0x3d529e8e	0.05142074
53	0xbce6cd94	-0.0281742
54	0xbca818c0	-0.020519614
55	0x3d448ca2	0.04798568
56	0xbdb0dd61	-0.08635975
57	0x3d1ff396	0.03905066
58	0x3c292b28	0.010325231
59	0x3cb9e64c	0.022692822
60	0xbdb06dbd	-0.08614681
61	0x3b906050	0.0044060126
62	0x3c40d230	0.011768863
63	0x3d8bdb7d	0.068289734
64	0x3d94d665	0.07267455
65	0xbc01ada8	-0.007914938
66	0x3da28fa1	0.07937551
67	0xbdaab044	-0.08334401
68	0xbb8c34a0	-0.0042787343
69	0x3b279bc0	0.0025575012
70	0xbd893fb4	-0.067016035
71	0x3d4f6092	0.050629206
72	0x3da19253	0.07889237
73	0xbd18aa06	-0.037271522
74	0xbd8aeb9a	-0.06783219
75	0x3c0bdc68	0.008536436
76	0x3d9d6ec9	0.07687146
77	0xbd1222f7	-0.035677876
78	0xbd04ef6d	-0.032454897
79	0x3d22a9e6	0.03971281
80	0x3d9f8c97	0.07790487
81	0x3dac3191	0.084078915
82	0x3da53ebd	0.08068607
83	0x3d81c163	0.06335714
84	0x3d40bdbe	0.047055952
85	0xbdb0e777	-0.086378984
86	0x3da4c7e1	0.080459364
87	0xbcecbd80	-0.028898954
88	0xbd95332e	-0.072851524
89	0xbd524b49	-0.05134133
90	0xbd859020	-0.0652163
91	0xbd82b39e	-0.063819155
92	0xbbb8c1c0	-0.005638331
93	0x3d25ae02	0.04044915
94	0xbd8b837e	-0.068121895
95	0xbda18af4	-0.07887831
96	0x3d3c2966	0.045937918
97	0x3ca443c4	0.020051844
98	0x3cf7c500	0.030245304
99	0xbd2bd098	-0.041946977
100	0x3d2114ee	0.0393266
101	0xbd2899cc	-0.041162297
102	0x3db2d341	0.087317
103	0x3cc734ac	0.024317108
104	0xbd821c12	-0.0635301
105	0x3d1a4bd2	0.037669964
106	0x3daeae99	0.085293956
107	0xbd544e1b	-0.0518323
108	0x3c9d6378	0.01921247
109	0xbd07326f	-0.03300708
110	0xbd8447bb	-0.06458994
111	0x3d0e0aec	0.034678385
112	0x3d74405a	0.059631683
113	0x3da23d25	0.07921819
114	0x3c2cab68	0.010538913
115	0x3a9ae980	0.0011818856
116	0xbbbafab0	-0.005706154
117	0x3d5062d6	0.050875507
118	0xbbefd740	-0.007319361
119	0x3ccb3304	0.0248046
120	0xbc464ad8	-0.012102805
121	0xbd1898e3	-0.03725518
122	0x3d6efc72	0.05834622
123	0x3d1348ee	0.035958223
124	0x3cde5b7c	0.027143233
125	0xbbf91920	-0.007601872
126	0x3c9c7b54	0.019101776
127	0x3cc59c24	0.024122305
128	0x3b344200	0.002750516
129	0xbcfe18be	-0.031017657
130	0xbc95dc54	-0.018293537
131	0xbd5b8a13	-0.053598475
132	0xbd309e5d	-0.043119777
133	0xbdac8801	-0.08424378
134	0x3c6c93d0	0.014439538
135	0xbd550109	-0.05200294
136	0xbd8265b8	-0.063670576
137	0xbb1d1be0	-0.0023972914
138	0xbd7c7712	-0.06163699
139	0xbdb198af	-0.086717
140	0x3d1eecb2	0.03879995
141	0x3d2b46fe	0.04181575
142	0xbc6bb158	-0.014385544
143	0xbda5bfed	-0.080932476
144	0x3d99df1b	0.07513257
145	0x3d9dca29	0.077045746
146	0x3daedbc5	0.085380115
147	0x3d57577a	0.05257366
148	0x3d9a0b45	0.07521681
149	0xbd79b4ac	-0.060963318
150	0xbdb00dd2	-0.08596386
151	0xbd87d3a4	-0.06632164
152	0x3db2d3b1	0.08731783
153	0xbda13456	-0.078713104
154	0xbcc37320	-0.023858607
155	0x3db33291	0.08749879
156	0x3db0bea5	0.086301126
157	0x3ce262e4	0.027635045
158	0x3db38e75	0.08767406
159	0x3c600be8	0.013674714
160	0x3d706e52	0.05869896
161	0xbc7337f0	-0.0148448795
162	0x3d485b46	0.04891517
163	0xbd2d888c	-0.04236655
164	0x3da94b9b	0.08266374
165	0xbdace573	-0.084422015
166	0xbd9f6301	-0.07782555
167	0x3d5b38b2	0.053520866
168	0x3b5be520	0.0033553317
169	0x3cabd238	0.020974264
170	0xbd408875	-0.047005136
171	0xbcd7d3aa	-0.026346046
172	0x3d69bf6e	0.057067327
173	0x3d915c93	0.07097735
174	0x3ce18fb4	0.027534343
175	0x3c753bd0	0.014967874
176	0xbd5d4891	-0.054024283
177	0x3d8793b7	0.06619971
178	0x3b3442e0	0.002750568
179	0x3c29f150	0.010372475
180	0xbce273d6	-0.027643126
181	0x3d83acb9	0.064294286
182	0x3d8850c1	0.066560276
183	0xbd856e00	-0.065151215
184	0x3c4b9c30	0.012427375
185	0x3a268400	0.0006352067
186	0xbd6cc60e	-0.057806067
187	0xbd45a986	-0.048257373
188	0xbd294bbc	-0.04133199
189	0x3d3fa452	0.046787567
190	0xbcf839a2	-0.030300919
191	0xbd42ade7	-0.047529127
192	0xbcbeb87c	-0.023281328
193	0xbda9e84b	-0.082962595
194	0xbd65896a	-0.05603925
195	0xbd29da23	-0.041467797
196	0x3da98195	0.08276669
197	0xbd8173eb	-0.06320938
198	0x3d39b50e	0.045338683
199	0xbc35ebe8	-0.011103608
200	0x3d6e992a	0.058251537
201	0xbd203bce	-0.039119534
202	0x3aa41dc0	0.0012521073
203	0xbceaedd2	-0.028677855
204	0x3d892bed	0.06697831
205	0xbd87874f	-0.06617605
206	0x3cce4c74	0.02518294
207	0x3db21fb9	0.08697457
208	0x3da75149	0.08169801
209	0xbb814aa0	-0.0039456636
210	0x3c992fc0	0.018699527
211	0x3d96e87f	0.07368564
212	0x3d9c0bbf	0.07619428
213	0xbc3ec988	-0.0116447285
214	0xbc4d3708	-0.0125253275
215	0x3d49d126	0.049271725
216	0xbd828ce2	-0.063745275
217	0xbcbed508	-0.02329494
218	0xbbbde580	-0.005795181
219	0xbd924a42	-0.0714307
220	0xbd3bf7b3	-0.04589052
221	0xbdacc0a2	-0.08435179
222	0xbd0aee71	-0.0339188
223	0xbdb16b7b	-0.086630784
224	0x3d203076	0.039108716
225	0xbcd52560	-0.026018798
226	0xbca1a85c	-0.0197336
227	0x3d1235ba	0.03569577
228	0xbd886983	-0.0666075
229	0xbc9ecb7c	-0.019384138
230	0xbd3e0e29	-0.046400223
231	0xbd28e170	-0.04123062
232	0x3d327862	0.043571837
233	0x3d0ca2a0	0.03433478
234	0xbd422e26	-0.04740729
235	0xbce4f4da	-0.027948786
236	0xbd31b669	-0.04338685
237	0xbc43eaf0	-0.011957869
238	0x3b91b170	0.004446201
239	0x3a642a00	0.0008703768
240	0xbc7f3930	-0.015577599
241	0xbab0fd00	-0.0013503134
242	0x3ca06cb8	0.019583091
243	0xbc181630	-0.009282634
244	0xbce8dfdc	-0.028427057
245	0x3cf38730	0.029727548
246	0x3d7beeb6	0.06150695
247	0x3ccda67c	0.0251038
248	0xbd813def	-0.06310641
249	0xbcc92d8c	-0.024557851
250	0xbd92b320	-0.07163072
251	0x3d8b5db7	0.06804984
252	0xbd83b892	-0.06431688
253	0xbd432ace	-0.047648244
254	0x3d2cca1e	0.04218494
255	0x3d79dcee	0.06100171

network.4.bias f4 [3]
0	0x3d39394e	0.045220666
1	0x3db41069	0.087921925
2	0x3da2395f	0.07921099

network.0.weight f4 [128, 64]
0	0x3dc3b8cc	0.095567316
1	0x3dd47b66	0.10375099
2	0xbcefe520	-0.02928406
3	0x3deb2a1c	0.11482641
4	0xbce05cb0	-0.027387947
5	0x3ccea238	0.025223836
6	0xbd794510	-0.06085688
7	0x3d965828	0.07341033
8	0x3de1accc	0.110192865
9	0xbdbbcf0e	-0.09170352
10	0x3dde83a4	0.10864952
11	0x3cbfa6b0	0.023394912
12	0x3dbd2294	0.09235111
13	0x3c8aae50	0.016928822
14	0x3d76e15c	0.060273513
15	0xbc909460	-0.017648876
16	0x3dc558c6	0.09636073
17	0x3c975b38	0.018476114
18	0xbd6f05a4	-0.05835499
19	0x3d028208	0.03186229
20	0xbd6be5ac	-0.05759208
21	0xbc702cc0	-0.014659107
22	0xbd4ff3fc	-0.05076979
23	0x3da9d2ae	0.08292137
24	0xbdca142a	-0.09867127
25	0xbd6c098c	-0.057626292
26	0xbd10936c	-0.035296842
27	0xbd99ecfe	-0.07515906
28	0x3c414bf0	0.01179789
29	0xbdfcd88a	-0.12345989
30	0x3de73228	0.112888634
31	0xbdd976c0	-0.10618353
32	0x3dc5a396	0.09650342
33	0x3caa69c8	0.020802394
34	0xbd263fac	-0.040588066
35	0x3d9e31f8	0.077243745
36	0x3c9f9758	0.019481346
37	0x3dced6b0	0.10099542
38	0x3c5fe300	0.013664961
39	0xbd217898	-0.039421648
40	0x3d0990e8	0.03358546
41	0xbd0ad808	-0.03389743
42	0x3d577aa4	0.052607194
43	0x3de48ffe	0.11160277
44	0x3d93fbb6	0.072257444
45	0xbd5fd514	-0.054646567
46	0x3d93c79e	0.07215808
47	0x3cb73870	0.022365779
48	0x3d82017a	0.06347938
49	0xbd9c0886	-0.07618813
50	0xbdfd6aa4	-0.12373856
51	0xbd45d10c	-0.048295066
52	0xbdc45b9c	-0.095877856
53	0x3dd20ed6	0.10256736
54	0x3d1378d8	0.036003917
55	0x3d5413cc	0.051776692
56	0x3d21ecfc	0.039532647
57	0xbb0e8200	-0.0021744967
58	0x3dc85904	0.097826034
59	0xbdb5e438	-0.0888142
60	0x3c00f320	0.0078704655
61	0xbdaebaf4	-0.08531752
62	0x3d1de050	0.038544
63	0xbd3052e0	-0.043047786
64	0x3d1ce298	0.038302034
65	0xbcd55778	-0.026042685
66	0x3dd45306	0.10367398
67	0xbd97bb50	-0.07408774
68	0xbd98ad8a	-0.07454975
69	0xbd98afe6	-0.07455425
70	0x3de641e2	0.11243035
71	0x3d2a9fe4	0.04165639
72	0x3df65610	0.12028134
73	0xbdd3454e	-0.10315953
74	0xbdfdeb98	-0.123984516
75	0xbdc848fe	-0.09779547
76	0xbdac355a	-0.084086135
77	0x3d4f616c	0.050630018
78	0x3d3755b8	0.044759482
79	0x3dd4b776	0.10386555
80	0xbd843474	-0.06455317
81	0xbdae84aa	-0.085213974
82	0x3d87d3f8	0.06632227
83	0xbd4ef3e4	-0.05052556
84	0x3d9b5f5c	0.07586548
85	0xbcf2fef0	-0.02966258
86	0x3d92719a	0.07150574
87	0xbdc6e760	-0.097121
88	0xbd8130ba	-0.06308122
89	0x3d1c18c4	0.038109556
90	0x3cd87b38	0.026425943
91	0xbd0289f4	-0.031869844
92	0x3d989802	0.07450868
93	0x3dae07fa	0.08497615
94	0xbdb9a4f6	-0.09064667
95	0xbd88ab96	-0.066733524
96	0x3dea68d2	0.11445774
97	0xbd2cc3f4	-0.042179063
98	0xbd35832c	-0.04431455
99	0xbdf7b448	-0.12094933
100	0xbd929a84	-0.07158378
101	0x3cffcc88	0.031225458
102	0xbc872938	-0.016499147
103	0xbdb9d3aa	-0.09073575
104	0x3b402840	0.0029320866
105	0xbdaede6e	-0.08538519
106	0xbdd93086	-0.10604958
107	0xbd8cf83a	-0.06883283
108	0xbde00de6	-0.10940151
109	0xbda30144	-0.07959226
110	0x3dffe65e	0.12495111
111	0x3cc16870	0.02360937
112	0x3d1dc71c	0.038519964
113	0xbdeec466	-0.11658554
114	0xbda82254	-0.082096726
115	0xbd2a6c14	-0.041606978
116	0x3ca01fc0	0.01954639
117	0xbde14286	-0.109990165
118	0xbd5c9b64	-0.05385913
119	0xbd994258	-0.07483357
120	0x39b59e00	0.0003464073
121	0xbd3e8450	-0.0465129
122	0xbc0deaf0	-0.0086619705
123	0xbdad7924	-0.08470371
124	0xbdafb798	-0.085799396
125	0xbd9559d2	-0.072925225
126	0xbd2f419c	-0.04278718
127	0xbdca0e50	-0.09866011
128	0x3dd6a5f6	0.10480873
129	0xbccb3a28	-0.024808004
130	0x3ddc42f6	0.10754959
131	0x3d1f87b0	0.03894776
132	0xbdd8c7b0	-0.10584962
133	0x3db12938	0.0865044
134	0xbd0cdfc8	-0.034393102
135	0xbd444350	-0.047915757
136	0xbdd47f80	-0.10375881
137	0xbdfe8150	-0.12427008
138	0x3d127d18	0.03576383
139	0xbcdfafc0	-0.027305484
140	0x3d47555c	0.04866539
141	0xbdd21700	-0.10258293
142	0x3dbe0fd6	0.09280364
143	0xbdbbeaf2	-0.09175672
144	0xbcb0d148	-0.021584168
145	0x3cd5e1f0	0.026108712
146	0x3d842914	0.064531475
147	0x3dceabe4	0.10091379
148	0x3de934a0	0.113869905
149	0xbdcafcf2	-0.09911527
150	0x3d00da88	0.031458408
151	0xbd5c3978	-0.053765744
152	0xbc606e00	-0.013698101
153	0xbdbf9d0c	-0.09356126
154	0x3de92e08	0.11385733
155	0xbdbbe42e	-0.09174381
156	0x3d88d1cc	0.066806406
157	0x3d33efe4	0.04392995
158	0x3d2660a0	0.040619493
159	0xbd8a67ca	-0.067580774
160	0x3de8b10c	0.11361894
161	0x3ce10640	0.0274688
162	0x3c83ba38	0.016080007
163	0xbde199ea	-0.11015685
164	0x3d56ee84	0.05247356
165	0xbc999f00	-0.018752575
166	0xbd6a8f44	-0.057265535
167	0x3ddbe3ec	0.10736832
168	0x3ce44cb0	0.027868599
169	0xbd8da386	-0.06915955
170	0xbd819252	-0.063267365
171	0xbbc39b80	-0.005969465
172	0x3d8ef0c4	0.06979516
173	0xbd02d554	-0.031941727
174	0xbd921132	-0.07132186
175	0xbd2f54ac	-0.04280536
176	0xbdbf404c	-0.093384355
177	0x3d369888	0.04457906
178	0x3dc62780	0.09675503
179	0xbdf1023c	-0.11768004
180	0x3cedd320	0.029031336
181	0x3d843f5c	0.06457397
182	0x3cb9ae68	0.022666171
183	0xbd3655f8	-0.04451558
184	0x3d859e00	0.06524277
185	0x3d868808	0.06568915
186	0x3d3f7364	0.046740904
187	0xbcb3f050	-0.021965176
188	0xbd079408	-0.033100158
189	0x3c5b18d0	0.013372615
190	0xbcb4e4d0	-0.022081763
191	0xbd189398	-0.03725013
192	0x3da3a310	0.07990086
193	0x3ddc019c	0.107424945
194	0xbc4abf20	-0.012374669
195	0xbce54538	-0.027987108
196	0x3aef1480	0.0018240362
197	0xbbf490a0	-0.0074635297
198	0x3cf62e60	0.03005141
199	0x3d0f7ac8	0.035029203
200	0xbde88384	-0.113532096
201	0xbd3cf284	-0.04612972
202	0x3dd795cc	0.10526618
203	0x3d4773c0	0.048694372
204	0xbbcbb9a0	-0.0062171966
205	0xbd9a5808	-0.07536322
206	0xbd9c9f42	-0.076475635
207	0xbde550fa	-0.11197086
208	0xbd26e48c	-0.040745303
209	0x3d2ce790	0.042213023
210	0x3da33b2c	0.079702705
211	0x3d6c6398	0.057712168
212	0xbde24a28	-0.110493004
213	0xbd99f2e4	-0.07517031
214	0xbca19ab0	-0.019727081
215	0x3df7a438	0.12091869
216	0x3c942118	0.018082187
217	0xbd0497d0	-0.032371342
218	0x3d53d27c	0.051714405
219	0xbd4302e8	-0.047610193
220	0xbda5b28c	-0.08090696
221	0x3dbad9e4	0.091235906
222	0xbd68ceac	-0.056837723
223	0xbccd4728	-0.025058344
224	0xbdfeab7e	-0.12435053
225	0x3dab5552	0.08365883
226	0x3dc1f458	0.09470433
227	0x3d3a98f4	0.045556024
228	0xbdb28090	-0.087159276
229	0xbdfca818	-0.12336749
230	0xbdcfeaf6	-0.10152237
231	0x3dbee636	0.09321253
232	0x3d75d06c	0.06001322
233	0x3dd76cd6	0.10518806
234	0x3d861c56	0.065483734
235	0x3d01954c	0.03163652
236	0xbaa07180	-0.0012240857
237	0xbdc2b086	-0.095063254
238	0xbddb556c	-0.10709652
239	0xbdef7302	-0.11691858
240	0x3d5197e4	0.051170245
241	0xbd7b6028	-0.061371
242	0xbcce1528	-0.025156572
243	0xbd935450	-0.07193816
244	0xbcba98d0	-0.022777945
245	0xbdb42e86	-0.08797936
246	0xbda74640	-0.08167696
247	0x3d29d600	0.041463852
248	0xbd182a20	-0.03714955
249	0x3d9e0a34	0.0771679
250	0xbd24410c	-0.040101096
251	0xbdbbcb10	-0.091695905
252	0xbcb4ac68	-0.022054866
253	0xbd7830d0	-0.060593426
254	0xbd1ca460	-0.038242698
255	0xbdf3b5fc	-0.11899945

network.0.bias f4 [128]
0	0x3a30c800	0.00067436695
1	0xbca4efb8	-0.020133838
2	0x3dc74ebe	0.09731816
3	0x3bf53f00	0.007484317
4	0xbd99e23e	-0.075138554
5	0x3c656af0	0.014002547
6	0xbdbd59da	-0.092456535
7	0x3c98e130	0.018662065
8	0x3d0740ec	0.0330209
9	0xbdf15b7e	-0.11785029
10	0xbdaf1d80	-0.085505486
11	0xbd80949c	-0.06278345
12	0xbd330614	-0.04370697
13	0xbcba0ae8	-0.022710279
14	0x3d56b65c	0.052420005
15	0xbdca1016	-0.098663494
16	0x3d846734	0.06464997
17	0xbdb174fe	-0.086648926
18	0x3de0cd3c	0.10976645
19	0xbd921b90	-0.071341634
20	0xbdc3d766	-0.09562568
21	0x3db77982	0.08958723
22	0x3dd03a38	0.10167354
23	0xbd2d77c8	-0.04235056
24	0x3de07416	0.10959642
25	0x3c66a640	0.014077723
26	0x3d39f26c	0.045397207
27	0xbbf055a0	-0.007334426
28	0xbd0bde10	-0.034147322
29	0xbd393268	-0.045214087
30	0xbddb7dd2	-0.10717358
31	0x3dbad728	0.09123069
32	0x3d879f12	0.06622137
33	0x3de894da	0.11356516
34	0xbdfba966	-0.122881696
35	0x3dfceec8	0.123502314
36	0x3daabd22	0.083368555
37	0x3d0b9b5c	0.03408371
38	0xbd5bc1cc	-0.053651616
39	0x3db4a542	0.08820583
40	0x3da428fe	0.08015631
41	0x3ddc5272	0.10757913
42	0xbdd35d6a	-0.10320552
43	0x3c9ba4a8	0.018999413
44	0x3d385fdc	0.045013294
45	0xbdfbd476	-0.12296383
46	0x3defa046	0.117004916
47	0x3d9fcd58	0.07802838
48	0xbdcd94ba	-0.10038133
49	0xbddbc7d6	-0.10731475
50	0x3ba719a0	0.0050994903
51	0x3dcd54fc	0.10025975
52	0x3d14ad3c	0.03629802
53	0x3c8ffde0	0.017577112
54	0xbc04a9d0	-0.008097127
55	0xbdfe5c92	-0.1242
56	0x3d9a15b0	0.07523668
57	0x3da348be	0.07972859
58	0xbdb400c0	-0.087892056
59	0xbcbca2a0	-0.023026764
60	0x3df8e146	0.121523425
61	0xbd443db4	-0.047910407
62	0xbdafc3de	-0.085822806
63	0x3d92724a	0.07150705
64	0x3d6c8308	0.05774215
65	0x3ddc852c	0.10767588
66	0xbd5c7884	-0.05382587
67	0x3cf8fb60	0.030393302
68	0x3cf683d0	0.03009215
69	0x3dd04b1e	0.101705775
70	0x3d8f7574	0.07004824
71	0x3cf09e20	0.029372275
72	0xbc9011e8	-0.017586663
73	0xbcb6ab60	-0.022298515
74	0xbd8a2732	-0.06745757
75	0x3d575bc8	0.052577764
76	0x3dda2b9a	0.106528476
77	0xbd822234	-0.0635418
78	0xbdaef044	-0.08541921
79	0x3dbe9d9a	0.09307404
80	0x3c899628	0.016795233
81	0xbd7159d4	-0.058923557
82	0x3da5c71e	0.08094619
83	0xbdd09560	-0.10184741
84	0xbd7b9050	-0.061416924
85	0xbd2486a8	-0.04016748
86	0xbb826e60	-0.003980443
87	0x3cda49e0	0.026646554
88	0x3d74db18	0.059779257
89	0xbd32c74c	-0.043647096
90	0xbc468e10	-0.012118831
91	0xbd8583e4	-0.06519297
92	0xbda853aa	-0.08219083
93	0x3cdf6c80	0.027273417
94	0x3dbcc550	0.09217322
95	0x3ddcea6a	0.107868984
96	0xbdc7cc24	-0.097557336
97	0x3d7248ac	0.059151337
98	0xbd1df67c	-0.038565144
99	0xbbcc1f80	-0.006229341
100	0xbbaaf280	-0.0052168965
101	0x3ddd1e34	0.107967764
102	0x3dd682e6	0.10474186
103	0xbdcf4954	-0.10121408
104	0x3cde1338	0.027108774
105	0x3d95b5fe	0.07310103
106	0x3d095de8	0.03353682
107	0xbb3dccc0	-0.0028961152
108	0xbd71b2c8	-0.05900839
109	0xbdb49fac	-0.088195175
110	0xbdfbf940	-0.123034
111	0xbb1ec300	-0.0024225116
112	0xbd458b88	-0.04822877
113	0x3cf1ab10	0.029500514
114	0xbd5873c0	-0.052844763
115	0x3dd4a3b6	0.10382788
116	0xbdb49f5c	-0.08819458
117	0x3de328da	0.11091776
118	0xbd4b012c	-0.049561664
119	0x3c9e45e8	0.019320443
120	0xbd3bc0a8	-0.04583803
121	0x3d57cc7c	0.052685246
122	0x3dca074e	0.098646745
123	0x3def5f18	0.116880596
124	0xbdb14e0c	-0.086574644
125	0x3dafbda6	0.085810944
126	0x3da95244	0.08267644
127	0xbdd212f8	-0.10257524

network.2.weight f4 [128, 128]
0	0x3d1255e6	0.03572645
1	0x3c8bfccc	0.017088316
2	0x3d46b606	0.048513435
3	0x3d9e9a0f	0.07744228
4	0x3b0482c0	0.0020219535
5	0xbd0603c8	-0.03271845
6	0xbd232ccf	-0.039837655
7	0x3c3b04d8	0.011414729
8	0xbc548008	-0.012969978
9	0xbd81a5cd	-0.06330452
10	0x3b219200	0.0024653673
11	0x3d4f4d5a	0.050610878
12	0x3b400a40	0.0029302984
13	0x3d639a62	0.055567153
14	0xbd08c536	-0.0333912
15	0x3d8df72b	0.06931909
16	0x3cac8210	0.021058112
17	0xbcf35728	-0.029704645
18	0x3d2e8f46	0.042617105
19	0x3d320a52	0.043466873
20	0xbd1b3a95	-0.037897665
21	0xbc83b4d8	-0.016077444
22	0x3d3ada2a	0.045618214
23	0xbd9f875e	-0.07789491
24	0x3d09f1e0	0.033677936
25	0x3c9ebda4	0.019377537
26	0xbd76c8da	-0.06025014
27	0xbc328908	-0.010896929
28	0x3cd3ee08	0.025870338
29	0x3d7bd756	0.061484657
30	0x3d845fed	0.06463609
31	0xbd698b15	-0.057017405
32	0xbd6b65f8	-0.05747029
33	0x3d2b349e	0.041798227
34	0x3db297c1	0.08720351
35	0x3d9a96a3	0.07548263
36	0x3d0e92a8	0.03480783
37	0x3daba331	0.08380736
38	0xbd2635a4	-0.0405785
39	0xbb23f5e0	-0.002501838
40	0xbd93a812	-0.07209791
41	0xbd5e2d89	-0.054242644
42	0xbd74d70c	-0.059775397
43	0xbda4350a	-0.08017929
44	0x3ccc4b24	0.024938174
45	0x3cbb07c4	0.022830851
46	0x3d11c0ec	0.035584375
47	0x3d6fef5a	0.058577873
48	0xbd902f68	-0.07040292
49	0xbcd0fafc	-0.025510304
50	0x3d8e70cd	0.06955109
51	0xbda03329	-0.07822258
52	0x3d7e7476	0.062122785
53	0x3cdef9fc	0.027218811
54	0xbd92f51e	-0.07175659
55	0x3c9c36ac	0.019069038
56	0x3b3a1c00	0.0028398037
57	0x3c8bd93c	0.017071359
58	0xbccfbf5c	-0.025359802
59	0x3d23e246	0.040010713
60	0x3d8cc837	0.068741255
61	0x3d7c5572	0.061604924
62	0xbc0afd78	-0.008483283
63	0xbda684b7	-0.08130782
64	0x3db137e9	0.08653242
65	0x3cc98140	0.024597764
66	0x3da0ab8b	0.07845219
67	0x3d026a56	0.03183969
68	0x3abe7300	0.0014530122
69	0x3d42d0b6	0.047562324
70	0x3d4a9d3e	0.049466364
71	0xbbbb6c60	-0.0057197064
72	0x3c5db5d0	0.013532117
73	0xbb6b29a0	-0.0035882965
74	0x3d7810ca	0.060562886
75	0x3d24d212	0.0402394
76	0xbc7177d8	-0.014738046
77	0x3da8b109	0.08236892
78	0x3dad75e3	0.08469751
79	0x3d930d8b	0.071803175
80	0x3c81bd44	0.01583732
81	0x3bb12510	0.0054060295
82	0xbd3d0db9	-0.046155665
83	0x3d83f66b	0.06443485
84	0xbd821051	-0.06350768
85	0xbd9c05f3	-0.07618322
86	0x3cda7a38	0.026669607
87	0xbda95565	-0.08268241
88	0x3ce6d8c8	0.028179541
89	0xbd2e5cfa	-0.042569138
90	0xba91a140	-0.0011110678
91	0xbd0b7b3c	-0.034053072
92	0x3d9260a5	0.0714734
93	0xbd868c2a	-0.06569703
94	0x3c850408	0.016237274
95	0x3aa43c80	0.0012530237
96	0xbdac3f13	-0.08410468
97	0x3d8bf8f1	0.06834591
98	0x3c8f3510	0.017481357
99	0xbd914003	-0.070922874
100	0xbdb3a8d8	-0.08772439
101	0x3d20170a	0.03908447
102	0x3d9498fd	0.07255743
103	0xbca500d4	-0.020141996
104	0xbcd5e71a	-0.026111174
105	0xbd9a5c5d	-0.07537148
106	0x3d747ade	0.059687488
107	0xbd0864d2	-0.033299275
108	0xbd266814	-0.0406266
109	0x3d09c148	0.033631593
110	0x3d9e4ff7	0.07730096
111	0x3d27900a	0.04090885
112	0x3cd0d7c0	0.025493503
113	0x3da0378f	0.07823097
114	0x3b765e00	0.003759265
115	0x3c6005f8	0.013673298
116	0xbbd39fc0	-0.0064582527
117	0xbd62daa0	-0.05538428
118	0x3c85046c	0.01623746
119	0xbd3c0213	-0.045900416
120	0x3d51832a	0.05115048
121	0xbd79b9b3	-0.060968112
122	0xbd93f6c7	-0.072248034
123	0xbc8be65c	-0.017077617
124	0x3d867923	0.06566074
125	0xbd898922	-0.06715609
126	0xbce6c314	-0.028169192
127	0xbbddeb30	-0.0067724213
128	0xbd1e5422	-0.038654454
129	0x3d2b089e	0.041756265
130	0x3d9e1faf	0.07720887
131	0x3d43f412	0.047840185
132	0xbc98b3e4	-0.018640466
133	0xbd8e1f70	-0.0693959
134	0xbd95757e	-0.072978005
135	0xbcad6314	-0.021165408
136	0xbce41a62	-0.027844612
137	0xbd894840	-0.06703234
138	0x3cb310d8	0.021858618
139	0xbd092f0b	-0.03349213
140	0x3cd1fad0	0.025632292
141	0xbd404058	-0.046936363
142	0xbc027c90	-0.007964268
143	0xbcd9e8d2	-0.026600275
144	0x3d5e61a2	0.05429233
145	0xbda53532	-0.08066787
146	0xbd0ec3a7	-0.034854557
147	0x3c9aa0a0	0.01887542
148	0xbccbff14	-0.024901904
149	0xbac64580	-0.0015126914
150	0x3d74af4e	0.059737496
151	0x3c4f4e70	0.012652978
152	0x3c328560	0.010896057
153	0x3cd38954	0.02582232
154	0xbd42c832	-0.047554202
155	0xbd109641	-0.035299543
156	0x3d2d6c4a	0.0423396
157	0x3c51ee78	0.012813203
158	0x3d6c2baa	0.05765883
159	0xbc38e378	-0.0112847015
160	0x3daa0cf7	0.08303254
161	0x3d583586	0.05278542
162	0xbccad848	-0.024761334
163	0xbd390534	-0.045170978
164	0x3c923878	0.017849192
165	0xbd9702e8	-0.07373601
166	0xbd25cd00	-0.040478706
167	0x3cddd22c	0.027077757
168	0x3bfc9e10	0.007709272
169	0x3d23d7c2	0.040000685
170	0xbd176f40	-0.03697133
171	0x3d985639	0.07438321
172	0xbd4715e4	-0.04860486
173	0xbd398238	-0.045290202
174	0x3d7237da	0.059135295
175	0xbc8bb2f8	-0.017053112
176	0x3ccf23f4	0.025285698
177	0xbc80a108	-0.015701786
178	0xbd8005ca	-0.06251104
179	0xbb67b720	-0.0035356954
180	0x3d243fae	0.040099792
181	0x3d73fdd6	0.05956825
182	0x3d8a15f9	0.06742472
183	0xbb4bfb20	-0.0031125024
184	0x3d831cb1	0.06401957
185	0x3ccc406c	0.024933062
186	0x3b565da0	0.0032709613
187	0x3adade00	0.0016698241
188	0xbc0a2e90	-0.008433953
189	0x3ccec998	0.025242612
190	0xbb95a1a0	-0.0045663863
191	0x3d68d472	0.05684323
192	0xbc5c9200	-0.0134625435
193	0xbd490abe	-0.04908251
194	0x3cd26d24	0.025686808
195	0xbd4adcf6	-0.04952713
196	0x3d60d566	0.054891013
197	0x3d93d71d	0.07218764
198	0x3c687a28	0.014189281
199	0xbc91405c	-0.017730884
200	0xbb82c9b0	-0.003991328
201	0x3d298e3e	0.04139542
202	0xbd8a48a4	-0.06752136
203	0xbcc1d128	-0.023659304
204	0xbd5c9394	-0.05385168
205	0xbda3bb51	-0.07994712
206	0xbd818512	-0.06324209
207	0xbd689dc5	-0.056791086
208	0x3d89d4e1	0.067300566
209	0x3d5d49ba	0.05402539
210	0xbd75c87e	-0.060005657
211	0xbd8eda36	-0.06975214
212	0x3da21c07	0.07915502
213	0x3cabdedc	0.020980291
214	0x3d26b7f6	0.040702783
215	0x3c622708	0.013803251
216	0xbd074650	-0.03302604
217	0xbd439816	-0.047752462
218	0x3d42c8ea	0.047554888
219	0xbdb2d20f	-0.08731472
220	0xbd96a13f	-0.07354974
221	0x3cdaa858	0.0266916
222	0xbcbde264	-0.02317924
223	0x3c8a80d0	0.016907126
224	0x3d411772	0.0471415
225	0xbd500d4e	-0.05079394
226	0xbd4bcba7	-0.049754765
227	0xbd5eacea	-0.054364122
228	0xbd9e622d	-0.07733569
229	0xbbc40d20	-0.00598301
230	0x3d99b72d	0.07505641
231	0xbbb10660	-0.0054023713
232	0x3d468d5e	0.048474662
233	0xbd340c78	-0.043957204
234	0x3c0faf20	0.00876978
235	0xbd87ed41	-0.066370495
236	0xbbbf7300	-0.0058425665
237	0x3c9ee5f8	0.019396767
238	0xbd1ae763	-0.037818324
239	0x3da6323b	0.081150495
240	0x3ccc6f1c	0.024955325
241	0x3d3515f2	0.04421038
242	0x3db427b7	0.087966375
243	0x3d19784e	0.037468247
244	0xbbe38a90	-0.006944008
245	0x3d2ce8c2	0.042214163
246	0x3db26227	0.08710127
247	0xbdae462e	-0.085094795
248	0xbc88840c	-0.016664527
249	0x3d2fceb6	0.042921744
250	0xbcaf7f84	-0.021423109
251	0xbd9345f4	-0.07191077
252	0xbd522af5	-0.0513105
253	0xbd3c2bb1	-0.045940105
254	0x3d16188e	0.03664451
255	0x3d667eba	0.0562732

network.2.bias f4 [128]
0	0x3d06aade	0.032877795
1	0xbda3c2a3	-0.079961084
2	0x3d3d052e	0.046147518
3	0xbb13e520	-0.002256699
4	0x3a06e580	0.00051458925
5	0xbd78864e	-0.060674958
6	0xbd74468c	-0.05963759
7	0x3d394e62	0.045240767
8	0x3ce1eaa8	0.027577713
9	0x3d1942ee	0.037417345
10	0xbda28fe4	-0.07937601
11	0xbd1443fa	-0.03619764
12	0xbd5d13ad	-0.053973842
13	0xbd657a71	-0.056024972
14	0x3d2e135e	0.04249894
15	0x3b5d1ee0	0.0033740327
16	0xbcd0aa74	-0.025471903
17	0x3b288500	0.002571404
18	0xbcd00354	-0.025392212
19	0x3b1bd780	0.002377957
20	0xbd99bd97	-0.075068645
21	0x3c5f12c8	0.013615318
22	0x3d805d5d	0.06267808
23	0x3d99127d	0.074742295
24	0x3d6ad596	0.057332598
25	0xbcf6cd84	-0.030127294
26	0xbd985bef	-0.0743941
27	0x3d96c04d	0.07360897
28	0x3cbb4a98	0.022862718
29	0x3d39633e	0.04526066
30	0x3db33b51	0.08751548
31	0x3cf7e7b8	0.03026186
32	0xbd98db66	-0.07463722
33	0x3d769e02	0.06020928
34	0xbd284ae1	-0.041087035
35	0xbce4fed2	-0.027953539
36	0x3d73eb66	0.059550665
37	0xbbc2e520	-0.005947724
38	0x3bb88260	0.0056307763
39	0x3c585bc0	0.013205469
40	0x3d1ff412	0.039051123
41	0xbc9cc314	-0.01913599
42	0x3d94094d	0.072283365
43	0xbd001f56	-0.031279884
44	0xbc83a024	-0.016067572
45	0xbbdfcd50	-0.006829895
46	0xbd3df2b2	-0.04637403
47	0xbcebde20	-0.02879244
48	0xbcc47894	-0.023983277
49	0xbd184148	-0.037171632
50	0x3da6885d	0.08131478
51	0xbb7bf2a0	-0.0038444176
52	0x3db0e23b	0.086369
53	0x3dad4217	0.08459871
54	0x3cb0f02c	0.021598898
55	0x3d43018a	0.04760889
56	0xbd8bb814	-0.068222195
57	0x39aa9800	0.00032538176
58	0x3dafc27d	0.085820176
59	0xbc421480	-0.011845708
60	0xbd5e098a	-0.054208316
61	0xba2e4380	-0.00066476315
62	0xbcf9acb0	-0.030477852
63	0xbd669ba0	-0.05630076
64	0x3d3e6b7e	0.04648923
65	0x3ccfdf40	0.025375009
66	0x3ccc66f8	0.024951443
67	0xbda72c6d	-0.081627704
68	0xbbdda240	-0.0067637265
69	0x3d9f5c2b	0.077812515
70	0x3bf36e50	0.0074289218
71	0x3dab4295	0.08362309
72	0xbcad89b0	-0.021183819
73	0x3c2c4140	0.010513604
74	0x3d414c1e	0.04719173
75	0x3b1ae680	0.0023635924
76	0x3d4c7eee	0.049925737
77	0x3da2839d	0.079352595
78	0x3d6a4aae	0.057200126
79	0x3d172de6	0.036909007
80	0x3d7a0bd2	0.06104643
81	0x3d929da1	0.071589716
82	0xbda46a1e	-0.08028053
83	0x3d8272c1	0.06369544
84	0x3d72a81a	0.059242345
85	0x3d36a9aa	0.044595398
86	0xbd605d9f	-0.054776784
87	0x3d8b08fd	0.06788824
88	0x3cbec338	0.023286447
89	0x3d0ccbc8	0.03437403
90	0xbdb3f7cf	-0.087875
91	0x3da36547	0.079783015
92	0xbd92c2b7	-0.07166045
93	0x3d1a457a	0.037663914
94	0x3db0aef9	0.086271234
95	0x3d4a3c0e	0.04937368
96	0xbc95b3dc	-0.01827424
97	0xbc744500	-0.014909029
98	0xbd6590af	-0.056046184
99	0xbd41c94f	-0.047311123
100	0xbd237e5b	-0.039915424
101	0x3d4f7606	0.050649665
102	0x3d61f3fe	0.05516433
103	0xbcb45044	-0.02201093
104	0x3cf19180	0.029488325
105	0x3c7763f0	0.015099511
106	0xbccdca64	-0.025120921
107	0x3d75abb2	0.059978195
108	0xbd7c50f2	-0.061600633
109	0x3c915bb0	0.017743915
110	0x3caaba5c	0.020840816
111	0xbb5c5700	-0.0033621192
112	0x3c88ec34	0.016714193
113	0x3d696f6e	0.056991033
114	0x3d05eef2	0.03269858
115	0xbc3e88d0	-0.011629298
116	0x3ce9e064	0.02854938
117	0x3d1d7a7a	0.03844688
118	0xbd0b8648	-0.034063607
119	0xbd80b33a	-0.06284185
120	0x3d468b3a	0.04847262
121	0xbc04bcd8	-0.0081016645
122	0x3d78327a	0.060595013
123	0x3c84a7c0	0.01619327
124	0x3c194788	0.009355433
125	0x3d17b7ca	0.03704051
126	0x3d8c7d25	0.06859807
127	0xbcecb498	-0.028894708
