models/dqn_step_3000.pt (torch, 413473 bytes, 24 tensors)

network.0.weight f4 [128, 64]
0	0x3dc3b8cc	0.095567316
1	0x3dd47b66	0.10375099
2	0xbcefe520	-0.02928406
3	0x3deb2a1c	0.11482641
4	0xbce05cb0	-0.027387947
5	0x3ccea238	0.025223836
6	0xbd794510	-0.06085688
7	0x3d965828	0.07341033
8	0x3de1accc	0.110192865
9	0xbdbbcf0e	-0.09170352
10	0x3dde83a4	0.10864952
11	0x3cbfa6b0	0.023394912
12	0x3dbd2294	0.09235111
13	0x3c8aae50	0.016928822
14	0x3d76e15c	0.060273513
15	0xbc909460	-0.017648876
16	0x3dc558c6	0.09636073
17	0x3c975b38	0.018476114
18	0xbd6f05a4	-0.05835499
19	0x3d028208	0.03186229
20	0xbd6be5ac	-0.05759208
21	0xbc702cc0	-0.014659107
22	0xbd4ff3fc	-0.05076979
23	0x3da9d2ae	0.08292137
24	0xbdca142a	-0.09867127
25	0xbd6c098c	-0.057626292
26	0xbd10936c	-0.035296842
27	0xbd99ecfe	-0.07515906
28	0x3c414bf0	0.01179789
29	0xbdfcd88a	-0.12345989
30	0x3de73228	0.112888634
31	0xbdd976c0	-0.10618353
32	0x3dc5a396	0.09650342
33	0x3caa69c8	0.020802394
34	0xbd263fac	-0.040588066
35	0x3d9e31f8	0.077243745
36	0x3c9f9758	0.019481346
37	0x3dced6b0	0.10099542
38	0x3c5fe300	0.013664961
39	0xbd217898	-0.039421648
40	0x3d0990e8	0.03358546
41	0xbd0ad808	-0.03389743
42	0x3d577aa4	0.052607194
43	0x3de48ffe	0.11160277
44	0x3d93fbb6	0.072257444
45	0xbd5fd514	-0.054646567
46	0x3d93c79e	0.07215808
47	0x3cb73870	0.022365779
48	0x3d82017a	0.06347938
49	0xbd9c0886	-0.07618813
50	0xbdfd6aa4	-0.12373856
51	0xbd45d10c	-0.048295066
52	0xbdc45b9c	-0.095877856
53	0x3dd20ed6	0.10256736
54	0x3d1378d8	0.036003917
55	0x3d5413cc	0.051776692
56	0x3d21ecfc	0.039532647
57	0xbb0e8200	-0.0021744967
58	0x3dc85904	0.097826034
59	0xbdb5e438	-0.0888142
60	0x3c00f320	0.0078704655
61	0xbdaebaf4	-0.08531752
62	0x3d1de050	0.038544
63	0xbd3052e0	-0.043047786
64	0x3d1ce298	0.038302034
65	0xbcd55778	-0.026042685
66	0x3dd45306	0.10367398
67	0xbd97bb50	-0.07408774
68	0xbd98ad8a	-0.07454975
69	0xbd98afe6	-0.07455425
70	0x3de641e2	0.11243035
71	0x3d2a9fe4	0.04165639
72	0x3df65610	0.12028134
73	0xbdd3454e	-0.10315953
74	0xbdfdeb98	-0.123984516
75	0xbdc848fe	-0.09779547
76	0xbdac355a	-0.084086135
77	0x3d4f616c	0.050630018
78	0x3d3755b8	0.044759482
79	0x3dd4b776	0.10386555
80	0xbd843474	-0.06455317
81	0xbdae84aa	-0.085213974
82	0x3d87d3f8	0.06632227
83	0xbd4ef3e4	-0.05052556
84	0x3d9b5f5c	0.07586548
85	0xbcf2fef0	-0.02966258
86	0x3d92719a	0.07150574
87	0xbdc6e760	-0.097121
88	0xbd8130ba	-0.06308122
89	0x3d1c18c4	0.038109556
90	0x3cd87b38	0.026425943
91	0xbd0289f4	-0.031869844
92	0x3d989802	0.07450868
93	0x3dae07fa	0.08497615
94	0xbdb9a4f6	-0.09064667
95	0xbd88ab96	-0.066733524
96	0x3dea68d2	0.11445774
97	0xbd2cc3f4	-0.042179063
98	0xbd35832c	-0.04431455
99	0xbdf7b448	-0.12094933
100	0xbd929a84	-0.07158378
101	0x3cffcc88	0.031225458
102	0xbc872938	-0.016499147
103	0xbdb9d3aa	-0.09073575
104	0x3b402840	0.0029320866
105	0xbdaede6e	-0.08538519
106	0xbdd93086	-0.10604958
107	0xbd8cf83a	-0.06883283
108	0xbde00de6	-0.10940151
109	0xbda30144	-0.07959226
110	0x3dffe65e	0.12495111
111	0x3cc16870	0.02360937
112	0x3d1dc71c	0.038519964
113	0xbdeec466	-0.11658554
114	0xbda82254	-0.082096726
115	0xbd2a6c14	-0.041606978
116	0x3ca01fc0	0.01954639
117	0xbde14286	-0.109990165
118	0xbd5c9b64	-0.05385913
119	0xbd994258	-0.07483357
120	0x39b59e00	0.0003464073
121	0xbd3e8450	-0.0465129
122	0xbc0deaf0	-0.0086619705
123	0xbdad7924	-0.08470371
124	0xbdafb798	-0.085799396
125	0xbd9559d2	-0.072925225
126	0xbd2f419c	-0.04278718
127	0xbdca0e50	-0.09866011
128	0xc01974f3	-2.397763
129	0xc023ba70	-2.5582542
130	0x3fb52422	1.4151652
131	0x3fcf91c7	1.6216363
132	0x3f8d4ef5	1.1039721
133	0x3e0b8625	0.13625391
134	0xc0223912	-2.5347333
135	0x3e8313f1	0.25601152
136	0x3f349337	0.7053713
137	0x3e304bd8	0.17216432
138	0x3edb26ce	0.42803043
139	0x3fa2c326	1.2715805
140	0x3f02dea1	0.51120955
141	0xbfd10529	-1.63297
142	0x4004c3af	2.0744436
143	0x3e904228	0.28175473
144	0xbf78b524	-0.971514
145	0x3dfd268c	0.12360868
146	0x3b98c0c7	0.0046616527
147	0xbf14280c	-0.57873607
148	0xbf251c7c	-0.6449659
149	0xbf88ac6f	-1.0677623
150	0x3f832902	1.024689
151	0x3fca335a	1.5796921
152	0xbf0f7053	-0.5603077
153	0x3a704384	0.0009165334
154	0x3f8d4975	1.1038042
155	0xbfd9d94e	-1.7019441
156	0x3f657a5f	0.8963985
157	0xbea7bda3	-0.3276187
158	0xbfb6cb18	-1.4280729
159	0x3f541837	0.8284945
160	0x3f7309d2	0.9493686
161	0x3f82c0fc	1.0215144
162	0x3e8aecac	0.2713369
163	0xbe8db9a1	-0.27680686
164	0x3f4a62ed	0.790572
165	0xbf1a53d5	-0.6028417
166	0xbeee4ab0	-0.46541357
167	0x3f4b90a1	0.7951756
168	0x3f4a530e	0.7903298
169	0xbfcbef12	-1.5932333
170	0x3ea5fd83	0.32419977
171	0x3ea4c559	0.32181814
172	0xbdbda4ab	-0.092599235
173	0x3f276702	0.6539155
174	0xbec84312	-0.3911367
175	0x3f35bcc2	0.70991147
176	0x3e50621b	0.20349924
177	0xbe319096	-0.17340311
178	0x3dc8ce74	0.09805003
179	0xbfb31e69	-1.3993655
180	0xbeb8ac57	-0.36068985
181	0x3e36c1ca	0.17847362
182	0xbeb92ee9	-0.36168602
183	0xbe86299b	-0.26203617
184	0x3f03448b	0.51276463
185	0x3f0c8fae	0.5490674
186	0xbf7a5618	-0.9778762
187	0xbf7449fe	-0.95425403
188	0xbd625377	-0.05525538
189	0xbc0feca4	-0.008784447
190	0xbcb4e4d0	-0.022081763
191	0xbd730520	-0.05933106
192	0x3da3a310	0.07990086
193	0x3ddc019c	0.107424945
194	0xbc4abf20	-0.012374669
195	0xbce54538	-0.027987108
196	0x3aef1480	0.0018240362
197	0xbbf490a0	-0.0074635297
198	0x3cf62e60	0.03005141
199	0x3d0f7ac8	0.035029203
200	0xbde88384	-0.113532096
201	0xbd3cf284	-0.04612972
202	0x3dd795cc	0.10526618
203	0x3d4773c0	0.048694372
204	0xbbcbb9a0	-0.0062171966
205	0xbd9a5808	-0.07536322
206	0xbd9c9f42	-0.076475635
207	0xbde550fa	-0.11197086
208	0xbd26e48c	-0.040745303
209	0x3d2ce790	0.042213023
210	0x3da33b2c	0.079702705
211	0x3d6c6398	0.057712168
212	0xbde24a28	-0.110493004
213	0xbd99f2e4	-0.07517031
214	0xbca19ab0	-0.019727081
215	0x3df7a438	0.12091869
216	0x3c942118	0.018082187
217	0xbd0497d0	-0.032371342
218	0x3d53d27c	0.051714405
219	0xbd4302e8	-0.047610193
220	0xbda5b28c	-0.08090696
221	0x3dbad9e4	0.091235906
222	0xbd68ceac	-0.056837723
223	0xbccd4728	-0.025058344
224	0xbdfeab7e	-0.12435053
225	0x3dab5552	0.08365883
226	0x3dc1f458	0.09470433
227	0x3d3a98f4	0.045556024
228	0xbdb28090	-0.087159276
229	0xbdfca818	-0.12336749
230	0xbdcfeaf6	-0.10152237
231	0x3dbee636	0.09321253
232	0x3d75d06c	0.06001322
233	0x3dd76cd6	0.10518806
234	0x3d861c56	0.065483734
235	0x3d01954c	0.03163652
236	0xbaa07180	-0.0012240857
237	0xbdc2b086	-0.095063254
238	0xbddb556c	-0.10709652
239	0xbdef7302	-0.11691858
240	0x3d5197e4	0.051170245
241	0xbd7b6028	-0.061371
242	0xbcce1528	-0.025156572
243	0xbd935450	-0.07193816
244	0xbcba98d0	-0.022777945
245	0xbdb42e86	-0.08797936
246	0xbda74640	-0.08167696
247	0x3d29d600	0.041463852
248	0xbd182a20	-0.03714955
249	0x3d9e0a34	0.0771679
250	0xbd24410c	-0.040101096
251	0xbdbbcb10	-0.091695905
252	0xbcb4ac68	-0.022054866
253	0xbd7830d0	-0.060593426
254	0xbd1ca460	-0.038242698
255	0xbdf3b5fc	-0.11899945

network.0.bias f4 [128]
0	0x3a30c800	0.00067436695
1	0xbca4efb8	-0.020133838
2	0x3d99ede3	0.075160764
3	0x3bf53f00	0.007484317
4	0xbdb54ba6	-0.088523194
5	0xbc7b4429	-0.015336075
6	0xbdbd59da	-0.092456535
7	0x3c98e130	0.018662065
8	0x3cc08abc	0.023503654
9	0xbdf15b7e	-0.11785029
10	0xbdaf1d80	-0.085505486
11	0xbd80949c	-0.06278345
12	0xbd330614	-0.04370697
13	0xbd07957f	-0.033101555
14	0x3d3b544a	0.04573468
15	0xbdca1016	-0.098663494
16	0xbacda130	-0.0015688296
17	0xbdd384da	-0.10328074
18	0xbb980afd	-0.004639982
19	0xbda5f250	-0.08102858
20	0xbdc3d766	-0.09562568
21	0x3d9b953a	0.07596822
22	0x3cecdec6	0.02891482
23	0xbd2d77c8	-0.04235056
24	0x3d464748	0.048407823
25	0xbbc30e03	-0.005952598
26	0x3d39f26c	0.045397207
27	0xbbf055a0	-0.007334426
28	0xbdcc090b	-0.09962662
29	0xbd393268	-0.045214087
30	0xbddb7dd2	-0.10717358
31	0x3cc1d966	0.023663234
32	0x3d43d555	0.04781087
33	0x3dcebf4d	0.100950815
34	0xbdfba966	-0.122881696
35	0x3de69d94	0.112605244
36	0xbc5111b6	-0.01276057
37	0x3d0b9b5c	0.03408371
38	0xbd5bc1cc	-0.053651616
39	0x3d153c86	0.036434673
40	0x3d66827e	0.05627679
41	0x3d7cb375	0.06169458
42	0xbdd35d6a	-0.10320552
43	0x3c9ba4a8	0.018999413
44	0x3c72f766	0.014829492
45	0xbe108549	-0.14113344
46	0x3d39cbdd	0.045360435
47	0x3c509f41	0.012733282
48	0xbdcd94ba	-0.10038133
49	0xbddbc7d6	-0.10731475
50	0x3ba719a0	0.0050994903
51	0x3dcd54fc	0.10025975
52	0x3d14ad3c	0.03629802
53	0x3c8ffde0	0.017577112
54	0xbc04a9d0	-0.008097127
55	0xbdfe5c92	-0.1242
56	0x3ce46a9f	0.027882872
57	0x3d3ff97b	0.046868782
58	0xbdcf390d	-0.101183034
59	0xbcbca2a0	-0.023026764
60	0x3df8e146	0.121523425
61	0xbd92331e	-0.07138656
62	0xbdafc3de	-0.085822806
63	0x3cf1af72	0.029502604
64	0x3cbbf54b	0.022944113
65	0x3db1bd2d	0.086786605
66	0xbda84e2e	-0.082180366
67	0xbbb16c32	-0.005414509
68	0x3cf683d0	0.03009215
69	0x3da1654a	0.078806475
70	0x3cee32ce	0.02907696
71	0x3cc41a18	0.023938224
72	0xbd131a51	-0.03591377
73	0xbcb6ab60	-0.022298515
74	0xbd8a2732	-0.06745757
75	0x3b5d63ab	0.003378133
76	0x3d0bd23f	0.034136053
77	0xbd822234	-0.0635418
78	0xbdaef044	-0.08541921
79	0x3c8cf1bb	0.01720511
80	0x3c899628	0.016795233
81	0xbd7159d4	-0.058923557
82	0x3d80a03c	0.06280562
83	0xbdd09560	-0.10184741
84	0xbd7b9050	-0.061416924
85	0xbd6fbc2e	-0.05852907
86	0xbd5a445d	-0.053287853
87	0xbc5a625a	-0.013329113
88	0x3ca9d661	0.020732107
89	0xbd32c74c	-0.043647096
90	0xbc8af248	-0.016961232
91	0xbd8583e4	-0.06519297
92	0xbda853aa	-0.08219083
93	0x3cac222c	0.021012388
94	0x3dbcc550	0.09217322
95	0x3dadc6c6	0.08485179
96	0xbdc7cc24	-0.097557336
97	0x3d0ed434	0.03487034
98	0xbd9ad9c8	-0.0756107
99	0xbcd9ca3d	-0.026585693
100	0xbc371de0	-0.011176556
101	0x3d649517	0.055806246
102	0x3d88b946	0.06675963
103	0xbdcf4954	-0.10121408
104	0x3cde1338	0.027108774
105	0x3cff1a63	0.031140512
106	0x3991b927	0.00027794504
107	0xbd3e84af	-0.046513256
108	0xbd71b2c8	-0.05900839
109	0xbdb49fac	-0.088195175
110	0xbdfbf940	-0.123034
111	0xbd646083	-0.055756103
112	0xbd458b88	-0.04822877
113	0x3cb6d716	0.022319358
114	0xbd5873c0	-0.052844763
115	0x3dd4a3b6	0.10382788
116	0xbdb49f5c	-0.08819458
117	0x3db3d6c4	0.08781198
118	0xbd8b149d	-0.06791041
119	0xbca93ede	-0.02065986
120	0xbd3bc0a8	-0.04583803
121	0x3d57cc7c	0.052685246
122	0x3d5a7ecb	0.053343575
123	0x3d4741a1	0.048646573
124	0xbdb14e0c	-0.086574644
125	0x3d2c1f42	0.042021997
126	0x3d8d0baa	0.0688699
127	0xbdd212f8	-0.10257524

network.2.weight f4 [128, 128]
0	0x3d1255e6	0.03572645
1	0x3c8bfccc	0.017088316
2	0x3ca59884	0.020214327
3	0x3d9e9a0f	0.07744228
4	0xba49ff6b	-0.0007705602
5	0xbd76e9ee	-0.060281686
6	0xbd232ccf	-0.039837655
7	0x3c3b04d8	0.011414729
8	0xbc5ef2a8	-0.013607658
9	0xbd81a5cd	-0.06330452
10	0x3b219200	0.0024653673
11	0x3d4f4d5a	0.050610878
12	0x3b400a40	0.0029302984
13	0x3d60d858	0.05489382
14	0xbd5959cb	-0.05306415
15	0x3d8df72b	0.06931909
16	0x3b068d34	0.002053094
17	0xbd0de6fd	-0.034644116
18	0x3cce73b6	0.02520166
19	0x3d26efc1	0.04075599
20	0xbd1b3a95	-0.037897665
21	0xbd684082	-0.056702144
22	0x3d087b4e	0.033320718
23	0xbd9f875e	-0.07789491
24	0x3cba0dd8	0.02271168
25	0x3c674adf	0.014116972
26	0xbd76c8da	-0.06025014
27	0xbc328908	-0.010896929
28	0x3c0f2ea9	0.008739152
29	0x3d7bd756	0.061484657
30	0x3d845fed	0.06463609
31	0xbdbaf54c	-0.09128818
32	0xbdb87995	-0.09007565
33	0x3d3a2f1e	0.04545509
34	0x3db297c1	0.08720351
35	0x3d92bc29	0.07164795
36	0x3c91b959	0.017788576
37	0x3daba331	0.08380736
38	0xbd2635a4	-0.0405785
39	0xbc20723b	-0.00979286
40	0xbd999cc5	-0.075006045
41	0xbdb36e18	-0.08761233
42	0xbd74d70c	-0.059775397
43	0xbda4350a	-0.08017929
44	0x3c35641f	0.011071234
45	0x3c901f3e	0.017593022
46	0x3c67780c	0.0141277425
47	0x3d26dc8c	0.040737674
48	0xbd902f68	-0.07040292
49	0xbcd0fafc	-0.025510304
50	0x3d8e70cd	0.06955109
51	0xbda03329	-0.07822258
52	0x3d7e7476	0.062122785
53	0x3cdef9fc	0.027218811
54	0xbd92f51e	-0.07175659
55	0x3c9c36ac	0.019069038
56	0xbd01c53b	-0.031682234
57	0xbc4064a1	-0.011742742
58	0xbd101af9	-0.035181973
59	0x3d23e246	0.040010713
60	0x3d8cc837	0.068741255
61	0x3d4ae4ea	0.049534716
62	0xbc0afd78	-0.008483283
63	0xbdb6e698	-0.08930701
64	0x3d7b5f55	0.061370213
65	0xbc0b4f95	-0.008502861
66	0x3d936af1	0.07198132
67	0x3cb7aa8a	0.022420187
68	0x3abe7300	0.0014530122
69	0x3cf4e5f4	0.029894806
70	0x3d1b353e	0.037892573
71	0x39ceb733	0.00039427876
72	0x3b8c39d6	0.0042793555
73	0xbb6b29a0	-0.0035882965
74	0x3d7810ca	0.060562886
75	0x3cc9db8f	0.024640827
76	0xbd2579f7	-0.040399518
77	0x3da8b109	0.08236892
78	0x3dad75e3	0.08469751
79	0x3d7262db	0.059176307
80	0x3c81bd44	0.01583732
81	0x3bb12510	0.0054060295
82	0xbda801db	-0.08203479
83	0x3d83f66b	0.06443485
84	0xbd821051	-0.06350768
85	0xbdaa5e00	-0.0831871
86	0x3c5d855f	0.013520568
87	0xbdf240fb	-0.118288
88	0x3b161ae5	0.0022904214
89	0xbd2e5cfa	-0.042569138
90	0xba2eedfb	-0.0006673035
91	0xbd0b7b3c	-0.034053072
92	0x3d9260a5	0.0714734
93	0xbdae3704	-0.08506587
94	0x3c850408	0.016237274
95	0xbc0405ff	-0.00805807
96	0xbdac3f13	-0.08410468
97	0x3d5c25d8	0.053747028
98	0xbc02268b	-0.00794376
99	0xbdd1f98b	-0.10252675
100	0xbdb51acf	-0.08843004
101	0x3c335688	0.010945924
102	0x3d81f79f	0.06346058
103	0xbca500d4	-0.020141996
104	0xbcd5e71a	-0.026111174
105	0xbdb61a2a	-0.08891709
106	0x3d3d596c	0.046227857
107	0xbd23dfaa	-0.040008225
108	0xbd266814	-0.0406266
109	0x3d09c148	0.033631593
110	0x3d9e4ff7	0.07730096
111	0x3ce4d5e8	0.02793403
112	0x3cd0d7c0	0.025493503
113	0x3d9b0725	0.07569722
114	0x3b765e00	0.003759265
115	0x3c6005f8	0.013673298
116	0xbbd39fc0	-0.0064582527
117	0xbd8ceab5	-0.06880704
118	0xbc8ff133	-0.017571067
119	0xbd7baf55	-0.061446507
120	0x3d51832a	0.05115048
121	0xbd79b9b3	-0.060968112
122	0xbdc6c396	-0.09705274
123	0xbcf2faa6	-0.029660534
124	0x3d867923	0.06566074
125	0xbda5bb9c	-0.08092424
126	0xbd2ceb6a	-0.042216696
127	0xbbddeb30	-0.0067724213
128	0xbd1e5422	-0.038654454
129	0x3d2b089e	0.041756265
130	0x3d9e1faf	0.07720887
131	0x3d43f412	0.047840185
132	0xbc98b3e4	-0.018640466
133	0xbd8e1f70	-0.0693959
134	0xbd95757e	-0.072978005
135	0xbcad6314	-0.021165408
136	0xbce41a62	-0.027844612
137	0xbd894840	-0.06703234
138	0x3cb310d8	0.021858618
139	0xbd092f0b	-0.03349213
140	0x3cd1fad0	0.025632292
141	0xbd404058	-0.046936363
142	0xbc027c90	-0.007964268
143	0xbcd9e8d2	-0.026600275
144	0x3d5e61a2	0.05429233
145	0xbda53532	-0.08066787
146	0xbd0ec3a7	-0.034854557
147	0x3c9aa0a0	0.01887542
148	0xbccbff14	-0.024901904
149	0xbac64580	-0.0015126914
150	0x3d74af4e	0.059737496
151	0x3c4f4e70	0.012652978
152	0x3c328560	0.010896057
153	0x3cd38954	0.02582232
154	0xbd42c832	-0.047554202
155	0xbd109641	-0.035299543
156	0x3d2d6c4a	0.0423396
157	0x3c51ee78	0.012813203
158	0x3d6c2baa	0.05765883
159	0xbc38e378	-0.0112847015
160	0x3daa0cf7	0.08303254
161	0x3d583586	0.05278542
162	0xbccad848	-0.024761334
163	0xbd390534	-0.045170978
164	0x3c923878	0.017849192
165	0xbd9702e8	-0.07373601
166	0xbd25cd00	-0.040478706
167	0x3cddd22c	0.027077757
168	0x3bfc9e10	0.007709272
169	0x3d23d7c2	0.040000685
170	0xbd176f40	-0.03697133
171	0x3d985639	0.07438321
172	0xbd4715e4	-0.04860486
173	0xbd398238	-0.045290202
174	0x3d7237da	0.059135295
175	0xbc8bb2f8	-0.017053112
176	0x3ccf23f4	0.025285698
177	0xbc80a108	-0.015701786
178	0xbd8005ca	-0.06251104
179	0xbb67b720	-0.0035356954
180	0x3d243fae	0.040099792
181	0x3d73fdd6	0.05956825
182	0x3d8a15f9	0.06742472
183	0xbb4bfb20	-0.0031125024
184	0x3d831cb1	0.06401957
185	0x3ccc406c	0.024933062
186	0x3b565da0	0.0032709613
187	0x3adade00	0.0016698241
188	0xbc0a2e90	-0.008433953
189	0x3ccec998	0.025242612
190	0xbb95a1a0	-0.0045663863
191	0x3d68d472	0.05684323
192	0xbc5c9200	-0.0134625435
193	0xbd490abe	-0.04908251
194	0x3cd26d24	0.025686808
195	0xbd4adcf6	-0.04952713
196	0x3d60d566	0.054891013
197	0x3d93d71d	0.07218764
198	0x3c687a28	0.014189281
199	0xbc91405c	-0.017730884
200	0xbb82c9b0	-0.003991328
201	0x3d298e3e	0.04139542
202	0xbd8a48a4	-0.06752136
203	0xbcc1d128	-0.023659304
204	0xbd5c9394	-0.05385168
205	0xbda3bb51	-0.07994712
206	0xbd818512	-0.06324209
207	0xbd689dc5	-0.056791086
208	0x3d89d4e1	0.067300566
209	0x3d5d49ba	0.05402539
210	0xbd75c87e	-0.060005657
211	0xbd8eda36	-0.06975214
212	0x3da21c07	0.07915502
213	0x3cabdedc	0.020980291
214	0x3d26b7f6	0.040702783
215	0x3c622708	0.013803251
216	0xbd074650	-0.03302604
217	0xbd439816	-0.047752462
218	0x3d42c8ea	0.047554888
219	0xbdb2d20f	-0.08731472
220	0xbd96a13f	-0.07354974
221	0x3cdaa858	0.0266916
222	0xbcbde264	-0.02317924
223	0x3c8a80d0	0.016907126
224	0x3d411772	0.0471415
225	0xbd500d4e	-0.05079394
226	0xbd4bcba7	-0.049754765
227	0xbd5eacea	-0.054364122
228	0xbd9e622d	-0.07733569
229	0xbbc40d20	-0.00598301
230	0x3d99b72d	0.07505641
231	0xbbb10660	-0.0054023713
232	0x3d468d5e	0.048474662
233	0xbd340c78	-0.043957204
234	0x3c0faf20	0.00876978
235	0xbd87ed41	-0.066370495
236	0xbbbf7300	-0.0058425665
237	0x3c9ee5f8	0.019396767
238	0xbd1ae763	-0.037818324
239	0x3da6323b	0.081150495
240	0x3ccc6f1c	0.024955325
241	0x3d3515f2	0.04421038
242	0x3db427b7	0.087966375
243	0x3d19784e	0.037468247
244	0xbbe38a90	-0.006944008
245	0x3d2ce8c2	0.042214163
246	0x3db26227	0.08710127
247	0xbdae462e	-0.085094795
248	0xbc88840c	-0.016664527
249	0x3d2fceb6	0.042921744
250	0xbcaf7f84	-0.021423109
251	0xbd9345f4	-0.07191077
252	0xbd522af5	-0.0513105
253	0xbd3c2bb1	-0.045940105
254	0x3d16188e	0.03664451
255	0x3d667eba	0.0562732

network.2.bias f4 [128]
0	0xbbd2a42c	-0.006428262
1	0xbda3c2a3	-0.079961084
2	0x3d43c564	0.04779567
3	0xbbf31268	-0.0074179657
4	0x3ce32061	0.0277254
5	0xbd78864e	-0.060674958
6	0xbd74468c	-0.05963759
7	0x3d170992	0.03687436
8	0xbbf30099	-0.0074158427
9	0x3cfba23f	0.030717013
10	0xbda28fe4	-0.07937601
11	0xbd1443fa	-0.03619764
12	0xbd5d13ad	-0.053973842
13	0xbd657a71	-0.056024972
14	0x3d2519d2	0.040307827
15	0xbc4ed0e4	-0.012623046
16	0xbcd0aa74	-0.025471903
17	0x3d6a4a20	0.057199597
18	0xbcef5c1a	-0.029218722
19	0xbb8d323e	-0.004308968
20	0xbd99bd97	-0.075068645
21	0xbbc93de1	-0.0061414097
22	0x3d3ba5cc	0.045812413
23	0x3d5e5b97	0.054286566
24	0x3dac2558	0.0840556
25	0xbd242c6c	-0.040081427
26	0xbd985bef	-0.0743941
27	0x3dba467a	0.090954736
28	0x3ca359ec	0.019940339
29	0x3c0645dd	0.008195368
30	0x3db62e4d	0.0889555
31	0x3d06b995	0.03289183
32	0xbd98db66	-0.07463722
33	0x3d903460	0.0704124
34	0xbd43eb4a	-0.04783181
35	0xbce4fed2	-0.027953539
36	0x3da81b15	0.082082905
37	0xbc9dfb62	-0.019284908
38	0xbb1351dd	-0.0022479214
39	0x3c828775	0.015933732
40	0x3d47f776	0.04881998
41	0xbc9cc314	-0.01913599
42	0x3d40d194	0.04707487
43	0xbd18b848	-0.03728512
44	0xbcb80818	-0.022464797
45	0xbc671865	-0.014104937
46	0xbd5ec05d	-0.05438267
47	0xbd0ee967	-0.03489056
48	0xbcc47894	-0.023983277
49	0xbd184148	-0.037171632
50	0x3d8e87f8	0.06959528
51	0xbc240bef	-0.010012611
52	0x3d6c799a	0.057733156
53	0x3d3d7013	0.04624946
54	0x3c6b10ab	0.014347236
55	0x3d4d74fc	0.050160393
56	0xbd8bb814	-0.068222195
57	0xbc116bf2	-0.008875834
58	0x3d3fb476	0.04680296
59	0xbd054b4c	-0.03254251
60	0xbd6e31fb	-0.058153134
61	0x3b8c8ec8	0.004289482
62	0xbcf9acb0	-0.030477852
63	0xbd669ba0	-0.05630076
64	0x3d3889cd	0.045053292
65	0x3d354abd	0.04426073
66	0xbbfd69fe	-0.0077335825
67	0xbda72c6d	-0.081627704
68	0xbc78d64b	-0.01518781
69	0x3d4f58d3	0.05062182
70	0xbb810619	-0.0039374945
71	0x3d51cf6f	0.051223215
72	0xbcad89b0	-0.021183819
73	0x3aeac2e6	0.0017910867
74	0xbba6b32a	-0.005087276
75	0xbc566d40	-0.013087571
76	0x3d8e4066	0.06945877
77	0xbc66abdd	-0.014079061
78	0x3bdaf243	0.006681712
79	0x3d33d93c	0.043908343
80	0x3dad44e0	0.084604025
81	0x3c4a7d2b	0.012358944
82	0xbda46a1e	-0.08028053
83	0x3d96eba8	0.073691666
84	0x3da7e03b	0.081970654
85	0x3d0fca6a	0.035105146
86	0xbd605d9f	-0.054776784
87	0x3d6ff7d3	0.058585953
88	0x3d381194	0.04493864
89	0x3c19877f	0.009370684
90	0xbdb3f7cf	-0.087875
91	0x3d4d952d	0.050191093
92	0xbd92c2b7	-0.07166045
93	0x3d18a796	0.037269197
94	0x3d925c8a	0.07146557
95	0x3b972bd1	0.0046133776
96	0xbc95b3dc	-0.01827424
97	0xbc88314a	-0.016625065
98	0xbd6590af	-0.056046184
99	0xbd67b011	-0.056564394
100	0xbd237e5b	-0.039915424
101	0x3d54aa19	0.05192003
102	0x3d482067	0.048859026
103	0xbceaf840	-0.028682828
104	0x3cce7d1f	0.025206147
105	0x3af4df89	0.0018682341
106	0xbcdf2551	-0.027239474
107	0x3d64ca9a	0.05585728
108	0xbd7c50f2	-0.061600633
109	0xbbbc6361	-0.0057491516
110	0x3cc8b274	0.024499156
111	0x3c81148c	0.015756868
112	0xbc1e3220	-0.009655505
113	0x3d1d7176	0.038438283
114	0x3cea7374	0.028619505
115	0xbc876961	-0.01652974
116	0x3cfce0e9	0.030868964
117	0x3d4c6c10	0.049907744
118	0xbd0b8648	-0.034063607
119	0xbd80b33a	-0.06284185
120	0x3d1f4e4e	0.038893037
121	0xbc04bcd8	-0.0081016645
122	0x3d3ca208	0.046052963
123	0x3ca228b9	0.019794809
124	0x3cffe56d	0.031237328
125	0x3d439db7	0.04775783
126	0x3d95db77	0.0731725
127	0xbcecb498	-0.028894708

network.4.weight f4 [3, 128]
0	0x3d29d86a	0.041466154
1	0xbc86e0b4	-0.016464569
2	0x3d76e510	0.060277045
3	0xbdabe072	-0.08392419
4	0x3dcabb19	0.09898967
5	0x3d493342	0.04912115
6	0x3d84cb8d	0.06484137
7	0x3dcc950f	0.09989368
8	0xbd4615b2	-0.048360534
9	0x3d2a7153	0.04161198
10	0xbd50db64	-0.050990477
11	0x3bd1d5d0	0.0064036623
12	0x3b2bcca0	0.0026214495
13	0xbc7d7e68	-0.015472032
14	0x3baac978	0.005212005
15	0x3d0519e0	0.03249538
16	0x3d717d92	0.058957644
17	0xbc0fa54d	-0.008767438
18	0xbda2c289	-0.07947261
19	0xbd2942f3	-0.041323613
20	0xbc203840	-0.009779036
21	0xbc067e68	-0.008208849
22	0x3deeaa5c	0.11653587
23	0x3d0ef904	0.03490545
24	0x3d187db9	0.037229273
25	0x3d8332fb	0.06406208
26	0xbcd284a0	-0.025698006
27	0x3df52457	0.11969822
28	0x3d91ef1a	0.07125683
29	0xbd61d223	-0.055132043
30	0x3d6e0586	0.058110736
31	0xbd4f39a4	-0.05059208
32	0x3da39681	0.07987691
33	0x3d38e612	0.045141287
34	0x3da65503	0.081216834
35	0x3db3afe7	0.08773785
36	0x3d370326	0.044680737
37	0xba5beae1	-0.00083891867
38	0xbb62287a	-0.003450899
39	0x3d164313	0.03668506
40	0x3d75fa17	0.060052957
41	0xbd7ce1fa	-0.061738946
42	0x3dc7e17d	0.09759805
43	0x3d0227c2	0.031776197
44	0xbb644339	-0.0034830107
45	0x3d55a5fd	0.052160252
46	0x3c2117db	0.009832348
47	0x3d8bad5a	0.068201736
48	0xbd527329	-0.051379357
49	0xbd890672	-0.066906825
50	0xbb54cd31	-0.0032470936
51	0x3d674c8c	0.056469485
52	0x3da5f7b5	0.08103887
53	0x3e0bb3cd	0.13642807
54	0x3d7475cb	0.05968265
55	0x3d106751	0.03525478
56	0xbdb0dd61	-0.08635975
57	0x3d2abf94	0.04168661
58	0x3d47fe11	0.04882628
59	0x3c0e4551	0.0086835185
60	0xbdb0a995	-0.08626095
61	0x3d3c4745	0.045966405
62	0x3c40d230	0.011768863
63	0x3d8bdb7d	0.068289734
64	0x3dc932ef	0.09824168
65	0xbc9ecc47	-0.019384516
66	0x3d9b3ac8	0.07579571
67	0xbdaab044	-0.08334401
68	0xbb724715	-0.0036968638
69	0x3d0a3dbe	0.03375029
70	0xbda23039	-0.07919354
71	0x3dc08caf	0.09401833
72	0x3da19253	0.07889237
73	0xbcfd0f53	-0.030891096
74	0xbd832eef	-0.06405436
75	0x3c906e38	0.017630681
76	0x3e002bb9	0.12516679
77	0x3c8fa988	0.017536893
78	0xbd43bc6d	-0.04778712
79	0x3ddb3136	0.107027456
80	0x3e033058	0.1281141
81	0x3d483f96	0.048888765
82	0x3da53ebd	0.08068607
83	0x3dd6554e	0.10465489
84	0x3dbf3b0a	0.09337433
85	0x3c0ac980	0.008470893
86	0x3da4c7e1	0.080459364
87	0x3ca8ef25	0.020621845
88	0xbd856f8c	-0.065154165
89	0xbd524b49	-0.05134133
90	0xbd859020	-0.0652163
91	0xbcabd17f	-0.020973919
92	0xbbb8c1c0	-0.005638331
93	0x3d99566b	0.07487186
94	0xbd4d292d	-0.050088096
95	0xbd95fbf3	-0.07323446
96	0x3d3c2966	0.045937918
97	0x3cc67a2d	0.02422818
98	0x3cf7c500	0.030245304
99	0xbd17567c	-0.036947712
100	0x3d2114ee	0.0393266
101	0xbb57f052	-0.0032949639
102	0x3dbdf4e3	0.09275224
103	0x3cc734ac	0.024317108
104	0xbc42e47c	-0.011895295
105	0x3d22f627	0.03978553
106	0x3daaa203	0.083316825
107	0xbcdd847c	-0.027040713
108	0x3c9d6378	0.01921247
109	0xbd40452b	-0.046940964
110	0x3ba84168	0.00513475
111	0x3dec7012	0.11544813
112	0x3d74405a	0.059631683
113	0x3e17ce6e	0.1482484
114	0x3de8da01	0.11369706
115	0xbb9c0240	-0.0047610104
116	0x3c7c1183	0.0153850345
117	0x3dd1dd4c	0.10247287
118	0xbbefd740	-0.007319361
119	0x3ccb3304	0.0248046
120	0xbb03da14	-0.0020118998
121	0xbd1898e3	-0.03725518
122	0x3daed30e	0.08536349
123	0x3e01ba96	0.12668833
124	0x3d3e48a5	0.046455998
125	0x3c3cffbc	0.011535581
126	0x3d7e6136	0.062104426
127	0x3cc59c24	0.024122305
128	0x3ada3c98	0.0016650138
129	0xbcfe18be	-0.031017657
130	0xbe3f4407	-0.18678294
131	0xbd467247	-0.048448827
132	0xbe5fc95e	-0.21854159
133	0xbdac8801	-0.08424378
134	0x3c6c93d0	0.014439538
135	0xbe153f1a	-0.14574853
136	0xbceacc0e	-0.028661754
137	0x3e72dfdf	0.23718213
138	0xbd7c7712	-0.06163699
139	0xbdb198af	-0.086717
140	0x3d1eecb2	0.03879995
141	0x3d2b46fe	0.04181575
142	0xbde16335	-0.1100525
143	0xbd5eb72f	-0.054373916
144	0x3d99df1b	0.07513257
145	0x3e681611	0.22664668
146	0x3daedbc5	0.085380115
147	0x3d10d22a	0.035356678
148	0x3d9a0b45	0.07521681
149	0xbd79b4ac	-0.060963318
150	0xbe460b4e	-0.1934025
151	0xbe28e5aa	-0.1649386
152	0x3e95c96a	0.2925523
153	0xbd83ab40	-0.06429148
154	0xbcc37320	-0.023858607
155	0x3e6cbbd3	0.23118524
156	0x3e23e7ec	0.1600644
157	0x3c366b42	0.011133971
158	0x3e4441d6	0.1916574
159	0xbdff85fb	-0.124767266
160	0x3d706e52	0.05869896
161	0xbe85001e	-0.25976652
162	0x3ce3ec43	0.02782262
163	0xbd2d888c	-0.04236655
164	0x3ea2dbd6	0.31808347
165	0xbd9f2420	-0.07770562
166	0xbd79aac6	-0.060953878
167	0x3e6587ae	0.22415039
168	0xbe456dbe	-0.19280145
169	0x3cabd238	0.020974264
170	0xbe12f51c	-0.14351314
171	0xbca6c23a	-0.020356286
172	0x3d533c80	0.05157137
173	0x3d86312a	0.06552346
174	0x3cd8c63f	0.026461719
175	0x3b8534ec	0.0040651467
176	0xbd5d4891	-0.054024283
177	0x3d8793b7	0.06619971
178	0xbe4c24d4	-0.19935924
179	0xbb85e90c	-0.0040866192
180	0xbe076ef7	-0.13225923
181	0x3e253993	0.16135244
182	0x3e4f5495	0.20247109
183	0xbe4798d4	-0.19491893
184	0x3c4b9c30	0.012427375
185	0xbb3967f7	-0.0028290728
186	0xbdd9985a	-0.10624762
187	0xbd9354b6	-0.07193892
188	0xbd0e8cd3	-0.03480227
189	0x3e3998d5	0.18124707
190	0xbcf839a2	-0.030300919
191	0xbd42ade7	-0.047529127
192	0xbe30f0b3	-0.1727932
193	0xbe938199	-0.28809813
194	0xbd47a3fe	-0.04874038
195	0xbd29da23	-0.041467797
196	0x3d849ad4	0.064748436
197	0xbe321a87	-0.17392932
198	0x3d06dde0	0.03292644
199	0x3e460387	0.19337283
200	0x3d6e992a	0.058251537
201	0xbccb6a44	-0.024830945
202	0xbb3ea49c	-0.0029089814
203	0xbc5be01f	-0.013420134
204	0x3e5d5ae4	0.21616703
205	0xbcc28f51	-0.02374998
206	0x3cc14c4b	0.02359595
207	0x3e9f652f	0.31131884
208	0x3e89bb21	0.2690058
209	0xbb3a54a1	-0.002843179
210	0x3c992fc0	0.018699527
211	0x3e4ed242	0.20197394
212	0x3e9439e5	0.2895042
213	0x3e481b16	0.19541582
214	0xbc4d3708	-0.0125253275
215	0x3e304ea3	0.17217498
216	0xbe8b9593	-0.27262554
217	0xbbc4dea1	-0.0060079847
218	0xbbbde580	-0.005795181
219	0xbe172783	-0.14761166
220	0xbd3bf7b3	-0.04589052
221	0xbe5f38c7	-0.21799003
222	0xbe50e014	-0.20397979
223	0xbd557b92	-0.0521198
224	0x3d203076	0.039108716
225	0xbcb3f501	-0.021967413
226	0xbca1a85c	-0.0197336
227	0x3c80a9bc	0.015705936
228	0xbd886983	-0.0666075
229	0xbe425641	-0.18978216
230	0xbe3fa3ff	-0.18714903
231	0xbd28e170	-0.04123062
232	0x3e763e83	0.24047284
233	0x3bfdce38	0.0077455305
234	0xbd2aa4e0	-0.041661143
235	0xbe3bce33	-0.18340378
236	0xbd31b669	-0.04338685
237	0x3cbdec96	0.023184102
238	0x3e5909a0	0.21195078
239	0x3e71c17e	0.23608968
240	0xbc7f3930	-0.015577599
241	0x3df9ae6f	0.12191474
242	0x3e15b60e	0.1462023
243	0xbb598822	-0.0033192714
244	0xbde7bdea	-0.1131552
245	0x3e9c8dfe	0.3057708
246	0x3d7beeb6	0.06150695
247	0x3ccda67c	0.0251038
248	0xbe2d2b51	-0.16911055
249	0xbcc92d8c	-0.024557851
250	0xbe416d6e	-0.188894
251	0x3e4a6151	0.19763686
252	0xbe5c4210	-0.21509576
253	0xbe658655	-0.22414525
254	0x3e585de5	0.21129568
255	0x3d79dcee	0.06100171

network.4.bias f4 [3]
0	0x3dcac470	0.09900749
1	0x3dcff7dd	0.10154698
2	0x3ddd7e48	0.10815102

network.0.weight f4 [128, 64]
0	0x3dc3b8cc	0.095567316
1	0x3dd47b66	0.10375099
2	0xbcefe520	-0.02928406
3	0x3deb2a1c	0.11482641
4	0xbce05cb0	-0.027387947
5	0x3ccea238	0.025223836
6	0xbd794510	-0.06085688
7	0x3d965828	0.07341033
8	0x3de1accc	0.110192865
9	0xbdbbcf0e	-0.09170352
10	0x3dde83a4	0.10864952
11	0x3cbfa6b0	0.023394912
12	0x3dbd2294	0.09235111
13	0x3c8aae50	0.016928822
14	0x3d76e15c	0.060273513
15	0xbc909460	-0.017648876
16	0x3dc558c6	0.09636073
17	0x3c975b38	0.018476114
18	0xbd6f05a4	-0.05835499
19	0x3d028208	0.03186229
20	0xbd6be5ac	-0.05759208
21	0xbc702cc0	-0.014659107
22	0xbd4ff3fc	-0.05076979
23	0x3da9d2ae	0.08292137
24	0xbdca142a	-0.09867127
25	0xbd6c098c	-0.057626292
26	0xbd10936c	-0.035296842
27	0xbd99ecfe	-0.07515906
28	0x3c414bf0	0.01179789
29	0xbdfcd88a	-0.12345989
30	0x3de73228	0.112888634
31	0xbdd976c0	-0.10618353
32	0x3dc5a396	0.09650342
33	0x3caa69c8	0.020802394
34	0xbd263fac	-0.040588066
35	0x3d9e31f8	0.077243745
36	0x3c9f9758	0.019481346
37	0x3dced6b0	0.10099542
38	0x3c5fe300	0.013664961
39	0xbd217898	-0.039421648
40	0x3d0990e8	0.03358546
41	0xbd0ad808	-0.03389743
42	0x3d577aa4	0.052607194
43	0x3de48ffe	0.11160277
44	0x3d93fbb6	0.072257444
45	0xbd5fd514	-0.054646567
46	0x3d93c79e	0.07215808
47	0x3cb73870	0.022365779
48	0x3d82017a	0.06347938
49	0xbd9c0886	-0.07618813
50	0xbdfd6aa4	-0.12373856
51	0xbd45d10c	-0.048295066
52	0xbdc45b9c	-0.095877856
53	0x3dd20ed6	0.10256736
54	0x3d1378d8	0.036003917
55	0x3d5413cc	0.051776692
56	0x3d21ecfc	0.039532647
57	0xbb0e8200	-0.0021744967
58	0x3dc85904	0.097826034
59	0xbdb5e438	-0.0888142
60	0x3c00f320	0.0078704655
61	0xbdaebaf4	-0.08531752
62	0x3d1de050	0.038544
63	0xbd3052e0	-0.043047786
64	0x3d1ce298	0.038302034
65	0xbcd55778	-0.026042685
66	0x3dd45306	0.10367398
67	0xbd97bb50	-0.07408774
68	0xbd98ad8a	-0.07454975
69	0xbd98afe6	-0.07455425
70	0x3de641e2	0.11243035
71	0x3d2a9fe4	0.04165639
72	0x3df65610	0.12028134
73	0xbdd3454e	-0.10315953
74	0xbdfdeb98	-0.123984516
75	0xbdc848fe	-0.09779547
76	0xbdac355a	-0.084086135
77	0x3d4f616c	0.050630018
78	0x3d3755b8	0.044759482
79	0x3dd4b776	0.10386555
80	0xbd843474	-0.06455317
81	0xbdae84aa	-0.085213974
82	0x3d87d3f8	0.06632227
83	0xbd4ef3e4	-0.05052556
84	0x3d9b5f5c	0.07586548
85	0xbcf2fef0	-0.02966258
86	0x3d92719a	0.07150574
87	0xbdc6e760	-0.097121
88	0xbd8130ba	-0.06308122
89	0x3d1c18c4	0.038109556
90	0x3cd87b38	0.026425943
91	0xbd0289f4	-0.031869844
92	0x3d989802	0.07450868
93	0x3dae07fa	0.08497615
94	0xbdb9a4f6	-0.09064667
95	0xbd88ab96	-0.066733524
96	0x3dea68d2	0.11445774
97	0xbd2cc3f4	-0.042179063
98	0xbd35832c	-0.04431455
99	0xbdf7b448	-0.12094933
100	0xbd929a84	-0.07158378
101	0x3cffcc88	0.031225458
102	0xbc872938	-0.016499147
103	0xbdb9d3aa	-0.09073575
104	0x3b402840	0.0029320866
105	0xbdaede6e	-0.08538519
106	0xbdd93086	-0.10604958
107	0xbd8cf83a	-0.06883283
108	0xbde00de6	-0.10940151
109	0xbda30144	-0.07959226
110	0x3dffe65e	0.12495111
111	0x3cc16870	0.02360937
112	0x3d1dc71c	0.038519964
113	0xbdeec466	-0.11658554
114	0xbda82254	-0.082096726
115	0xbd2a6c14	-0.041606978
116	0x3ca01fc0	0.01954639
117	0xbde14286	-0.109990165
118	0xbd5c9b64	-0.05385913
119	0xbd994258	-0.07483357
120	0x39b59e00	0.0003464073
121	0xbd3e8450	-0.0465129
122	0xbc0deaf0	-0.0086619705
123	0xbdad7924	-0.08470371
124	0xbdafb798	-0.085799396
125	0xbd9559d2	-0.072925225
126	0xbd2f419c	-0.04278718
127	0xbdca0e50	-0.09866011
128	0xc01974f3	-2.397763
129	0xc023ba70	-2.5582542
130	0x3fb52422	1.4151652
131	0x3fcf91c7	1.6216363
132	0x3f8d4ef5	1.1039721
133	0x3e0b8625	0.13625391
134	0xc0223912	-2.5347333
135	0x3e8313f1	0.25601152
136	0x3f349337	0.7053713
137	0x3e304bd8	0.17216432
138	0x3edb26ce	0.42803043
139	0x3fa2c326	1.2715805
140	0x3f02dea1	0.51120955
141	0xbfd10529	-1.63297
142	0x4004c3af	2.0744436
143	0x3e904228	0.28175473
144	0xbf78b524	-0.971514
145	0x3dfd268c	0.12360868
146	0x3b98c0c7	0.0046616527
147	0xbf14280c	-0.57873607
148	0xbf251c7c	-0.6449659
149	0xbf88ac6f	-1.0677623
150	0x3f832902	1.024689
151	0x3fca335a	1.5796921
152	0xbf0f7053	-0.5603077
153	0x3a704384	0.0009165334
154	0x3f8d4975	1.1038042
155	0xbfd9d94e	-1.7019441
156	0x3f657a5f	0.8963985
157	0xbea7bda3	-0.3276187
158	0xbfb6cb18	-1.4280729
159	0x3f541837	0.8284945
160	0x3f7309d2	0.9493686
161	0x3f82c0fc	1.0215144
162	0x3e8aecac	0.2713369
163	0xbe8db9a1	-0.27680686
164	0x3f4a62ed	0.790572
165	0xbf1a53d5	-0.6028417
166	0xbeee4ab0	-0.46541357
167	0x3f4b90a1	0.7951756
168	0x3f4a530e	0.7903298
169	0xbfcbef12	-1.5932333
170	0x3ea5fd83	0.32419977
171	0x3ea4c559	0.32181814
172	0xbdbda4ab	-0.092599235
173	0x3f276702	0.6539155
174	0xbec84312	-0.3911367
175	0x3f35bcc2	0.70991147
176	0x3e50621b	0.20349924
177	0xbe319096	-0.17340311
178	0x3dc8ce74	0.09805003
179	0xbfb31e69	-1.3993655
180	0xbeb8ac57	-0.36068985
181	0x3e36c1ca	0.17847362
182	0xbeb92ee9	-0.36168602
183	0xbe86299b	-0.26203617
184	0x3f03448b	0.51276463
185	0x3f0c8fae	0.5490674
186	0xbf7a5618	-0.9778762
187	0xbf7449fe	-0.95425403
188	0xbd625377	-0.05525538
189	0xbc0feca4	-0.008784447
190	0xbcb4e4d0	-0.022081763
191	0xbd730520	-0.05933106
192	0x3da3a310	0.07990086
193	0x3ddc019c	0.107424945
194	0xbc4abf20	-0.012374669
195	0xbce54538	-0.027987108
196	0x3aef1480	0.0018240362
197	0xbbf490a0	-0.0074635297
198	0x3cf62e60	0.03005141
199	0x3d0f7ac8	0.035029203
200	0xbde88384	-0.113532096
201	0xbd3cf284	-0.04612972
202	0x3dd795cc	0.10526618
203	0x3d4773c0	0.048694372
204	0xbbcbb9a0	-0.0062171966
205	0xbd9a5808	-0.07536322
206	0xbd9c9f42	-0.076475635
207	0xbde550fa	-0.11197086
208	0xbd26e48c	-0.040745303
209	0x3d2ce790	0.042213023
210	0x3da33b2c	0.079702705
211	0x3d6c6398	0.057712168
212	0xbde24a28	-0.110493004
213	0xbd99f2e4	-0.07517031
214	0xbca19ab0	-0.019727081
215	0x3df7a438	0.12091869
216	0x3c942118	0.018082187
217	0xbd0497d0	-0.032371342
218	0x3d53d27c	0.051714405
219	0xbd4302e8	-0.047610193
220	0xbda5b28c	-0.08090696
221	0x3dbad9e4	0.091235906
222	0xbd68ceac	-0.056837723
223	0xbccd4728	-0.025058344
224	0xbdfeab7e	-0.12435053
225	0x3dab5552	0.08365883
226	0x3dc1f458	0.09470433
227	0x3d3a98f4	0.045556024
228	0xbdb28090	-0.087159276
229	0xbdfca818	-0.12336749
230	0xbdcfeaf6	-0.10152237
231	0x3dbee636	0.09321253
232	0x3d75d06c	0.06001322
233	0x3dd76cd6	0.10518806
234	0x3d861c56	0.065483734
235	0x3d01954c	0.03163652
236	0xbaa07180	-0.0012240857
237	0xbdc2b086	-0.095063254
238	0xbddb556c	-0.10709652
239	0xbdef7302	-0.11691858
240	0x3d5197e4	0.051170245
241	0xbd7b6028	-0.061371
242	0xbcce1528	-0.025156572
243	0xbd935450	-0.07193816
244	0xbcba98d0	-0.022777945
245	0xbdb42e86	-0.08797936
246	0xbda74640	-0.08167696
247	0x3d29d600	0.041463852
248	0xbd182a20	-0.03714955
249	0x3d9e0a34	0.0771679
250	0xbd24410c	-0.040101096
251	0xbdbbcb10	-0.091695905
252	0xbcb4ac68	-0.022054866
253	0xbd7830d0	-0.060593426
254	0xbd1ca460	-0.038242698
255	0xbdf3b5fc	-0.11899945

network.0.bias f4 [128]
0	0x3a30c800	0.00067436695
1	0xbca4efb8	-0.020133838
2	0x3d99ede3	0.075160764
3	0x3bf53f00	0.007484317
4	0xbdb54ba6	-0.088523194
5	0xbc7b4429	-0.015336075
6	0xbdbd59da	-0.092456535
7	0x3c98e130	0.018662065
8	0x3cc08abc	0.023503654
9	0xbdf15b7e	-0.11785029
10	0xbdaf1d80	-0.085505486
11	0xbd80949c	-0.06278345
12	0xbd330614	-0.04370697
13	0xbd07957f	-0.033101555
14	0x3d3b544a	0.04573468
15	0xbdca1016	-0.098663494
16	0xbacda130	-0.0015688296
17	0xbdd384da	-0.10328074
18	0xbb980afd	-0.004639982
19	0xbda5f250	-0.08102858
20	0xbdc3d766	-0.09562568
21	0x3d9b953a	0.07596822
22	0x3cecdec6	0.02891482
23	0xbd2d77c8	-0.04235056
24	0x3d464748	0.048407823
25	0xbbc30e03	-0.005952598
26	0x3d39f26c	0.045397207
27	0xbbf055a0	-0.007334426
28	0xbdcc090b	-0.09962662
29	0xbd393268	-0.045214087
30	0xbddb7dd2	-0.10717358
31	0x3cc1d966	0.023663234
32	0x3d43d555	0.04781087
33	0x3dcebf4d	0.100950815
34	0xbdfba966	-0.122881696
35	0x3de69d94	0.112605244
36	0xbc5111b6	-0.01276057
37	0x3d0b9b5c	0.03408371
38	0xbd5bc1cc	-0.053651616
39	0x3d153c86	0.036434673
40	0x3d66827e	0.05627679
41	0x3d7cb375	0.06169458
42	0xbdd35d6a	-0.10320552
43	0x3c9ba4a8	0.018999413
44	0x3c72f766	0.014829492
45	0xbe108549	-0.14113344
46	0x3d39cbdd	0.045360435
47	0x3c509f41	0.012733282
48	0xbdcd94ba	-0.10038133
49	0xbddbc7d6	-0.10731475
50	0x3ba719a0	0.0050994903
51	0x3dcd54fc	0.10025975
52	0x3d14ad3c	0.03629802
53	0x3c8ffde0	0.017577112
54	0xbc04a9d0	-0.008097127
55	0xbdfe5c92	-0.1242
56	0x3ce46a9f	0.027882872
57	0x3d3ff97b	0.046868782
58	0xbdcf390d	-0.101183034
59	0xbcbca2a0	-0.023026764
60	0x3df8e146	0.121523425
61	0xbd92331e	-0.07138656
62	0xbdafc3de	-0.085822806
63	0x3cf1af72	0.029502604
64	0x3cbbf54b	0.022944113
65	0x3db1bd2d	0.086786605
66	0xbda84e2e	-0.082180366
67	0xbbb16c32	-0.005414509
68	0x3cf683d0	0.03009215
69	0x3da1654a	0.078806475
70	0x3cee32ce	0.02907696
71	0x3cc41a18	0.023938224
72	0xbd131a51	-0.03591377
73	0xbcb6ab60	-0.022298515
74	0xbd8a2732	-0.06745757
75	0x3b5d63ab	0.003378133
76	0x3d0bd23f	0.034136053
77	0xbd822234	-0.0635418
78	0xbdaef044	-0.08541921
79	0x3c8cf1bb	0.01720511
80	0x3c899628	0.016795233
81	0xbd7159d4	-0.058923557
82	0x3d80a03c	0.06280562
83	0xbdd09560	-0.10184741
84	0xbd7b9050	-0.061416924
85	0xbd6fbc2e	-0.05852907
86	0xbd5a445d	-0.053287853
87	0xbc5a625a	-0.013329113
88	0x3ca9d661	0.020732107
89	0xbd32c74c	-0.043647096
90	0xbc8af248	-0.016961232
91	0xbd8583e4	-0.06519297
92	0xbda853aa	-0.08219083
93	0x3cac222c	0.021012388
94	0x3dbcc550	0.09217322
95	0x3dadc6c6	0.08485179
96	0xbdc7cc24	-0.097557336
97	0x3d0ed434	0.03487034
98	0xbd9ad9c8	-0.0756107
99	0xbcd9ca3d	-0.026585693
100	0xbc371de0	-0.011176556
101	0x3d649517	0.055806246
102	0x3d88b946	0.06675963
103	0xbdcf4954	-0.10121408
104	0x3cde1338	0.027108774
105	0x3cff1a63	0.031140512
106	0x3991b927	0.00027794504
107	0xbd3e84af	-0.046513256
108	0xbd71b2c8	-0.05900839
109	0xbdb49fac	-0.088195175
110	0xbdfbf940	-0.123034
111	0xbd646083	-0.055756103
112	0xbd458b88	-0.04822877
113	0x3cb6d716	0.022319358
114	0xbd5873c0	-0.052844763
115	0x3dd4a3b6	0.10382788
116	0xbdb49f5c	-0.08819458
117	0x3db3d6c4	0.08781198
118	0xbd8b149d	-0.06791041
119	0xbca93ede	-0.02065986
120	0xbd3bc0a8	-0.04583803
121	0x3d57cc7c	0.052685246
122	0x3d5a7ecb	0.053343575
123	0x3d4741a1	0.048646573
124	0xbdb14e0c	-0.086574644
125	0x3d2c1f42	0.042021997
126	0x3d8d0baa	0.0688699
127	0xbdd212f8	-0.10257524

network.2.weight f4 [128, 128]
0	0x3d1255e6	0.03572645
1	0x3c8bfccc	0.017088316
2	0x3ca59884	0.020214327
3	0x3d9e9a0f	0.07744228
4	0xba49ff6b	-0.0007705602
5	0xbd76e9ee	-0.060281686
6	0xbd232ccf	-0.039837655
7	0x3c3b04d8	0.011414729
8	0xbc5ef2a8	-0.013607658
9	0xbd81a5cd	-0.06330452
10	0x3b219200	0.0024653673
11	0x3d4f4d5a	0.050610878
12	0x3b400a40	0.0029302984
13	0x3d60d858	0.05489382
14	0xbd5959cb	-0.05306415
15	0x3d8df72b	0.06931909
16	0x3b068d34	0.002053094
17	0xbd0de6fd	-0.034644116
18	0x3cce73b6	0.02520166
19	0x3d26efc1	0.04075599
20	0xbd1b3a95	-0.037897665
21	0xbd684082	-0.056702144
22	0x3d087b4e	0.033320718
23	0xbd9f875e	-0.07789491
24	0x3cba0dd8	0.02271168
25	0x3c674adf	0.014116972
26	0xbd76c8da	-0.06025014
27	0xbc328908	-0.010896929
28	0x3c0f2ea9	0.008739152
29	0x3d7bd756	0.061484657
30	0x3d845fed	0.06463609
31	0xbdbaf54c	-0.09128818
32	0xbdb87995	-0.09007565
33	0x3d3a2f1e	0.04545509
34	0x3db297c1	0.08720351
35	0x3d92bc29	0.07164795
36	0x3c91b959	0.017788576
37	0x3daba331	0.08380736
38	0xbd2635a4	-0.0405785
39	0xbc20723b	-0.00979286
40	0xbd999cc5	-0.075006045
41	0xbdb36e18	-0.08761233
42	0xbd74d70c	-0.059775397
43	0xbda4350a	-0.08017929
44	0x3c35641f	0.011071234
45	0x3c901f3e	0.017593022
46	0x3c67780c	0.0141277425
47	0x3d26dc8c	0.040737674
48	0xbd902f68	-0.07040292
49	0xbcd0fafc	-0.025510304
50	0x3d8e70cd	0.06955109
51	0xbda03329	-0.07822258
52	0x3d7e7476	0.062122785
53	0x3cdef9fc	0.027218811
54	0xbd92f51e	-0.07175659
55	0x3c9c36ac	0.019069038
56	0xbd01c53b	-0.031682234
57	0xbc4064a1	-0.011742742
58	0xbd101af9	-0.035181973
59	0x3d23e246	0.040010713
60	0x3d8cc837	0.068741255
61	0x3d4ae4ea	0.049534716
62	0xbc0afd78	-0.008483283
63	0xbdb6e698	-0.08930701
64	0x3d7b5f55	0.061370213
65	0xbc0b4f95	-0.008502861
66	0x3d936af1	0.07198132
67	0x3cb7aa8a	0.022420187
68	0x3abe7300	0.0014530122
69	0x3cf4e5f4	0.029894806
70	0x3d1b353e	0.037892573
71	0x39ceb733	0.00039427876
72	0x3b8c39d6	0.0042793555
73	0xbb6b29a0	-0.0035882965
74	0x3d7810ca	0.060562886
75	0x3cc9db8f	0.024640827
76	0xbd2579f7	-0.040399518
77	0x3da8b109	0.08236892
78	0x3dad75e3	0.08469751
79	0x3d7262db	0.059176307
80	0x3c81bd44	0.01583732
81	0x3bb12510	0.0054060295
82	0xbda801db	-0.08203479
83	0x3d83f66b	0.06443485
84	0xbd821051	-0.06350768
85	0xbdaa5e00	-0.0831871
86	0x3c5d855f	0.013520568
87	0xbdf240fb	-0.118288
88	0x3b161ae5	0.0022904214
89	0xbd2e5cfa	-0.042569138
90	0xba2eedfb	-0.0006673035
91	0xbd0b7b3c	-0.034053072
92	0x3d9260a5	0.0714734
93	0xbdae3704	-0.08506587
94	0x3c850408	0.016237274
95	0xbc0405ff	-0.00805807
96	0xbdac3f13	-0.08410468
97	0x3d5c25d8	0.053747028
98	0xbc02268b	-0.00794376
99	0xbdd1f98b	-0.10252675
100	0xbdb51acf	-0.08843004
101	0x3c335688	0.010945924
102	0x3d81f79f	0.06346058
103	0xbca500d4	-0.020141996
104	0xbcd5e71a	-0.026111174
105	0xbdb61a2a	-0.08891709
106	0x3d3d596c	0.046227857
107	0xbd23dfaa	-0.040008225
108	0xbd266814	-0.0406266
109	0x3d09c148	0.033631593
110	0x3d9e4ff7	0.07730096
111	0x3ce4d5e8	0.02793403
112	0x3cd0d7c0	0.025493503
113	0x3d9b0725	0.07569722
114	0x3b765e00	0.003759265
115	0x3c6005f8	0.013673298
116	0xbbd39fc0	-0.0064582527
117	0xbd8ceab5	-0.06880704
118	0xbc8ff133	-0.017571067
119	0xbd7baf55	-0.061446507
120	0x3d51832a	0.05115048
121	0xbd79b9b3	-0.060968112
122	0xbdc6c396	-0.09705274
123	0xbcf2faa6	-0.029660534
124	0x3d867923	0.06566074
125	0xbda5bb9c	-0.08092424
126	0xbd2ceb6a	-0.042216696
127	0xbbddeb30	-0.0067724213
128	0xbd1e5422	-0.038654454
129	0x3d2b089e	0.041756265
130	0x3d9e1faf	0.07720887
131	0x3d43f412	0.047840185
132	0xbc98b3e4	-0.018640466
133	0xbd8e1f70	-0.0693959
134	0xbd95757e	-0.072978005
135	0xbcad6314	-0.021165408
136	0xbce41a62	-0.027844612
137	0xbd894840	-0.06703234
138	0x3cb310d8	0.021858618
139	0xbd092f0b	-0.03349213
140	0x3cd1fad0	0.025632292
141	0xbd404058	-0.046936363
142	0xbc027c90	-0.007964268
143	0xbcd9e8d2	-0.026600275
144	0x3d5e61a2	0.05429233
145	0xbda53532	-0.08066787
146	0xbd0ec3a7	-0.034854557
147	0x3c9aa0a0	0.01887542
148	0xbccbff14	-0.024901904
149	0xbac64580	-0.0015126914
150	0x3d74af4e	0.059737496
151	0x3c4f4e70	0.012652978
152	0x3c328560	0.010896057
153	0x3cd38954	0.02582232
154	0xbd42c832	-0.047554202
155	0xbd109641	-0.035299543
156	0x3d2d6c4a	0.0423396
157	0x3c51ee78	0.012813203
158	0x3d6c2baa	0.05765883
159	0xbc38e378	-0.0112847015
160	0x3daa0cf7	0.08303254
161	0x3d583586	0.05278542
162	0xbccad848	-0.024761334
163	0xbd390534	-0.045170978
164	0x3c923878	0.017849192
165	0xbd9702e8	-0.07373601
166	0xbd25cd00	-0.040478706
167	0x3cddd22c	0.027077757
168	0x3bfc9e10	0.007709272
169	0x3d23d7c2	0.040000685
170	0xbd176f40	-0.03697133
171	0x3d985639	0.07438321
172	0xbd4715e4	-0.04860486
173	0xbd398238	-0.045290202
174	0x3d7237da	0.059135295
175	0xbc8bb2f8	-0.017053112
176	0x3ccf23f4	0.025285698
177	0xbc80a108	-0.015701786
178	0xbd8005ca	-0.06251104
179	0xbb67b720	-0.0035356954
180	0x3d243fae	0.040099792
181	0x3d73fdd6	0.05956825
182	0x3d8a15f9	0.06742472
183	0xbb4bfb20	-0.0031125024
184	0x3d831cb1	0.06401957
185	0x3ccc406c	0.024933062
186	0x3b565da0	0.0032709613
187	0x3adade00	0.0016698241
188	0xbc0a2e90	-0.008433953
189	0x3ccec998	0.025242612
190	0xbb95a1a0	-0.0045663863
191	0x3d68d472	0.05684323
192	0xbc5c9200	-0.0134625435
193	0xbd490abe	-0.04908251
194	0x3cd26d24	0.025686808
195	0xbd4adcf6	-0.04952713
196	0x3d60d566	0.054891013
197	0x3d93d71d	0.07218764
198	0x3c687a28	0.014189281
199	0xbc91405c	-0.017730884
200	0xbb82c9b0	-0.003991328
201	0x3d298e3e	0.04139542
202	0xbd8a48a4	-0.06752136
203	0xbcc1d128	-0.023659304
204	0xbd5c9394	-0.05385168
205	0xbda3bb51	-0.07994712
206	0xbd818512	-0.06324209
207	0xbd689dc5	-0.056791086
208	0x3d89d4e1	0.067300566
209	0x3d5d49ba	0.05402539
210	0xbd75c87e	-0.060005657
211	0xbd8eda36	-0.06975214
212	0x3da21c07	0.07915502
213	0x3cabdedc	0.020980291
214	0x3d26b7f6	0.040702783
215	0x3c622708	0.013803251
216	0xbd074650	-0.03302604
217	0xbd439816	-0.047752462
218	0x3d42c8ea	0.047554888
219	0xbdb2d20f	-0.08731472
220	0xbd96a13f	-0.07354974
221	0x3cdaa858	0.0266916
222	0xbcbde264	-0.02317924
223	0x3c8a80d0	0.016907126
224	0x3d411772	0.0471415
225	0xbd500d4e	-0.05079394
226	0xbd4bcba7	-0.049754765
227	0xbd5eacea	-0.054364122
228	0xbd9e622d	-0.07733569
229	0xbbc40d20	-0.00598301
230	0x3d99b72d	0.07505641
231	0xbbb10660	-0.0054023713
232	0x3d468d5e	0.048474662
233	0xbd340c78	-0.043957204
234	0x3c0faf20	0.00876978
235	0xbd87ed41	-0.066370495
236	0xbbbf7300	-0.0058425665
237	0x3c9ee5f8	0.019396767
238	0xbd1ae763	-0.037818324
239	0x3da6323b	0.081150495
240	0x3ccc6f1c	0.024955325
241	0x3d3515f2	0.04421038
242	0x3db427b7	0.087966375
243	0x3d19784e	0.037468247
244	0xbbe38a90	-0.006944008
245	0x3d2ce8c2	0.042214163
246	0x3db26227	0.08710127
247	0xbdae462e	-0.085094795
248	0xbc88840c	-0.016664527
249	0x3d2fceb6	0.042921744
250	0xbcaf7f84	-0.021423109
251	0xbd9345f4	-0.07191077
252	0xbd522af5	-0.0513105
253	0xbd3c2bb1	-0.045940105
254	0x3d16188e	0.03664451
255	0x3d667eba	0.0562732

network.2.bias f4 [128]
0	0xbbd2a42c	-0.006428262
1	0xbda3c2a3	-0.079961084
2	0x3d43c564	0.04779567
3	0xbbf31268	-0.0074179657
4	0x3ce32061	0.0277254
5	0xbd78864e	-0.060674958
6	0xbd74468c	-0.05963759
7	0x3d170992	0.03687436
8	0xbbf30099	-0.0074158427
9	0x3cfba23f	0.030717013
10	0xbda28fe4	-0.07937601
11	0xbd1443fa	-0.03619764
12	0xbd5d13ad	-0.053973842
13	0xbd657a71	-0.056024972
14	0x3d2519d2	0.040307827
15	0xbc4ed0e4	-0.012623046
16	0xbcd0aa74	-0.025471903
17	0x3d6a4a20	0.057199597
18	0xbcef5c1a	-0.029218722
19	0xbb8d323e	-0.004308968
20	0xbd99bd97	-0.075068645
21	0xbbc93de1	-0.0061414097
22	0x3d3ba5cc	0.045812413
23	0x3d5e5b97	0.054286566
24	0x3dac2558	0.0840556
25	0xbd242c6c	-0.040081427
26	0xbd985bef	-0.0743941
27	0x3dba467a	0.090954736
28	0x3ca359ec	0.019940339
29	0x3c0645dd	0.008195368
30	0x3db62e4d	0.0889555
31	0x3d06b995	0.03289183
32	0xbd98db66	-0.07463722
33	0x3d903460	0.0704124
34	0xbd43eb4a	-0.04783181
35	0xbce4fed2	-0.027953539
36	0x3da81b15	0.082082905
37	0xbc9dfb62	-0.019284908
38	0xbb1351dd	-0.0022479214
39	0x3c828775	0.015933732
40	0x3d47f776	0.04881998
41	0xbc9cc314	-0.01913599
42	0x3d40d194	0.04707487
43	0xbd18b848	-0.03728512
44	0xbcb80818	-0.022464797
45	0xbc671865	-0.014104937
46	0xbd5ec05d	-0.05438267
47	0xbd0ee967	-0.03489056
48	0xbcc47894	-0.023983277
49	0xbd184148	-0.037171632
50	0x3d8e87f8	0.06959528
51	0xbc240bef	-0.010012611
52	0x3d6c799a	0.057733156
53	0x3d3d7013	0.04624946
54	0x3c6b10ab	0.014347236
55	0x3d4d74fc	0.050160393
56	0xbd8bb814	-0.068222195
57	0xbc116bf2	-0.008875834
58	0x3d3fb476	0.04680296
59	0xbd054b4c	-0.03254251
60	0xbd6e31fb	-0.058153134
61	0x3b8c8ec8	0.004289482
62	0xbcf9acb0	-0.030477852
63	0xbd669ba0	-0.05630076
64	0x3d3889cd	0.045053292
65	0x3d354abd	0.04426073
66	0xbbfd69fe	-0.0077335825
67	0xbda72c6d	-0.081627704
68	0xbc78d64b	-0.01518781
69	0x3d4f58d3	0.05062182
70	0xbb810619	-0.0039374945
71	0x3d51cf6f	0.051223215
72	0xbcad89b0	-0.021183819
73	0x3aeac2e6	0.0017910867
74	0xbba6b32a	-0.005087276
75	0xbc566d40	-0.013087571
76	0x3d8e4066	0.06945877
77	0xbc66abdd	-0.014079061
78	0x3bdaf243	0.006681712
79	0x3d33d93c	0.043908343
80	0x3dad44e0	0.084604025
81	0x3c4a7d2b	0.012358944
82	0xbda46a1e	-0.08028053
83	0x3d96eba8	0.073691666
84	0x3da7e03b	0.081970654
85	0x3d0fca6a	0.035105146
86	0xbd605d9f	-0.054776784
87	0x3d6ff7d3	0.058585953
88	0x3d381194	0.04493864
89	0x3c19877f	0.009370684
90	0xbdb3f7cf	-0.087875
91	0x3d4d952d	0.050191093
92	0xbd92c2b7	-0.07166045
93	0x3d18a796	0.037269197
94	0x3d925c8a	0.07146557
95	0x3b972bd1	0.0046133776
96	0xbc95b3dc	-0.01827424
97	0xbc88314a	-0.016625065
98	0xbd6590af	-0.056046184
99	0xbd67b011	-0.056564394
100	0xbd237e5b	-0.039915424
101	0x3d54aa19	0.05192003
102	0x3d482067	0.048859026
103	0xbceaf840	-0.028682828
104	0x3cce7d1f	0.025206147
105	0x3af4df89	0.0018682341
106	0xbcdf2551	-0.027239474
107	0x3d64ca9a	0.05585728
108	0xbd7c50f2	-0.061600633
109	0xbbbc6361	-0.0057491516
110	0x3cc8b274	0.024499156
111	0x3c81148c	0.015756868
112	0xbc1e3220	-0.009655505
113	0x3d1d7176	0.038438283
114	0x3cea7374	0.028619505
115	0xbc876961	-0.01652974
116	0x3cfce0e9	0.030868964
117	0x3d4c6c10	0.049907744
118	0xbd0b8648	-0.034063607
119	0xbd80b33a	-0.06284185
120	0x3d1f4e4e	0.038893037
121	0xbc04bcd8	-0.0081016645
122	0x3d3ca208	0.046052963
123	0x3ca228b9	0.019794809
124	0x3cffe56d	0.031237328
125	0x3d439db7	0.04775783
126	0x3d95db77	0.0731725
127	0xbcecb498	-0.028894708
