models/dqn_step_1000.pt (torch, 413473 bytes, 24 tensors)

network.0.weight f4 [128, 64]
0.095567316 0.10375099 -0.02928406 0.11482641 -0.027387947 0.025223836 -0.06085688 0.07341033
0.110192865 -0.09170352 0.10864952 0.023394912 0.09235111 0.016928822 0.060273513 -0.017648876
0.09636073 0.018476114 -0.05835499 0.03186229 -0.05759208 -0.014659107 -0.05076979 0.08292137
-0.09867127 -0.057626292 -0.035296842 -0.07515906 0.01179789 -0.12345989 0.112888634 -0.10618353
0.09650342 0.020802394 -0.040588066 0.077243745 0.019481346 0.10099542 0.013664961 -0.039421648
0.03358546 -0.03389743 0.052607194 0.11160277 0.072257444 -0.054646567 0.07215808 0.022365779
0.06347938 -0.07618813 -0.12373856 -0.048295066 -0.095877856 0.10256736 0.036003917 0.051776692
0.039532647 -0.0021744967 0.097826034 -0.0888142 0.0078704655 -0.08531752 0.038544 -0.043047786
0.038302034 -0.026042685 0.10367398 -0.07408774 -0.07454975 -0.07455425 0.11243035 0.04165639
0.12028134 -0.10315953 -0.123984516 -0.09779547 -0.084086135 0.050630018 0.044759482 0.10386555
-0.06455317 -0.085213974 0.06632227 -0.05052556 0.07586548 -0.02966258 0.07150574 -0.097121
-0.06308122 0.038109556 0.026425943 -0.031869844 0.07450868 0.08497615 -0.09064667 -0.066733524
0.11445774 -0.042179063 -0.04431455 -0.12094933 -0.07158378 0.031225458 -0.016499147 -0.09073575
0.0029320866 -0.08538519 -0.10604958 -0.06883283 -0.10940151 -0.07959226 0.12495111 0.02360937
0.038519964 -0.11658554 -0.082096726 -0.041606978 0.01954639 -0.109990165 -0.05385913 -0.07483357
0.0003464073 -0.0465129 -0.0086619705 -0.08470371 -0.085799396 -0.072925225 -0.04278718 -0.09866011
-0.026377315 -0.14263614 0.25449786 0.17521715 -0.2025729 -0.06195105 -0.24349183 -0.140612
-0.019391108 -0.0056948685 0.112104714 0.15460591 0.13399602 -0.23599355 0.28771833 0.01120455
-0.21837133 -0.025773583 0.05675723 0.13208051 0.06005405 -0.25887898 0.18487021 0.15621792
-0.18606035 -0.1553201 0.17725359 -0.26510376 0.1584294 -0.08045837 -0.057367858 0.037932727
0.2880119 0.19560583 0.12733342 -0.12518594 0.23854981 0.008205767 -0.19348408 0.16377294
0.23430003 -0.24071714 0.01044516 -0.07891636 0.094258584 -0.18790257 -0.1351668 0.12155676
-0.118074164 -0.122543596 -0.02372693 -0.28774065 -0.012605403 -0.049883444 -0.15090257 -0.120207
0.12306253 -0.042010624 -0.081823125 -0.1686938 -0.045008697 0.0014631357 -0.022081763 -0.04915337
0.07990086 0.107424945 -0.012374669 -0.027987108 0.0018240362 -0.0074635297 0.03005141 0.035029203
-0.113532096 -0.04612972 0.10526618 0.048694372 -0.0062171966 -0.07536322 -0.076475635 -0.11197086
-0.040745303 0.042213023 0.079702705 0.057712168 -0.110493004 -0.07517031 -0.019727081 0.12091869
0.018082187 -0.032371342 0.051714405 -0.047610193 -0.08090696 0.091235906 -0.056837723 -0.025058344
-0.12435053 0.08365883 0.09470433 0.045556024 -0.087159276 -0.12336749 -0.10152237 0.09321253
0.06001322 0.10518806 0.065483734 0.03163652 -0.0012240857 -0.095063254 -0.10709652 -0.11691858
0.051170245 -0.061371 -0.025156572 -0.07193816 -0.022777945 -0.08797936 -0.08167696 0.041463852
-0.03714955 0.0771679 -0.040101096 -0.091695905 -0.022054866 -0.060593426 -0.038242698 -0.11899945
00000000: ccb8 c33d 667b d43d 20e5 efbc 1c2a eb3d
00000010: b05c e0bc 38a2 ce3c 1045 79bd 2858 963d
00000020: ccac e13d 0ecf bbbd a483 de3d b0a6 bf3c
00000030: 9422 bd3d 50ae 8a3c 5ce1 763d 6094 90bc
00000040: c658 c53d 385b 973c a405 6fbd 0882 023d
00000050: ace5 6bbd c02c 70bc fcf3 4fbd aed2 a93d
00000060: 2a14 cabd 8c09 6cbd 6c93 10bd feec 99bd
00000070: f04b 413c 8ad8 fcbd 2832 e73d c076 d9bd
00000080: 96a3 c53d c869 aa3c ac3f 26bd f831 9e3d
00000090: 5897 9f3c b0d6 ce3d 00e3 5f3c 9878 21bd
000000a0: e890 093d 08d8 0abd a47a 573d fe8f e43d
000000b0: b6fb 933d 14d5 5fbd 9ec7 933d 7038 b73c
000000c0: 7a01 823d 8608 9cbd a46a fdbd 0cd1 45bd
000000d0: 9c5b c4bd d60e d23d d878 133d cc13 543d
000000e0: fcec 213d 0082 0ebb 0459 c83d 38e4 b5bd
000000f0: 20f3 003c f4ba aebd 50e0 1d3d e052 30bd
00000100: 98e2 1c3d 7857 d5bc 0653 d43d 50bb 97bd
00000110: 8aad 98bd e6af 98bd e241 e63d e49f 2a3d
00000120: 1056 f63d 4e45 d3bd 98eb fdbd fe48 c8bd
00000130: 5a35 acbd 6c61 4f3d b855 373d 76b7 d43d
00000140: 7434 84bd aa84 aebd f8d3 873d e4f3 4ebd
00000150: 5c5f 9b3d f0fe f2bc 9a71 923d 60e7 c6bd
00000160: ba30 81bd c418 1c3d 387b d83c f489 02bd
00000170: 0298 983d fa07 ae3d f6a4 b9bd 96ab 88bd
00000180: d268 ea3d f4c3 2cbd 2c83 35bd 48b4 f7bd
00000190: 849a 92bd 88cc ff3c 3829 87bc aad3 b9bd
000001a0: 4028 403b 6ede aebd 8630 d9bd 3af8 8cbd
000001b0: e60d e0bd 4401 a3bd 5ee6 ff3d 7068 c13c
000001c0: 1cc7 1d3d 66c4 eebd 5422 a8bd 146c 2abd
000001d0: c01f a03c 8642 e1bd 649b 5cbd 5842 99bd
000001e0: 009e b539 5084 3ebd f0ea 0dbc 2479 adbd
000001f0: 98b7 afbd d259 95bd 9c41 2fbd 500e cabd
00000200: 3d15 d8bc 350f 12be 8b4d 823e 206c 333e
00000210: 456f 4fbe 62c0 7dbd ec55 79be 98fc 0fbe
00000220: 1ada 9ebc 059c babb 2897 e53d 0351 1e3e
00000230: 4136 093e 4ba8 71be d14f 933e 4a93 373c
00000240: bc9c 5fbe 1f23 d3bc 457a 683d 1d40 073e
00000250: 3cfb 753d c98b 84be 9e4e 3d3e 97f7 1f3e
00000260: 9b86 3ebe 3b0c 1fbe f781 353e aebb 87be
00000270: 513b 223e 5cc7 a4bd 8ffa 6abd 595f 1b3d
00000280: 4c76 933e e54c 483e b163 023e be30 00be
00000290: 6746 743e 7b71 063c b120 46be 18b4 273e
000002a0: 59ec 6f3e 8e7e 76be 2d22 2b3c e79e a1bd
000002b0: a50a c13d 8869 40be 2a69 0abe c0f2 f83d
000002c0: ded0 f1bd 23f8 fabd fb5e c2bc be52 93be
000002d0: e486 4ebc 9552 4cbd 3486 1abe 162f f6bd
000002e0: 3508 fc3d 5513 2cbd e292 a7bd 11be 2cbe
000002f0: 0a5b 38bd b0c6 bf3a d0e4 b4bc 0b55 49bd
00000300: 10a3 a33d 9c01 dc3d 20bf 4abc 3845 e5bc
00000310: 8014 ef3a a090 f4bb 602e f63c c87a 0f3d
00000320: 8483 e8bd 84f2 3cbd cc95 d73d c073 473d
00000330: a0b9 cbbb 0858 9abd 429f 9cbd fa50 e5bd
00000340: 8ce4 26bd 90e7 2c3d 2c3b a33d 9863 6c3d
00000350: 284a e2bd e4f2 99bd b09a a1bc 38a4 f73d
00000360: 1821 943c d097 04bd 7cd2 533d e802 43bd
00000370: 8cb2 a5bd e4d9 ba3d acce 68bd 2847 cdbc
00000380: 7eab febd 5255 ab3d 58f4 c13d f498 3a3d
00000390: 9080 b2bd 18a8 fcbd f6ea cfbd 36e6 be3d
000003a0: 6cd0 753d d66c d73d 561c 863d 4c95 013d
000003b0: 8071 a0ba 86b0 c2bd 6c55 dbbd 0273 efbd
000003c0: e497 513d 2860 7bbd 2815 cebc 5054 93bd
000003d0: d098 babc 862e b4bd 4046 a7bd 00d6 293d
000003e0: 202a 18bd 340a 9e3d 0c41 24bd 10cb bbbd
000003f0: 68ac b4bc d030 78bd 60a4 1cbd fcb5 f3bd

network.0.bias f4 [128]
0.00067436695 -0.020133838 0.08540861 0.007484317 -0.088523194 -0.0025603052 -0.092456535 0.018662065
0.023503654 -0.11785029 -0.085505486 -0.06278345 -0.04370697 -0.033101555 0.044834707 -0.098663494
0.0018673316 -0.10328074 0.07070239 -0.08102858 -0.09562568 0.08002781 0.044800196 -0.04235056
0.060376316 -0.005952598 0.045397207 -0.007334426 -0.04735232 -0.045214087 -0.10717358 0.07815176
0.049191616 0.100950815 -0.122881696 0.112605244 0.04383637 0.03408371 -0.053651616 0.06252966
0.05627679 0.09332384 -0.10320552 0.018999413 0.031575225 -0.14113344 0.07330123 0.03947365
-0.10038133 -0.10731475 0.0050994903 0.10025975 0.03629802 0.017577112 -0.008097127 -0.1242
0.059320394 0.06596227 -0.09723974 -0.023026764 0.121523425 -0.060674917 -0.085822806 0.029502604
0.027747165 0.09568921 -0.082180366 0.0040006423 0.03009215 0.0917066 0.042933248 0.023938224
-0.0276354 -0.022298515 -0.06745757 0.023991937 0.07464723 -0.0635418 -0.08541921 0.04158644
0.016795233 -0.058923557 0.068727575 -0.10184741 -0.061416924 -0.05852907 -0.0349426 0.017387895
0.03709773 -0.043647096 -0.016961232 -0.06519297 -0.08219083 0.021349296 0.09217322 0.08485179
-0.097557336 0.036267255 -0.060482934 -0.018142749 -0.011176556 0.08873655 0.07012344 -0.10121408
0.027108774 0.041138295 0.021033928 -0.046513256 -0.05900839 -0.088195175 -0.123034 -0.034639668
-0.04822877 0.022319358 -0.052844763 0.10382788 -0.08819458 0.08781212 -0.06418347 -0.00044604033
-0.04583803 0.052685246 0.070005976 0.07718951 -0.086574644 0.06596167 0.07309444 -0.10257524
00000000: 00c8 303a b8ef a4bc b6ea ae3d 003f f53b
00000010: a64b b5bd cbca 27bb da59 bdbd 30e1 983c
00000020: bc8a c03c 7e5b f1bd 801d afbd 9c94 80bd
00000030: 1406 33bd 7f95 07bd 99a4 373d 1610 cabd
00000040: 40c1 f43a da84 d3bd 6acc 903d 50f2 a5bd
00000050: 66d7 c3bd 9fe5 a33d 6980 373d c877 2dbd
00000060: 284d 773d 030e c3bb 6cf2 393d a055 f0bb
00000070: 82f4 41bd 6832 39bd d27d dbbd 080e a03d
00000080: 267d 493d 4dbf ce3d 66a9 fbbd 949d e63d
00000090: c48d 333d 5c9b 0b3d ccc1 5bbd 8d0f 803d
000000a0: 7e82 663d 9220 bf3d 6a5d d3bd a8a4 9b3c
000000b0: 0655 013d 4985 10be f51e 963d 1faf 213d
000000c0: ba94 cdbd d6c7 dbbd a019 a73b fc54 cd3d
000000d0: 3cad 143d e0fd 8f3c d0a9 04bc 925c febd
000000e0: f1f9 723d 3a17 873d a125 c7bd a0a2 bcbc
000000f0: 46e1 f83d 4386 78bd dec3 afbd 72af f13c
00000100: 064e e33c b4f8 c33d 2e4e a8bd d217 833b
00000110: d083 f63c abd0 bb3d c6da 2f3d 181a c43c
00000120: a263 e2bc 60ab b6bc 3227 8abd bd8a c43c
00000130: a6e0 983d 3422 82bd 44f0 aebd 8b56 2a3d
00000140: 2896 893c d459 71bd 0bc1 8c3d 6095 d0bd
00000150: 5090 7bbd 2ebc 6fbd f91f 0fbd 0f71 8e3c
00000160: caf3 173d 4cc7 32bd 48f2 8abc e483 85bd
00000170: aa53 a8bd b8e4 ae3c 50c5 bc3d c6c6 ad3d
00000180: 24cc c7bd f98c 143d f4bc 77bd 1aa0 94bc
00000190: e01d 37bc 82bb b53d e19c 8f3d 5449 cfbd
000001a0: 3813 de3c a180 283d 584f ac3c af84 3ebd
000001b0: c8b2 71bd ac9f b4bd 40f9 fbbd 53e2 0dbd
000001c0: 888b 45bd 16d7 b63c c073 58bd b6a3 d43d
000001d0: 5c9f b4bd d7d6 b33d a072 83bd 85da e9b9
000001e0: a8c0 3bbd 7ccc 573d 4b5f 8f3d 8915 9e3d
000001f0: 0c4e b1bd e916 873d 8ab2 953d f812 d2bd

network.2.weight f4 [128, 128]
0.03572645 0.017088316 0.036931075 0.07744228 -0.0007705602 -0.044203766 -0.039837655 0.011414729
-0.013607658 -0.06330452 0.0024653673 0.050610878 0.0029302984 0.05489382 -0.048546676 0.06931909
0.011879063 -0.034644116 0.028586704 0.04075599 -0.037897665 -0.0251259 0.03286478 -0.07789491
0.0212432 0.014116972 -0.06025014 -0.010896929 0.011248416 0.061484657 0.06463609 -0.07080807
-0.06675804 0.04545509 0.08720351 0.07164795 0.021195682 0.08380736 -0.0405785 -0.016447436
-0.075006045 -0.06763597 -0.059775397 -0.08017929 0.010104141 0.017593022 0.023485143 0.044753265
-0.07040292 -0.025510304 0.06955109 -0.07822258 0.062122785 0.027218811 -0.07175659 0.019069038
-0.009850578 0.0019343107 -0.04068523 0.040010713 0.068741255 0.04779632 -0.008483283 -0.08930701
0.07751674 0.014980665 0.07198132 0.02090557 0.0014530122 0.031805698 0.036894567 0.00039427876
-0.0010280143 -0.0035882965 0.060562886 0.026057221 -0.027910918 0.08236892 0.08469751 0.060249444
0.01583732 0.0054060295 -0.056493297 0.06443485 -0.06350768 -0.0831871 0.014535172 -0.09574197
0.015555517 -0.042569138 -0.0006673035 -0.034053072 0.0714734 -0.07900875 0.016237274 -0.00805807
-0.08410468 0.057292312 0.006501951 -0.08281202 -0.08843004 0.02642347 0.06350577 -0.020141996
-0.026111174 -0.08814524 0.0448023 -0.040008225 -0.0406266 0.033631593 0.07730096 0.028037116
0.025493503 0.07569722 0.003759265 0.013673298 -0.0064582527 -0.06880704 0.0036064393 -0.05972499
0.05115048 -0.060968112 -0.08339828 -0.02870229 0.06566074 -0.08076183 -0.042488664 -0.0067724213
-0.038654454 0.041756265 0.07720887 0.047840185 -0.018640466 -0.0693959 -0.072978005 -0.021165408
-0.027844612 -0.06703234 0.021858618 -0.03349213 0.025632292 -0.046936363 -0.007964268 -0.026600275
0.05429233 -0.08066787 -0.034854557 0.01887542 -0.024901904 -0.0015126914 0.059737496 0.012652978
0.010896057 0.02582232 -0.047554202 -0.035299543 0.0423396 0.012813203 0.05765883 -0.0112847015
0.08303254 0.05278542 -0.024761334 -0.045170978 0.017849192 -0.07373601 -0.040478706 0.027077757
0.007709272 0.040000685 -0.03697133 0.07438321 -0.04860486 -0.045290202 0.059135295 -0.017053112
0.025285698 -0.015701786 -0.06251104 -0.0035356954 0.040099792 0.05956825 0.06742472 -0.0031125024
0.06401957 0.024933062 0.0032709613 0.0016698241 -0.008433953 0.025242612 -0.0045663863 0.05684323
-0.0134625435 -0.04908251 0.025686808 -0.04952713 0.054891013 0.07218764 0.014189281 -0.017730884
-0.003991328 0.04139542 -0.06752136 -0.023659304 -0.05385168 -0.07994712 -0.06324209 -0.056791086
0.067300566 0.05402539 -0.060005657 -0.06975214 0.07915502 0.020980291 0.040702783 0.013803251
-0.03302604 -0.047752462 0.047554888 -0.08731472 -0.07354974 0.0266916 -0.02317924 0.016907126
0.0471415 -0.05079394 -0.049754765 -0.054364122 -0.07733569 -0.00598301 0.07505641 -0.0054023713
0.048474662 -0.043957204 0.00876978 -0.066370495 -0.0058425665 0.019396767 -0.037818324 0.081150495
0.024955325 0.04421038 0.087966375 0.037468247 -0.006944008 0.042214163 0.08710127 -0.085094795
-0.016664527 0.042921744 -0.021423109 -0.07191077 -0.0513105 -0.045940105 0.03664451 0.0562732
00000000: e655 123d ccfc 8b3c 0a45 173d 0f9a 9e3d
00000010: 6bff 49ba 020f 35bd cf2c 23bd d804 3b3c
00000020: a8f2 5ebc cda5 81bd 0092 213b 5a4d 4f3d
00000030: 400a 403b 58d8 603d e1d8 46bd 2bf7 8d3d
00000040: 67a0 423c fde6 0dbd aa2e ea3c c1ef 263d
00000050: 953a 1bbd d5d4 cdbc 389d 063d 5e87 9fbd
00000060: 3806 ae3c df4a 673c dac8 76bd 0889 32bc
00000070: 474b 383c 56d7 7b3d ed5f 843d d203 91bd
00000080: 70b8 88bd 1e2f 3a3d c197 b23d 29bc 923d
00000090: 91a2 ad3c 31a3 ab3d a435 26bd c6bc 86bc
000000a0: c59c 99bd ba84 8abd 0cd7 74bd 0a35 a4bd
000000b0: d78b 253c 3e1f 903c ea63 c03c 334f 373d
000000c0: 682f 90bd fcfa d0bc cd70 8e3d 2933 a0bd
000000d0: 7674 7e3d fcf9 de3c 1ef5 92bd ac36 9c3c
000000e0: 5264 21bc b288 fd3a 8ea5 26bd 46e2 233d
000000f0: 37c8 8c3d 13c6 433d 78fd 0abc 98e6 b6bd
00000100: 19c1 9e3d 7771 753c f16a 933d 2842 ab3c
00000110: 0073 be3a b146 023d c21e 173d 33b7 ce39
00000120: 70be 86ba a029 6bbb ca10 783d f475 d53c
00000130: 70a5 e4bc 09b1 a83d e375 ad3d 1fc8 763d
00000140: 44bd 813c 1025 b13b 8465 67bd 6bf6 833d
00000150: 5110 82bd 005e aabd ee24 6e3c 5e14 c4bd
00000160: 91dc 7e3c fa5c 2ebd fbed 2eba 3c7b 0bbd
00000170: a560 923d 57cf a1bd 0804 853c ff05 04bc
00000180: 133f acbd 58ab 6a3d 510e d53b 5999 a9bd
00000190: cf1a b5bd 0876 d83c 500f 823d d400 a5bc
000001a0: 1ae7 d5bc 7e85 b4bd 9e82 373d aadf 23bd
000001b0: 1468 26bd 48c1 093d f74f 9e3d 18ae e53c
000001c0: c0d7 d03c 2507 9b3d 005e 763b f805 603c
000001d0: c09f d3bb b5ea 8cbd 035a 6c3b 31a2 74bd
000001e0: 2a83 513d b3b9 79bd b8cc aabd 1121 ebbc
000001f0: 2379 863d 7566 a5bd 9808 2ebd 30eb ddbb
00000200: 2254 1ebd 9e08 2b3d af1f 9e3d 12f4 433d
00000210: e4b3 98bc 701f 8ebd 7e75 95bd 1463 adbc
00000220: 621a e4bc 4048 89bd d810 b33c 0b2f 09bd
00000230: d0fa d13c 5840 40bd 907c 02bc d2e8 d9bc
00000240: a261 5e3d 3235 a5bd a7c3 0ebd a0a0 9a3c
00000250: 14ff cbbc 8045 c6ba 4eaf 743d 704e 4f3c
00000260: 6085 323c 5489 d33c 32c8 42bd 4196 10bd
00000270: 4a6c 2d3d 78ee 513c aa2b 6c3d 78e3 38bc
00000280: f70c aa3d 8635 583d 48d8 cabc 3405 39bd
00000290: 7838 923c e802 97bd 00cd 25bd 2cd2 dd3c
000002a0: 109e fc3b c2d7 233d 406f 17bd 3956 983d
000002b0: e415 47bd 3882 39bd da37 723d f8b2 8bbc
000002c0: f423 cf3c 08a1 80bc ca05 80bd 20b7 67bb
000002d0: ae3f 243d d6fd 733d f915 8a3d 20fb 4bbb
000002e0: b11c 833d 6c40 cc3c a05d 563b 00de da3a
000002f0: 902e 0abc 98c9 ce3c a0a1 95bb 72d4 683d
00000300: 0092 5cbc be0a 49bd 246d d23c f6dc 4abd
00000310: 66d5 603d 1dd7 933d 287a 683c 5c40 91bc
00000320: b0c9 82bb 3e8e 293d a448 8abd 28d1 c1bc
00000330: 9493 5cbd 51bb a3bd 1285 81bd c59d 68bd
00000340: e1d4 893d ba49 5d3d 7ec8 75bd 36da 8ebd
00000350: 071c a23d dcde ab3c f6b7 263d 0827 623c
00000360: 5046 07bd 1698 43bd eac8 423d 0fd2 b2bd
00000370: 3fa1 96bd 58a8 da3c 64e2 bdbc d080 8a3c
00000380: 7217 413d 4e0d 50bd a7cb 4bbd eaac 5ebd
00000390: 2d62 9ebd 200d c4bb 2db7 993d 6006 b1bb
000003a0: 5e8d 463d 780c 34bd 20af 0f3c 41ed 87bd
000003b0: 0073 bfbb f8e5 9e3c 63e7 1abd 3b32 a63d
000003c0: 1c6f cc3c f215 353d b727 b43d 4e78 193d
000003d0: 908a e3bb c2e8 2c3d 2762 b23d 2e46 aebd
000003e0: 0c84 88bc b6ce 2f3d 847f afbc f445 93bd
000003f0: f52a 52bd b12b 3cbd 8e18 163d ba7e 663d

network.2.bias f4 [128]
0.018338494 -0.079961084 0.0362876 -0.0074179657 -0.005452968 -0.060674958 -0.05963759 0.039245393
0.01449366 0.01780433 -0.07937601 -0.03619764 -0.053973842 -0.056024972 0.02818978 0.00093679887
-0.025471903 0.002571404 -0.029218722 -0.004308968 -0.075068645 0.013615318 0.06003764 0.07046285
0.065566845 -0.040081427 -0.0743941 0.07076543 0.016429588 0.02473094 0.081045926 0.015446735
-0.07463722 0.05333313 -0.04783181 -0.027953539 0.047022887 -0.011647548 -0.0022479214 0.0075217783
0.020837769 -0.01913599 0.06675773 -0.03728512 -0.022464797 -0.014104937 -0.05438267 -0.03489056
-0.023983277 -0.037171632 0.052438427 -0.0052443394 0.07757458 0.06336136 0.01756166 0.03563231
-0.068222195 -0.008875834 0.079913154 -0.011845708 -0.058153134 -0.006595988 -0.030477852 -0.05630076
0.039814092 0.009343427 0.009770261 -0.081627704 -0.011001324 0.07325093 -0.0039374945 0.0642193
-0.021183819 0.0017910867 0.03973317 -0.013087571 0.045664392 0.0544648 0.042550817 0.036909007
0.055014685 0.053332373 -0.08028053 0.057805613 0.042480793 0.030250646 -0.054776784 0.06149535
0.014649904 0.03437403 -0.087875 0.07812701 -0.07166045 0.034687504 0.0789739 0.03814806
-0.01827424 -0.016625065 -0.056046184 -0.056564394 -0.039915424 0.038998183 0.048590213 -0.028682828
0.02210739 0.006713322 -0.027239474 0.052523434 -0.061600633 0.009452782 0.011360239 -0.0033621192
0.016714193 0.03747022 0.019108005 -0.01652974 0.016027793 0.03844688 -0.034063607 -0.06284185
0.04335004 -0.0081016645 0.05711752 0.012632743 0.005322941 0.030772777 0.058583673 -0.028894708
00000000: 9c3a 963c a3c2 a3bd 4ea2 143d 6812 f3bb
00000010: d0ae b2bb 4e86 78bd 8c46 74bd c7bf 203d
00000020: d176 6d3c 63da 913c e48f a2bd fa43 14bd
00000030: ad13 5dbd 717a 65bd 41ee e63c 8293 753a
00000040: 74aa d0bc 0085 283b 1a5c efbc 3e32 8dbb
00000050: 97bd 99bd c812 5f3c 07ea 753d d44e 903d
00000060: e947 863d 6c2c 24bd ef5b 98bd 77ed 903d
00000070: 5897 863c 8a98 ca3c 68fb a53d 4d14 7d3c
00000080: 66db 98bd d773 5a3d 4aeb 43bd d2fe e4bc
00000090: 129b 403d 5bd5 3ebc dd51 13bb 4079 f63b
000000a0: f8b3 aa3c 14c3 9cbc 47b8 883d 48b8 18bd
000000b0: 1808 b8bc 6518 67bc 5dc0 5ebd 67e9 0ebd
000000c0: 9478 c4bc 4841 18bd adc9 563d b5d8 abbb
000000d0: 6cdf 9e3d 9ac3 813d 78dd 8f3c 2ff3 113d
000000e0: 14b8 8bbd f26b 11bc 82a9 a33d 8014 42bc
000000f0: fb31 6ebd 2823 d8bb b0ac f9bc a09b 66bd
00000100: 1a14 233d 2c15 193c 7213 203c 6d2c a7bd
00000110: e63e 34bc 9504 963d 1906 81bb 6985 833d
00000120: b089 adbc e6c2 ea3a 40bf 223d 406d 56bc
00000130: 960a 3b3d 7b16 5f3d c449 2e3d e62d 173d
00000140: 1457 613d 0c73 5a3d 1e6a a4bd 94c5 6c3d
00000150: 5700 2e3d 34d0 f73c 9f5d 60bd 8ce2 7b3d
00000160: 2706 703c c8cb 0c3d cff7 b3bd 0e01 a03d
00000170: b7c2 92bd 7c14 0e3d 11bd a13d 2441 1c3d
00000180: dcb3 95bc 4a31 88bc af90 65bd 11b0 67bd
00000190: 5b7e 23bd 8fbc 1f3d 8806 473d 40f8 eabc
000001a0: 8f1a b53c 6dfb db3b 5125 dfbc d022 573d
000001b0: f250 7cbd d7df 1a3c 4c20 3a3c 0057 5cbb
000001c0: 34ec 883c 607a 193d 6488 9c3c 6169 87bc
000001d0: b84c 833c 7a7a 1d3d 4886 0bbd 3ab3 80bd
000001e0: d08f 313d d8bc 04bc 10f4 693d 91f9 4e3c
000001f0: 116c ae3b 3117 fc3c 6ff5 6f3d 98b4 ecbc

network.4.weight f4 [3, 128]
0.041627545 -0.016464569 0.044182204 -0.08392419 0.07739453 0.04912115 0.06484137 0.0754598
-0.026287293 -0.0066611525 -0.050990477 0.0064036623 0.0026214495 -0.015472032 -0.030174822 0.06406391
0.058957644 -0.07718566 -0.07947261 -0.041323613 -0.009779036 -0.010023586 0.08801889 0.0073265354
0.006910983 0.06406208 -0.025698006 0.07279767 -0.010748213 -0.046468936 0.017434822 -0.056508802
0.07987691 0.027487008 0.081216834 0.08773785 0.011471291 -0.001829441 -0.003450899 -0.039580006
0.042685144 -0.061738946 0.07672014 0.031776197 -0.0034830107 0.052160252 0.009832348 0.068201736
-0.051379357 -0.066906825 -0.033179108 0.056913875 0.056858435 -0.023209622 -0.011678372 0.03566421
-0.08635975 0.04168661 0.015676709 0.022692822 -0.08626095 0.011855568 0.011768863 0.068289734
0.076759316 -0.00993903 0.07338031 -0.08334401 8.536034e-06 0.0077045714 -0.07919354 0.044896413
0.07889237 -0.030891096 -0.06442877 0.017630681 0.08462333 -0.04168028 -0.04393232 0.03971281
0.08421964 0.048307672 0.08068607 0.06982043 0.045148935 -0.07404246 0.080459364 -0.019652253
-0.065996446 -0.05134133 -0.0652163 -0.05654365 -0.005638331 0.046040833 -0.060890198 -0.074616
0.045937918 0.02422818 0.030245304 -0.036947712 0.0393266 -0.029840155 0.08862763 0.024317108
-0.055762492 0.03964932 0.083316825 -0.045758914 0.01921247 -0.03647008 -0.056016326 0.034678385
0.059631683 0.08018446 0.019610086 -0.0047610104 -0.0019399126 0.050875507 -0.007319361 0.0248046
-0.007489249 -0.03725518 0.06376789 0.045773793 0.032092907 -0.0030285625 0.026235329 0.024122305
-0.0011425425 -0.031017657 -0.008624898 -0.048448827 -0.027167393 -0.08424378 0.014439538 -0.03434396
-0.05345304 0.0035837877 -0.06163699 -0.086717 0.03879995 0.04181575 -0.0011584327 -0.07547187
0.07513257 0.077045746 0.085380115 0.035356678 0.07521681 -0.060963318 -0.06926774 -0.054434016
0.07028799 -0.06429148 -0.023858607 0.075045645 0.06454212 0.0064565255 0.07446906 -3.5980942e-05
0.05869896 -0.0068708523 0.02782262 -0.04236655 0.07432198 -0.07753088 -0.060953878 0.025123665
-0.0026498607 0.020974264 -0.0325834 -0.020356286 0.05157137 0.06552346 0.026461719 0.0040651467
-0.054024283 0.06619971 0.0041315393 -0.0033643306 -0.0215842 0.026716145 0.050014168 -0.038357165
0.012427375 -0.0028290728 -0.043351796 -0.048257373 -0.03480227 0.02575547 -0.030300919 -0.047529127
-0.011037064 -0.06877224 -0.050041113 -0.041467797 0.067278646 -0.051044106 0.03292644 0.0020448957
0.058251537 -0.024830945 -0.0045944676 -0.013420134 0.04468669 -0.059596546 -0.00015089204 0.08697457
0.06424659 0.0028098964 0.018699527 0.057901796 0.067320295 0.0047432743 -0.0125253275 0.031965815
-0.048227377 -0.02329494 -0.005795181 -0.06467952 -0.04589052 -0.07347611 -0.0159015 -0.06537701
0.039108716 -0.021967413 -0.0197336 0.015705936 -0.0666075 -0.004450638 -0.02943425 -0.04123062
0.0214787 0.0078966385 -0.041661143 -0.017418668 -0.04338685 -0.013885171 0.00042619757 0.0008703768
-0.015577599 0.000117305855 0.0046451213 -0.0033192714 -0.011136035 0.029727548 0.06150695 0.0251038
-0.04948339 -0.024557851 -0.061765354 0.035038434 -0.050470013 -0.03593613 0.029430466 0.06100171
00000000: a581 2a3d b4e0 86bc 66f8 343d 72e0 abbd
00000010: 0681 9e3d 4233 493d 8dcb 843d ab8a 9a3d
00000020: 7358 d7bc cc45 dabb 64db 50bd d0d5 d13b
00000030: a0cc 2b3b 687e 7dbc 3031 f7bc f033 833d
00000040: 927d 713d 8413 9ebd 89c2 a2bd f342 29bd
00000050: 4038 20bc f839 24bc 3f43 b43d 6f13 f03b
00000060: 8775 e23b fb32 833d a084 d2bc f216 953d
00000070: 4619 30bc 3656 3ebd 79d3 8e3c c675 67bd
00000080: 8196 a33d 6f2c e13c 0355 a63d e7af b33d
00000090: 15f2 3b3c dbc9 efba 7a28 62bb a51e 22bd
000000a0: 9ed6 2e3d fae1 7cbd 731f 9d3d c227 023d
000000b0: 3943 64bb fda5 553d db17 213c 5aad 8b3d
000000c0: 2973 52bd 7206 89bd d1e6 07bd 861e 693d
000000d0: 64e4 683d 1b22 bebc a456 3fbc a214 123d
000000e0: 61dd b0bd 94bf 2a3d 716c 803c 4ce6 b93c
000000f0: 95a9 b0bd db3d 423c 30d2 403c 7ddb 8b3d
00000100: fd33 9d3d 50d7 22bc 6a48 963d 44b0 aabd
00000110: fd35 0f37 a176 fc3b 3930 a2bd 4de5 373d
00000120: 5392 a13d 530f fdbc 3bf3 83bd 386e 903c
00000130: ff4e ad3d f1b8 2abd 60f2 33bd e6a9 223d
00000140: 597b ac3d 44de 453d bd3e a53d 03fe 8e3d
00000150: 17ee 383d 93a3 97bd e1c7 a43d c3fd a0bc
00000160: 2529 87bd 494b 52bd 2090 85bd 509a 67bd
00000170: c0c1 b8bb 5095 3c3d 0068 79bd 46d0 98bd
00000180: 6629 3c3d 2d7a c63c 00c5 f73c 7c56 17bd
00000190: ee14 213d 5773 f4bc 6782 b53d ac34 c73c
000001a0: 3667 64bd 5367 223d 03a2 aa3d b36d 3bbd
000001b0: 7863 9d3c a761 15bd 6071 65bd ec0a 0e3d
000001c0: 5a40 743d c037 a43d 55a5 a03c 4002 9cbb
000001d0: aa44 feba d662 503d 40d7 efbb 0433 cb3c
000001e0: 6068 f5bb e398 18bd bd98 823d 4d7d 3b3d
000001f0: da73 033d d97a 46bb 79eb d63c 249c c53c
00000200: 5dc1 95ba be18 febc 724f 0dbc 4772 46bd
00000210: 278e debc 0188 acbd d093 6c3c 41ac 0cbd
00000220: 93f1 5abd fbdd 6a3b 1277 7cbd af98 b1bd
00000230: b2ec 1e3d fe46 2b3d 8dd6 97ba ff90 9abd
00000240: 1bdf 993d 29ca 9d3d c5db ae3d 2ad2 103d
00000250: 450b 9a3d acb4 79bd 3fdc 8dbd 34f6 5ebd
00000260: 26f3 8f3d 40ab 83bd 2073 c3bc 88b1 993d
00000270: a92e 843d 4391 d33b 3c83 983d 3eea 16b8
00000280: 526e 703d e324 e1bb 43ec e33c 8c88 2dbd
00000290: 1f36 983d 83c8 9ebd c6aa 79bd 25d0 cd3c
000002a0: 49a9 2dbb 38d2 ab3c 2c76 05bd 3ac2 a6bc
000002b0: 803c 533d 2a31 863d 3fc6 d83c ec34 853b
000002c0: 9148 5dbd b793 873d dd61 873b 1a7c 5cbb
000002d0: 59d1 b0bc d1db da3c a8db 4c3d 671c 1dbd
000002e0: 309c 4b3c f767 39bb a791 31bd 86a9 45bd
000002f0: d38c 0ebd 23fd d23c a239 f8bc e7ad 42bd
00000300: cdd4 34bc 76d8 8cbd e9f7 4cbd 23da 29bd
00000310: 63c9 893d a013 51bd e0dd 063d a803 063b
00000320: 2a99 6e3d 446a cbbc 308d 96bb 1fe0 5bbc
00000330: 6409 373d 821b 74bd c638 1eb9 b91f b23d
00000340: b793 833d 3d26 383b c02f 993c 6f2a 6d3d
00000350: 39df 893d 786d 9b3b 0837 4dbc 96ee 023d
00000360: 128a 45bd 08d5 bebc 80e5 bdbb b276 84bd
00000370: b3f7 3bbd a57a 96bd dd43 82bc 62e4 85bd
00000380: 7630 203d 01f5 b3bc 5ca8 a1bc bca9 803c
00000390: 8369 88bd a8d6 91bb 1920 f1bc 70e1 28bd
000003a0: 19f4 af3c e760 013c e0a4 2abd 98b1 8ebc
000003b0: 69b6 31bd a17e 63bc 4573 df39 002a 643a
000003c0: 3039 7fbc 1a02 f638 1a36 983b 2288 59bb
000003d0: eb73 36bc 3087 f33c b6ee 7b3d 7ca6 cd3c
000003e0: 18af 4abd 8c2d c9bc abfd 7cbd 7684 0f3d
000003f0: a5b9 4ebd c331 13bd 2918 f13c eedc 793d

network.4.bias f4 [3]
0.05285876 0.087608084 0.08537813
00000000: 6d82 583d de6b b33d bbda ae3d

network.0.weight f4 [128, 64]
0.095567316 0.10375099 -0.02928406 0.11482641 -0.027387947 0.025223836 -0.06085688 0.07341033
0.110192865 -0.09170352 0.10864952 0.023394912 0.09235111 0.016928822 0.060273513 -0.017648876
0.09636073 0.018476114 -0.05835499 0.03186229 -0.05759208 -0.014659107 -0.05076979 0.08292137
-0.09867127 -0.057626292 -0.035296842 -0.07515906 0.01179789 -0.12345989 0.112888634 -0.10618353
0.09650342 0.020802394 -0.040588066 0.077243745 0.019481346 0.10099542 0.013664961 -0.039421648
0.03358546 -0.03389743 0.052607194 0.11160277 0.072257444 -0.054646567 0.07215808 0.022365779
0.06347938 -0.07618813 -0.12373856 -0.048295066 -0.095877856 0.10256736 0.036003917 0.051776692
0.039532647 -0.0021744967 0.097826034 -0.0888142 0.0078704655 -0.08531752 0.038544 -0.043047786
0.038302034 -0.026042685 0.10367398 -0.07408774 -0.07454975 -0.07455425 0.11243035 0.04165639
0.12028134 -0.10315953 -0.123984516 -0.09779547 -0.084086135 0.050630018 0.044759482 0.10386555
-0.06455317 -0.085213974 0.06632227 -0.05052556 0.07586548 -0.02966258 0.07150574 -0.097121
-0.06308122 0.038109556 0.026425943 -0.031869844 0.07450868 0.08497615 -0.09064667 -0.066733524
0.11445774 -0.042179063 -0.04431455 -0.12094933 -0.07158378 0.031225458 -0.016499147 -0.09073575
0.0029320866 -0.08538519 -0.10604958 -0.06883283 -0.10940151 -0.07959226 0.12495111 0.02360937
0.038519964 -0.11658554 -0.082096726 -0.041606978 0.01954639 -0.109990165 -0.05385913 -0.07483357
0.0003464073 -0.0465129 -0.0086619705 -0.08470371 -0.085799396 -0.072925225 -0.04278718 -0.09866011
-0.026377315 -0.14263614 0.25449786 0.17521715 -0.2025729 -0.06195105 -0.24349183 -0.140612
-0.019391108 -0.0056948685 0.112104714 0.15460591 0.13399602 -0.23599355 0.28771833 0.01120455
-0.21837133 -0.025773583 0.05675723 0.13208051 0.06005405 -0.25887898 0.18487021 0.15621792
-0.18606035 -0.1553201 0.17725359 -0.26510376 0.1584294 -0.08045837 -0.057367858 0.037932727
0.2880119 0.19560583 0.12733342 -0.12518594 0.23854981 0.008205767 -0.19348408 0.16377294
0.23430003 -0.24071714 0.01044516 -0.07891636 0.094258584 -0.18790257 -0.1351668 0.12155676
-0.118074164 -0.122543596 -0.02372693 -0.28774065 -0.012605403 -0.049883444 -0.15090257 -0.120207
0.12306253 -0.042010624 -0.081823125 -0.1686938 -0.045008697 0.0014631357 -0.022081763 -0.04915337
0.07990086 0.107424945 -0.012374669 -0.027987108 0.0018240362 -0.0074635297 0.03005141 0.035029203
-0.113532096 -0.04612972 0.10526618 0.048694372 -0.0062171966 -0.07536322 -0.076475635 -0.11197086
-0.040745303 0.042213023 0.079702705 0.057712168 -0.110493004 -0.07517031 -0.019727081 0.12091869
0.018082187 -0.032371342 0.051714405 -0.047610193 -0.08090696 0.091235906 -0.056837723 -0.025058344
-0.12435053 0.08365883 0.09470433 0.045556024 -0.087159276 -0.12336749 -0.10152237 0.09321253
0.06001322 0.10518806 0.065483734 0.03163652 -0.0012240857 -0.095063254 -0.10709652 -0.11691858
0.051170245 -0.061371 -0.025156572 -0.07193816 -0.022777945 -0.08797936 -0.08167696 0.041463852
-0.03714955 0.0771679 -0.040101096 -0.091695905 -0.022054866 -0.060593426 -0.038242698 -0.11899945
00000000: ccb8 c33d 667b d43d 20e5 efbc 1c2a eb3d
00000010: b05c e0bc 38a2 ce3c 1045 79bd 2858 963d
00000020: ccac e13d 0ecf bbbd a483 de3d b0a6 bf3c
00000030: 9422 bd3d 50ae 8a3c 5ce1 763d 6094 90bc
00000040: c658 c53d 385b 973c a405 6fbd 0882 023d
00000050: ace5 6bbd c02c 70bc fcf3 4fbd aed2 a93d
00000060: 2a14 cabd 8c09 6cbd 6c93 10bd feec 99bd
00000070: f04b 413c 8ad8 fcbd 2832 e73d c076 d9bd
00000080: 96a3 c53d c869 aa3c ac3f 26bd f831 9e3d
00000090: 5897 9f3c b0d6 ce3d 00e3 5f3c 9878 21bd
000000a0: e890 093d 08d8 0abd a47a 573d fe8f e43d
000000b0: b6fb 933d 14d5 5fbd 9ec7 933d 7038 b73c
000000c0: 7a01 823d 8608 9cbd a46a fdbd 0cd1 45bd
000000d0: 9c5b c4bd d60e d23d d878 133d cc13 543d
000000e0: fcec 213d 0082 0ebb 0459 c83d 38e4 b5bd
000000f0: 20f3 003c f4ba aebd 50e0 1d3d e052 30bd
00000100: 98e2 1c3d 7857 d5bc 0653 d43d 50bb 97bd
00000110: 8aad 98bd e6af 98bd e241 e63d e49f 2a3d
00000120: 1056 f63d 4e45 d3bd 98eb fdbd fe48 c8bd
00000130: 5a35 acbd 6c61 4f3d b855 373d 76b7 d43d
00000140: 7434 84bd aa84 aebd f8d3 873d e4f3 4ebd
00000150: 5c5f 9b3d f0fe f2bc 9a71 923d 60e7 c6bd
00000160: ba30 81bd c418 1c3d 387b d83c f489 02bd
00000170: 0298 983d fa07 ae3d f6a4 b9bd 96ab 88bd
00000180: d268 ea3d f4c3 2cbd 2c83 35bd 48b4 f7bd
00000190: 849a 92bd 88cc ff3c 3829 87bc aad3 b9bd
000001a0: 4028 403b 6ede aebd 8630 d9bd 3af8 8cbd
000001b0: e60d e0bd 4401 a3bd 5ee6 ff3d 7068 c13c
000001c0: 1cc7 1d3d 66c4 eebd 5422 a8bd 146c 2abd
000001d0: c01f a03c 8642 e1bd 649b 5cbd 5842 99bd
000001e0: 009e b539 5084 3ebd f0ea 0dbc 2479 adbd
000001f0: 98b7 afbd d259 95bd 9c41 2fbd 500e cabd
00000200: 3d15 d8bc 350f 12be 8b4d 823e 206c 333e
00000210: 456f 4fbe 62c0 7dbd ec55 79be 98fc 0fbe
00000220: 1ada 9ebc 059c babb 2897 e53d 0351 1e3e
00000230: 4136 093e 4ba8 71be d14f 933e 4a93 373c
00000240: bc9c 5fbe 1f23 d3bc 457a 683d 1d40 073e
00000250: 3cfb 753d c98b 84be 9e4e 3d3e 97f7 1f3e
00000260: 9b86 3ebe 3b0c 1fbe f781 353e aebb 87be
00000270: 513b 223e 5cc7 a4bd 8ffa 6abd 595f 1b3d
00000280: 4c76 933e e54c 483e b163 023e be30 00be
00000290: 6746 743e 7b71 063c b120 46be 18b4 273e
000002a0: 59ec 6f3e 8e7e 76be 2d22 2b3c e79e a1bd
000002b0: a50a c13d 8869 40be 2a69 0abe c0f2 f83d
000002c0: ded0 f1bd 23f8 fabd fb5e c2bc be52 93be
000002d0: e486 4ebc 9552 4cbd 3486 1abe 162f f6bd
000002e0: 3508 fc3d 5513 2cbd e292 a7bd 11be 2cbe
000002f0: 0a5b 38bd b0c6 bf3a d0e4 b4bc 0b55 49bd
00000300: 10a3 a33d 9c01 dc3d 20bf 4abc 3845 e5bc
00000310: 8014 ef3a a090 f4bb 602e f63c c87a 0f3d
00000320: 8483 e8bd 84f2 3cbd cc95 d73d c073 473d
00000330: a0b9 cbbb 0858 9abd 429f 9cbd fa50 e5bd
00000340: 8ce4 26bd 90e7 2c3d 2c3b a33d 9863 6c3d
00000350: 284a e2bd e4f2 99bd b09a a1bc 38a4 f73d
00000360: 1821 943c d097 04bd 7cd2 533d e802 43bd
00000370: 8cb2 a5bd e4d9 ba3d acce 68bd 2847 cdbc
00000380: 7eab febd 5255 ab3d 58f4 c13d f498 3a3d
00000390: 9080 b2bd 18a8 fcbd f6ea cfbd 36e6 be3d
000003a0: 6cd0 753d d66c d73d 561c 863d 4c95 013d
000003b0: 8071 a0ba 86b0 c2bd 6c55 dbbd 0273 efbd
000003c0: e497 513d 2860 7bbd 2815 cebc 5054 93bd
000003d0: d098 babc 862e b4bd 4046 a7bd 00d6 293d
000003e0: 202a 18bd 340a 9e3d 0c41 24bd 10cb bbbd
000003f0: 68ac b4bc d030 78bd 60a4 1cbd fcb5 f3bd

network.0.bias f4 [128]
0.00067436695 -0.020133838 0.08540861 0.007484317 -0.088523194 -0.0025603052 -0.092456535 0.018662065
0.023503654 -0.11785029 -0.085505486 -0.06278345 -0.04370697 -0.033101555 0.044834707 -0.098663494
0.0018673316 -0.10328074 0.07070239 -0.08102858 -0.09562568 0.08002781 0.044800196 -0.04235056
0.060376316 -0.005952598 0.045397207 -0.007334426 -0.04735232 -0.045214087 -0.10717358 0.07815176
0.049191616 0.100950815 -0.122881696 0.112605244 0.04383637 0.03408371 -0.053651616 0.06252966
0.05627679 0.09332384 -0.10320552 0.018999413 0.031575225 -0.14113344 0.07330123 0.03947365
-0.10038133 -0.10731475 0.0050994903 0.10025975 0.03629802 0.017577112 -0.008097127 -0.1242
0.059320394 0.06596227 -0.09723974 -0.023026764 0.121523425 -0.060674917 -0.085822806 0.029502604
0.027747165 0.09568921 -0.082180366 0.0040006423 0.03009215 0.0917066 0.042933248 0.023938224
-0.0276354 -0.022298515 -0.06745757 0.023991937 0.07464723 -0.0635418 -0.08541921 0.04158644
0.016795233 -0.058923557 0.068727575 -0.10184741 -0.061416924 -0.05852907 -0.0349426 0.017387895
0.03709773 -0.043647096 -0.016961232 -0.06519297 -0.08219083 0.021349296 0.09217322 0.08485179
-0.097557336 0.036267255 -0.060482934 -0.018142749 -0.011176556 0.08873655 0.07012344 -0.10121408
0.027108774 0.041138295 0.021033928 -0.046513256 -0.05900839 -0.088195175 -0.123034 -0.034639668
-0.04822877 0.022319358 -0.052844763 0.10382788 -0.08819458 0.08781212 -0.06418347 -0.00044604033
-0.04583803 0.052685246 0.070005976 0.07718951 -0.086574644 0.06596167 0.07309444 -0.10257524
00000000: 00c8 303a b8ef a4bc b6ea ae3d 003f f53b
00000010: a64b b5bd cbca 27bb da59 bdbd 30e1 983c
00000020: bc8a c03c 7e5b f1bd 801d afbd 9c94 80bd
00000030: 1406 33bd 7f95 07bd 99a4 373d 1610 cabd
00000040: 40c1 f43a da84 d3bd 6acc 903d 50f2 a5bd
00000050: 66d7 c3bd 9fe5 a33d 6980 373d c877 2dbd
00000060: 284d 773d 030e c3bb 6cf2 393d a055 f0bb
00000070: 82f4 41bd 6832 39bd d27d dbbd 080e a03d
00000080: 267d 493d 4dbf ce3d 66a9 fbbd 949d e63d
00000090: c48d 333d 5c9b 0b3d ccc1 5bbd 8d0f 803d
000000a0: 7e82 663d 9220 bf3d 6a5d d3bd a8a4 9b3c
000000b0: 0655 013d 4985 10be f51e 963d 1faf 213d
000000c0: ba94 cdbd d6c7 dbbd a019 a73b fc54 cd3d
000000d0: 3cad 143d e0fd 8f3c d0a9 04bc 925c febd
000000e0: f1f9 723d 3a17 873d a125 c7bd a0a2 bcbc
000000f0: 46e1 f83d 4386 78bd dec3 afbd 72af f13c
00000100: 064e e33c b4f8 c33d 2e4e a8bd d217 833b
00000110: d083 f63c abd0 bb3d c6da 2f3d 181a c43c
00000120: a263 e2bc 60ab b6bc 3227 8abd bd8a c43c
00000130: a6e0 983d 3422 82bd 44f0 aebd 8b56 2a3d
00000140: 2896 893c d459 71bd 0bc1 8c3d 6095 d0bd
00000150: 5090 7bbd 2ebc 6fbd f91f 0fbd 0f71 8e3c
00000160: caf3 173d 4cc7 32bd 48f2 8abc e483 85bd
00000170: aa53 a8bd b8e4 ae3c 50c5 bc3d c6c6 ad3d
00000180: 24cc c7bd f98c 143d f4bc 77bd 1aa0 94bc
00000190: e01d 37bc 82bb b53d e19c 8f3d 5449 cfbd
000001a0: 3813 de3c a180 283d 584f ac3c af84 3ebd
000001b0: c8b2 71bd ac9f b4bd 40f9 fbbd 53e2 0dbd
000001c0: 888b 45bd 16d7 b63c c073 58bd b6a3 d43d
000001d0: 5c9f b4bd d7d6 b33d a072 83bd 85da e9b9
000001e0: a8c0 3bbd 7ccc 573d 4b5f 8f3d 8915 9e3d
000001f0: 0c4e b1bd e916 873d 8ab2 953d f812 d2bd

network.2.weight f4 [128, 128]
0.03572645 0.017088316 0.036931075 0.07744228 -0.0007705602 -0.044203766 -0.039837655 0.011414729
-0.013607658 -0.06330452 0.0024653673 0.050610878 0.0029302984 0.05489382 -0.048546676 0.06931909
0.011879063 -0.034644116 0.028586704 0.04075599 -0.037897665 -0.0251259 0.03286478 -0.07789491
0.0212432 0.014116972 -0.06025014 -0.010896929 0.011248416 0.061484657 0.06463609 -0.07080807
-0.06675804 0.04545509 0.08720351 0.07164795 0.021195682 0.08380736 -0.0405785 -0.016447436
-0.075006045 -0.06763597 -0.059775397 -0.08017929 0.010104141 0.017593022 0.023485143 0.044753265
-0.07040292 -0.025510304 0.06955109 -0.07822258 0.062122785 0.027218811 -0.07175659 0.019069038
-0.009850578 0.0019343107 -0.04068523 0.040010713 0.068741255 0.04779632 -0.008483283 -0.08930701
0.07751674 0.014980665 0.07198132 0.02090557 0.0014530122 0.031805698 0.036894567 0.00039427876
-0.0010280143 -0.0035882965 0.060562886 0.026057221 -0.027910918 0.08236892 0.08469751 0.060249444
0.01583732 0.0054060295 -0.056493297 0.06443485 -0.06350768 -0.0831871 0.014535172 -0.09574197
0.015555517 -0.042569138 -0.0006673035 -0.034053072 0.0714734 -0.07900875 0.016237274 -0.00805807
-0.08410468 0.057292312 0.006501951 -0.08281202 -0.08843004 0.02642347 0.06350577 -0.020141996
-0.026111174 -0.08814524 0.0448023 -0.040008225 -0.0406266 0.033631593 0.07730096 0.028037116
0.025493503 0.07569722 0.003759265 0.013673298 -0.0064582527 -0.06880704 0.0036064393 -0.05972499
0.05115048 -0.060968112 -0.08339828 -0.02870229 0.06566074 -0.08076183 -0.042488664 -0.0067724213
-0.038654454 0.041756265 0.07720887 0.047840185 -0.018640466 -0.0693959 -0.072978005 -0.021165408
-0.027844612 -0.06703234 0.021858618 -0.03349213 0.025632292 -0.046936363 -0.007964268 -0.026600275
0.05429233 -0.08066787 -0.034854557 0.01887542 -0.024901904 -0.0015126914 0.059737496 0.012652978
0.010896057 0.02582232 -0.047554202 -0.035299543 0.0423396 0.012813203 0.05765883 -0.0112847015
0.08303254 0.05278542 -0.024761334 -0.045170978 0.017849192 -0.07373601 -0.040478706 0.027077757
0.007709272 0.040000685 -0.03697133 0.07438321 -0.04860486 -0.045290202 0.059135295 -0.017053112
0.025285698 -0.015701786 -0.06251104 -0.0035356954 0.040099792 0.05956825 0.06742472 -0.0031125024
0.06401957 0.024933062 0.0032709613 0.0016698241 -0.008433953 0.025242612 -0.0045663863 0.05684323
-0.0134625435 -0.04908251 0.025686808 -0.04952713 0.054891013 0.07218764 0.014189281 -0.017730884
-0.003991328 0.04139542 -0.06752136 -0.023659304 -0.05385168 -0.07994712 -0.06324209 -0.056791086
0.067300566 0.05402539 -0.060005657 -0.06975214 0.07915502 0.020980291 0.040702783 0.013803251
-0.03302604 -0.047752462 0.047554888 -0.08731472 -0.07354974 0.0266916 -0.02317924 0.016907126
0.0471415 -0.05079394 -0.049754765 -0.054364122 -0.07733569 -0.00598301 0.07505641 -0.0054023713
0.048474662 -0.043957204 0.00876978 -0.066370495 -0.0058425665 0.019396767 -0.037818324 0.081150495
0.024955325 0.04421038 0.087966375 0.037468247 -0.006944008 0.042214163 0.08710127 -0.085094795
-0.016664527 0.042921744 -0.021423109 -0.07191077 -0.0513105 -0.045940105 0.03664451 0.0562732
00000000: e655 123d ccfc 8b3c 0a45 173d 0f9a 9e3d
00000010: 6bff 49ba 020f 35bd cf2c 23bd d804 3b3c
00000020: a8f2 5ebc cda5 81bd 0092 213b 5a4d 4f3d
00000030: 400a 403b 58d8 603d e1d8 46bd 2bf7 8d3d
00000040: 67a0 423c fde6 0dbd aa2e ea3c c1ef 263d
00000050: 953a 1bbd d5d4 cdbc 389d 063d 5e87 9fbd
00000060: 3806 ae3c df4a 673c dac8 76bd 0889 32bc
00000070: 474b 383c 56d7 7b3d ed5f 843d d203 91bd
00000080: 70b8 88bd 1e2f 3a3d c197 b23d 29bc 923d
00000090: 91a2 ad3c 31a3 ab3d a435 26bd c6bc 86bc
000000a0: c59c 99bd ba84 8abd 0cd7 74bd 0a35 a4bd
000000b0: d78b 253c 3e1f 903c ea63 c03c 334f 373d
000000c0: 682f 90bd fcfa d0bc cd70 8e3d 2933 a0bd
000000d0: 7674 7e3d fcf9 de3c 1ef5 92bd ac36 9c3c
000000e0: 5264 21bc b288 fd3a 8ea5 26bd 46e2 233d
000000f0: 37c8 8c3d 13c6 433d 78fd 0abc 98e6 b6bd
00000100: 19c1 9e3d 7771 753c f16a 933d 2842 ab3c
00000110: 0073 be3a b146 023d c21e 173d 33b7 ce39
00000120: 70be 86ba a029 6bbb ca10 783d f475 d53c
00000130: 70a5 e4bc 09b1 a83d e375 ad3d 1fc8 763d
00000140: 44bd 813c 1025 b13b 8465 67bd 6bf6 833d
00000150: 5110 82bd 005e aabd ee24 6e3c 5e14 c4bd
00000160: 91dc 7e3c fa5c 2ebd fbed 2eba 3c7b 0bbd
00000170: a560 923d 57cf a1bd 0804 853c ff05 04bc
00000180: 133f acbd 58ab 6a3d 510e d53b 5999 a9bd
00000190: cf1a b5bd 0876 d83c 500f 823d d400 a5bc
000001a0: 1ae7 d5bc 7e85 b4bd 9e82 373d aadf 23bd
000001b0: 1468 26bd 48c1 093d f74f 9e3d 18ae e53c
000001c0: c0d7 d03c 2507 9b3d 005e 763b f805 603c
000001d0: c09f d3bb b5ea 8cbd 035a 6c3b 31a2 74bd
000001e0: 2a83 513d b3b9 79bd b8cc aabd 1121 ebbc
000001f0: 2379 863d 7566 a5bd 9808 2ebd 30eb ddbb
00000200: 2254 1ebd 9e08 2b3d af1f 9e3d 12f4 433d
00000210: e4b3 98bc 701f 8ebd 7e75 95bd 1463 adbc
00000220: 621a e4bc 4048 89bd d810 b33c 0b2f 09bd
00000230: d0fa d13c 5840 40bd 907c 02bc d2e8 d9bc
00000240: a261 5e3d 3235 a5bd a7c3 0ebd a0a0 9a3c
00000250: 14ff cbbc 8045 c6ba 4eaf 743d 704e 4f3c
00000260: 6085 323c 5489 d33c 32c8 42bd 4196 10bd
00000270: 4a6c 2d3d 78ee 513c aa2b 6c3d 78e3 38bc
00000280: f70c aa3d 8635 583d 48d8 cabc 3405 39bd
00000290: 7838 923c e802 97bd 00cd 25bd 2cd2 dd3c
000002a0: 109e fc3b c2d7 233d 406f 17bd 3956 983d
000002b0: e415 47bd 3882 39bd da37 723d f8b2 8bbc
000002c0: f423 cf3c 08a1 80bc ca05 80bd 20b7 67bb
000002d0: ae3f 243d d6fd 733d f915 8a3d 20fb 4bbb
000002e0: b11c 833d 6c40 cc3c a05d 563b 00de da3a
000002f0: 902e 0abc 98c9 ce3c a0a1 95bb 72d4 683d
00000300: 0092 5cbc be0a 49bd 246d d23c f6dc 4abd
00000310: 66d5 603d 1dd7 933d 287a 683c 5c40 91bc
00000320: b0c9 82bb 3e8e 293d a448 8abd 28d1 c1bc
00000330: 9493 5cbd 51bb a3bd 1285 81bd c59d 68bd
00000340: e1d4 893d ba49 5d3d 7ec8 75bd 36da 8ebd
00000350: 071c a23d dcde ab3c f6b7 263d 0827 623c
00000360: 5046 07bd 1698 43bd eac8 423d 0fd2 b2bd
00000370: 3fa1 96bd 58a8 da3c 64e2 bdbc d080 8a3c
00000380: 7217 413d 4e0d 50bd a7cb 4bbd eaac 5ebd
00000390: 2d62 9ebd 200d c4bb 2db7 993d 6006 b1bb
000003a0: 5e8d 463d 780c 34bd 20af 0f3c 41ed 87bd
000003b0: 0073 bfbb f8e5 9e3c 63e7 1abd 3b32 a63d
000003c0: 1c6f cc3c f215 353d b727 b43d 4e78 193d
000003d0: 908a e3bb c2e8 2c3d 2762 b23d 2e46 aebd
000003e0: 0c84 88bc b6ce 2f3d 847f afbc f445 93bd
000003f0: f52a 52bd b12b 3cbd 8e18 163d ba7e 663d

network.2.bias f4 [128]
0.018338494 -0.079961084 0.0362876 -0.0074179657 -0.005452968 -0.060674958 -0.05963759 0.039245393
0.01449366 0.01780433 -0.07937601 -0.03619764 -0.053973842 -0.056024972 0.02818978 0.00093679887
-0.025471903 0.002571404 -0.029218722 -0.004308968 -0.075068645 0.013615318 0.06003764 0.07046285
0.065566845 -0.040081427 -0.0743941 0.07076543 0.016429588 0.02473094 0.081045926 0.015446735
-0.07463722 0.05333313 -0.04783181 -0.027953539 0.047022887 -0.011647548 -0.0022479214 0.0075217783
0.020837769 -0.01913599 0.06675773 -0.03728512 -0.022464797 -0.014104937 -0.05438267 -0.03489056
-0.023983277 -0.037171632 0.052438427 -0.0052443394 0.07757458 0.06336136 0.01756166 0.03563231
-0.068222195 -0.008875834 0.079913154 -0.011845708 -0.058153134 -0.006595988 -0.030477852 -0.05630076
0.039814092 0.009343427 0.009770261 -0.081627704 -0.011001324 0.07325093 -0.0039374945 0.0642193
-0.021183819 0.0017910867 0.03973317 -0.013087571 0.045664392 0.0544648 0.042550817 0.036909007
0.055014685 0.053332373 -0.08028053 0.057805613 0.042480793 0.030250646 -0.054776784 0.06149535
0.014649904 0.03437403 -0.087875 0.07812701 -0.07166045 0.034687504 0.0789739 0.03814806
-0.01827424 -0.016625065 -0.056046184 -0.056564394 -0.039915424 0.038998183 0.048590213 -0.028682828
0.02210739 0.006713322 -0.027239474 0.052523434 -0.061600633 0.009452782 0.011360239 -0.0033621192
0.016714193 0.03747022 0.019108005 -0.01652974 0.016027793 0.03844688 -0.034063607 -0.06284185
0.04335004 -0.0081016645 0.05711752 0.012632743 0.005322941 0.030772777 0.058583673 -0.028894708
00000000: 9c3a 963c a3c2 a3bd 4ea2 143d 6812 f3bb
00000010: d0ae b2bb 4e86 78bd 8c46 74bd c7bf 203d
00000020: d176 6d3c 63da 913c e48f a2bd fa43 14bd
00000030: ad13 5dbd 717a 65bd 41ee e63c 8293 753a
00000040: 74aa d0bc 0085 283b 1a5c efbc 3e32 8dbb
00000050: 97bd 99bd c812 5f3c 07ea 753d d44e 903d
00000060: e947 863d 6c2c 24bd ef5b 98bd 77ed 903d
00000070: 5897 863c 8a98 ca3c 68fb a53d 4d14 7d3c
00000080: 66db 98bd d773 5a3d 4aeb 43bd d2fe e4bc
00000090: 129b 403d 5bd5 3ebc dd51 13bb 4079 f63b
000000a0: f8b3 aa3c 14c3 9cbc 47b8 883d 48b8 18bd
000000b0: 1808 b8bc 6518 67bc 5dc0 5ebd 67e9 0ebd
000000c0: 9478 c4bc 4841 18bd adc9 563d b5d8 abbb
000000d0: 6cdf 9e3d 9ac3 813d 78dd 8f3c 2ff3 113d
000000e0: 14b8 8bbd f26b 11bc 82a9 a33d 8014 42bc
000000f0: fb31 6ebd 2823 d8bb b0ac f9bc a09b 66bd
00000100: 1a14 233d 2c15 193c 7213 203c 6d2c a7bd
00000110: e63e 34bc 9504 963d 1906 81bb 6985 833d
00000120: b089 adbc e6c2 ea3a 40bf 223d 406d 56bc
00000130: 960a 3b3d 7b16 5f3d c449 2e3d e62d 173d
00000140: 1457 613d 0c73 5a3d 1e6a a4bd 94c5 6c3d
00000150: 5700 2e3d 34d0 f73c 9f5d 60bd 8ce2 7b3d
00000160: 2706 703c c8cb 0c3d cff7 b3bd 0e01 a03d
00000170: b7c2 92bd 7c14 0e3d 11bd a13d 2441 1c3d
00000180: dcb3 95bc 4a31 88bc af90 65bd 11b0 67bd
00000190: 5b7e 23bd 8fbc 1f3d 8806 473d 40f8 eabc
000001a0: 8f1a b53c 6dfb db3b 5125 dfbc d022 573d
000001b0: f250 7cbd d7df 1a3c 4c20 3a3c 0057 5cbb
000001c0: 34ec 883c 607a 193d 6488 9c3c 6169 87bc
000001d0: b84c 833c 7a7a 1d3d 4886 0bbd 3ab3 80bd
000001e0: d08f 313d d8bc 04bc 10f4 693d 91f9 4e3c
000001f0: 116c ae3b 3117 fc3c 6ff5 6f3d 98b4 ecbc
